#map = affine_map<(d0, d1, d2, d3) -> (d0, d1, d2, d3)>
#map1 = affine_map<(d0, d1, d2, d3) -> (d1)>
#map2 = affine_map<(d0, d1, d2, d3) -> (0, d1, d2, d3)>
#map3 = affine_map<(d0, d1, d2, d3) -> (0, d1, 0, 0)>
#map4 = affine_map<(d0, d1) -> (d0, d1)>
#map5 = affine_map<(d0, d1) -> (d1, d0)>
#map6 = affine_map<(d0, d1) -> (0, d1)>
#map7 = affine_map<(d0, d1) -> (d1)>
module attributes {torch.debug_module_name = "DenseNet"} {
    func.func @forward(%arg0: tensor<1x3x32x32xf32>) -> tensor<1x1000xf32> {
    %false = arith.constant false
    %cst = arith.constant dense<-0.001352e+00> : tensor<1000x1920xf32>
    %cst_0 = arith.constant dense<0.000000e+00> : tensor<1000xf32>
    %cst_1 = arith.constant dense<0.000000e+00> : tensor<1920xf32>
    %cst_2 = arith.constant dense<1.000000e+00> : tensor<1920xf32>
    %cst_3 = arith.constant dense<-0.005746e+00> : tensor<32x128x3x3xf32>
    %cst_4 = arith.constant dense<0.003520e+00> : tensor<128x1888x1x1xf32>
    %cst_5 = arith.constant dense<0.000000e+00> : tensor<1888xf32>
    %cst_6 = arith.constant dense<1.000000e+00> : tensor<1888xf32>
    %cst_7 = arith.constant dense<-0.001537e+00> : tensor<32x128x3x3xf32>
    %cst_8 = arith.constant dense<-0.002288e+00> : tensor<128x1856x1x1xf32>
    %cst_9 = arith.constant dense<0.000000e+00> : tensor<1856xf32>
    %cst_10 = arith.constant dense<1.000000e+00> : tensor<1856xf32>
    %cst_11 = arith.constant dense<0.017111e+00> : tensor<32x128x3x3xf32>
    %cst_12 = arith.constant dense<-0.004662e+00> : tensor<128x1824x1x1xf32>
    %cst_13 = arith.constant dense<0.000000e+00> : tensor<1824xf32>
    %cst_14 = arith.constant dense<1.000000e+00> : tensor<1824xf32>
    %cst_15 = arith.constant dense<0.019887e+00> : tensor<32x128x3x3xf32>
    %cst_16 = arith.constant dense<0.014793e+00> : tensor<128x1792x1x1xf32>
    %cst_17 = arith.constant dense<-0.011599e+00> : tensor<32x128x3x3xf32>
    %cst_18 = arith.constant dense<-0.018433e+00> : tensor<128x1760x1x1xf32>
    %cst_19 = arith.constant dense<-0.015062e+00> : tensor<32x128x3x3xf32>
    %cst_20 = arith.constant dense<0.001013e+00> : tensor<128x1728x1x1xf32>
    %cst_21 = arith.constant dense<-0.005738e+00> : tensor<32x128x3x3xf32>
    %cst_22 = arith.constant dense<0.011828e+00> : tensor<128x1696x1x1xf32>
    %cst_23 = arith.constant dense<-0.016148e+00> : tensor<32x128x3x3xf32>
    %cst_24 = arith.constant dense<-0.009576e+00> : tensor<128x1664x1x1xf32>
    %cst_25 = arith.constant dense<0.005919e+00> : tensor<32x128x3x3xf32>
    %cst_26 = arith.constant dense<0.005513e+00> : tensor<128x1632x1x1xf32>
    %cst_27 = arith.constant dense<0.010414e+00> : tensor<32x128x3x3xf32>
    %cst_28 = arith.constant dense<0.006510e+00> : tensor<128x1600x1x1xf32>
    %cst_29 = arith.constant dense<0.008699e+00> : tensor<32x128x3x3xf32>
    %cst_30 = arith.constant dense<0.000893e+00> : tensor<128x1568x1x1xf32>
    %cst_31 = arith.constant dense<0.000829e+00> : tensor<32x128x3x3xf32>
    %cst_32 = arith.constant dense<0.001145e+00> : tensor<128x1536x1x1xf32>
    %cst_33 = arith.constant dense<-0.015798e+00> : tensor<32x128x3x3xf32>
    %cst_34 = arith.constant dense<-0.006498e+00> : tensor<128x1504x1x1xf32>
    %cst_35 = arith.constant dense<-0.009245e+00> : tensor<32x128x3x3xf32>
    %cst_36 = arith.constant dense<0.011266e+00> : tensor<128x1472x1x1xf32>
    %cst_37 = arith.constant dense<0.011583e+00> : tensor<32x128x3x3xf32>
    %cst_38 = arith.constant dense<0.011874e+00> : tensor<128x1440x1x1xf32>
    %cst_39 = arith.constant dense<0.003802e+00> : tensor<32x128x3x3xf32>
    %cst_40 = arith.constant dense<0.010600e+00> : tensor<128x1408x1x1xf32>
    %cst_41 = arith.constant dense<0.000615e+00> : tensor<32x128x3x3xf32>
    %cst_42 = arith.constant dense<0.002635e+00> : tensor<128x1376x1x1xf32>
    %cst_43 = arith.constant dense<0.001246e+00> : tensor<32x128x3x3xf32>
    %cst_44 = arith.constant dense<0.004880e+00> : tensor<128x1344x1x1xf32>
    %cst_45 = arith.constant dense<0.010045e+00> : tensor<32x128x3x3xf32>
    %cst_46 = arith.constant dense<-0.001789e+00> : tensor<128x1312x1x1xf32>
    %cst_47 = arith.constant dense<-0.011324e+00> : tensor<32x128x3x3xf32>
    %cst_48 = arith.constant dense<0.001577e+00> : tensor<128x1280x1x1xf32>
    %cst_49 = arith.constant dense<-0.009990e+00> : tensor<32x128x3x3xf32>
    %cst_50 = arith.constant dense<-0.000957e+00> : tensor<128x1248x1x1xf32>
    %cst_51 = arith.constant dense<-0.000167e+00> : tensor<32x128x3x3xf32>
    %cst_52 = arith.constant dense<0.015098e+00> : tensor<128x1216x1x1xf32>
    %cst_53 = arith.constant dense<0.009191e+00> : tensor<32x128x3x3xf32>
    %cst_54 = arith.constant dense<-0.006738e+00> : tensor<128x1184x1x1xf32>
    %cst_55 = arith.constant dense<-0.010614e+00> : tensor<32x128x3x3xf32>
    %cst_56 = arith.constant dense<0.001933e+00> : tensor<128x1152x1x1xf32>
    %cst_57 = arith.constant dense<-0.003320e+00> : tensor<32x128x3x3xf32>
    %cst_58 = arith.constant dense<-0.006460e+00> : tensor<128x1120x1x1xf32>
    %cst_59 = arith.constant dense<0.007181e+00> : tensor<32x128x3x3xf32>
    %cst_60 = arith.constant dense<0.010564e+00> : tensor<128x1088x1x1xf32>
    %cst_61 = arith.constant dense<0.023104e+00> : tensor<32x128x3x3xf32>
    %cst_62 = arith.constant dense<-0.009757e+00> : tensor<128x1056x1x1xf32>
    %cst_63 = arith.constant dense<-0.010489e+00> : tensor<32x128x3x3xf32>
    %cst_64 = arith.constant dense<-0.006685e+00> : tensor<128x1024x1x1xf32>
    %cst_65 = arith.constant dense<-0.013021e+00> : tensor<32x128x3x3xf32>
    %cst_66 = arith.constant dense<-0.003428e+00> : tensor<128x992x1x1xf32>
    %cst_67 = arith.constant dense<-0.004993e+00> : tensor<32x128x3x3xf32>
    %cst_68 = arith.constant dense<0.004685e+00> : tensor<128x960x1x1xf32>
    %cst_69 = arith.constant dense<0.001664e+00> : tensor<32x128x3x3xf32>
    %cst_70 = arith.constant dense<-0.014830e+00> : tensor<128x928x1x1xf32>
    %cst_71 = arith.constant dense<-0.010073e+00> : tensor<32x128x3x3xf32>
    %cst_72 = arith.constant dense<0.003645e+00> : tensor<128x896x1x1xf32>
    %cst_73 = arith.constant dense<0.012776e+00> : tensor<896x1792x1x1xf32>
    %cst_74 = arith.constant dense<0.000000e+00> : tensor<1792xf32>
    %cst_75 = arith.constant dense<1.000000e+00> : tensor<1792xf32>
    %cst_76 = arith.constant dense<-0.003922e+00> : tensor<32x128x3x3xf32>
    %cst_77 = arith.constant dense<0.002140e+00> : tensor<128x1760x1x1xf32>
    %cst_78 = arith.constant dense<0.000000e+00> : tensor<1760xf32>
    %cst_79 = arith.constant dense<1.000000e+00> : tensor<1760xf32>
    %cst_80 = arith.constant dense<-0.005361e+00> : tensor<32x128x3x3xf32>
    %cst_81 = arith.constant dense<-0.006932e+00> : tensor<128x1728x1x1xf32>
    %cst_82 = arith.constant dense<0.000000e+00> : tensor<1728xf32>
    %cst_83 = arith.constant dense<1.000000e+00> : tensor<1728xf32>
    %cst_84 = arith.constant dense<0.009371e+00> : tensor<32x128x3x3xf32>
    %cst_85 = arith.constant dense<0.011582e+00> : tensor<128x1696x1x1xf32>
    %cst_86 = arith.constant dense<0.000000e+00> : tensor<1696xf32>
    %cst_87 = arith.constant dense<1.000000e+00> : tensor<1696xf32>
    %cst_88 = arith.constant dense<-0.024039e+00> : tensor<32x128x3x3xf32>
    %cst_89 = arith.constant dense<0.003730e+00> : tensor<128x1664x1x1xf32>
    %cst_90 = arith.constant dense<0.000000e+00> : tensor<1664xf32>
    %cst_91 = arith.constant dense<1.000000e+00> : tensor<1664xf32>
    %cst_92 = arith.constant dense<0.012986e+00> : tensor<32x128x3x3xf32>
    %cst_93 = arith.constant dense<-0.002489e+00> : tensor<128x1632x1x1xf32>
    %cst_94 = arith.constant dense<0.000000e+00> : tensor<1632xf32>
    %cst_95 = arith.constant dense<1.000000e+00> : tensor<1632xf32>
    %cst_96 = arith.constant dense<-0.002629e+00> : tensor<32x128x3x3xf32>
    %cst_97 = arith.constant dense<0.003263e+00> : tensor<128x1600x1x1xf32>
    %cst_98 = arith.constant dense<0.000000e+00> : tensor<1600xf32>
    %cst_99 = arith.constant dense<1.000000e+00> : tensor<1600xf32>
    %cst_100 = arith.constant dense<-0.001848e+00> : tensor<32x128x3x3xf32>
    %cst_101 = arith.constant dense<-0.006515e+00> : tensor<128x1568x1x1xf32>
    %cst_102 = arith.constant dense<0.000000e+00> : tensor<1568xf32>
    %cst_103 = arith.constant dense<1.000000e+00> : tensor<1568xf32>
    %cst_104 = arith.constant dense<0.005072e+00> : tensor<32x128x3x3xf32>
    %cst_105 = arith.constant dense<-0.013467e+00> : tensor<128x1536x1x1xf32>
    %cst_106 = arith.constant dense<0.000000e+00> : tensor<1536xf32>
    %cst_107 = arith.constant dense<1.000000e+00> : tensor<1536xf32>
    %cst_108 = arith.constant dense<-0.019471e+00> : tensor<32x128x3x3xf32>
    %cst_109 = arith.constant dense<-0.014372e+00> : tensor<128x1504x1x1xf32>
    %cst_110 = arith.constant dense<0.000000e+00> : tensor<1504xf32>
    %cst_111 = arith.constant dense<1.000000e+00> : tensor<1504xf32>
    %cst_112 = arith.constant dense<0.001875e+00> : tensor<32x128x3x3xf32>
    %cst_113 = arith.constant dense<-0.009511e+00> : tensor<128x1472x1x1xf32>
    %cst_114 = arith.constant dense<0.000000e+00> : tensor<1472xf32>
    %cst_115 = arith.constant dense<1.000000e+00> : tensor<1472xf32>
    %cst_116 = arith.constant dense<-0.004007e+00> : tensor<32x128x3x3xf32>
    %cst_117 = arith.constant dense<-0.014599e+00> : tensor<128x1440x1x1xf32>
    %cst_118 = arith.constant dense<0.000000e+00> : tensor<1440xf32>
    %cst_119 = arith.constant dense<1.000000e+00> : tensor<1440xf32>
    %cst_120 = arith.constant dense<-0.010692e+00> : tensor<32x128x3x3xf32>
    %cst_121 = arith.constant dense<-0.003991e+00> : tensor<128x1408x1x1xf32>
    %cst_122 = arith.constant dense<0.000000e+00> : tensor<1408xf32>
    %cst_123 = arith.constant dense<1.000000e+00> : tensor<1408xf32>
    %cst_124 = arith.constant dense<0.001285e+00> : tensor<32x128x3x3xf32>
    %cst_125 = arith.constant dense<-0.007934e+00> : tensor<128x1376x1x1xf32>
    %cst_126 = arith.constant dense<0.000000e+00> : tensor<1376xf32>
    %cst_127 = arith.constant dense<1.000000e+00> : tensor<1376xf32>
    %cst_128 = arith.constant dense<-0.002269e+00> : tensor<32x128x3x3xf32>
    %cst_129 = arith.constant dense<-0.005486e+00> : tensor<128x1344x1x1xf32>
    %cst_130 = arith.constant dense<0.000000e+00> : tensor<1344xf32>
    %cst_131 = arith.constant dense<1.000000e+00> : tensor<1344xf32>
    %cst_132 = arith.constant dense<-0.002929e+00> : tensor<32x128x3x3xf32>
    %cst_133 = arith.constant dense<0.001066e+00> : tensor<128x1312x1x1xf32>
    %cst_134 = arith.constant dense<0.000000e+00> : tensor<1312xf32>
    %cst_135 = arith.constant dense<1.000000e+00> : tensor<1312xf32>
    %cst_136 = arith.constant dense<-0.014822e+00> : tensor<32x128x3x3xf32>
    %cst_137 = arith.constant dense<-0.011124e+00> : tensor<128x1280x1x1xf32>
    %cst_138 = arith.constant dense<0.000000e+00> : tensor<1280xf32>
    %cst_139 = arith.constant dense<1.000000e+00> : tensor<1280xf32>
    %cst_140 = arith.constant dense<0.006314e+00> : tensor<32x128x3x3xf32>
    %cst_141 = arith.constant dense<-0.004984e+00> : tensor<128x1248x1x1xf32>
    %cst_142 = arith.constant dense<0.000000e+00> : tensor<1248xf32>
    %cst_143 = arith.constant dense<1.000000e+00> : tensor<1248xf32>
    %cst_144 = arith.constant dense<-0.006223e+00> : tensor<32x128x3x3xf32>
    %cst_145 = arith.constant dense<-0.005536e+00> : tensor<128x1216x1x1xf32>
    %cst_146 = arith.constant dense<0.000000e+00> : tensor<1216xf32>
    %cst_147 = arith.constant dense<1.000000e+00> : tensor<1216xf32>
    %cst_148 = arith.constant dense<-0.005150e+00> : tensor<32x128x3x3xf32>
    %cst_149 = arith.constant dense<-0.000446e+00> : tensor<128x1184x1x1xf32>
    %cst_150 = arith.constant dense<0.000000e+00> : tensor<1184xf32>
    %cst_151 = arith.constant dense<1.000000e+00> : tensor<1184xf32>
    %cst_152 = arith.constant dense<0.018151e+00> : tensor<32x128x3x3xf32>
    %cst_153 = arith.constant dense<0.003718e+00> : tensor<128x1152x1x1xf32>
    %cst_154 = arith.constant dense<0.000000e+00> : tensor<1152xf32>
    %cst_155 = arith.constant dense<1.000000e+00> : tensor<1152xf32>
    %cst_156 = arith.constant dense<0.003346e+00> : tensor<32x128x3x3xf32>
    %cst_157 = arith.constant dense<-0.002046e+00> : tensor<128x1120x1x1xf32>
    %cst_158 = arith.constant dense<0.000000e+00> : tensor<1120xf32>
    %cst_159 = arith.constant dense<1.000000e+00> : tensor<1120xf32>
    %cst_160 = arith.constant dense<0.010932e+00> : tensor<32x128x3x3xf32>
    %cst_161 = arith.constant dense<0.003936e+00> : tensor<128x1088x1x1xf32>
    %cst_162 = arith.constant dense<0.000000e+00> : tensor<1088xf32>
    %cst_163 = arith.constant dense<1.000000e+00> : tensor<1088xf32>
    %cst_164 = arith.constant dense<-0.002093e+00> : tensor<32x128x3x3xf32>
    %cst_165 = arith.constant dense<-0.017993e+00> : tensor<128x1056x1x1xf32>
    %cst_166 = arith.constant dense<0.000000e+00> : tensor<1056xf32>
    %cst_167 = arith.constant dense<1.000000e+00> : tensor<1056xf32>
    %cst_168 = arith.constant dense<0.010951e+00> : tensor<32x128x3x3xf32>
    %cst_169 = arith.constant dense<0.005144e+00> : tensor<128x1024x1x1xf32>
    %cst_170 = arith.constant dense<0.000000e+00> : tensor<1024xf32>
    %cst_171 = arith.constant dense<1.000000e+00> : tensor<1024xf32>
    %cst_172 = arith.constant dense<-0.016706e+00> : tensor<32x128x3x3xf32>
    %cst_173 = arith.constant dense<-0.017182e+00> : tensor<128x992x1x1xf32>
    %cst_174 = arith.constant dense<0.000000e+00> : tensor<992xf32>
    %cst_175 = arith.constant dense<1.000000e+00> : tensor<992xf32>
    %cst_176 = arith.constant dense<-0.005092e+00> : tensor<32x128x3x3xf32>
    %cst_177 = arith.constant dense<0.002776e+00> : tensor<128x960x1x1xf32>
    %cst_178 = arith.constant dense<0.000000e+00> : tensor<960xf32>
    %cst_179 = arith.constant dense<1.000000e+00> : tensor<960xf32>
    %cst_180 = arith.constant dense<-0.005176e+00> : tensor<32x128x3x3xf32>
    %cst_181 = arith.constant dense<-0.001958e+00> : tensor<128x928x1x1xf32>
    %cst_182 = arith.constant dense<0.000000e+00> : tensor<928xf32>
    %cst_183 = arith.constant dense<1.000000e+00> : tensor<928xf32>
    %cst_184 = arith.constant dense<-0.007307e+00> : tensor<32x128x3x3xf32>
    %cst_185 = arith.constant dense<0.002038e+00> : tensor<128x896x1x1xf32>
    %cst_186 = arith.constant dense<0.000000e+00> : tensor<896xf32>
    %cst_187 = arith.constant dense<1.000000e+00> : tensor<896xf32>
    %cst_188 = arith.constant dense<-0.005863e+00> : tensor<32x128x3x3xf32>
    %cst_189 = arith.constant dense<0.004988e+00> : tensor<128x864x1x1xf32>
    %cst_190 = arith.constant dense<0.000000e+00> : tensor<864xf32>
    %cst_191 = arith.constant dense<1.000000e+00> : tensor<864xf32>
    %cst_192 = arith.constant dense<0.003174e+00> : tensor<32x128x3x3xf32>
    %cst_193 = arith.constant dense<0.018775e+00> : tensor<128x832x1x1xf32>
    %cst_194 = arith.constant dense<0.000000e+00> : tensor<832xf32>
    %cst_195 = arith.constant dense<1.000000e+00> : tensor<832xf32>
    %cst_196 = arith.constant dense<0.013482e+00> : tensor<32x128x3x3xf32>
    %cst_197 = arith.constant dense<-0.004668e+00> : tensor<128x800x1x1xf32>
    %cst_198 = arith.constant dense<0.000000e+00> : tensor<800xf32>
    %cst_199 = arith.constant dense<1.000000e+00> : tensor<800xf32>
    %cst_200 = arith.constant dense<0.015295e+00> : tensor<32x128x3x3xf32>
    %cst_201 = arith.constant dense<-0.016863e+00> : tensor<128x768x1x1xf32>
    %cst_202 = arith.constant dense<0.000000e+00> : tensor<768xf32>
    %cst_203 = arith.constant dense<1.000000e+00> : tensor<768xf32>
    %cst_204 = arith.constant dense<-0.008257e+00> : tensor<32x128x3x3xf32>
    %cst_205 = arith.constant dense<-0.004070e+00> : tensor<128x736x1x1xf32>
    %cst_206 = arith.constant dense<0.000000e+00> : tensor<736xf32>
    %cst_207 = arith.constant dense<1.000000e+00> : tensor<736xf32>
    %cst_208 = arith.constant dense<0.014229e+00> : tensor<32x128x3x3xf32>
    %cst_209 = arith.constant dense<-0.023709e+00> : tensor<128x704x1x1xf32>
    %cst_210 = arith.constant dense<0.000000e+00> : tensor<704xf32>
    %cst_211 = arith.constant dense<1.000000e+00> : tensor<704xf32>
    %cst_212 = arith.constant dense<-0.013601e+00> : tensor<32x128x3x3xf32>
    %cst_213 = arith.constant dense<0.014580e+00> : tensor<128x672x1x1xf32>
    %cst_214 = arith.constant dense<0.000000e+00> : tensor<672xf32>
    %cst_215 = arith.constant dense<1.000000e+00> : tensor<672xf32>
    %cst_216 = arith.constant dense<0.008648e+00> : tensor<32x128x3x3xf32>
    %cst_217 = arith.constant dense<-0.003717e+00> : tensor<128x640x1x1xf32>
    %cst_218 = arith.constant dense<0.000000e+00> : tensor<640xf32>
    %cst_219 = arith.constant dense<1.000000e+00> : tensor<640xf32>
    %cst_220 = arith.constant dense<-0.005462e+00> : tensor<32x128x3x3xf32>
    %cst_221 = arith.constant dense<-0.009980e+00> : tensor<128x608x1x1xf32>
    %cst_222 = arith.constant dense<0.000000e+00> : tensor<608xf32>
    %cst_223 = arith.constant dense<1.000000e+00> : tensor<608xf32>
    %cst_224 = arith.constant dense<0.003529e+00> : tensor<32x128x3x3xf32>
    %cst_225 = arith.constant dense<0.011006e+00> : tensor<128x576x1x1xf32>
    %cst_226 = arith.constant dense<0.000000e+00> : tensor<576xf32>
    %cst_227 = arith.constant dense<1.000000e+00> : tensor<576xf32>
    %cst_228 = arith.constant dense<-0.019809e+00> : tensor<32x128x3x3xf32>
    %cst_229 = arith.constant dense<0.006981e+00> : tensor<128x544x1x1xf32>
    %cst_230 = arith.constant dense<0.000000e+00> : tensor<544xf32>
    %cst_231 = arith.constant dense<1.000000e+00> : tensor<544xf32>
    %cst_232 = arith.constant dense<-0.009128e+00> : tensor<32x128x3x3xf32>
    %cst_233 = arith.constant dense<0.014955e+00> : tensor<128x512x1x1xf32>
    %cst_234 = arith.constant dense<0.011743e+00> : tensor<32x128x3x3xf32>
    %cst_235 = arith.constant dense<0.008082e+00> : tensor<128x480x1x1xf32>
    %cst_236 = arith.constant dense<-0.001049e+00> : tensor<32x128x3x3xf32>
    %cst_237 = arith.constant dense<-0.006841e+00> : tensor<128x448x1x1xf32>
    %cst_238 = arith.constant dense<-0.019757e+00> : tensor<32x128x3x3xf32>
    %cst_239 = arith.constant dense<0.006534e+00> : tensor<128x416x1x1xf32>
    %cst_240 = arith.constant dense<0.005876e+00> : tensor<32x128x3x3xf32>
    %cst_241 = arith.constant dense<0.008288e+00> : tensor<128x384x1x1xf32>
    %cst_242 = arith.constant dense<-0.001201e+00> : tensor<32x128x3x3xf32>
    %cst_243 = arith.constant dense<0.003727e+00> : tensor<128x352x1x1xf32>
    %cst_244 = arith.constant dense<-0.011941e+00> : tensor<32x128x3x3xf32>
    %cst_245 = arith.constant dense<-0.014202e+00> : tensor<128x320x1x1xf32>
    %cst_246 = arith.constant dense<-0.009959e+00> : tensor<32x128x3x3xf32>
    %cst_247 = arith.constant dense<0.008941e+00> : tensor<128x288x1x1xf32>
    %cst_248 = arith.constant dense<-0.003312e+00> : tensor<32x128x3x3xf32>
    %cst_249 = arith.constant dense<0.006191e+00> : tensor<128x256x1x1xf32>
    %cst_250 = arith.constant dense<0.001433e+00> : tensor<256x512x1x1xf32>
    %cst_251 = arith.constant dense<0.000000e+00> : tensor<512xf32>
    %cst_252 = arith.constant dense<1.000000e+00> : tensor<512xf32>
    %cst_253 = arith.constant dense<0.008854e+00> : tensor<32x128x3x3xf32>
    %cst_254 = arith.constant dense<-0.010788e+00> : tensor<128x480x1x1xf32>
    %cst_255 = arith.constant dense<0.000000e+00> : tensor<480xf32>
    %cst_256 = arith.constant dense<1.000000e+00> : tensor<480xf32>
    %cst_257 = arith.constant dense<-0.012646e+00> : tensor<32x128x3x3xf32>
    %cst_258 = arith.constant dense<-0.008757e+00> : tensor<128x448x1x1xf32>
    %cst_259 = arith.constant dense<0.000000e+00> : tensor<448xf32>
    %cst_260 = arith.constant dense<1.000000e+00> : tensor<448xf32>
    %cst_261 = arith.constant dense<-0.008724e+00> : tensor<32x128x3x3xf32>
    %cst_262 = arith.constant dense<-0.013996e+00> : tensor<128x416x1x1xf32>
    %cst_263 = arith.constant dense<0.000000e+00> : tensor<416xf32>
    %cst_264 = arith.constant dense<1.000000e+00> : tensor<416xf32>
    %cst_265 = arith.constant dense<0.002737e+00> : tensor<32x128x3x3xf32>
    %cst_266 = arith.constant dense<0.006178e+00> : tensor<128x384x1x1xf32>
    %cst_267 = arith.constant dense<0.000000e+00> : tensor<384xf32>
    %cst_268 = arith.constant dense<1.000000e+00> : tensor<384xf32>
    %cst_269 = arith.constant dense<-0.001172e+00> : tensor<32x128x3x3xf32>
    %cst_270 = arith.constant dense<-0.007943e+00> : tensor<128x352x1x1xf32>
    %cst_271 = arith.constant dense<0.000000e+00> : tensor<352xf32>
    %cst_272 = arith.constant dense<1.000000e+00> : tensor<352xf32>
    %cst_273 = arith.constant dense<0.009123e+00> : tensor<32x128x3x3xf32>
    %cst_274 = arith.constant dense<-0.000044e+00> : tensor<128x320x1x1xf32>
    %cst_275 = arith.constant dense<0.000000e+00> : tensor<320xf32>
    %cst_276 = arith.constant dense<1.000000e+00> : tensor<320xf32>
    %cst_277 = arith.constant dense<0.010071e+00> : tensor<32x128x3x3xf32>
    %cst_278 = arith.constant dense<0.015403e+00> : tensor<128x288x1x1xf32>
    %cst_279 = arith.constant dense<0.000000e+00> : tensor<288xf32>
    %cst_280 = arith.constant dense<1.000000e+00> : tensor<288xf32>
    %cst_281 = arith.constant dense<-0.010726e+00> : tensor<32x128x3x3xf32>
    %cst_282 = arith.constant dense<0.013791e+00> : tensor<128x256x1x1xf32>
    %cst_283 = arith.constant dense<0.014451e+00> : tensor<32x128x3x3xf32>
    %cst_284 = arith.constant dense<0.002563e+00> : tensor<128x224x1x1xf32>
    %cst_285 = arith.constant dense<-0.001817e+00> : tensor<32x128x3x3xf32>
    %cst_286 = arith.constant dense<0.014533e+00> : tensor<128x192x1x1xf32>
    %cst_287 = arith.constant dense<-0.005570e+00> : tensor<32x128x3x3xf32>
    %cst_288 = arith.constant dense<0.007562e+00> : tensor<128x160x1x1xf32>
    %cst_289 = arith.constant dense<0.017173e+00> : tensor<32x128x3x3xf32>
    %cst_290 = arith.constant dense<0.003475e+00> : tensor<128x128x1x1xf32>
    %cst_291 = arith.constant dense<0.002333e+00> : tensor<128x256x1x1xf32>
    %cst_292 = arith.constant dense<0.000000e+00> : tensor<256xf32>
    %cst_293 = arith.constant dense<1.000000e+00> : tensor<256xf32>
    %cst_294 = arith.constant dense<0.009433e+00> : tensor<32x128x3x3xf32>
    %cst_295 = arith.constant dense<-0.000449e+00> : tensor<128x224x1x1xf32>
    %cst_296 = arith.constant dense<0.000000e+00> : tensor<224xf32>
    %cst_297 = arith.constant dense<1.000000e+00> : tensor<224xf32>
    %cst_298 = arith.constant dense<0.012569e+00> : tensor<32x128x3x3xf32>
    %cst_299 = arith.constant dense<-0.001212e+00> : tensor<128x192x1x1xf32>
    %cst_300 = arith.constant dense<0.000000e+00> : tensor<192xf32>
    %cst_301 = arith.constant dense<1.000000e+00> : tensor<192xf32>
    %cst_302 = arith.constant dense<-0.008668e+00> : tensor<32x128x3x3xf32>
    %cst_303 = arith.constant dense<-0.000105e+00> : tensor<128x160x1x1xf32>
    %cst_304 = arith.constant dense<0.000000e+00> : tensor<160xf32>
    %cst_305 = arith.constant dense<1.000000e+00> : tensor<160xf32>
    %cst_306 = arith.constant dense<0.003831e+00> : tensor<32x128x3x3xf32>
    %cst_307 = arith.constant dense<0.002275e+00> : tensor<128x128x1x1xf32>
    %cst_308 = arith.constant dense<0.016772e+00> : tensor<32x128x3x3xf32>
    %cst_309 = arith.constant dense<0.003430e+00> : tensor<128x96x1x1xf32>
    %cst_310 = arith.constant dense<0.000000e+00> : tensor<96xf32>
    %cst_311 = arith.constant dense<1.000000e+00> : tensor<96xf32>
    %cst_312 = arith.constant dense<0.014123e+00> : tensor<32x128x3x3xf32>
    %cst_313 = arith.constant dense<0.000000e+00> : tensor<128xf32>
    %cst_314 = arith.constant dense<1.000000e+00> : tensor<128xf32>
    %cst_315 = arith.constant dense<-0.005955e+00> : tensor<128x64x1x1xf32>
    %cst_316 = arith.constant dense<0.000000e+00> : tensor<64xf32>
    %cst_317 = arith.constant dense<1.000000e+00> : tensor<64xf32>
    %cst_318 = arith.constant dense<-0.011624e+00> : tensor<64x3x7x7xf32>
    %cst_319 = arith.constant 0.000000e+00 : f32
    %cst_320 = arith.constant -3.40282347E+38 : f32
    %cst_321 = arith.constant 1.000000e-05 : f64
    %c3 = arith.constant 3 : index
    %cst_322 = arith.constant 4.000000e+00 : f32
    %c0 = arith.constant 0 : index
    %c1 = arith.constant 1 : index
    %padded = tensor.pad %arg0 low[0, 0, 3, 3] high[0, 0, 3, 3] {
    ^bb0(%arg1: index, %arg2: index, %arg3: index, %arg4: index):
      tensor.yield %cst_319 : f32
    } : tensor<1x3x32x32xf32> to tensor<1x3x38x38xf32>
    %0 = tensor.empty() : tensor<1x64x16x16xf32>
    %1 = linalg.fill ins(%cst_319 : f32) outs(%0 : tensor<1x64x16x16xf32>) -> tensor<1x64x16x16xf32>
    %2 = linalg.conv_2d_nchw_fchw {dilations = dense<1> : vector<2xi64>, strides = dense<2> : vector<2xi64>} ins(%padded, %cst_318 : tensor<1x3x38x38xf32>, tensor<64x3x7x7xf32>) outs(%1 : tensor<1x64x16x16xf32>) -> tensor<1x64x16x16xf32>
    %3 = arith.cmpi eq, %false, %false : i1
    cf.assert %3, "training is not supported for now"
    %4 = linalg.generic {indexing_maps = [#map, #map1, #map1, #map1, #map1, #map], iterator_types = ["parallel", "parallel", "parallel", "parallel"]} ins(%2, %cst_317, %cst_316, %cst_316, %cst_317 : tensor<1x64x16x16xf32>, tensor<64xf32>, tensor<64xf32>, tensor<64xf32>, tensor<64xf32>) outs(%2 : tensor<1x64x16x16xf32>) {
    ^bb0(%in: f32, %in_2322: f32, %in_2323: f32, %in_2324: f32, %in_2325: f32, %out: f32):
      %744 = arith.truncf %cst_321 : f64 to f32
      %745 = arith.addf %in_2325, %744 : f32
      %746 = math.rsqrt %745 : f32
      %747 = arith.subf %in, %in_2324 : f32
      %748 = arith.mulf %747, %746 : f32
      %749 = arith.mulf %748, %in_2322 : f32
      %750 = arith.addf %749, %in_2323 : f32
      linalg.yield %750 : f32
    } -> tensor<1x64x16x16xf32>
    %5 = linalg.generic {indexing_maps = [#map2, #map], iterator_types = ["parallel", "parallel", "parallel", "parallel"]} ins(%4 : tensor<1x64x16x16xf32>) outs(%0 : tensor<1x64x16x16xf32>) {
    ^bb0(%in: f32, %out: f32):
      %744 = arith.cmpf ugt, %in, %cst_319 : f32
      %745 = arith.select %744, %in, %cst_319 : f32
      linalg.yield %745 : f32
    } -> tensor<1x64x16x16xf32>
    %padded_323 = tensor.pad %5 low[0, 0, 1, 1] high[0, 0, 1, 1] {
    ^bb0(%arg1: index, %arg2: index, %arg3: index, %arg4: index):
      tensor.yield %cst_320 : f32
    } : tensor<1x64x16x16xf32> to tensor<1x64x18x18xf32>
    %6 = tensor.empty() : tensor<1x64x8x8xf32>
    %7 = linalg.fill ins(%cst_320 : f32) outs(%6 : tensor<1x64x8x8xf32>) -> tensor<1x64x8x8xf32>
    %8 = tensor.empty() : tensor<3x3xf32>
    %9 = linalg.pooling_nchw_max {dilations = dense<1> : vector<2xi64>, strides = dense<2> : vector<2xi64>} ins(%padded_323, %8 : tensor<1x64x18x18xf32>, tensor<3x3xf32>) outs(%7 : tensor<1x64x8x8xf32>) -> tensor<1x64x8x8xf32>
    cf.assert %3, "training is not supported for now"
    %10 = linalg.generic {indexing_maps = [#map, #map1, #map1, #map1, #map1, #map], iterator_types = ["parallel", "parallel", "parallel", "parallel"]} ins(%9, %cst_317, %cst_316, %cst_316, %cst_317 : tensor<1x64x8x8xf32>, tensor<64xf32>, tensor<64xf32>, tensor<64xf32>, tensor<64xf32>) outs(%9 : tensor<1x64x8x8xf32>) {
    ^bb0(%in: f32, %in_2322: f32, %in_2323: f32, %in_2324: f32, %in_2325: f32, %out: f32):
      %744 = arith.truncf %cst_321 : f64 to f32
      %745 = arith.addf %in_2325, %744 : f32
      %746 = math.rsqrt %745 : f32
      %747 = arith.subf %in, %in_2324 : f32
      %748 = arith.mulf %747, %746 : f32
      %749 = arith.mulf %748, %in_2322 : f32
      %750 = arith.addf %749, %in_2323 : f32
      linalg.yield %750 : f32
    } -> tensor<1x64x8x8xf32>
    %11 = linalg.generic {indexing_maps = [#map2, #map], iterator_types = ["parallel", "parallel", "parallel", "parallel"]} ins(%10 : tensor<1x64x8x8xf32>) outs(%6 : tensor<1x64x8x8xf32>) {
    ^bb0(%in: f32, %out: f32):
      %744 = arith.cmpf ugt, %in, %cst_319 : f32
      %745 = arith.select %744, %in, %cst_319 : f32
      linalg.yield %745 : f32
    } -> tensor<1x64x8x8xf32>
    %12 = tensor.empty() : tensor<1x128x8x8xf32>
    %13 = linalg.fill ins(%cst_319 : f32) outs(%12 : tensor<1x128x8x8xf32>) -> tensor<1x128x8x8xf32>
    %14 = linalg.conv_2d_nchw_fchw {dilations = dense<1> : vector<2xi64>, strides = dense<1> : vector<2xi64>} ins(%11, %cst_315 : tensor<1x64x8x8xf32>, tensor<128x64x1x1xf32>) outs(%13 : tensor<1x128x8x8xf32>) -> tensor<1x128x8x8xf32>
    cf.assert %3, "training is not supported for now"
    %15 = linalg.generic {indexing_maps = [#map, #map1, #map1, #map1, #map1, #map], iterator_types = ["parallel", "parallel", "parallel", "parallel"]} ins(%14, %cst_314, %cst_313, %cst_313, %cst_314 : tensor<1x128x8x8xf32>, tensor<128xf32>, tensor<128xf32>, tensor<128xf32>, tensor<128xf32>) outs(%14 : tensor<1x128x8x8xf32>) {
    ^bb0(%in: f32, %in_2322: f32, %in_2323: f32, %in_2324: f32, %in_2325: f32, %out: f32):
      %744 = arith.truncf %cst_321 : f64 to f32
      %745 = arith.addf %in_2325, %744 : f32
      %746 = math.rsqrt %745 : f32
      %747 = arith.subf %in, %in_2324 : f32
      %748 = arith.mulf %747, %746 : f32
      %749 = arith.mulf %748, %in_2322 : f32
      %750 = arith.addf %749, %in_2323 : f32
      linalg.yield %750 : f32
    } -> tensor<1x128x8x8xf32>
    %16 = linalg.generic {indexing_maps = [#map2, #map], iterator_types = ["parallel", "parallel", "parallel", "parallel"]} ins(%15 : tensor<1x128x8x8xf32>) outs(%12 : tensor<1x128x8x8xf32>) {
    ^bb0(%in: f32, %out: f32):
      %744 = arith.cmpf ugt, %in, %cst_319 : f32
      %745 = arith.select %744, %in, %cst_319 : f32
      linalg.yield %745 : f32
    } -> tensor<1x128x8x8xf32>
    %padded_324 = tensor.pad %16 low[0, 0, 1, 1] high[0, 0, 1, 1] {
    ^bb0(%arg1: index, %arg2: index, %arg3: index, %arg4: index):
      tensor.yield %cst_319 : f32
    } : tensor<1x128x8x8xf32> to tensor<1x128x10x10xf32>
    %17 = tensor.empty() : tensor<1x32x8x8xf32>
    %18 = linalg.fill ins(%cst_319 : f32) outs(%17 : tensor<1x32x8x8xf32>) -> tensor<1x32x8x8xf32>
    %19 = linalg.conv_2d_nchw_fchw {dilations = dense<1> : vector<2xi64>, strides = dense<1> : vector<2xi64>} ins(%padded_324, %cst_312 : tensor<1x128x10x10xf32>, tensor<32x128x3x3xf32>) outs(%18 : tensor<1x32x8x8xf32>) -> tensor<1x32x8x8xf32>
    %20 = tensor.empty() : tensor<1x96x8x8xf32>
    %inserted_slice = tensor.insert_slice %9 into %20[0, 0, 0, 0] [1, 64, 8, 8] [1, 1, 1, 1] : tensor<1x64x8x8xf32> into tensor<1x96x8x8xf32>
    %inserted_slice_325 = tensor.insert_slice %19 into %inserted_slice[0, 64, 0, 0] [1, 32, 8, 8] [1, 1, 1, 1] : tensor<1x32x8x8xf32> into tensor<1x96x8x8xf32>
    cf.assert %3, "training is not supported for now"
    %21 = linalg.generic {indexing_maps = [#map, #map1, #map1, #map1, #map1, #map], iterator_types = ["parallel", "parallel", "parallel", "parallel"]} ins(%inserted_slice_325, %cst_311, %cst_310, %cst_310, %cst_311 : tensor<1x96x8x8xf32>, tensor<96xf32>, tensor<96xf32>, tensor<96xf32>, tensor<96xf32>) outs(%inserted_slice_325 : tensor<1x96x8x8xf32>) {
    ^bb0(%in: f32, %in_2322: f32, %in_2323: f32, %in_2324: f32, %in_2325: f32, %out: f32):
      %744 = arith.truncf %cst_321 : f64 to f32
      %745 = arith.addf %in_2325, %744 : f32
      %746 = math.rsqrt %745 : f32
      %747 = arith.subf %in, %in_2324 : f32
      %748 = arith.mulf %747, %746 : f32
      %749 = arith.mulf %748, %in_2322 : f32
      %750 = arith.addf %749, %in_2323 : f32
      linalg.yield %750 : f32
    } -> tensor<1x96x8x8xf32>
    %22 = linalg.generic {indexing_maps = [#map2, #map], iterator_types = ["parallel", "parallel", "parallel", "parallel"]} ins(%21 : tensor<1x96x8x8xf32>) outs(%20 : tensor<1x96x8x8xf32>) {
    ^bb0(%in: f32, %out: f32):
      %744 = arith.cmpf ugt, %in, %cst_319 : f32
      %745 = arith.select %744, %in, %cst_319 : f32
      linalg.yield %745 : f32
    } -> tensor<1x96x8x8xf32>
    %23 = linalg.conv_2d_nchw_fchw {dilations = dense<1> : vector<2xi64>, strides = dense<1> : vector<2xi64>} ins(%22, %cst_309 : tensor<1x96x8x8xf32>, tensor<128x96x1x1xf32>) outs(%13 : tensor<1x128x8x8xf32>) -> tensor<1x128x8x8xf32>
    cf.assert %3, "training is not supported for now"
    %24 = linalg.generic {indexing_maps = [#map, #map1, #map1, #map1, #map1, #map], iterator_types = ["parallel", "parallel", "parallel", "parallel"]} ins(%23, %cst_314, %cst_313, %cst_313, %cst_314 : tensor<1x128x8x8xf32>, tensor<128xf32>, tensor<128xf32>, tensor<128xf32>, tensor<128xf32>) outs(%23 : tensor<1x128x8x8xf32>) {
    ^bb0(%in: f32, %in_2322: f32, %in_2323: f32, %in_2324: f32, %in_2325: f32, %out: f32):
      %744 = arith.truncf %cst_321 : f64 to f32
      %745 = arith.addf %in_2325, %744 : f32
      %746 = math.rsqrt %745 : f32
      %747 = arith.subf %in, %in_2324 : f32
      %748 = arith.mulf %747, %746 : f32
      %749 = arith.mulf %748, %in_2322 : f32
      %750 = arith.addf %749, %in_2323 : f32
      linalg.yield %750 : f32
    } -> tensor<1x128x8x8xf32>
    %25 = linalg.generic {indexing_maps = [#map2, #map], iterator_types = ["parallel", "parallel", "parallel", "parallel"]} ins(%24 : tensor<1x128x8x8xf32>) outs(%12 : tensor<1x128x8x8xf32>) {
    ^bb0(%in: f32, %out: f32):
      %744 = arith.cmpf ugt, %in, %cst_319 : f32
      %745 = arith.select %744, %in, %cst_319 : f32
      linalg.yield %745 : f32
    } -> tensor<1x128x8x8xf32>
    %padded_326 = tensor.pad %25 low[0, 0, 1, 1] high[0, 0, 1, 1] {
    ^bb0(%arg1: index, %arg2: index, %arg3: index, %arg4: index):
      tensor.yield %cst_319 : f32
    } : tensor<1x128x8x8xf32> to tensor<1x128x10x10xf32>
    %26 = linalg.conv_2d_nchw_fchw {dilations = dense<1> : vector<2xi64>, strides = dense<1> : vector<2xi64>} ins(%padded_326, %cst_308 : tensor<1x128x10x10xf32>, tensor<32x128x3x3xf32>) outs(%18 : tensor<1x32x8x8xf32>) -> tensor<1x32x8x8xf32>
    %inserted_slice_327 = tensor.insert_slice %9 into %12[0, 0, 0, 0] [1, 64, 8, 8] [1, 1, 1, 1] : tensor<1x64x8x8xf32> into tensor<1x128x8x8xf32>
    %inserted_slice_328 = tensor.insert_slice %19 into %inserted_slice_327[0, 64, 0, 0] [1, 32, 8, 8] [1, 1, 1, 1] : tensor<1x32x8x8xf32> into tensor<1x128x8x8xf32>
    %inserted_slice_329 = tensor.insert_slice %26 into %inserted_slice_328[0, 96, 0, 0] [1, 32, 8, 8] [1, 1, 1, 1] : tensor<1x32x8x8xf32> into tensor<1x128x8x8xf32>
    cf.assert %3, "training is not supported for now"
    %27 = linalg.generic {indexing_maps = [#map, #map1, #map1, #map1, #map1, #map], iterator_types = ["parallel", "parallel", "parallel", "parallel"]} ins(%inserted_slice_329, %cst_314, %cst_313, %cst_313, %cst_314 : tensor<1x128x8x8xf32>, tensor<128xf32>, tensor<128xf32>, tensor<128xf32>, tensor<128xf32>) outs(%inserted_slice_329 : tensor<1x128x8x8xf32>) {
    ^bb0(%in: f32, %in_2322: f32, %in_2323: f32, %in_2324: f32, %in_2325: f32, %out: f32):
      %744 = arith.truncf %cst_321 : f64 to f32
      %745 = arith.addf %in_2325, %744 : f32
      %746 = math.rsqrt %745 : f32
      %747 = arith.subf %in, %in_2324 : f32
      %748 = arith.mulf %747, %746 : f32
      %749 = arith.mulf %748, %in_2322 : f32
      %750 = arith.addf %749, %in_2323 : f32
      linalg.yield %750 : f32
    } -> tensor<1x128x8x8xf32>
    %28 = linalg.generic {indexing_maps = [#map2, #map], iterator_types = ["parallel", "parallel", "parallel", "parallel"]} ins(%27 : tensor<1x128x8x8xf32>) outs(%12 : tensor<1x128x8x8xf32>) {
    ^bb0(%in: f32, %out: f32):
      %744 = arith.cmpf ugt, %in, %cst_319 : f32
      %745 = arith.select %744, %in, %cst_319 : f32
      linalg.yield %745 : f32
    } -> tensor<1x128x8x8xf32>
    %29 = linalg.conv_2d_nchw_fchw {dilations = dense<1> : vector<2xi64>, strides = dense<1> : vector<2xi64>} ins(%28, %cst_307 : tensor<1x128x8x8xf32>, tensor<128x128x1x1xf32>) outs(%13 : tensor<1x128x8x8xf32>) -> tensor<1x128x8x8xf32>
    cf.assert %3, "training is not supported for now"
    %30 = linalg.generic {indexing_maps = [#map, #map1, #map1, #map1, #map1, #map], iterator_types = ["parallel", "parallel", "parallel", "parallel"]} ins(%29, %cst_314, %cst_313, %cst_313, %cst_314 : tensor<1x128x8x8xf32>, tensor<128xf32>, tensor<128xf32>, tensor<128xf32>, tensor<128xf32>) outs(%29 : tensor<1x128x8x8xf32>) {
    ^bb0(%in: f32, %in_2322: f32, %in_2323: f32, %in_2324: f32, %in_2325: f32, %out: f32):
      %744 = arith.truncf %cst_321 : f64 to f32
      %745 = arith.addf %in_2325, %744 : f32
      %746 = math.rsqrt %745 : f32
      %747 = arith.subf %in, %in_2324 : f32
      %748 = arith.mulf %747, %746 : f32
      %749 = arith.mulf %748, %in_2322 : f32
      %750 = arith.addf %749, %in_2323 : f32
      linalg.yield %750 : f32
    } -> tensor<1x128x8x8xf32>
    %31 = linalg.generic {indexing_maps = [#map2, #map], iterator_types = ["parallel", "parallel", "parallel", "parallel"]} ins(%30 : tensor<1x128x8x8xf32>) outs(%12 : tensor<1x128x8x8xf32>) {
    ^bb0(%in: f32, %out: f32):
      %744 = arith.cmpf ugt, %in, %cst_319 : f32
      %745 = arith.select %744, %in, %cst_319 : f32
      linalg.yield %745 : f32
    } -> tensor<1x128x8x8xf32>
    %padded_330 = tensor.pad %31 low[0, 0, 1, 1] high[0, 0, 1, 1] {
    ^bb0(%arg1: index, %arg2: index, %arg3: index, %arg4: index):
      tensor.yield %cst_319 : f32
    } : tensor<1x128x8x8xf32> to tensor<1x128x10x10xf32>
    %32 = linalg.conv_2d_nchw_fchw {dilations = dense<1> : vector<2xi64>, strides = dense<1> : vector<2xi64>} ins(%padded_330, %cst_306 : tensor<1x128x10x10xf32>, tensor<32x128x3x3xf32>) outs(%18 : tensor<1x32x8x8xf32>) -> tensor<1x32x8x8xf32>
    %33 = tensor.empty() : tensor<1x160x8x8xf32>
    %inserted_slice_331 = tensor.insert_slice %9 into %33[0, 0, 0, 0] [1, 64, 8, 8] [1, 1, 1, 1] : tensor<1x64x8x8xf32> into tensor<1x160x8x8xf32>
    %inserted_slice_332 = tensor.insert_slice %19 into %inserted_slice_331[0, 64, 0, 0] [1, 32, 8, 8] [1, 1, 1, 1] : tensor<1x32x8x8xf32> into tensor<1x160x8x8xf32>
    %inserted_slice_333 = tensor.insert_slice %26 into %inserted_slice_332[0, 96, 0, 0] [1, 32, 8, 8] [1, 1, 1, 1] : tensor<1x32x8x8xf32> into tensor<1x160x8x8xf32>
    %inserted_slice_334 = tensor.insert_slice %32 into %inserted_slice_333[0, 128, 0, 0] [1, 32, 8, 8] [1, 1, 1, 1] : tensor<1x32x8x8xf32> into tensor<1x160x8x8xf32>
    cf.assert %3, "training is not supported for now"
    %34 = linalg.generic {indexing_maps = [#map, #map1, #map1, #map1, #map1, #map], iterator_types = ["parallel", "parallel", "parallel", "parallel"]} ins(%inserted_slice_334, %cst_305, %cst_304, %cst_304, %cst_305 : tensor<1x160x8x8xf32>, tensor<160xf32>, tensor<160xf32>, tensor<160xf32>, tensor<160xf32>) outs(%inserted_slice_334 : tensor<1x160x8x8xf32>) {
    ^bb0(%in: f32, %in_2322: f32, %in_2323: f32, %in_2324: f32, %in_2325: f32, %out: f32):
      %744 = arith.truncf %cst_321 : f64 to f32
      %745 = arith.addf %in_2325, %744 : f32
      %746 = math.rsqrt %745 : f32
      %747 = arith.subf %in, %in_2324 : f32
      %748 = arith.mulf %747, %746 : f32
      %749 = arith.mulf %748, %in_2322 : f32
      %750 = arith.addf %749, %in_2323 : f32
      linalg.yield %750 : f32
    } -> tensor<1x160x8x8xf32>
    %35 = linalg.generic {indexing_maps = [#map2, #map], iterator_types = ["parallel", "parallel", "parallel", "parallel"]} ins(%34 : tensor<1x160x8x8xf32>) outs(%33 : tensor<1x160x8x8xf32>) {
    ^bb0(%in: f32, %out: f32):
      %744 = arith.cmpf ugt, %in, %cst_319 : f32
      %745 = arith.select %744, %in, %cst_319 : f32
      linalg.yield %745 : f32
    } -> tensor<1x160x8x8xf32>
    %36 = linalg.conv_2d_nchw_fchw {dilations = dense<1> : vector<2xi64>, strides = dense<1> : vector<2xi64>} ins(%35, %cst_303 : tensor<1x160x8x8xf32>, tensor<128x160x1x1xf32>) outs(%13 : tensor<1x128x8x8xf32>) -> tensor<1x128x8x8xf32>
    cf.assert %3, "training is not supported for now"
    %37 = linalg.generic {indexing_maps = [#map, #map1, #map1, #map1, #map1, #map], iterator_types = ["parallel", "parallel", "parallel", "parallel"]} ins(%36, %cst_314, %cst_313, %cst_313, %cst_314 : tensor<1x128x8x8xf32>, tensor<128xf32>, tensor<128xf32>, tensor<128xf32>, tensor<128xf32>) outs(%36 : tensor<1x128x8x8xf32>) {
    ^bb0(%in: f32, %in_2322: f32, %in_2323: f32, %in_2324: f32, %in_2325: f32, %out: f32):
      %744 = arith.truncf %cst_321 : f64 to f32
      %745 = arith.addf %in_2325, %744 : f32
      %746 = math.rsqrt %745 : f32
      %747 = arith.subf %in, %in_2324 : f32
      %748 = arith.mulf %747, %746 : f32
      %749 = arith.mulf %748, %in_2322 : f32
      %750 = arith.addf %749, %in_2323 : f32
      linalg.yield %750 : f32
    } -> tensor<1x128x8x8xf32>
    %38 = linalg.generic {indexing_maps = [#map2, #map], iterator_types = ["parallel", "parallel", "parallel", "parallel"]} ins(%37 : tensor<1x128x8x8xf32>) outs(%12 : tensor<1x128x8x8xf32>) {
    ^bb0(%in: f32, %out: f32):
      %744 = arith.cmpf ugt, %in, %cst_319 : f32
      %745 = arith.select %744, %in, %cst_319 : f32
      linalg.yield %745 : f32
    } -> tensor<1x128x8x8xf32>
    %padded_335 = tensor.pad %38 low[0, 0, 1, 1] high[0, 0, 1, 1] {
    ^bb0(%arg1: index, %arg2: index, %arg3: index, %arg4: index):
      tensor.yield %cst_319 : f32
    } : tensor<1x128x8x8xf32> to tensor<1x128x10x10xf32>
    %39 = linalg.conv_2d_nchw_fchw {dilations = dense<1> : vector<2xi64>, strides = dense<1> : vector<2xi64>} ins(%padded_335, %cst_302 : tensor<1x128x10x10xf32>, tensor<32x128x3x3xf32>) outs(%18 : tensor<1x32x8x8xf32>) -> tensor<1x32x8x8xf32>
    %40 = tensor.empty() : tensor<1x192x8x8xf32>
    %inserted_slice_336 = tensor.insert_slice %9 into %40[0, 0, 0, 0] [1, 64, 8, 8] [1, 1, 1, 1] : tensor<1x64x8x8xf32> into tensor<1x192x8x8xf32>
    %inserted_slice_337 = tensor.insert_slice %19 into %inserted_slice_336[0, 64, 0, 0] [1, 32, 8, 8] [1, 1, 1, 1] : tensor<1x32x8x8xf32> into tensor<1x192x8x8xf32>
    %inserted_slice_338 = tensor.insert_slice %26 into %inserted_slice_337[0, 96, 0, 0] [1, 32, 8, 8] [1, 1, 1, 1] : tensor<1x32x8x8xf32> into tensor<1x192x8x8xf32>
    %inserted_slice_339 = tensor.insert_slice %32 into %inserted_slice_338[0, 128, 0, 0] [1, 32, 8, 8] [1, 1, 1, 1] : tensor<1x32x8x8xf32> into tensor<1x192x8x8xf32>
    %inserted_slice_340 = tensor.insert_slice %39 into %inserted_slice_339[0, 160, 0, 0] [1, 32, 8, 8] [1, 1, 1, 1] : tensor<1x32x8x8xf32> into tensor<1x192x8x8xf32>
    cf.assert %3, "training is not supported for now"
    %41 = linalg.generic {indexing_maps = [#map, #map1, #map1, #map1, #map1, #map], iterator_types = ["parallel", "parallel", "parallel", "parallel"]} ins(%inserted_slice_340, %cst_301, %cst_300, %cst_300, %cst_301 : tensor<1x192x8x8xf32>, tensor<192xf32>, tensor<192xf32>, tensor<192xf32>, tensor<192xf32>) outs(%inserted_slice_340 : tensor<1x192x8x8xf32>) {
    ^bb0(%in: f32, %in_2322: f32, %in_2323: f32, %in_2324: f32, %in_2325: f32, %out: f32):
      %744 = arith.truncf %cst_321 : f64 to f32
      %745 = arith.addf %in_2325, %744 : f32
      %746 = math.rsqrt %745 : f32
      %747 = arith.subf %in, %in_2324 : f32
      %748 = arith.mulf %747, %746 : f32
      %749 = arith.mulf %748, %in_2322 : f32
      %750 = arith.addf %749, %in_2323 : f32
      linalg.yield %750 : f32
    } -> tensor<1x192x8x8xf32>
    %42 = linalg.generic {indexing_maps = [#map2, #map], iterator_types = ["parallel", "parallel", "parallel", "parallel"]} ins(%41 : tensor<1x192x8x8xf32>) outs(%40 : tensor<1x192x8x8xf32>) {
    ^bb0(%in: f32, %out: f32):
      %744 = arith.cmpf ugt, %in, %cst_319 : f32
      %745 = arith.select %744, %in, %cst_319 : f32
      linalg.yield %745 : f32
    } -> tensor<1x192x8x8xf32>
    %43 = linalg.conv_2d_nchw_fchw {dilations = dense<1> : vector<2xi64>, strides = dense<1> : vector<2xi64>} ins(%42, %cst_299 : tensor<1x192x8x8xf32>, tensor<128x192x1x1xf32>) outs(%13 : tensor<1x128x8x8xf32>) -> tensor<1x128x8x8xf32>
    cf.assert %3, "training is not supported for now"
    %44 = linalg.generic {indexing_maps = [#map, #map1, #map1, #map1, #map1, #map], iterator_types = ["parallel", "parallel", "parallel", "parallel"]} ins(%43, %cst_314, %cst_313, %cst_313, %cst_314 : tensor<1x128x8x8xf32>, tensor<128xf32>, tensor<128xf32>, tensor<128xf32>, tensor<128xf32>) outs(%43 : tensor<1x128x8x8xf32>) {
    ^bb0(%in: f32, %in_2322: f32, %in_2323: f32, %in_2324: f32, %in_2325: f32, %out: f32):
      %744 = arith.truncf %cst_321 : f64 to f32
      %745 = arith.addf %in_2325, %744 : f32
      %746 = math.rsqrt %745 : f32
      %747 = arith.subf %in, %in_2324 : f32
      %748 = arith.mulf %747, %746 : f32
      %749 = arith.mulf %748, %in_2322 : f32
      %750 = arith.addf %749, %in_2323 : f32
      linalg.yield %750 : f32
    } -> tensor<1x128x8x8xf32>
    %45 = linalg.generic {indexing_maps = [#map2, #map], iterator_types = ["parallel", "parallel", "parallel", "parallel"]} ins(%44 : tensor<1x128x8x8xf32>) outs(%12 : tensor<1x128x8x8xf32>) {
    ^bb0(%in: f32, %out: f32):
      %744 = arith.cmpf ugt, %in, %cst_319 : f32
      %745 = arith.select %744, %in, %cst_319 : f32
      linalg.yield %745 : f32
    } -> tensor<1x128x8x8xf32>
    %padded_341 = tensor.pad %45 low[0, 0, 1, 1] high[0, 0, 1, 1] {
    ^bb0(%arg1: index, %arg2: index, %arg3: index, %arg4: index):
      tensor.yield %cst_319 : f32
    } : tensor<1x128x8x8xf32> to tensor<1x128x10x10xf32>
    %46 = linalg.conv_2d_nchw_fchw {dilations = dense<1> : vector<2xi64>, strides = dense<1> : vector<2xi64>} ins(%padded_341, %cst_298 : tensor<1x128x10x10xf32>, tensor<32x128x3x3xf32>) outs(%18 : tensor<1x32x8x8xf32>) -> tensor<1x32x8x8xf32>
    %47 = tensor.empty() : tensor<1x224x8x8xf32>
    %inserted_slice_342 = tensor.insert_slice %9 into %47[0, 0, 0, 0] [1, 64, 8, 8] [1, 1, 1, 1] : tensor<1x64x8x8xf32> into tensor<1x224x8x8xf32>
    %inserted_slice_343 = tensor.insert_slice %19 into %inserted_slice_342[0, 64, 0, 0] [1, 32, 8, 8] [1, 1, 1, 1] : tensor<1x32x8x8xf32> into tensor<1x224x8x8xf32>
    %inserted_slice_344 = tensor.insert_slice %26 into %inserted_slice_343[0, 96, 0, 0] [1, 32, 8, 8] [1, 1, 1, 1] : tensor<1x32x8x8xf32> into tensor<1x224x8x8xf32>
    %inserted_slice_345 = tensor.insert_slice %32 into %inserted_slice_344[0, 128, 0, 0] [1, 32, 8, 8] [1, 1, 1, 1] : tensor<1x32x8x8xf32> into tensor<1x224x8x8xf32>
    %inserted_slice_346 = tensor.insert_slice %39 into %inserted_slice_345[0, 160, 0, 0] [1, 32, 8, 8] [1, 1, 1, 1] : tensor<1x32x8x8xf32> into tensor<1x224x8x8xf32>
    %inserted_slice_347 = tensor.insert_slice %46 into %inserted_slice_346[0, 192, 0, 0] [1, 32, 8, 8] [1, 1, 1, 1] : tensor<1x32x8x8xf32> into tensor<1x224x8x8xf32>
    cf.assert %3, "training is not supported for now"
    %48 = linalg.generic {indexing_maps = [#map, #map1, #map1, #map1, #map1, #map], iterator_types = ["parallel", "parallel", "parallel", "parallel"]} ins(%inserted_slice_347, %cst_297, %cst_296, %cst_296, %cst_297 : tensor<1x224x8x8xf32>, tensor<224xf32>, tensor<224xf32>, tensor<224xf32>, tensor<224xf32>) outs(%inserted_slice_347 : tensor<1x224x8x8xf32>) {
    ^bb0(%in: f32, %in_2322: f32, %in_2323: f32, %in_2324: f32, %in_2325: f32, %out: f32):
      %744 = arith.truncf %cst_321 : f64 to f32
      %745 = arith.addf %in_2325, %744 : f32
      %746 = math.rsqrt %745 : f32
      %747 = arith.subf %in, %in_2324 : f32
      %748 = arith.mulf %747, %746 : f32
      %749 = arith.mulf %748, %in_2322 : f32
      %750 = arith.addf %749, %in_2323 : f32
      linalg.yield %750 : f32
    } -> tensor<1x224x8x8xf32>
    %49 = linalg.generic {indexing_maps = [#map2, #map], iterator_types = ["parallel", "parallel", "parallel", "parallel"]} ins(%48 : tensor<1x224x8x8xf32>) outs(%47 : tensor<1x224x8x8xf32>) {
    ^bb0(%in: f32, %out: f32):
      %744 = arith.cmpf ugt, %in, %cst_319 : f32
      %745 = arith.select %744, %in, %cst_319 : f32
      linalg.yield %745 : f32
    } -> tensor<1x224x8x8xf32>
    %50 = linalg.conv_2d_nchw_fchw {dilations = dense<1> : vector<2xi64>, strides = dense<1> : vector<2xi64>} ins(%49, %cst_295 : tensor<1x224x8x8xf32>, tensor<128x224x1x1xf32>) outs(%13 : tensor<1x128x8x8xf32>) -> tensor<1x128x8x8xf32>
    cf.assert %3, "training is not supported for now"
    %51 = linalg.generic {indexing_maps = [#map, #map1, #map1, #map1, #map1, #map], iterator_types = ["parallel", "parallel", "parallel", "parallel"]} ins(%50, %cst_314, %cst_313, %cst_313, %cst_314 : tensor<1x128x8x8xf32>, tensor<128xf32>, tensor<128xf32>, tensor<128xf32>, tensor<128xf32>) outs(%50 : tensor<1x128x8x8xf32>) {
    ^bb0(%in: f32, %in_2322: f32, %in_2323: f32, %in_2324: f32, %in_2325: f32, %out: f32):
      %744 = arith.truncf %cst_321 : f64 to f32
      %745 = arith.addf %in_2325, %744 : f32
      %746 = math.rsqrt %745 : f32
      %747 = arith.subf %in, %in_2324 : f32
      %748 = arith.mulf %747, %746 : f32
      %749 = arith.mulf %748, %in_2322 : f32
      %750 = arith.addf %749, %in_2323 : f32
      linalg.yield %750 : f32
    } -> tensor<1x128x8x8xf32>
    %52 = linalg.generic {indexing_maps = [#map2, #map], iterator_types = ["parallel", "parallel", "parallel", "parallel"]} ins(%51 : tensor<1x128x8x8xf32>) outs(%12 : tensor<1x128x8x8xf32>) {
    ^bb0(%in: f32, %out: f32):
      %744 = arith.cmpf ugt, %in, %cst_319 : f32
      %745 = arith.select %744, %in, %cst_319 : f32
      linalg.yield %745 : f32
    } -> tensor<1x128x8x8xf32>
    %padded_348 = tensor.pad %52 low[0, 0, 1, 1] high[0, 0, 1, 1] {
    ^bb0(%arg1: index, %arg2: index, %arg3: index, %arg4: index):
      tensor.yield %cst_319 : f32
    } : tensor<1x128x8x8xf32> to tensor<1x128x10x10xf32>
    %53 = linalg.conv_2d_nchw_fchw {dilations = dense<1> : vector<2xi64>, strides = dense<1> : vector<2xi64>} ins(%padded_348, %cst_294 : tensor<1x128x10x10xf32>, tensor<32x128x3x3xf32>) outs(%18 : tensor<1x32x8x8xf32>) -> tensor<1x32x8x8xf32>
    %54 = tensor.empty() : tensor<1x256x8x8xf32>
    %inserted_slice_349 = tensor.insert_slice %9 into %54[0, 0, 0, 0] [1, 64, 8, 8] [1, 1, 1, 1] : tensor<1x64x8x8xf32> into tensor<1x256x8x8xf32>
    %inserted_slice_350 = tensor.insert_slice %19 into %inserted_slice_349[0, 64, 0, 0] [1, 32, 8, 8] [1, 1, 1, 1] : tensor<1x32x8x8xf32> into tensor<1x256x8x8xf32>
    %inserted_slice_351 = tensor.insert_slice %26 into %inserted_slice_350[0, 96, 0, 0] [1, 32, 8, 8] [1, 1, 1, 1] : tensor<1x32x8x8xf32> into tensor<1x256x8x8xf32>
    %inserted_slice_352 = tensor.insert_slice %32 into %inserted_slice_351[0, 128, 0, 0] [1, 32, 8, 8] [1, 1, 1, 1] : tensor<1x32x8x8xf32> into tensor<1x256x8x8xf32>
    %inserted_slice_353 = tensor.insert_slice %39 into %inserted_slice_352[0, 160, 0, 0] [1, 32, 8, 8] [1, 1, 1, 1] : tensor<1x32x8x8xf32> into tensor<1x256x8x8xf32>
    %inserted_slice_354 = tensor.insert_slice %46 into %inserted_slice_353[0, 192, 0, 0] [1, 32, 8, 8] [1, 1, 1, 1] : tensor<1x32x8x8xf32> into tensor<1x256x8x8xf32>
    %inserted_slice_355 = tensor.insert_slice %53 into %inserted_slice_354[0, 224, 0, 0] [1, 32, 8, 8] [1, 1, 1, 1] : tensor<1x32x8x8xf32> into tensor<1x256x8x8xf32>
    cf.assert %3, "training is not supported for now"
    %55 = linalg.generic {indexing_maps = [#map, #map1, #map1, #map1, #map1, #map], iterator_types = ["parallel", "parallel", "parallel", "parallel"]} ins(%inserted_slice_355, %cst_293, %cst_292, %cst_292, %cst_293 : tensor<1x256x8x8xf32>, tensor<256xf32>, tensor<256xf32>, tensor<256xf32>, tensor<256xf32>) outs(%inserted_slice_355 : tensor<1x256x8x8xf32>) {
    ^bb0(%in: f32, %in_2322: f32, %in_2323: f32, %in_2324: f32, %in_2325: f32, %out: f32):
      %744 = arith.truncf %cst_321 : f64 to f32
      %745 = arith.addf %in_2325, %744 : f32
      %746 = math.rsqrt %745 : f32
      %747 = arith.subf %in, %in_2324 : f32
      %748 = arith.mulf %747, %746 : f32
      %749 = arith.mulf %748, %in_2322 : f32
      %750 = arith.addf %749, %in_2323 : f32
      linalg.yield %750 : f32
    } -> tensor<1x256x8x8xf32>
    %56 = linalg.generic {indexing_maps = [#map2, #map], iterator_types = ["parallel", "parallel", "parallel", "parallel"]} ins(%55 : tensor<1x256x8x8xf32>) outs(%54 : tensor<1x256x8x8xf32>) {
    ^bb0(%in: f32, %out: f32):
      %744 = arith.cmpf ugt, %in, %cst_319 : f32
      %745 = arith.select %744, %in, %cst_319 : f32
      linalg.yield %745 : f32
    } -> tensor<1x256x8x8xf32>
    %57 = linalg.conv_2d_nchw_fchw {dilations = dense<1> : vector<2xi64>, strides = dense<1> : vector<2xi64>} ins(%56, %cst_291 : tensor<1x256x8x8xf32>, tensor<128x256x1x1xf32>) outs(%13 : tensor<1x128x8x8xf32>) -> tensor<1x128x8x8xf32>
    %58 = tensor.empty() : tensor<1x128x4x4xf32>
    %59 = linalg.fill ins(%cst_319 : f32) outs(%58 : tensor<1x128x4x4xf32>) -> tensor<1x128x4x4xf32>
    %60 = tensor.empty() : tensor<2x2xf32>
    %61 = linalg.pooling_nchw_sum {dilations = dense<1> : vector<2xi64>, strides = dense<2> : vector<2xi64>} ins(%57, %60 : tensor<1x128x8x8xf32>, tensor<2x2xf32>) outs(%59 : tensor<1x128x4x4xf32>) -> tensor<1x128x4x4xf32>
    %62 = linalg.generic {indexing_maps = [#map, #map], iterator_types = ["parallel", "parallel", "parallel", "parallel"]} ins(%61 : tensor<1x128x4x4xf32>) outs(%58 : tensor<1x128x4x4xf32>) {
    ^bb0(%in: f32, %out: f32):
      %744 = arith.divf %in, %cst_322 : f32
      linalg.yield %744 : f32
    } -> tensor<1x128x4x4xf32>
    cf.assert %3, "training is not supported for now"
    %63 = linalg.generic {indexing_maps = [#map, #map1, #map1, #map1, #map1, #map], iterator_types = ["parallel", "parallel", "parallel", "parallel"]} ins(%62, %cst_314, %cst_313, %cst_313, %cst_314 : tensor<1x128x4x4xf32>, tensor<128xf32>, tensor<128xf32>, tensor<128xf32>, tensor<128xf32>) outs(%62 : tensor<1x128x4x4xf32>) {
    ^bb0(%in: f32, %in_2322: f32, %in_2323: f32, %in_2324: f32, %in_2325: f32, %out: f32):
      %744 = arith.truncf %cst_321 : f64 to f32
      %745 = arith.addf %in_2325, %744 : f32
      %746 = math.rsqrt %745 : f32
      %747 = arith.subf %in, %in_2324 : f32
      %748 = arith.mulf %747, %746 : f32
      %749 = arith.mulf %748, %in_2322 : f32
      %750 = arith.addf %749, %in_2323 : f32
      linalg.yield %750 : f32
    } -> tensor<1x128x4x4xf32>
    %64 = linalg.generic {indexing_maps = [#map2, #map], iterator_types = ["parallel", "parallel", "parallel", "parallel"]} ins(%63 : tensor<1x128x4x4xf32>) outs(%58 : tensor<1x128x4x4xf32>) {
    ^bb0(%in: f32, %out: f32):
      %744 = arith.cmpf ugt, %in, %cst_319 : f32
      %745 = arith.select %744, %in, %cst_319 : f32
      linalg.yield %745 : f32
    } -> tensor<1x128x4x4xf32>
    %65 = linalg.conv_2d_nchw_fchw {dilations = dense<1> : vector<2xi64>, strides = dense<1> : vector<2xi64>} ins(%64, %cst_290 : tensor<1x128x4x4xf32>, tensor<128x128x1x1xf32>) outs(%59 : tensor<1x128x4x4xf32>) -> tensor<1x128x4x4xf32>
    cf.assert %3, "training is not supported for now"
    %66 = linalg.generic {indexing_maps = [#map, #map1, #map1, #map1, #map1, #map], iterator_types = ["parallel", "parallel", "parallel", "parallel"]} ins(%65, %cst_314, %cst_313, %cst_313, %cst_314 : tensor<1x128x4x4xf32>, tensor<128xf32>, tensor<128xf32>, tensor<128xf32>, tensor<128xf32>) outs(%65 : tensor<1x128x4x4xf32>) {
    ^bb0(%in: f32, %in_2322: f32, %in_2323: f32, %in_2324: f32, %in_2325: f32, %out: f32):
      %744 = arith.truncf %cst_321 : f64 to f32
      %745 = arith.addf %in_2325, %744 : f32
      %746 = math.rsqrt %745 : f32
      %747 = arith.subf %in, %in_2324 : f32
      %748 = arith.mulf %747, %746 : f32
      %749 = arith.mulf %748, %in_2322 : f32
      %750 = arith.addf %749, %in_2323 : f32
      linalg.yield %750 : f32
    } -> tensor<1x128x4x4xf32>
    %67 = linalg.generic {indexing_maps = [#map2, #map], iterator_types = ["parallel", "parallel", "parallel", "parallel"]} ins(%66 : tensor<1x128x4x4xf32>) outs(%58 : tensor<1x128x4x4xf32>) {
    ^bb0(%in: f32, %out: f32):
      %744 = arith.cmpf ugt, %in, %cst_319 : f32
      %745 = arith.select %744, %in, %cst_319 : f32
      linalg.yield %745 : f32
    } -> tensor<1x128x4x4xf32>
    %padded_356 = tensor.pad %67 low[0, 0, 1, 1] high[0, 0, 1, 1] {
    ^bb0(%arg1: index, %arg2: index, %arg3: index, %arg4: index):
      tensor.yield %cst_319 : f32
    } : tensor<1x128x4x4xf32> to tensor<1x128x6x6xf32>
    %68 = tensor.empty() : tensor<1x32x4x4xf32>
    %69 = linalg.fill ins(%cst_319 : f32) outs(%68 : tensor<1x32x4x4xf32>) -> tensor<1x32x4x4xf32>
    %70 = linalg.conv_2d_nchw_fchw {dilations = dense<1> : vector<2xi64>, strides = dense<1> : vector<2xi64>} ins(%padded_356, %cst_289 : tensor<1x128x6x6xf32>, tensor<32x128x3x3xf32>) outs(%69 : tensor<1x32x4x4xf32>) -> tensor<1x32x4x4xf32>
    %71 = tensor.empty() : tensor<1x160x4x4xf32>
    %inserted_slice_357 = tensor.insert_slice %62 into %71[0, 0, 0, 0] [1, 128, 4, 4] [1, 1, 1, 1] : tensor<1x128x4x4xf32> into tensor<1x160x4x4xf32>
    %inserted_slice_358 = tensor.insert_slice %70 into %inserted_slice_357[0, 128, 0, 0] [1, 32, 4, 4] [1, 1, 1, 1] : tensor<1x32x4x4xf32> into tensor<1x160x4x4xf32>
    cf.assert %3, "training is not supported for now"
    %72 = linalg.generic {indexing_maps = [#map, #map1, #map1, #map1, #map1, #map], iterator_types = ["parallel", "parallel", "parallel", "parallel"]} ins(%inserted_slice_358, %cst_305, %cst_304, %cst_304, %cst_305 : tensor<1x160x4x4xf32>, tensor<160xf32>, tensor<160xf32>, tensor<160xf32>, tensor<160xf32>) outs(%inserted_slice_358 : tensor<1x160x4x4xf32>) {
    ^bb0(%in: f32, %in_2322: f32, %in_2323: f32, %in_2324: f32, %in_2325: f32, %out: f32):
      %744 = arith.truncf %cst_321 : f64 to f32
      %745 = arith.addf %in_2325, %744 : f32
      %746 = math.rsqrt %745 : f32
      %747 = arith.subf %in, %in_2324 : f32
      %748 = arith.mulf %747, %746 : f32
      %749 = arith.mulf %748, %in_2322 : f32
      %750 = arith.addf %749, %in_2323 : f32
      linalg.yield %750 : f32
    } -> tensor<1x160x4x4xf32>
    %73 = linalg.generic {indexing_maps = [#map2, #map], iterator_types = ["parallel", "parallel", "parallel", "parallel"]} ins(%72 : tensor<1x160x4x4xf32>) outs(%71 : tensor<1x160x4x4xf32>) {
    ^bb0(%in: f32, %out: f32):
      %744 = arith.cmpf ugt, %in, %cst_319 : f32
      %745 = arith.select %744, %in, %cst_319 : f32
      linalg.yield %745 : f32
    } -> tensor<1x160x4x4xf32>
    %74 = linalg.conv_2d_nchw_fchw {dilations = dense<1> : vector<2xi64>, strides = dense<1> : vector<2xi64>} ins(%73, %cst_288 : tensor<1x160x4x4xf32>, tensor<128x160x1x1xf32>) outs(%59 : tensor<1x128x4x4xf32>) -> tensor<1x128x4x4xf32>
    cf.assert %3, "training is not supported for now"
    %75 = linalg.generic {indexing_maps = [#map, #map1, #map1, #map1, #map1, #map], iterator_types = ["parallel", "parallel", "parallel", "parallel"]} ins(%74, %cst_314, %cst_313, %cst_313, %cst_314 : tensor<1x128x4x4xf32>, tensor<128xf32>, tensor<128xf32>, tensor<128xf32>, tensor<128xf32>) outs(%74 : tensor<1x128x4x4xf32>) {
    ^bb0(%in: f32, %in_2322: f32, %in_2323: f32, %in_2324: f32, %in_2325: f32, %out: f32):
      %744 = arith.truncf %cst_321 : f64 to f32
      %745 = arith.addf %in_2325, %744 : f32
      %746 = math.rsqrt %745 : f32
      %747 = arith.subf %in, %in_2324 : f32
      %748 = arith.mulf %747, %746 : f32
      %749 = arith.mulf %748, %in_2322 : f32
      %750 = arith.addf %749, %in_2323 : f32
      linalg.yield %750 : f32
    } -> tensor<1x128x4x4xf32>
    %76 = linalg.generic {indexing_maps = [#map2, #map], iterator_types = ["parallel", "parallel", "parallel", "parallel"]} ins(%75 : tensor<1x128x4x4xf32>) outs(%58 : tensor<1x128x4x4xf32>) {
    ^bb0(%in: f32, %out: f32):
      %744 = arith.cmpf ugt, %in, %cst_319 : f32
      %745 = arith.select %744, %in, %cst_319 : f32
      linalg.yield %745 : f32
    } -> tensor<1x128x4x4xf32>
    %padded_359 = tensor.pad %76 low[0, 0, 1, 1] high[0, 0, 1, 1] {
    ^bb0(%arg1: index, %arg2: index, %arg3: index, %arg4: index):
      tensor.yield %cst_319 : f32
    } : tensor<1x128x4x4xf32> to tensor<1x128x6x6xf32>
    %77 = linalg.conv_2d_nchw_fchw {dilations = dense<1> : vector<2xi64>, strides = dense<1> : vector<2xi64>} ins(%padded_359, %cst_287 : tensor<1x128x6x6xf32>, tensor<32x128x3x3xf32>) outs(%69 : tensor<1x32x4x4xf32>) -> tensor<1x32x4x4xf32>
    %78 = tensor.empty() : tensor<1x192x4x4xf32>
    %inserted_slice_360 = tensor.insert_slice %62 into %78[0, 0, 0, 0] [1, 128, 4, 4] [1, 1, 1, 1] : tensor<1x128x4x4xf32> into tensor<1x192x4x4xf32>
    %inserted_slice_361 = tensor.insert_slice %70 into %inserted_slice_360[0, 128, 0, 0] [1, 32, 4, 4] [1, 1, 1, 1] : tensor<1x32x4x4xf32> into tensor<1x192x4x4xf32>
    %inserted_slice_362 = tensor.insert_slice %77 into %inserted_slice_361[0, 160, 0, 0] [1, 32, 4, 4] [1, 1, 1, 1] : tensor<1x32x4x4xf32> into tensor<1x192x4x4xf32>
    cf.assert %3, "training is not supported for now"
    %79 = linalg.generic {indexing_maps = [#map, #map1, #map1, #map1, #map1, #map], iterator_types = ["parallel", "parallel", "parallel", "parallel"]} ins(%inserted_slice_362, %cst_301, %cst_300, %cst_300, %cst_301 : tensor<1x192x4x4xf32>, tensor<192xf32>, tensor<192xf32>, tensor<192xf32>, tensor<192xf32>) outs(%inserted_slice_362 : tensor<1x192x4x4xf32>) {
    ^bb0(%in: f32, %in_2322: f32, %in_2323: f32, %in_2324: f32, %in_2325: f32, %out: f32):
      %744 = arith.truncf %cst_321 : f64 to f32
      %745 = arith.addf %in_2325, %744 : f32
      %746 = math.rsqrt %745 : f32
      %747 = arith.subf %in, %in_2324 : f32
      %748 = arith.mulf %747, %746 : f32
      %749 = arith.mulf %748, %in_2322 : f32
      %750 = arith.addf %749, %in_2323 : f32
      linalg.yield %750 : f32
    } -> tensor<1x192x4x4xf32>
    %80 = linalg.generic {indexing_maps = [#map2, #map], iterator_types = ["parallel", "parallel", "parallel", "parallel"]} ins(%79 : tensor<1x192x4x4xf32>) outs(%78 : tensor<1x192x4x4xf32>) {
    ^bb0(%in: f32, %out: f32):
      %744 = arith.cmpf ugt, %in, %cst_319 : f32
      %745 = arith.select %744, %in, %cst_319 : f32
      linalg.yield %745 : f32
    } -> tensor<1x192x4x4xf32>
    %81 = linalg.conv_2d_nchw_fchw {dilations = dense<1> : vector<2xi64>, strides = dense<1> : vector<2xi64>} ins(%80, %cst_286 : tensor<1x192x4x4xf32>, tensor<128x192x1x1xf32>) outs(%59 : tensor<1x128x4x4xf32>) -> tensor<1x128x4x4xf32>
    cf.assert %3, "training is not supported for now"
    %82 = linalg.generic {indexing_maps = [#map, #map1, #map1, #map1, #map1, #map], iterator_types = ["parallel", "parallel", "parallel", "parallel"]} ins(%81, %cst_314, %cst_313, %cst_313, %cst_314 : tensor<1x128x4x4xf32>, tensor<128xf32>, tensor<128xf32>, tensor<128xf32>, tensor<128xf32>) outs(%81 : tensor<1x128x4x4xf32>) {
    ^bb0(%in: f32, %in_2322: f32, %in_2323: f32, %in_2324: f32, %in_2325: f32, %out: f32):
      %744 = arith.truncf %cst_321 : f64 to f32
      %745 = arith.addf %in_2325, %744 : f32
      %746 = math.rsqrt %745 : f32
      %747 = arith.subf %in, %in_2324 : f32
      %748 = arith.mulf %747, %746 : f32
      %749 = arith.mulf %748, %in_2322 : f32
      %750 = arith.addf %749, %in_2323 : f32
      linalg.yield %750 : f32
    } -> tensor<1x128x4x4xf32>
    %83 = linalg.generic {indexing_maps = [#map2, #map], iterator_types = ["parallel", "parallel", "parallel", "parallel"]} ins(%82 : tensor<1x128x4x4xf32>) outs(%58 : tensor<1x128x4x4xf32>) {
    ^bb0(%in: f32, %out: f32):
      %744 = arith.cmpf ugt, %in, %cst_319 : f32
      %745 = arith.select %744, %in, %cst_319 : f32
      linalg.yield %745 : f32
    } -> tensor<1x128x4x4xf32>
    %padded_363 = tensor.pad %83 low[0, 0, 1, 1] high[0, 0, 1, 1] {
    ^bb0(%arg1: index, %arg2: index, %arg3: index, %arg4: index):
      tensor.yield %cst_319 : f32
    } : tensor<1x128x4x4xf32> to tensor<1x128x6x6xf32>
    %84 = linalg.conv_2d_nchw_fchw {dilations = dense<1> : vector<2xi64>, strides = dense<1> : vector<2xi64>} ins(%padded_363, %cst_285 : tensor<1x128x6x6xf32>, tensor<32x128x3x3xf32>) outs(%69 : tensor<1x32x4x4xf32>) -> tensor<1x32x4x4xf32>
    %85 = tensor.empty() : tensor<1x224x4x4xf32>
    %inserted_slice_364 = tensor.insert_slice %62 into %85[0, 0, 0, 0] [1, 128, 4, 4] [1, 1, 1, 1] : tensor<1x128x4x4xf32> into tensor<1x224x4x4xf32>
    %inserted_slice_365 = tensor.insert_slice %70 into %inserted_slice_364[0, 128, 0, 0] [1, 32, 4, 4] [1, 1, 1, 1] : tensor<1x32x4x4xf32> into tensor<1x224x4x4xf32>
    %inserted_slice_366 = tensor.insert_slice %77 into %inserted_slice_365[0, 160, 0, 0] [1, 32, 4, 4] [1, 1, 1, 1] : tensor<1x32x4x4xf32> into tensor<1x224x4x4xf32>
    %inserted_slice_367 = tensor.insert_slice %84 into %inserted_slice_366[0, 192, 0, 0] [1, 32, 4, 4] [1, 1, 1, 1] : tensor<1x32x4x4xf32> into tensor<1x224x4x4xf32>
    cf.assert %3, "training is not supported for now"
    %86 = linalg.generic {indexing_maps = [#map, #map1, #map1, #map1, #map1, #map], iterator_types = ["parallel", "parallel", "parallel", "parallel"]} ins(%inserted_slice_367, %cst_297, %cst_296, %cst_296, %cst_297 : tensor<1x224x4x4xf32>, tensor<224xf32>, tensor<224xf32>, tensor<224xf32>, tensor<224xf32>) outs(%inserted_slice_367 : tensor<1x224x4x4xf32>) {
    ^bb0(%in: f32, %in_2322: f32, %in_2323: f32, %in_2324: f32, %in_2325: f32, %out: f32):
      %744 = arith.truncf %cst_321 : f64 to f32
      %745 = arith.addf %in_2325, %744 : f32
      %746 = math.rsqrt %745 : f32
      %747 = arith.subf %in, %in_2324 : f32
      %748 = arith.mulf %747, %746 : f32
      %749 = arith.mulf %748, %in_2322 : f32
      %750 = arith.addf %749, %in_2323 : f32
      linalg.yield %750 : f32
    } -> tensor<1x224x4x4xf32>
    %87 = linalg.generic {indexing_maps = [#map2, #map], iterator_types = ["parallel", "parallel", "parallel", "parallel"]} ins(%86 : tensor<1x224x4x4xf32>) outs(%85 : tensor<1x224x4x4xf32>) {
    ^bb0(%in: f32, %out: f32):
      %744 = arith.cmpf ugt, %in, %cst_319 : f32
      %745 = arith.select %744, %in, %cst_319 : f32
      linalg.yield %745 : f32
    } -> tensor<1x224x4x4xf32>
    %88 = linalg.conv_2d_nchw_fchw {dilations = dense<1> : vector<2xi64>, strides = dense<1> : vector<2xi64>} ins(%87, %cst_284 : tensor<1x224x4x4xf32>, tensor<128x224x1x1xf32>) outs(%59 : tensor<1x128x4x4xf32>) -> tensor<1x128x4x4xf32>
    cf.assert %3, "training is not supported for now"
    %89 = linalg.generic {indexing_maps = [#map, #map1, #map1, #map1, #map1, #map], iterator_types = ["parallel", "parallel", "parallel", "parallel"]} ins(%88, %cst_314, %cst_313, %cst_313, %cst_314 : tensor<1x128x4x4xf32>, tensor<128xf32>, tensor<128xf32>, tensor<128xf32>, tensor<128xf32>) outs(%88 : tensor<1x128x4x4xf32>) {
    ^bb0(%in: f32, %in_2322: f32, %in_2323: f32, %in_2324: f32, %in_2325: f32, %out: f32):
      %744 = arith.truncf %cst_321 : f64 to f32
      %745 = arith.addf %in_2325, %744 : f32
      %746 = math.rsqrt %745 : f32
      %747 = arith.subf %in, %in_2324 : f32
      %748 = arith.mulf %747, %746 : f32
      %749 = arith.mulf %748, %in_2322 : f32
      %750 = arith.addf %749, %in_2323 : f32
      linalg.yield %750 : f32
    } -> tensor<1x128x4x4xf32>
    %90 = linalg.generic {indexing_maps = [#map2, #map], iterator_types = ["parallel", "parallel", "parallel", "parallel"]} ins(%89 : tensor<1x128x4x4xf32>) outs(%58 : tensor<1x128x4x4xf32>) {
    ^bb0(%in: f32, %out: f32):
      %744 = arith.cmpf ugt, %in, %cst_319 : f32
      %745 = arith.select %744, %in, %cst_319 : f32
      linalg.yield %745 : f32
    } -> tensor<1x128x4x4xf32>
    %padded_368 = tensor.pad %90 low[0, 0, 1, 1] high[0, 0, 1, 1] {
    ^bb0(%arg1: index, %arg2: index, %arg3: index, %arg4: index):
      tensor.yield %cst_319 : f32
    } : tensor<1x128x4x4xf32> to tensor<1x128x6x6xf32>
    %91 = linalg.conv_2d_nchw_fchw {dilations = dense<1> : vector<2xi64>, strides = dense<1> : vector<2xi64>} ins(%padded_368, %cst_283 : tensor<1x128x6x6xf32>, tensor<32x128x3x3xf32>) outs(%69 : tensor<1x32x4x4xf32>) -> tensor<1x32x4x4xf32>
    %92 = tensor.empty() : tensor<1x256x4x4xf32>
    %inserted_slice_369 = tensor.insert_slice %62 into %92[0, 0, 0, 0] [1, 128, 4, 4] [1, 1, 1, 1] : tensor<1x128x4x4xf32> into tensor<1x256x4x4xf32>
    %inserted_slice_370 = tensor.insert_slice %70 into %inserted_slice_369[0, 128, 0, 0] [1, 32, 4, 4] [1, 1, 1, 1] : tensor<1x32x4x4xf32> into tensor<1x256x4x4xf32>
    %inserted_slice_371 = tensor.insert_slice %77 into %inserted_slice_370[0, 160, 0, 0] [1, 32, 4, 4] [1, 1, 1, 1] : tensor<1x32x4x4xf32> into tensor<1x256x4x4xf32>
    %inserted_slice_372 = tensor.insert_slice %84 into %inserted_slice_371[0, 192, 0, 0] [1, 32, 4, 4] [1, 1, 1, 1] : tensor<1x32x4x4xf32> into tensor<1x256x4x4xf32>
    %inserted_slice_373 = tensor.insert_slice %91 into %inserted_slice_372[0, 224, 0, 0] [1, 32, 4, 4] [1, 1, 1, 1] : tensor<1x32x4x4xf32> into tensor<1x256x4x4xf32>
    cf.assert %3, "training is not supported for now"
    %93 = linalg.generic {indexing_maps = [#map, #map1, #map1, #map1, #map1, #map], iterator_types = ["parallel", "parallel", "parallel", "parallel"]} ins(%inserted_slice_373, %cst_293, %cst_292, %cst_292, %cst_293 : tensor<1x256x4x4xf32>, tensor<256xf32>, tensor<256xf32>, tensor<256xf32>, tensor<256xf32>) outs(%inserted_slice_373 : tensor<1x256x4x4xf32>) {
    ^bb0(%in: f32, %in_2322: f32, %in_2323: f32, %in_2324: f32, %in_2325: f32, %out: f32):
      %744 = arith.truncf %cst_321 : f64 to f32
      %745 = arith.addf %in_2325, %744 : f32
      %746 = math.rsqrt %745 : f32
      %747 = arith.subf %in, %in_2324 : f32
      %748 = arith.mulf %747, %746 : f32
      %749 = arith.mulf %748, %in_2322 : f32
      %750 = arith.addf %749, %in_2323 : f32
      linalg.yield %750 : f32
    } -> tensor<1x256x4x4xf32>
    %94 = linalg.generic {indexing_maps = [#map2, #map], iterator_types = ["parallel", "parallel", "parallel", "parallel"]} ins(%93 : tensor<1x256x4x4xf32>) outs(%92 : tensor<1x256x4x4xf32>) {
    ^bb0(%in: f32, %out: f32):
      %744 = arith.cmpf ugt, %in, %cst_319 : f32
      %745 = arith.select %744, %in, %cst_319 : f32
      linalg.yield %745 : f32
    } -> tensor<1x256x4x4xf32>
    %95 = linalg.conv_2d_nchw_fchw {dilations = dense<1> : vector<2xi64>, strides = dense<1> : vector<2xi64>} ins(%94, %cst_282 : tensor<1x256x4x4xf32>, tensor<128x256x1x1xf32>) outs(%59 : tensor<1x128x4x4xf32>) -> tensor<1x128x4x4xf32>
    cf.assert %3, "training is not supported for now"
    %96 = linalg.generic {indexing_maps = [#map, #map1, #map1, #map1, #map1, #map], iterator_types = ["parallel", "parallel", "parallel", "parallel"]} ins(%95, %cst_314, %cst_313, %cst_313, %cst_314 : tensor<1x128x4x4xf32>, tensor<128xf32>, tensor<128xf32>, tensor<128xf32>, tensor<128xf32>) outs(%95 : tensor<1x128x4x4xf32>) {
    ^bb0(%in: f32, %in_2322: f32, %in_2323: f32, %in_2324: f32, %in_2325: f32, %out: f32):
      %744 = arith.truncf %cst_321 : f64 to f32
      %745 = arith.addf %in_2325, %744 : f32
      %746 = math.rsqrt %745 : f32
      %747 = arith.subf %in, %in_2324 : f32
      %748 = arith.mulf %747, %746 : f32
      %749 = arith.mulf %748, %in_2322 : f32
      %750 = arith.addf %749, %in_2323 : f32
      linalg.yield %750 : f32
    } -> tensor<1x128x4x4xf32>
    %97 = linalg.generic {indexing_maps = [#map2, #map], iterator_types = ["parallel", "parallel", "parallel", "parallel"]} ins(%96 : tensor<1x128x4x4xf32>) outs(%58 : tensor<1x128x4x4xf32>) {
    ^bb0(%in: f32, %out: f32):
      %744 = arith.cmpf ugt, %in, %cst_319 : f32
      %745 = arith.select %744, %in, %cst_319 : f32
      linalg.yield %745 : f32
    } -> tensor<1x128x4x4xf32>
    %padded_374 = tensor.pad %97 low[0, 0, 1, 1] high[0, 0, 1, 1] {
    ^bb0(%arg1: index, %arg2: index, %arg3: index, %arg4: index):
      tensor.yield %cst_319 : f32
    } : tensor<1x128x4x4xf32> to tensor<1x128x6x6xf32>
    %98 = linalg.conv_2d_nchw_fchw {dilations = dense<1> : vector<2xi64>, strides = dense<1> : vector<2xi64>} ins(%padded_374, %cst_281 : tensor<1x128x6x6xf32>, tensor<32x128x3x3xf32>) outs(%69 : tensor<1x32x4x4xf32>) -> tensor<1x32x4x4xf32>
    %99 = tensor.empty() : tensor<1x288x4x4xf32>
    %inserted_slice_375 = tensor.insert_slice %62 into %99[0, 0, 0, 0] [1, 128, 4, 4] [1, 1, 1, 1] : tensor<1x128x4x4xf32> into tensor<1x288x4x4xf32>
    %inserted_slice_376 = tensor.insert_slice %70 into %inserted_slice_375[0, 128, 0, 0] [1, 32, 4, 4] [1, 1, 1, 1] : tensor<1x32x4x4xf32> into tensor<1x288x4x4xf32>
    %inserted_slice_377 = tensor.insert_slice %77 into %inserted_slice_376[0, 160, 0, 0] [1, 32, 4, 4] [1, 1, 1, 1] : tensor<1x32x4x4xf32> into tensor<1x288x4x4xf32>
    %inserted_slice_378 = tensor.insert_slice %84 into %inserted_slice_377[0, 192, 0, 0] [1, 32, 4, 4] [1, 1, 1, 1] : tensor<1x32x4x4xf32> into tensor<1x288x4x4xf32>
    %inserted_slice_379 = tensor.insert_slice %91 into %inserted_slice_378[0, 224, 0, 0] [1, 32, 4, 4] [1, 1, 1, 1] : tensor<1x32x4x4xf32> into tensor<1x288x4x4xf32>
    %inserted_slice_380 = tensor.insert_slice %98 into %inserted_slice_379[0, 256, 0, 0] [1, 32, 4, 4] [1, 1, 1, 1] : tensor<1x32x4x4xf32> into tensor<1x288x4x4xf32>
    cf.assert %3, "training is not supported for now"
    %100 = linalg.generic {indexing_maps = [#map, #map1, #map1, #map1, #map1, #map], iterator_types = ["parallel", "parallel", "parallel", "parallel"]} ins(%inserted_slice_380, %cst_280, %cst_279, %cst_279, %cst_280 : tensor<1x288x4x4xf32>, tensor<288xf32>, tensor<288xf32>, tensor<288xf32>, tensor<288xf32>) outs(%inserted_slice_380 : tensor<1x288x4x4xf32>) {
    ^bb0(%in: f32, %in_2322: f32, %in_2323: f32, %in_2324: f32, %in_2325: f32, %out: f32):
      %744 = arith.truncf %cst_321 : f64 to f32
      %745 = arith.addf %in_2325, %744 : f32
      %746 = math.rsqrt %745 : f32
      %747 = arith.subf %in, %in_2324 : f32
      %748 = arith.mulf %747, %746 : f32
      %749 = arith.mulf %748, %in_2322 : f32
      %750 = arith.addf %749, %in_2323 : f32
      linalg.yield %750 : f32
    } -> tensor<1x288x4x4xf32>
    %101 = linalg.generic {indexing_maps = [#map2, #map], iterator_types = ["parallel", "parallel", "parallel", "parallel"]} ins(%100 : tensor<1x288x4x4xf32>) outs(%99 : tensor<1x288x4x4xf32>) {
    ^bb0(%in: f32, %out: f32):
      %744 = arith.cmpf ugt, %in, %cst_319 : f32
      %745 = arith.select %744, %in, %cst_319 : f32
      linalg.yield %745 : f32
    } -> tensor<1x288x4x4xf32>
    %102 = linalg.conv_2d_nchw_fchw {dilations = dense<1> : vector<2xi64>, strides = dense<1> : vector<2xi64>} ins(%101, %cst_278 : tensor<1x288x4x4xf32>, tensor<128x288x1x1xf32>) outs(%59 : tensor<1x128x4x4xf32>) -> tensor<1x128x4x4xf32>
    cf.assert %3, "training is not supported for now"
    %103 = linalg.generic {indexing_maps = [#map, #map1, #map1, #map1, #map1, #map], iterator_types = ["parallel", "parallel", "parallel", "parallel"]} ins(%102, %cst_314, %cst_313, %cst_313, %cst_314 : tensor<1x128x4x4xf32>, tensor<128xf32>, tensor<128xf32>, tensor<128xf32>, tensor<128xf32>) outs(%102 : tensor<1x128x4x4xf32>) {
    ^bb0(%in: f32, %in_2322: f32, %in_2323: f32, %in_2324: f32, %in_2325: f32, %out: f32):
      %744 = arith.truncf %cst_321 : f64 to f32
      %745 = arith.addf %in_2325, %744 : f32
      %746 = math.rsqrt %745 : f32
      %747 = arith.subf %in, %in_2324 : f32
      %748 = arith.mulf %747, %746 : f32
      %749 = arith.mulf %748, %in_2322 : f32
      %750 = arith.addf %749, %in_2323 : f32
      linalg.yield %750 : f32
    } -> tensor<1x128x4x4xf32>
    %104 = linalg.generic {indexing_maps = [#map2, #map], iterator_types = ["parallel", "parallel", "parallel", "parallel"]} ins(%103 : tensor<1x128x4x4xf32>) outs(%58 : tensor<1x128x4x4xf32>) {
    ^bb0(%in: f32, %out: f32):
      %744 = arith.cmpf ugt, %in, %cst_319 : f32
      %745 = arith.select %744, %in, %cst_319 : f32
      linalg.yield %745 : f32
    } -> tensor<1x128x4x4xf32>
    %padded_381 = tensor.pad %104 low[0, 0, 1, 1] high[0, 0, 1, 1] {
    ^bb0(%arg1: index, %arg2: index, %arg3: index, %arg4: index):
      tensor.yield %cst_319 : f32
    } : tensor<1x128x4x4xf32> to tensor<1x128x6x6xf32>
    %105 = linalg.conv_2d_nchw_fchw {dilations = dense<1> : vector<2xi64>, strides = dense<1> : vector<2xi64>} ins(%padded_381, %cst_277 : tensor<1x128x6x6xf32>, tensor<32x128x3x3xf32>) outs(%69 : tensor<1x32x4x4xf32>) -> tensor<1x32x4x4xf32>
    %106 = tensor.empty() : tensor<1x320x4x4xf32>
    %inserted_slice_382 = tensor.insert_slice %62 into %106[0, 0, 0, 0] [1, 128, 4, 4] [1, 1, 1, 1] : tensor<1x128x4x4xf32> into tensor<1x320x4x4xf32>
    %inserted_slice_383 = tensor.insert_slice %70 into %inserted_slice_382[0, 128, 0, 0] [1, 32, 4, 4] [1, 1, 1, 1] : tensor<1x32x4x4xf32> into tensor<1x320x4x4xf32>
    %inserted_slice_384 = tensor.insert_slice %77 into %inserted_slice_383[0, 160, 0, 0] [1, 32, 4, 4] [1, 1, 1, 1] : tensor<1x32x4x4xf32> into tensor<1x320x4x4xf32>
    %inserted_slice_385 = tensor.insert_slice %84 into %inserted_slice_384[0, 192, 0, 0] [1, 32, 4, 4] [1, 1, 1, 1] : tensor<1x32x4x4xf32> into tensor<1x320x4x4xf32>
    %inserted_slice_386 = tensor.insert_slice %91 into %inserted_slice_385[0, 224, 0, 0] [1, 32, 4, 4] [1, 1, 1, 1] : tensor<1x32x4x4xf32> into tensor<1x320x4x4xf32>
    %inserted_slice_387 = tensor.insert_slice %98 into %inserted_slice_386[0, 256, 0, 0] [1, 32, 4, 4] [1, 1, 1, 1] : tensor<1x32x4x4xf32> into tensor<1x320x4x4xf32>
    %inserted_slice_388 = tensor.insert_slice %105 into %inserted_slice_387[0, 288, 0, 0] [1, 32, 4, 4] [1, 1, 1, 1] : tensor<1x32x4x4xf32> into tensor<1x320x4x4xf32>
    cf.assert %3, "training is not supported for now"
    %107 = linalg.generic {indexing_maps = [#map, #map1, #map1, #map1, #map1, #map], iterator_types = ["parallel", "parallel", "parallel", "parallel"]} ins(%inserted_slice_388, %cst_276, %cst_275, %cst_275, %cst_276 : tensor<1x320x4x4xf32>, tensor<320xf32>, tensor<320xf32>, tensor<320xf32>, tensor<320xf32>) outs(%inserted_slice_388 : tensor<1x320x4x4xf32>) {
    ^bb0(%in: f32, %in_2322: f32, %in_2323: f32, %in_2324: f32, %in_2325: f32, %out: f32):
      %744 = arith.truncf %cst_321 : f64 to f32
      %745 = arith.addf %in_2325, %744 : f32
      %746 = math.rsqrt %745 : f32
      %747 = arith.subf %in, %in_2324 : f32
      %748 = arith.mulf %747, %746 : f32
      %749 = arith.mulf %748, %in_2322 : f32
      %750 = arith.addf %749, %in_2323 : f32
      linalg.yield %750 : f32
    } -> tensor<1x320x4x4xf32>
    %108 = linalg.generic {indexing_maps = [#map2, #map], iterator_types = ["parallel", "parallel", "parallel", "parallel"]} ins(%107 : tensor<1x320x4x4xf32>) outs(%106 : tensor<1x320x4x4xf32>) {
    ^bb0(%in: f32, %out: f32):
      %744 = arith.cmpf ugt, %in, %cst_319 : f32
      %745 = arith.select %744, %in, %cst_319 : f32
      linalg.yield %745 : f32
    } -> tensor<1x320x4x4xf32>
    %109 = linalg.conv_2d_nchw_fchw {dilations = dense<1> : vector<2xi64>, strides = dense<1> : vector<2xi64>} ins(%108, %cst_274 : tensor<1x320x4x4xf32>, tensor<128x320x1x1xf32>) outs(%59 : tensor<1x128x4x4xf32>) -> tensor<1x128x4x4xf32>
    cf.assert %3, "training is not supported for now"
    %110 = linalg.generic {indexing_maps = [#map, #map1, #map1, #map1, #map1, #map], iterator_types = ["parallel", "parallel", "parallel", "parallel"]} ins(%109, %cst_314, %cst_313, %cst_313, %cst_314 : tensor<1x128x4x4xf32>, tensor<128xf32>, tensor<128xf32>, tensor<128xf32>, tensor<128xf32>) outs(%109 : tensor<1x128x4x4xf32>) {
    ^bb0(%in: f32, %in_2322: f32, %in_2323: f32, %in_2324: f32, %in_2325: f32, %out: f32):
      %744 = arith.truncf %cst_321 : f64 to f32
      %745 = arith.addf %in_2325, %744 : f32
      %746 = math.rsqrt %745 : f32
      %747 = arith.subf %in, %in_2324 : f32
      %748 = arith.mulf %747, %746 : f32
      %749 = arith.mulf %748, %in_2322 : f32
      %750 = arith.addf %749, %in_2323 : f32
      linalg.yield %750 : f32
    } -> tensor<1x128x4x4xf32>
    %111 = linalg.generic {indexing_maps = [#map2, #map], iterator_types = ["parallel", "parallel", "parallel", "parallel"]} ins(%110 : tensor<1x128x4x4xf32>) outs(%58 : tensor<1x128x4x4xf32>) {
    ^bb0(%in: f32, %out: f32):
      %744 = arith.cmpf ugt, %in, %cst_319 : f32
      %745 = arith.select %744, %in, %cst_319 : f32
      linalg.yield %745 : f32
    } -> tensor<1x128x4x4xf32>
    %padded_389 = tensor.pad %111 low[0, 0, 1, 1] high[0, 0, 1, 1] {
    ^bb0(%arg1: index, %arg2: index, %arg3: index, %arg4: index):
      tensor.yield %cst_319 : f32
    } : tensor<1x128x4x4xf32> to tensor<1x128x6x6xf32>
    %112 = linalg.conv_2d_nchw_fchw {dilations = dense<1> : vector<2xi64>, strides = dense<1> : vector<2xi64>} ins(%padded_389, %cst_273 : tensor<1x128x6x6xf32>, tensor<32x128x3x3xf32>) outs(%69 : tensor<1x32x4x4xf32>) -> tensor<1x32x4x4xf32>
    %113 = tensor.empty() : tensor<1x352x4x4xf32>
    %inserted_slice_390 = tensor.insert_slice %62 into %113[0, 0, 0, 0] [1, 128, 4, 4] [1, 1, 1, 1] : tensor<1x128x4x4xf32> into tensor<1x352x4x4xf32>
    %inserted_slice_391 = tensor.insert_slice %70 into %inserted_slice_390[0, 128, 0, 0] [1, 32, 4, 4] [1, 1, 1, 1] : tensor<1x32x4x4xf32> into tensor<1x352x4x4xf32>
    %inserted_slice_392 = tensor.insert_slice %77 into %inserted_slice_391[0, 160, 0, 0] [1, 32, 4, 4] [1, 1, 1, 1] : tensor<1x32x4x4xf32> into tensor<1x352x4x4xf32>
    %inserted_slice_393 = tensor.insert_slice %84 into %inserted_slice_392[0, 192, 0, 0] [1, 32, 4, 4] [1, 1, 1, 1] : tensor<1x32x4x4xf32> into tensor<1x352x4x4xf32>
    %inserted_slice_394 = tensor.insert_slice %91 into %inserted_slice_393[0, 224, 0, 0] [1, 32, 4, 4] [1, 1, 1, 1] : tensor<1x32x4x4xf32> into tensor<1x352x4x4xf32>
    %inserted_slice_395 = tensor.insert_slice %98 into %inserted_slice_394[0, 256, 0, 0] [1, 32, 4, 4] [1, 1, 1, 1] : tensor<1x32x4x4xf32> into tensor<1x352x4x4xf32>
    %inserted_slice_396 = tensor.insert_slice %105 into %inserted_slice_395[0, 288, 0, 0] [1, 32, 4, 4] [1, 1, 1, 1] : tensor<1x32x4x4xf32> into tensor<1x352x4x4xf32>
    %inserted_slice_397 = tensor.insert_slice %112 into %inserted_slice_396[0, 320, 0, 0] [1, 32, 4, 4] [1, 1, 1, 1] : tensor<1x32x4x4xf32> into tensor<1x352x4x4xf32>
    cf.assert %3, "training is not supported for now"
    %114 = linalg.generic {indexing_maps = [#map, #map1, #map1, #map1, #map1, #map], iterator_types = ["parallel", "parallel", "parallel", "parallel"]} ins(%inserted_slice_397, %cst_272, %cst_271, %cst_271, %cst_272 : tensor<1x352x4x4xf32>, tensor<352xf32>, tensor<352xf32>, tensor<352xf32>, tensor<352xf32>) outs(%inserted_slice_397 : tensor<1x352x4x4xf32>) {
    ^bb0(%in: f32, %in_2322: f32, %in_2323: f32, %in_2324: f32, %in_2325: f32, %out: f32):
      %744 = arith.truncf %cst_321 : f64 to f32
      %745 = arith.addf %in_2325, %744 : f32
      %746 = math.rsqrt %745 : f32
      %747 = arith.subf %in, %in_2324 : f32
      %748 = arith.mulf %747, %746 : f32
      %749 = arith.mulf %748, %in_2322 : f32
      %750 = arith.addf %749, %in_2323 : f32
      linalg.yield %750 : f32
    } -> tensor<1x352x4x4xf32>
    %115 = linalg.generic {indexing_maps = [#map2, #map], iterator_types = ["parallel", "parallel", "parallel", "parallel"]} ins(%114 : tensor<1x352x4x4xf32>) outs(%113 : tensor<1x352x4x4xf32>) {
    ^bb0(%in: f32, %out: f32):
      %744 = arith.cmpf ugt, %in, %cst_319 : f32
      %745 = arith.select %744, %in, %cst_319 : f32
      linalg.yield %745 : f32
    } -> tensor<1x352x4x4xf32>
    %116 = linalg.conv_2d_nchw_fchw {dilations = dense<1> : vector<2xi64>, strides = dense<1> : vector<2xi64>} ins(%115, %cst_270 : tensor<1x352x4x4xf32>, tensor<128x352x1x1xf32>) outs(%59 : tensor<1x128x4x4xf32>) -> tensor<1x128x4x4xf32>
    cf.assert %3, "training is not supported for now"
    %117 = linalg.generic {indexing_maps = [#map, #map1, #map1, #map1, #map1, #map], iterator_types = ["parallel", "parallel", "parallel", "parallel"]} ins(%116, %cst_314, %cst_313, %cst_313, %cst_314 : tensor<1x128x4x4xf32>, tensor<128xf32>, tensor<128xf32>, tensor<128xf32>, tensor<128xf32>) outs(%116 : tensor<1x128x4x4xf32>) {
    ^bb0(%in: f32, %in_2322: f32, %in_2323: f32, %in_2324: f32, %in_2325: f32, %out: f32):
      %744 = arith.truncf %cst_321 : f64 to f32
      %745 = arith.addf %in_2325, %744 : f32
      %746 = math.rsqrt %745 : f32
      %747 = arith.subf %in, %in_2324 : f32
      %748 = arith.mulf %747, %746 : f32
      %749 = arith.mulf %748, %in_2322 : f32
      %750 = arith.addf %749, %in_2323 : f32
      linalg.yield %750 : f32
    } -> tensor<1x128x4x4xf32>
    %118 = linalg.generic {indexing_maps = [#map2, #map], iterator_types = ["parallel", "parallel", "parallel", "parallel"]} ins(%117 : tensor<1x128x4x4xf32>) outs(%58 : tensor<1x128x4x4xf32>) {
    ^bb0(%in: f32, %out: f32):
      %744 = arith.cmpf ugt, %in, %cst_319 : f32
      %745 = arith.select %744, %in, %cst_319 : f32
      linalg.yield %745 : f32
    } -> tensor<1x128x4x4xf32>
    %padded_398 = tensor.pad %118 low[0, 0, 1, 1] high[0, 0, 1, 1] {
    ^bb0(%arg1: index, %arg2: index, %arg3: index, %arg4: index):
      tensor.yield %cst_319 : f32
    } : tensor<1x128x4x4xf32> to tensor<1x128x6x6xf32>
    %119 = linalg.conv_2d_nchw_fchw {dilations = dense<1> : vector<2xi64>, strides = dense<1> : vector<2xi64>} ins(%padded_398, %cst_269 : tensor<1x128x6x6xf32>, tensor<32x128x3x3xf32>) outs(%69 : tensor<1x32x4x4xf32>) -> tensor<1x32x4x4xf32>
    %120 = tensor.empty() : tensor<1x384x4x4xf32>
    %inserted_slice_399 = tensor.insert_slice %62 into %120[0, 0, 0, 0] [1, 128, 4, 4] [1, 1, 1, 1] : tensor<1x128x4x4xf32> into tensor<1x384x4x4xf32>
    %inserted_slice_400 = tensor.insert_slice %70 into %inserted_slice_399[0, 128, 0, 0] [1, 32, 4, 4] [1, 1, 1, 1] : tensor<1x32x4x4xf32> into tensor<1x384x4x4xf32>
    %inserted_slice_401 = tensor.insert_slice %77 into %inserted_slice_400[0, 160, 0, 0] [1, 32, 4, 4] [1, 1, 1, 1] : tensor<1x32x4x4xf32> into tensor<1x384x4x4xf32>
    %inserted_slice_402 = tensor.insert_slice %84 into %inserted_slice_401[0, 192, 0, 0] [1, 32, 4, 4] [1, 1, 1, 1] : tensor<1x32x4x4xf32> into tensor<1x384x4x4xf32>
    %inserted_slice_403 = tensor.insert_slice %91 into %inserted_slice_402[0, 224, 0, 0] [1, 32, 4, 4] [1, 1, 1, 1] : tensor<1x32x4x4xf32> into tensor<1x384x4x4xf32>
    %inserted_slice_404 = tensor.insert_slice %98 into %inserted_slice_403[0, 256, 0, 0] [1, 32, 4, 4] [1, 1, 1, 1] : tensor<1x32x4x4xf32> into tensor<1x384x4x4xf32>
    %inserted_slice_405 = tensor.insert_slice %105 into %inserted_slice_404[0, 288, 0, 0] [1, 32, 4, 4] [1, 1, 1, 1] : tensor<1x32x4x4xf32> into tensor<1x384x4x4xf32>
    %inserted_slice_406 = tensor.insert_slice %112 into %inserted_slice_405[0, 320, 0, 0] [1, 32, 4, 4] [1, 1, 1, 1] : tensor<1x32x4x4xf32> into tensor<1x384x4x4xf32>
    %inserted_slice_407 = tensor.insert_slice %119 into %inserted_slice_406[0, 352, 0, 0] [1, 32, 4, 4] [1, 1, 1, 1] : tensor<1x32x4x4xf32> into tensor<1x384x4x4xf32>
    cf.assert %3, "training is not supported for now"
    %121 = linalg.generic {indexing_maps = [#map, #map1, #map1, #map1, #map1, #map], iterator_types = ["parallel", "parallel", "parallel", "parallel"]} ins(%inserted_slice_407, %cst_268, %cst_267, %cst_267, %cst_268 : tensor<1x384x4x4xf32>, tensor<384xf32>, tensor<384xf32>, tensor<384xf32>, tensor<384xf32>) outs(%inserted_slice_407 : tensor<1x384x4x4xf32>) {
    ^bb0(%in: f32, %in_2322: f32, %in_2323: f32, %in_2324: f32, %in_2325: f32, %out: f32):
      %744 = arith.truncf %cst_321 : f64 to f32
      %745 = arith.addf %in_2325, %744 : f32
      %746 = math.rsqrt %745 : f32
      %747 = arith.subf %in, %in_2324 : f32
      %748 = arith.mulf %747, %746 : f32
      %749 = arith.mulf %748, %in_2322 : f32
      %750 = arith.addf %749, %in_2323 : f32
      linalg.yield %750 : f32
    } -> tensor<1x384x4x4xf32>
    %122 = linalg.generic {indexing_maps = [#map2, #map], iterator_types = ["parallel", "parallel", "parallel", "parallel"]} ins(%121 : tensor<1x384x4x4xf32>) outs(%120 : tensor<1x384x4x4xf32>) {
    ^bb0(%in: f32, %out: f32):
      %744 = arith.cmpf ugt, %in, %cst_319 : f32
      %745 = arith.select %744, %in, %cst_319 : f32
      linalg.yield %745 : f32
    } -> tensor<1x384x4x4xf32>
    %123 = linalg.conv_2d_nchw_fchw {dilations = dense<1> : vector<2xi64>, strides = dense<1> : vector<2xi64>} ins(%122, %cst_266 : tensor<1x384x4x4xf32>, tensor<128x384x1x1xf32>) outs(%59 : tensor<1x128x4x4xf32>) -> tensor<1x128x4x4xf32>
    cf.assert %3, "training is not supported for now"
    %124 = linalg.generic {indexing_maps = [#map, #map1, #map1, #map1, #map1, #map], iterator_types = ["parallel", "parallel", "parallel", "parallel"]} ins(%123, %cst_314, %cst_313, %cst_313, %cst_314 : tensor<1x128x4x4xf32>, tensor<128xf32>, tensor<128xf32>, tensor<128xf32>, tensor<128xf32>) outs(%123 : tensor<1x128x4x4xf32>) {
    ^bb0(%in: f32, %in_2322: f32, %in_2323: f32, %in_2324: f32, %in_2325: f32, %out: f32):
      %744 = arith.truncf %cst_321 : f64 to f32
      %745 = arith.addf %in_2325, %744 : f32
      %746 = math.rsqrt %745 : f32
      %747 = arith.subf %in, %in_2324 : f32
      %748 = arith.mulf %747, %746 : f32
      %749 = arith.mulf %748, %in_2322 : f32
      %750 = arith.addf %749, %in_2323 : f32
      linalg.yield %750 : f32
    } -> tensor<1x128x4x4xf32>
    %125 = linalg.generic {indexing_maps = [#map2, #map], iterator_types = ["parallel", "parallel", "parallel", "parallel"]} ins(%124 : tensor<1x128x4x4xf32>) outs(%58 : tensor<1x128x4x4xf32>) {
    ^bb0(%in: f32, %out: f32):
      %744 = arith.cmpf ugt, %in, %cst_319 : f32
      %745 = arith.select %744, %in, %cst_319 : f32
      linalg.yield %745 : f32
    } -> tensor<1x128x4x4xf32>
    %padded_408 = tensor.pad %125 low[0, 0, 1, 1] high[0, 0, 1, 1] {
    ^bb0(%arg1: index, %arg2: index, %arg3: index, %arg4: index):
      tensor.yield %cst_319 : f32
    } : tensor<1x128x4x4xf32> to tensor<1x128x6x6xf32>
    %126 = linalg.conv_2d_nchw_fchw {dilations = dense<1> : vector<2xi64>, strides = dense<1> : vector<2xi64>} ins(%padded_408, %cst_265 : tensor<1x128x6x6xf32>, tensor<32x128x3x3xf32>) outs(%69 : tensor<1x32x4x4xf32>) -> tensor<1x32x4x4xf32>
    %127 = tensor.empty() : tensor<1x416x4x4xf32>
    %inserted_slice_409 = tensor.insert_slice %62 into %127[0, 0, 0, 0] [1, 128, 4, 4] [1, 1, 1, 1] : tensor<1x128x4x4xf32> into tensor<1x416x4x4xf32>
    %inserted_slice_410 = tensor.insert_slice %70 into %inserted_slice_409[0, 128, 0, 0] [1, 32, 4, 4] [1, 1, 1, 1] : tensor<1x32x4x4xf32> into tensor<1x416x4x4xf32>
    %inserted_slice_411 = tensor.insert_slice %77 into %inserted_slice_410[0, 160, 0, 0] [1, 32, 4, 4] [1, 1, 1, 1] : tensor<1x32x4x4xf32> into tensor<1x416x4x4xf32>
    %inserted_slice_412 = tensor.insert_slice %84 into %inserted_slice_411[0, 192, 0, 0] [1, 32, 4, 4] [1, 1, 1, 1] : tensor<1x32x4x4xf32> into tensor<1x416x4x4xf32>
    %inserted_slice_413 = tensor.insert_slice %91 into %inserted_slice_412[0, 224, 0, 0] [1, 32, 4, 4] [1, 1, 1, 1] : tensor<1x32x4x4xf32> into tensor<1x416x4x4xf32>
    %inserted_slice_414 = tensor.insert_slice %98 into %inserted_slice_413[0, 256, 0, 0] [1, 32, 4, 4] [1, 1, 1, 1] : tensor<1x32x4x4xf32> into tensor<1x416x4x4xf32>
    %inserted_slice_415 = tensor.insert_slice %105 into %inserted_slice_414[0, 288, 0, 0] [1, 32, 4, 4] [1, 1, 1, 1] : tensor<1x32x4x4xf32> into tensor<1x416x4x4xf32>
    %inserted_slice_416 = tensor.insert_slice %112 into %inserted_slice_415[0, 320, 0, 0] [1, 32, 4, 4] [1, 1, 1, 1] : tensor<1x32x4x4xf32> into tensor<1x416x4x4xf32>
    %inserted_slice_417 = tensor.insert_slice %119 into %inserted_slice_416[0, 352, 0, 0] [1, 32, 4, 4] [1, 1, 1, 1] : tensor<1x32x4x4xf32> into tensor<1x416x4x4xf32>
    %inserted_slice_418 = tensor.insert_slice %126 into %inserted_slice_417[0, 384, 0, 0] [1, 32, 4, 4] [1, 1, 1, 1] : tensor<1x32x4x4xf32> into tensor<1x416x4x4xf32>
    cf.assert %3, "training is not supported for now"
    %128 = linalg.generic {indexing_maps = [#map, #map1, #map1, #map1, #map1, #map], iterator_types = ["parallel", "parallel", "parallel", "parallel"]} ins(%inserted_slice_418, %cst_264, %cst_263, %cst_263, %cst_264 : tensor<1x416x4x4xf32>, tensor<416xf32>, tensor<416xf32>, tensor<416xf32>, tensor<416xf32>) outs(%inserted_slice_418 : tensor<1x416x4x4xf32>) {
    ^bb0(%in: f32, %in_2322: f32, %in_2323: f32, %in_2324: f32, %in_2325: f32, %out: f32):
      %744 = arith.truncf %cst_321 : f64 to f32
      %745 = arith.addf %in_2325, %744 : f32
      %746 = math.rsqrt %745 : f32
      %747 = arith.subf %in, %in_2324 : f32
      %748 = arith.mulf %747, %746 : f32
      %749 = arith.mulf %748, %in_2322 : f32
      %750 = arith.addf %749, %in_2323 : f32
      linalg.yield %750 : f32
    } -> tensor<1x416x4x4xf32>
    %129 = linalg.generic {indexing_maps = [#map2, #map], iterator_types = ["parallel", "parallel", "parallel", "parallel"]} ins(%128 : tensor<1x416x4x4xf32>) outs(%127 : tensor<1x416x4x4xf32>) {
    ^bb0(%in: f32, %out: f32):
      %744 = arith.cmpf ugt, %in, %cst_319 : f32
      %745 = arith.select %744, %in, %cst_319 : f32
      linalg.yield %745 : f32
    } -> tensor<1x416x4x4xf32>
    %130 = linalg.conv_2d_nchw_fchw {dilations = dense<1> : vector<2xi64>, strides = dense<1> : vector<2xi64>} ins(%129, %cst_262 : tensor<1x416x4x4xf32>, tensor<128x416x1x1xf32>) outs(%59 : tensor<1x128x4x4xf32>) -> tensor<1x128x4x4xf32>
    cf.assert %3, "training is not supported for now"
    %131 = linalg.generic {indexing_maps = [#map, #map1, #map1, #map1, #map1, #map], iterator_types = ["parallel", "parallel", "parallel", "parallel"]} ins(%130, %cst_314, %cst_313, %cst_313, %cst_314 : tensor<1x128x4x4xf32>, tensor<128xf32>, tensor<128xf32>, tensor<128xf32>, tensor<128xf32>) outs(%130 : tensor<1x128x4x4xf32>) {
    ^bb0(%in: f32, %in_2322: f32, %in_2323: f32, %in_2324: f32, %in_2325: f32, %out: f32):
      %744 = arith.truncf %cst_321 : f64 to f32
      %745 = arith.addf %in_2325, %744 : f32
      %746 = math.rsqrt %745 : f32
      %747 = arith.subf %in, %in_2324 : f32
      %748 = arith.mulf %747, %746 : f32
      %749 = arith.mulf %748, %in_2322 : f32
      %750 = arith.addf %749, %in_2323 : f32
      linalg.yield %750 : f32
    } -> tensor<1x128x4x4xf32>
    %132 = linalg.generic {indexing_maps = [#map2, #map], iterator_types = ["parallel", "parallel", "parallel", "parallel"]} ins(%131 : tensor<1x128x4x4xf32>) outs(%58 : tensor<1x128x4x4xf32>) {
    ^bb0(%in: f32, %out: f32):
      %744 = arith.cmpf ugt, %in, %cst_319 : f32
      %745 = arith.select %744, %in, %cst_319 : f32
      linalg.yield %745 : f32
    } -> tensor<1x128x4x4xf32>
    %padded_419 = tensor.pad %132 low[0, 0, 1, 1] high[0, 0, 1, 1] {
    ^bb0(%arg1: index, %arg2: index, %arg3: index, %arg4: index):
      tensor.yield %cst_319 : f32
    } : tensor<1x128x4x4xf32> to tensor<1x128x6x6xf32>
    %133 = linalg.conv_2d_nchw_fchw {dilations = dense<1> : vector<2xi64>, strides = dense<1> : vector<2xi64>} ins(%padded_419, %cst_261 : tensor<1x128x6x6xf32>, tensor<32x128x3x3xf32>) outs(%69 : tensor<1x32x4x4xf32>) -> tensor<1x32x4x4xf32>
    %134 = tensor.empty() : tensor<1x448x4x4xf32>
    %inserted_slice_420 = tensor.insert_slice %62 into %134[0, 0, 0, 0] [1, 128, 4, 4] [1, 1, 1, 1] : tensor<1x128x4x4xf32> into tensor<1x448x4x4xf32>
    %inserted_slice_421 = tensor.insert_slice %70 into %inserted_slice_420[0, 128, 0, 0] [1, 32, 4, 4] [1, 1, 1, 1] : tensor<1x32x4x4xf32> into tensor<1x448x4x4xf32>
    %inserted_slice_422 = tensor.insert_slice %77 into %inserted_slice_421[0, 160, 0, 0] [1, 32, 4, 4] [1, 1, 1, 1] : tensor<1x32x4x4xf32> into tensor<1x448x4x4xf32>
    %inserted_slice_423 = tensor.insert_slice %84 into %inserted_slice_422[0, 192, 0, 0] [1, 32, 4, 4] [1, 1, 1, 1] : tensor<1x32x4x4xf32> into tensor<1x448x4x4xf32>
    %inserted_slice_424 = tensor.insert_slice %91 into %inserted_slice_423[0, 224, 0, 0] [1, 32, 4, 4] [1, 1, 1, 1] : tensor<1x32x4x4xf32> into tensor<1x448x4x4xf32>
    %inserted_slice_425 = tensor.insert_slice %98 into %inserted_slice_424[0, 256, 0, 0] [1, 32, 4, 4] [1, 1, 1, 1] : tensor<1x32x4x4xf32> into tensor<1x448x4x4xf32>
    %inserted_slice_426 = tensor.insert_slice %105 into %inserted_slice_425[0, 288, 0, 0] [1, 32, 4, 4] [1, 1, 1, 1] : tensor<1x32x4x4xf32> into tensor<1x448x4x4xf32>
    %inserted_slice_427 = tensor.insert_slice %112 into %inserted_slice_426[0, 320, 0, 0] [1, 32, 4, 4] [1, 1, 1, 1] : tensor<1x32x4x4xf32> into tensor<1x448x4x4xf32>
    %inserted_slice_428 = tensor.insert_slice %119 into %inserted_slice_427[0, 352, 0, 0] [1, 32, 4, 4] [1, 1, 1, 1] : tensor<1x32x4x4xf32> into tensor<1x448x4x4xf32>
    %inserted_slice_429 = tensor.insert_slice %126 into %inserted_slice_428[0, 384, 0, 0] [1, 32, 4, 4] [1, 1, 1, 1] : tensor<1x32x4x4xf32> into tensor<1x448x4x4xf32>
    %inserted_slice_430 = tensor.insert_slice %133 into %inserted_slice_429[0, 416, 0, 0] [1, 32, 4, 4] [1, 1, 1, 1] : tensor<1x32x4x4xf32> into tensor<1x448x4x4xf32>
    cf.assert %3, "training is not supported for now"
    %135 = linalg.generic {indexing_maps = [#map, #map1, #map1, #map1, #map1, #map], iterator_types = ["parallel", "parallel", "parallel", "parallel"]} ins(%inserted_slice_430, %cst_260, %cst_259, %cst_259, %cst_260 : tensor<1x448x4x4xf32>, tensor<448xf32>, tensor<448xf32>, tensor<448xf32>, tensor<448xf32>) outs(%inserted_slice_430 : tensor<1x448x4x4xf32>) {
    ^bb0(%in: f32, %in_2322: f32, %in_2323: f32, %in_2324: f32, %in_2325: f32, %out: f32):
      %744 = arith.truncf %cst_321 : f64 to f32
      %745 = arith.addf %in_2325, %744 : f32
      %746 = math.rsqrt %745 : f32
      %747 = arith.subf %in, %in_2324 : f32
      %748 = arith.mulf %747, %746 : f32
      %749 = arith.mulf %748, %in_2322 : f32
      %750 = arith.addf %749, %in_2323 : f32
      linalg.yield %750 : f32
    } -> tensor<1x448x4x4xf32>
    %136 = linalg.generic {indexing_maps = [#map2, #map], iterator_types = ["parallel", "parallel", "parallel", "parallel"]} ins(%135 : tensor<1x448x4x4xf32>) outs(%134 : tensor<1x448x4x4xf32>) {
    ^bb0(%in: f32, %out: f32):
      %744 = arith.cmpf ugt, %in, %cst_319 : f32
      %745 = arith.select %744, %in, %cst_319 : f32
      linalg.yield %745 : f32
    } -> tensor<1x448x4x4xf32>
    %137 = linalg.conv_2d_nchw_fchw {dilations = dense<1> : vector<2xi64>, strides = dense<1> : vector<2xi64>} ins(%136, %cst_258 : tensor<1x448x4x4xf32>, tensor<128x448x1x1xf32>) outs(%59 : tensor<1x128x4x4xf32>) -> tensor<1x128x4x4xf32>
    cf.assert %3, "training is not supported for now"
    %138 = linalg.generic {indexing_maps = [#map, #map1, #map1, #map1, #map1, #map], iterator_types = ["parallel", "parallel", "parallel", "parallel"]} ins(%137, %cst_314, %cst_313, %cst_313, %cst_314 : tensor<1x128x4x4xf32>, tensor<128xf32>, tensor<128xf32>, tensor<128xf32>, tensor<128xf32>) outs(%137 : tensor<1x128x4x4xf32>) {
    ^bb0(%in: f32, %in_2322: f32, %in_2323: f32, %in_2324: f32, %in_2325: f32, %out: f32):
      %744 = arith.truncf %cst_321 : f64 to f32
      %745 = arith.addf %in_2325, %744 : f32
      %746 = math.rsqrt %745 : f32
      %747 = arith.subf %in, %in_2324 : f32
      %748 = arith.mulf %747, %746 : f32
      %749 = arith.mulf %748, %in_2322 : f32
      %750 = arith.addf %749, %in_2323 : f32
      linalg.yield %750 : f32
    } -> tensor<1x128x4x4xf32>
    %139 = linalg.generic {indexing_maps = [#map2, #map], iterator_types = ["parallel", "parallel", "parallel", "parallel"]} ins(%138 : tensor<1x128x4x4xf32>) outs(%58 : tensor<1x128x4x4xf32>) {
    ^bb0(%in: f32, %out: f32):
      %744 = arith.cmpf ugt, %in, %cst_319 : f32
      %745 = arith.select %744, %in, %cst_319 : f32
      linalg.yield %745 : f32
    } -> tensor<1x128x4x4xf32>
    %padded_431 = tensor.pad %139 low[0, 0, 1, 1] high[0, 0, 1, 1] {
    ^bb0(%arg1: index, %arg2: index, %arg3: index, %arg4: index):
      tensor.yield %cst_319 : f32
    } : tensor<1x128x4x4xf32> to tensor<1x128x6x6xf32>
    %140 = linalg.conv_2d_nchw_fchw {dilations = dense<1> : vector<2xi64>, strides = dense<1> : vector<2xi64>} ins(%padded_431, %cst_257 : tensor<1x128x6x6xf32>, tensor<32x128x3x3xf32>) outs(%69 : tensor<1x32x4x4xf32>) -> tensor<1x32x4x4xf32>
    %141 = tensor.empty() : tensor<1x480x4x4xf32>
    %inserted_slice_432 = tensor.insert_slice %62 into %141[0, 0, 0, 0] [1, 128, 4, 4] [1, 1, 1, 1] : tensor<1x128x4x4xf32> into tensor<1x480x4x4xf32>
    %inserted_slice_433 = tensor.insert_slice %70 into %inserted_slice_432[0, 128, 0, 0] [1, 32, 4, 4] [1, 1, 1, 1] : tensor<1x32x4x4xf32> into tensor<1x480x4x4xf32>
    %inserted_slice_434 = tensor.insert_slice %77 into %inserted_slice_433[0, 160, 0, 0] [1, 32, 4, 4] [1, 1, 1, 1] : tensor<1x32x4x4xf32> into tensor<1x480x4x4xf32>
    %inserted_slice_435 = tensor.insert_slice %84 into %inserted_slice_434[0, 192, 0, 0] [1, 32, 4, 4] [1, 1, 1, 1] : tensor<1x32x4x4xf32> into tensor<1x480x4x4xf32>
    %inserted_slice_436 = tensor.insert_slice %91 into %inserted_slice_435[0, 224, 0, 0] [1, 32, 4, 4] [1, 1, 1, 1] : tensor<1x32x4x4xf32> into tensor<1x480x4x4xf32>
    %inserted_slice_437 = tensor.insert_slice %98 into %inserted_slice_436[0, 256, 0, 0] [1, 32, 4, 4] [1, 1, 1, 1] : tensor<1x32x4x4xf32> into tensor<1x480x4x4xf32>
    %inserted_slice_438 = tensor.insert_slice %105 into %inserted_slice_437[0, 288, 0, 0] [1, 32, 4, 4] [1, 1, 1, 1] : tensor<1x32x4x4xf32> into tensor<1x480x4x4xf32>
    %inserted_slice_439 = tensor.insert_slice %112 into %inserted_slice_438[0, 320, 0, 0] [1, 32, 4, 4] [1, 1, 1, 1] : tensor<1x32x4x4xf32> into tensor<1x480x4x4xf32>
    %inserted_slice_440 = tensor.insert_slice %119 into %inserted_slice_439[0, 352, 0, 0] [1, 32, 4, 4] [1, 1, 1, 1] : tensor<1x32x4x4xf32> into tensor<1x480x4x4xf32>
    %inserted_slice_441 = tensor.insert_slice %126 into %inserted_slice_440[0, 384, 0, 0] [1, 32, 4, 4] [1, 1, 1, 1] : tensor<1x32x4x4xf32> into tensor<1x480x4x4xf32>
    %inserted_slice_442 = tensor.insert_slice %133 into %inserted_slice_441[0, 416, 0, 0] [1, 32, 4, 4] [1, 1, 1, 1] : tensor<1x32x4x4xf32> into tensor<1x480x4x4xf32>
    %inserted_slice_443 = tensor.insert_slice %140 into %inserted_slice_442[0, 448, 0, 0] [1, 32, 4, 4] [1, 1, 1, 1] : tensor<1x32x4x4xf32> into tensor<1x480x4x4xf32>
    cf.assert %3, "training is not supported for now"
    %142 = linalg.generic {indexing_maps = [#map, #map1, #map1, #map1, #map1, #map], iterator_types = ["parallel", "parallel", "parallel", "parallel"]} ins(%inserted_slice_443, %cst_256, %cst_255, %cst_255, %cst_256 : tensor<1x480x4x4xf32>, tensor<480xf32>, tensor<480xf32>, tensor<480xf32>, tensor<480xf32>) outs(%inserted_slice_443 : tensor<1x480x4x4xf32>) {
    ^bb0(%in: f32, %in_2322: f32, %in_2323: f32, %in_2324: f32, %in_2325: f32, %out: f32):
      %744 = arith.truncf %cst_321 : f64 to f32
      %745 = arith.addf %in_2325, %744 : f32
      %746 = math.rsqrt %745 : f32
      %747 = arith.subf %in, %in_2324 : f32
      %748 = arith.mulf %747, %746 : f32
      %749 = arith.mulf %748, %in_2322 : f32
      %750 = arith.addf %749, %in_2323 : f32
      linalg.yield %750 : f32
    } -> tensor<1x480x4x4xf32>
    %143 = linalg.generic {indexing_maps = [#map2, #map], iterator_types = ["parallel", "parallel", "parallel", "parallel"]} ins(%142 : tensor<1x480x4x4xf32>) outs(%141 : tensor<1x480x4x4xf32>) {
    ^bb0(%in: f32, %out: f32):
      %744 = arith.cmpf ugt, %in, %cst_319 : f32
      %745 = arith.select %744, %in, %cst_319 : f32
      linalg.yield %745 : f32
    } -> tensor<1x480x4x4xf32>
    %144 = linalg.conv_2d_nchw_fchw {dilations = dense<1> : vector<2xi64>, strides = dense<1> : vector<2xi64>} ins(%143, %cst_254 : tensor<1x480x4x4xf32>, tensor<128x480x1x1xf32>) outs(%59 : tensor<1x128x4x4xf32>) -> tensor<1x128x4x4xf32>
    cf.assert %3, "training is not supported for now"
    %145 = linalg.generic {indexing_maps = [#map, #map1, #map1, #map1, #map1, #map], iterator_types = ["parallel", "parallel", "parallel", "parallel"]} ins(%144, %cst_314, %cst_313, %cst_313, %cst_314 : tensor<1x128x4x4xf32>, tensor<128xf32>, tensor<128xf32>, tensor<128xf32>, tensor<128xf32>) outs(%144 : tensor<1x128x4x4xf32>) {
    ^bb0(%in: f32, %in_2322: f32, %in_2323: f32, %in_2324: f32, %in_2325: f32, %out: f32):
      %744 = arith.truncf %cst_321 : f64 to f32
      %745 = arith.addf %in_2325, %744 : f32
      %746 = math.rsqrt %745 : f32
      %747 = arith.subf %in, %in_2324 : f32
      %748 = arith.mulf %747, %746 : f32
      %749 = arith.mulf %748, %in_2322 : f32
      %750 = arith.addf %749, %in_2323 : f32
      linalg.yield %750 : f32
    } -> tensor<1x128x4x4xf32>
    %146 = linalg.generic {indexing_maps = [#map2, #map], iterator_types = ["parallel", "parallel", "parallel", "parallel"]} ins(%145 : tensor<1x128x4x4xf32>) outs(%58 : tensor<1x128x4x4xf32>) {
    ^bb0(%in: f32, %out: f32):
      %744 = arith.cmpf ugt, %in, %cst_319 : f32
      %745 = arith.select %744, %in, %cst_319 : f32
      linalg.yield %745 : f32
    } -> tensor<1x128x4x4xf32>
    %padded_444 = tensor.pad %146 low[0, 0, 1, 1] high[0, 0, 1, 1] {
    ^bb0(%arg1: index, %arg2: index, %arg3: index, %arg4: index):
      tensor.yield %cst_319 : f32
    } : tensor<1x128x4x4xf32> to tensor<1x128x6x6xf32>
    %147 = linalg.conv_2d_nchw_fchw {dilations = dense<1> : vector<2xi64>, strides = dense<1> : vector<2xi64>} ins(%padded_444, %cst_253 : tensor<1x128x6x6xf32>, tensor<32x128x3x3xf32>) outs(%69 : tensor<1x32x4x4xf32>) -> tensor<1x32x4x4xf32>
    %148 = tensor.empty() : tensor<1x512x4x4xf32>
    %inserted_slice_445 = tensor.insert_slice %62 into %148[0, 0, 0, 0] [1, 128, 4, 4] [1, 1, 1, 1] : tensor<1x128x4x4xf32> into tensor<1x512x4x4xf32>
    %inserted_slice_446 = tensor.insert_slice %70 into %inserted_slice_445[0, 128, 0, 0] [1, 32, 4, 4] [1, 1, 1, 1] : tensor<1x32x4x4xf32> into tensor<1x512x4x4xf32>
    %inserted_slice_447 = tensor.insert_slice %77 into %inserted_slice_446[0, 160, 0, 0] [1, 32, 4, 4] [1, 1, 1, 1] : tensor<1x32x4x4xf32> into tensor<1x512x4x4xf32>
    %inserted_slice_448 = tensor.insert_slice %84 into %inserted_slice_447[0, 192, 0, 0] [1, 32, 4, 4] [1, 1, 1, 1] : tensor<1x32x4x4xf32> into tensor<1x512x4x4xf32>
    %inserted_slice_449 = tensor.insert_slice %91 into %inserted_slice_448[0, 224, 0, 0] [1, 32, 4, 4] [1, 1, 1, 1] : tensor<1x32x4x4xf32> into tensor<1x512x4x4xf32>
    %inserted_slice_450 = tensor.insert_slice %98 into %inserted_slice_449[0, 256, 0, 0] [1, 32, 4, 4] [1, 1, 1, 1] : tensor<1x32x4x4xf32> into tensor<1x512x4x4xf32>
    %inserted_slice_451 = tensor.insert_slice %105 into %inserted_slice_450[0, 288, 0, 0] [1, 32, 4, 4] [1, 1, 1, 1] : tensor<1x32x4x4xf32> into tensor<1x512x4x4xf32>
    %inserted_slice_452 = tensor.insert_slice %112 into %inserted_slice_451[0, 320, 0, 0] [1, 32, 4, 4] [1, 1, 1, 1] : tensor<1x32x4x4xf32> into tensor<1x512x4x4xf32>
    %inserted_slice_453 = tensor.insert_slice %119 into %inserted_slice_452[0, 352, 0, 0] [1, 32, 4, 4] [1, 1, 1, 1] : tensor<1x32x4x4xf32> into tensor<1x512x4x4xf32>
    %inserted_slice_454 = tensor.insert_slice %126 into %inserted_slice_453[0, 384, 0, 0] [1, 32, 4, 4] [1, 1, 1, 1] : tensor<1x32x4x4xf32> into tensor<1x512x4x4xf32>
    %inserted_slice_455 = tensor.insert_slice %133 into %inserted_slice_454[0, 416, 0, 0] [1, 32, 4, 4] [1, 1, 1, 1] : tensor<1x32x4x4xf32> into tensor<1x512x4x4xf32>
    %inserted_slice_456 = tensor.insert_slice %140 into %inserted_slice_455[0, 448, 0, 0] [1, 32, 4, 4] [1, 1, 1, 1] : tensor<1x32x4x4xf32> into tensor<1x512x4x4xf32>
    %inserted_slice_457 = tensor.insert_slice %147 into %inserted_slice_456[0, 480, 0, 0] [1, 32, 4, 4] [1, 1, 1, 1] : tensor<1x32x4x4xf32> into tensor<1x512x4x4xf32>
    cf.assert %3, "training is not supported for now"
    %149 = linalg.generic {indexing_maps = [#map, #map1, #map1, #map1, #map1, #map], iterator_types = ["parallel", "parallel", "parallel", "parallel"]} ins(%inserted_slice_457, %cst_252, %cst_251, %cst_251, %cst_252 : tensor<1x512x4x4xf32>, tensor<512xf32>, tensor<512xf32>, tensor<512xf32>, tensor<512xf32>) outs(%inserted_slice_457 : tensor<1x512x4x4xf32>) {
    ^bb0(%in: f32, %in_2322: f32, %in_2323: f32, %in_2324: f32, %in_2325: f32, %out: f32):
      %744 = arith.truncf %cst_321 : f64 to f32
      %745 = arith.addf %in_2325, %744 : f32
      %746 = math.rsqrt %745 : f32
      %747 = arith.subf %in, %in_2324 : f32
      %748 = arith.mulf %747, %746 : f32
      %749 = arith.mulf %748, %in_2322 : f32
      %750 = arith.addf %749, %in_2323 : f32
      linalg.yield %750 : f32
    } -> tensor<1x512x4x4xf32>
    %150 = linalg.generic {indexing_maps = [#map2, #map], iterator_types = ["parallel", "parallel", "parallel", "parallel"]} ins(%149 : tensor<1x512x4x4xf32>) outs(%148 : tensor<1x512x4x4xf32>) {
    ^bb0(%in: f32, %out: f32):
      %744 = arith.cmpf ugt, %in, %cst_319 : f32
      %745 = arith.select %744, %in, %cst_319 : f32
      linalg.yield %745 : f32
    } -> tensor<1x512x4x4xf32>
    %151 = linalg.fill ins(%cst_319 : f32) outs(%92 : tensor<1x256x4x4xf32>) -> tensor<1x256x4x4xf32>
    %152 = linalg.conv_2d_nchw_fchw {dilations = dense<1> : vector<2xi64>, strides = dense<1> : vector<2xi64>} ins(%150, %cst_250 : tensor<1x512x4x4xf32>, tensor<256x512x1x1xf32>) outs(%151 : tensor<1x256x4x4xf32>) -> tensor<1x256x4x4xf32>
    %153 = tensor.empty() : tensor<1x256x2x2xf32>
    %154 = linalg.fill ins(%cst_319 : f32) outs(%153 : tensor<1x256x2x2xf32>) -> tensor<1x256x2x2xf32>
    %155 = linalg.pooling_nchw_sum {dilations = dense<1> : vector<2xi64>, strides = dense<2> : vector<2xi64>} ins(%152, %60 : tensor<1x256x4x4xf32>, tensor<2x2xf32>) outs(%154 : tensor<1x256x2x2xf32>) -> tensor<1x256x2x2xf32>
    %156 = linalg.generic {indexing_maps = [#map, #map], iterator_types = ["parallel", "parallel", "parallel", "parallel"]} ins(%155 : tensor<1x256x2x2xf32>) outs(%153 : tensor<1x256x2x2xf32>) {
    ^bb0(%in: f32, %out: f32):
      %744 = arith.divf %in, %cst_322 : f32
      linalg.yield %744 : f32
    } -> tensor<1x256x2x2xf32>
    cf.assert %3, "training is not supported for now"
    %157 = linalg.generic {indexing_maps = [#map, #map1, #map1, #map1, #map1, #map], iterator_types = ["parallel", "parallel", "parallel", "parallel"]} ins(%156, %cst_293, %cst_292, %cst_292, %cst_293 : tensor<1x256x2x2xf32>, tensor<256xf32>, tensor<256xf32>, tensor<256xf32>, tensor<256xf32>) outs(%156 : tensor<1x256x2x2xf32>) {
    ^bb0(%in: f32, %in_2322: f32, %in_2323: f32, %in_2324: f32, %in_2325: f32, %out: f32):
      %744 = arith.truncf %cst_321 : f64 to f32
      %745 = arith.addf %in_2325, %744 : f32
      %746 = math.rsqrt %745 : f32
      %747 = arith.subf %in, %in_2324 : f32
      %748 = arith.mulf %747, %746 : f32
      %749 = arith.mulf %748, %in_2322 : f32
      %750 = arith.addf %749, %in_2323 : f32
      linalg.yield %750 : f32
    } -> tensor<1x256x2x2xf32>
    %158 = linalg.generic {indexing_maps = [#map2, #map], iterator_types = ["parallel", "parallel", "parallel", "parallel"]} ins(%157 : tensor<1x256x2x2xf32>) outs(%153 : tensor<1x256x2x2xf32>) {
    ^bb0(%in: f32, %out: f32):
      %744 = arith.cmpf ugt, %in, %cst_319 : f32
      %745 = arith.select %744, %in, %cst_319 : f32
      linalg.yield %745 : f32
    } -> tensor<1x256x2x2xf32>
    %159 = tensor.empty() : tensor<1x128x2x2xf32>
    %160 = linalg.fill ins(%cst_319 : f32) outs(%159 : tensor<1x128x2x2xf32>) -> tensor<1x128x2x2xf32>
    %161 = linalg.conv_2d_nchw_fchw {dilations = dense<1> : vector<2xi64>, strides = dense<1> : vector<2xi64>} ins(%158, %cst_249 : tensor<1x256x2x2xf32>, tensor<128x256x1x1xf32>) outs(%160 : tensor<1x128x2x2xf32>) -> tensor<1x128x2x2xf32>
    cf.assert %3, "training is not supported for now"
    %162 = linalg.generic {indexing_maps = [#map, #map1, #map1, #map1, #map1, #map], iterator_types = ["parallel", "parallel", "parallel", "parallel"]} ins(%161, %cst_314, %cst_313, %cst_313, %cst_314 : tensor<1x128x2x2xf32>, tensor<128xf32>, tensor<128xf32>, tensor<128xf32>, tensor<128xf32>) outs(%161 : tensor<1x128x2x2xf32>) {
    ^bb0(%in: f32, %in_2322: f32, %in_2323: f32, %in_2324: f32, %in_2325: f32, %out: f32):
      %744 = arith.truncf %cst_321 : f64 to f32
      %745 = arith.addf %in_2325, %744 : f32
      %746 = math.rsqrt %745 : f32
      %747 = arith.subf %in, %in_2324 : f32
      %748 = arith.mulf %747, %746 : f32
      %749 = arith.mulf %748, %in_2322 : f32
      %750 = arith.addf %749, %in_2323 : f32
      linalg.yield %750 : f32
    } -> tensor<1x128x2x2xf32>
    %163 = linalg.generic {indexing_maps = [#map2, #map], iterator_types = ["parallel", "parallel", "parallel", "parallel"]} ins(%162 : tensor<1x128x2x2xf32>) outs(%159 : tensor<1x128x2x2xf32>) {
    ^bb0(%in: f32, %out: f32):
      %744 = arith.cmpf ugt, %in, %cst_319 : f32
      %745 = arith.select %744, %in, %cst_319 : f32
      linalg.yield %745 : f32
    } -> tensor<1x128x2x2xf32>
    %padded_458 = tensor.pad %163 low[0, 0, 1, 1] high[0, 0, 1, 1] {
    ^bb0(%arg1: index, %arg2: index, %arg3: index, %arg4: index):
      tensor.yield %cst_319 : f32
    } : tensor<1x128x2x2xf32> to tensor<1x128x4x4xf32>
    %164 = tensor.empty() : tensor<1x32x2x2xf32>
    %165 = linalg.fill ins(%cst_319 : f32) outs(%164 : tensor<1x32x2x2xf32>) -> tensor<1x32x2x2xf32>
    %166 = linalg.conv_2d_nchw_fchw {dilations = dense<1> : vector<2xi64>, strides = dense<1> : vector<2xi64>} ins(%padded_458, %cst_248 : tensor<1x128x4x4xf32>, tensor<32x128x3x3xf32>) outs(%165 : tensor<1x32x2x2xf32>) -> tensor<1x32x2x2xf32>
    %167 = tensor.empty() : tensor<1x288x2x2xf32>
    %inserted_slice_459 = tensor.insert_slice %156 into %167[0, 0, 0, 0] [1, 256, 2, 2] [1, 1, 1, 1] : tensor<1x256x2x2xf32> into tensor<1x288x2x2xf32>
    %inserted_slice_460 = tensor.insert_slice %166 into %inserted_slice_459[0, 256, 0, 0] [1, 32, 2, 2] [1, 1, 1, 1] : tensor<1x32x2x2xf32> into tensor<1x288x2x2xf32>
    cf.assert %3, "training is not supported for now"
    %168 = linalg.generic {indexing_maps = [#map, #map1, #map1, #map1, #map1, #map], iterator_types = ["parallel", "parallel", "parallel", "parallel"]} ins(%inserted_slice_460, %cst_280, %cst_279, %cst_279, %cst_280 : tensor<1x288x2x2xf32>, tensor<288xf32>, tensor<288xf32>, tensor<288xf32>, tensor<288xf32>) outs(%inserted_slice_460 : tensor<1x288x2x2xf32>) {
    ^bb0(%in: f32, %in_2322: f32, %in_2323: f32, %in_2324: f32, %in_2325: f32, %out: f32):
      %744 = arith.truncf %cst_321 : f64 to f32
      %745 = arith.addf %in_2325, %744 : f32
      %746 = math.rsqrt %745 : f32
      %747 = arith.subf %in, %in_2324 : f32
      %748 = arith.mulf %747, %746 : f32
      %749 = arith.mulf %748, %in_2322 : f32
      %750 = arith.addf %749, %in_2323 : f32
      linalg.yield %750 : f32
    } -> tensor<1x288x2x2xf32>
    %169 = linalg.generic {indexing_maps = [#map2, #map], iterator_types = ["parallel", "parallel", "parallel", "parallel"]} ins(%168 : tensor<1x288x2x2xf32>) outs(%167 : tensor<1x288x2x2xf32>) {
    ^bb0(%in: f32, %out: f32):
      %744 = arith.cmpf ugt, %in, %cst_319 : f32
      %745 = arith.select %744, %in, %cst_319 : f32
      linalg.yield %745 : f32
    } -> tensor<1x288x2x2xf32>
    %170 = linalg.conv_2d_nchw_fchw {dilations = dense<1> : vector<2xi64>, strides = dense<1> : vector<2xi64>} ins(%169, %cst_247 : tensor<1x288x2x2xf32>, tensor<128x288x1x1xf32>) outs(%160 : tensor<1x128x2x2xf32>) -> tensor<1x128x2x2xf32>
    cf.assert %3, "training is not supported for now"
    %171 = linalg.generic {indexing_maps = [#map, #map1, #map1, #map1, #map1, #map], iterator_types = ["parallel", "parallel", "parallel", "parallel"]} ins(%170, %cst_314, %cst_313, %cst_313, %cst_314 : tensor<1x128x2x2xf32>, tensor<128xf32>, tensor<128xf32>, tensor<128xf32>, tensor<128xf32>) outs(%170 : tensor<1x128x2x2xf32>) {
    ^bb0(%in: f32, %in_2322: f32, %in_2323: f32, %in_2324: f32, %in_2325: f32, %out: f32):
      %744 = arith.truncf %cst_321 : f64 to f32
      %745 = arith.addf %in_2325, %744 : f32
      %746 = math.rsqrt %745 : f32
      %747 = arith.subf %in, %in_2324 : f32
      %748 = arith.mulf %747, %746 : f32
      %749 = arith.mulf %748, %in_2322 : f32
      %750 = arith.addf %749, %in_2323 : f32
      linalg.yield %750 : f32
    } -> tensor<1x128x2x2xf32>
    %172 = linalg.generic {indexing_maps = [#map2, #map], iterator_types = ["parallel", "parallel", "parallel", "parallel"]} ins(%171 : tensor<1x128x2x2xf32>) outs(%159 : tensor<1x128x2x2xf32>) {
    ^bb0(%in: f32, %out: f32):
      %744 = arith.cmpf ugt, %in, %cst_319 : f32
      %745 = arith.select %744, %in, %cst_319 : f32
      linalg.yield %745 : f32
    } -> tensor<1x128x2x2xf32>
    %padded_461 = tensor.pad %172 low[0, 0, 1, 1] high[0, 0, 1, 1] {
    ^bb0(%arg1: index, %arg2: index, %arg3: index, %arg4: index):
      tensor.yield %cst_319 : f32
    } : tensor<1x128x2x2xf32> to tensor<1x128x4x4xf32>
    %173 = linalg.conv_2d_nchw_fchw {dilations = dense<1> : vector<2xi64>, strides = dense<1> : vector<2xi64>} ins(%padded_461, %cst_246 : tensor<1x128x4x4xf32>, tensor<32x128x3x3xf32>) outs(%165 : tensor<1x32x2x2xf32>) -> tensor<1x32x2x2xf32>
    %174 = tensor.empty() : tensor<1x320x2x2xf32>
    %inserted_slice_462 = tensor.insert_slice %156 into %174[0, 0, 0, 0] [1, 256, 2, 2] [1, 1, 1, 1] : tensor<1x256x2x2xf32> into tensor<1x320x2x2xf32>
    %inserted_slice_463 = tensor.insert_slice %166 into %inserted_slice_462[0, 256, 0, 0] [1, 32, 2, 2] [1, 1, 1, 1] : tensor<1x32x2x2xf32> into tensor<1x320x2x2xf32>
    %inserted_slice_464 = tensor.insert_slice %173 into %inserted_slice_463[0, 288, 0, 0] [1, 32, 2, 2] [1, 1, 1, 1] : tensor<1x32x2x2xf32> into tensor<1x320x2x2xf32>
    cf.assert %3, "training is not supported for now"
    %175 = linalg.generic {indexing_maps = [#map, #map1, #map1, #map1, #map1, #map], iterator_types = ["parallel", "parallel", "parallel", "parallel"]} ins(%inserted_slice_464, %cst_276, %cst_275, %cst_275, %cst_276 : tensor<1x320x2x2xf32>, tensor<320xf32>, tensor<320xf32>, tensor<320xf32>, tensor<320xf32>) outs(%inserted_slice_464 : tensor<1x320x2x2xf32>) {
    ^bb0(%in: f32, %in_2322: f32, %in_2323: f32, %in_2324: f32, %in_2325: f32, %out: f32):
      %744 = arith.truncf %cst_321 : f64 to f32
      %745 = arith.addf %in_2325, %744 : f32
      %746 = math.rsqrt %745 : f32
      %747 = arith.subf %in, %in_2324 : f32
      %748 = arith.mulf %747, %746 : f32
      %749 = arith.mulf %748, %in_2322 : f32
      %750 = arith.addf %749, %in_2323 : f32
      linalg.yield %750 : f32
    } -> tensor<1x320x2x2xf32>
    %176 = linalg.generic {indexing_maps = [#map2, #map], iterator_types = ["parallel", "parallel", "parallel", "parallel"]} ins(%175 : tensor<1x320x2x2xf32>) outs(%174 : tensor<1x320x2x2xf32>) {
    ^bb0(%in: f32, %out: f32):
      %744 = arith.cmpf ugt, %in, %cst_319 : f32
      %745 = arith.select %744, %in, %cst_319 : f32
      linalg.yield %745 : f32
    } -> tensor<1x320x2x2xf32>
    %177 = linalg.conv_2d_nchw_fchw {dilations = dense<1> : vector<2xi64>, strides = dense<1> : vector<2xi64>} ins(%176, %cst_245 : tensor<1x320x2x2xf32>, tensor<128x320x1x1xf32>) outs(%160 : tensor<1x128x2x2xf32>) -> tensor<1x128x2x2xf32>
    cf.assert %3, "training is not supported for now"
    %178 = linalg.generic {indexing_maps = [#map, #map1, #map1, #map1, #map1, #map], iterator_types = ["parallel", "parallel", "parallel", "parallel"]} ins(%177, %cst_314, %cst_313, %cst_313, %cst_314 : tensor<1x128x2x2xf32>, tensor<128xf32>, tensor<128xf32>, tensor<128xf32>, tensor<128xf32>) outs(%177 : tensor<1x128x2x2xf32>) {
    ^bb0(%in: f32, %in_2322: f32, %in_2323: f32, %in_2324: f32, %in_2325: f32, %out: f32):
      %744 = arith.truncf %cst_321 : f64 to f32
      %745 = arith.addf %in_2325, %744 : f32
      %746 = math.rsqrt %745 : f32
      %747 = arith.subf %in, %in_2324 : f32
      %748 = arith.mulf %747, %746 : f32
      %749 = arith.mulf %748, %in_2322 : f32
      %750 = arith.addf %749, %in_2323 : f32
      linalg.yield %750 : f32
    } -> tensor<1x128x2x2xf32>
    %179 = linalg.generic {indexing_maps = [#map2, #map], iterator_types = ["parallel", "parallel", "parallel", "parallel"]} ins(%178 : tensor<1x128x2x2xf32>) outs(%159 : tensor<1x128x2x2xf32>) {
    ^bb0(%in: f32, %out: f32):
      %744 = arith.cmpf ugt, %in, %cst_319 : f32
      %745 = arith.select %744, %in, %cst_319 : f32
      linalg.yield %745 : f32
    } -> tensor<1x128x2x2xf32>
    %padded_465 = tensor.pad %179 low[0, 0, 1, 1] high[0, 0, 1, 1] {
    ^bb0(%arg1: index, %arg2: index, %arg3: index, %arg4: index):
      tensor.yield %cst_319 : f32
    } : tensor<1x128x2x2xf32> to tensor<1x128x4x4xf32>
    %180 = linalg.conv_2d_nchw_fchw {dilations = dense<1> : vector<2xi64>, strides = dense<1> : vector<2xi64>} ins(%padded_465, %cst_244 : tensor<1x128x4x4xf32>, tensor<32x128x3x3xf32>) outs(%165 : tensor<1x32x2x2xf32>) -> tensor<1x32x2x2xf32>
    %181 = tensor.empty() : tensor<1x352x2x2xf32>
    %inserted_slice_466 = tensor.insert_slice %156 into %181[0, 0, 0, 0] [1, 256, 2, 2] [1, 1, 1, 1] : tensor<1x256x2x2xf32> into tensor<1x352x2x2xf32>
    %inserted_slice_467 = tensor.insert_slice %166 into %inserted_slice_466[0, 256, 0, 0] [1, 32, 2, 2] [1, 1, 1, 1] : tensor<1x32x2x2xf32> into tensor<1x352x2x2xf32>
    %inserted_slice_468 = tensor.insert_slice %173 into %inserted_slice_467[0, 288, 0, 0] [1, 32, 2, 2] [1, 1, 1, 1] : tensor<1x32x2x2xf32> into tensor<1x352x2x2xf32>
    %inserted_slice_469 = tensor.insert_slice %180 into %inserted_slice_468[0, 320, 0, 0] [1, 32, 2, 2] [1, 1, 1, 1] : tensor<1x32x2x2xf32> into tensor<1x352x2x2xf32>
    cf.assert %3, "training is not supported for now"
    %182 = linalg.generic {indexing_maps = [#map, #map1, #map1, #map1, #map1, #map], iterator_types = ["parallel", "parallel", "parallel", "parallel"]} ins(%inserted_slice_469, %cst_272, %cst_271, %cst_271, %cst_272 : tensor<1x352x2x2xf32>, tensor<352xf32>, tensor<352xf32>, tensor<352xf32>, tensor<352xf32>) outs(%inserted_slice_469 : tensor<1x352x2x2xf32>) {
    ^bb0(%in: f32, %in_2322: f32, %in_2323: f32, %in_2324: f32, %in_2325: f32, %out: f32):
      %744 = arith.truncf %cst_321 : f64 to f32
      %745 = arith.addf %in_2325, %744 : f32
      %746 = math.rsqrt %745 : f32
      %747 = arith.subf %in, %in_2324 : f32
      %748 = arith.mulf %747, %746 : f32
      %749 = arith.mulf %748, %in_2322 : f32
      %750 = arith.addf %749, %in_2323 : f32
      linalg.yield %750 : f32
    } -> tensor<1x352x2x2xf32>
    %183 = linalg.generic {indexing_maps = [#map2, #map], iterator_types = ["parallel", "parallel", "parallel", "parallel"]} ins(%182 : tensor<1x352x2x2xf32>) outs(%181 : tensor<1x352x2x2xf32>) {
    ^bb0(%in: f32, %out: f32):
      %744 = arith.cmpf ugt, %in, %cst_319 : f32
      %745 = arith.select %744, %in, %cst_319 : f32
      linalg.yield %745 : f32
    } -> tensor<1x352x2x2xf32>
    %184 = linalg.conv_2d_nchw_fchw {dilations = dense<1> : vector<2xi64>, strides = dense<1> : vector<2xi64>} ins(%183, %cst_243 : tensor<1x352x2x2xf32>, tensor<128x352x1x1xf32>) outs(%160 : tensor<1x128x2x2xf32>) -> tensor<1x128x2x2xf32>
    cf.assert %3, "training is not supported for now"
    %185 = linalg.generic {indexing_maps = [#map, #map1, #map1, #map1, #map1, #map], iterator_types = ["parallel", "parallel", "parallel", "parallel"]} ins(%184, %cst_314, %cst_313, %cst_313, %cst_314 : tensor<1x128x2x2xf32>, tensor<128xf32>, tensor<128xf32>, tensor<128xf32>, tensor<128xf32>) outs(%184 : tensor<1x128x2x2xf32>) {
    ^bb0(%in: f32, %in_2322: f32, %in_2323: f32, %in_2324: f32, %in_2325: f32, %out: f32):
      %744 = arith.truncf %cst_321 : f64 to f32
      %745 = arith.addf %in_2325, %744 : f32
      %746 = math.rsqrt %745 : f32
      %747 = arith.subf %in, %in_2324 : f32
      %748 = arith.mulf %747, %746 : f32
      %749 = arith.mulf %748, %in_2322 : f32
      %750 = arith.addf %749, %in_2323 : f32
      linalg.yield %750 : f32
    } -> tensor<1x128x2x2xf32>
    %186 = linalg.generic {indexing_maps = [#map2, #map], iterator_types = ["parallel", "parallel", "parallel", "parallel"]} ins(%185 : tensor<1x128x2x2xf32>) outs(%159 : tensor<1x128x2x2xf32>) {
    ^bb0(%in: f32, %out: f32):
      %744 = arith.cmpf ugt, %in, %cst_319 : f32
      %745 = arith.select %744, %in, %cst_319 : f32
      linalg.yield %745 : f32
    } -> tensor<1x128x2x2xf32>
    %padded_470 = tensor.pad %186 low[0, 0, 1, 1] high[0, 0, 1, 1] {
    ^bb0(%arg1: index, %arg2: index, %arg3: index, %arg4: index):
      tensor.yield %cst_319 : f32
    } : tensor<1x128x2x2xf32> to tensor<1x128x4x4xf32>
    %187 = linalg.conv_2d_nchw_fchw {dilations = dense<1> : vector<2xi64>, strides = dense<1> : vector<2xi64>} ins(%padded_470, %cst_242 : tensor<1x128x4x4xf32>, tensor<32x128x3x3xf32>) outs(%165 : tensor<1x32x2x2xf32>) -> tensor<1x32x2x2xf32>
    %188 = tensor.empty() : tensor<1x384x2x2xf32>
    %inserted_slice_471 = tensor.insert_slice %156 into %188[0, 0, 0, 0] [1, 256, 2, 2] [1, 1, 1, 1] : tensor<1x256x2x2xf32> into tensor<1x384x2x2xf32>
    %inserted_slice_472 = tensor.insert_slice %166 into %inserted_slice_471[0, 256, 0, 0] [1, 32, 2, 2] [1, 1, 1, 1] : tensor<1x32x2x2xf32> into tensor<1x384x2x2xf32>
    %inserted_slice_473 = tensor.insert_slice %173 into %inserted_slice_472[0, 288, 0, 0] [1, 32, 2, 2] [1, 1, 1, 1] : tensor<1x32x2x2xf32> into tensor<1x384x2x2xf32>
    %inserted_slice_474 = tensor.insert_slice %180 into %inserted_slice_473[0, 320, 0, 0] [1, 32, 2, 2] [1, 1, 1, 1] : tensor<1x32x2x2xf32> into tensor<1x384x2x2xf32>
    %inserted_slice_475 = tensor.insert_slice %187 into %inserted_slice_474[0, 352, 0, 0] [1, 32, 2, 2] [1, 1, 1, 1] : tensor<1x32x2x2xf32> into tensor<1x384x2x2xf32>
    cf.assert %3, "training is not supported for now"
    %189 = linalg.generic {indexing_maps = [#map, #map1, #map1, #map1, #map1, #map], iterator_types = ["parallel", "parallel", "parallel", "parallel"]} ins(%inserted_slice_475, %cst_268, %cst_267, %cst_267, %cst_268 : tensor<1x384x2x2xf32>, tensor<384xf32>, tensor<384xf32>, tensor<384xf32>, tensor<384xf32>) outs(%inserted_slice_475 : tensor<1x384x2x2xf32>) {
    ^bb0(%in: f32, %in_2322: f32, %in_2323: f32, %in_2324: f32, %in_2325: f32, %out: f32):
      %744 = arith.truncf %cst_321 : f64 to f32
      %745 = arith.addf %in_2325, %744 : f32
      %746 = math.rsqrt %745 : f32
      %747 = arith.subf %in, %in_2324 : f32
      %748 = arith.mulf %747, %746 : f32
      %749 = arith.mulf %748, %in_2322 : f32
      %750 = arith.addf %749, %in_2323 : f32
      linalg.yield %750 : f32
    } -> tensor<1x384x2x2xf32>
    %190 = linalg.generic {indexing_maps = [#map2, #map], iterator_types = ["parallel", "parallel", "parallel", "parallel"]} ins(%189 : tensor<1x384x2x2xf32>) outs(%188 : tensor<1x384x2x2xf32>) {
    ^bb0(%in: f32, %out: f32):
      %744 = arith.cmpf ugt, %in, %cst_319 : f32
      %745 = arith.select %744, %in, %cst_319 : f32
      linalg.yield %745 : f32
    } -> tensor<1x384x2x2xf32>
    %191 = linalg.conv_2d_nchw_fchw {dilations = dense<1> : vector<2xi64>, strides = dense<1> : vector<2xi64>} ins(%190, %cst_241 : tensor<1x384x2x2xf32>, tensor<128x384x1x1xf32>) outs(%160 : tensor<1x128x2x2xf32>) -> tensor<1x128x2x2xf32>
    cf.assert %3, "training is not supported for now"
    %192 = linalg.generic {indexing_maps = [#map, #map1, #map1, #map1, #map1, #map], iterator_types = ["parallel", "parallel", "parallel", "parallel"]} ins(%191, %cst_314, %cst_313, %cst_313, %cst_314 : tensor<1x128x2x2xf32>, tensor<128xf32>, tensor<128xf32>, tensor<128xf32>, tensor<128xf32>) outs(%191 : tensor<1x128x2x2xf32>) {
    ^bb0(%in: f32, %in_2322: f32, %in_2323: f32, %in_2324: f32, %in_2325: f32, %out: f32):
      %744 = arith.truncf %cst_321 : f64 to f32
      %745 = arith.addf %in_2325, %744 : f32
      %746 = math.rsqrt %745 : f32
      %747 = arith.subf %in, %in_2324 : f32
      %748 = arith.mulf %747, %746 : f32
      %749 = arith.mulf %748, %in_2322 : f32
      %750 = arith.addf %749, %in_2323 : f32
      linalg.yield %750 : f32
    } -> tensor<1x128x2x2xf32>
    %193 = linalg.generic {indexing_maps = [#map2, #map], iterator_types = ["parallel", "parallel", "parallel", "parallel"]} ins(%192 : tensor<1x128x2x2xf32>) outs(%159 : tensor<1x128x2x2xf32>) {
    ^bb0(%in: f32, %out: f32):
      %744 = arith.cmpf ugt, %in, %cst_319 : f32
      %745 = arith.select %744, %in, %cst_319 : f32
      linalg.yield %745 : f32
    } -> tensor<1x128x2x2xf32>
    %padded_476 = tensor.pad %193 low[0, 0, 1, 1] high[0, 0, 1, 1] {
    ^bb0(%arg1: index, %arg2: index, %arg3: index, %arg4: index):
      tensor.yield %cst_319 : f32
    } : tensor<1x128x2x2xf32> to tensor<1x128x4x4xf32>
    %194 = linalg.conv_2d_nchw_fchw {dilations = dense<1> : vector<2xi64>, strides = dense<1> : vector<2xi64>} ins(%padded_476, %cst_240 : tensor<1x128x4x4xf32>, tensor<32x128x3x3xf32>) outs(%165 : tensor<1x32x2x2xf32>) -> tensor<1x32x2x2xf32>
    %195 = tensor.empty() : tensor<1x416x2x2xf32>
    %inserted_slice_477 = tensor.insert_slice %156 into %195[0, 0, 0, 0] [1, 256, 2, 2] [1, 1, 1, 1] : tensor<1x256x2x2xf32> into tensor<1x416x2x2xf32>
    %inserted_slice_478 = tensor.insert_slice %166 into %inserted_slice_477[0, 256, 0, 0] [1, 32, 2, 2] [1, 1, 1, 1] : tensor<1x32x2x2xf32> into tensor<1x416x2x2xf32>
    %inserted_slice_479 = tensor.insert_slice %173 into %inserted_slice_478[0, 288, 0, 0] [1, 32, 2, 2] [1, 1, 1, 1] : tensor<1x32x2x2xf32> into tensor<1x416x2x2xf32>
    %inserted_slice_480 = tensor.insert_slice %180 into %inserted_slice_479[0, 320, 0, 0] [1, 32, 2, 2] [1, 1, 1, 1] : tensor<1x32x2x2xf32> into tensor<1x416x2x2xf32>
    %inserted_slice_481 = tensor.insert_slice %187 into %inserted_slice_480[0, 352, 0, 0] [1, 32, 2, 2] [1, 1, 1, 1] : tensor<1x32x2x2xf32> into tensor<1x416x2x2xf32>
    %inserted_slice_482 = tensor.insert_slice %194 into %inserted_slice_481[0, 384, 0, 0] [1, 32, 2, 2] [1, 1, 1, 1] : tensor<1x32x2x2xf32> into tensor<1x416x2x2xf32>
    cf.assert %3, "training is not supported for now"
    %196 = linalg.generic {indexing_maps = [#map, #map1, #map1, #map1, #map1, #map], iterator_types = ["parallel", "parallel", "parallel", "parallel"]} ins(%inserted_slice_482, %cst_264, %cst_263, %cst_263, %cst_264 : tensor<1x416x2x2xf32>, tensor<416xf32>, tensor<416xf32>, tensor<416xf32>, tensor<416xf32>) outs(%inserted_slice_482 : tensor<1x416x2x2xf32>) {
    ^bb0(%in: f32, %in_2322: f32, %in_2323: f32, %in_2324: f32, %in_2325: f32, %out: f32):
      %744 = arith.truncf %cst_321 : f64 to f32
      %745 = arith.addf %in_2325, %744 : f32
      %746 = math.rsqrt %745 : f32
      %747 = arith.subf %in, %in_2324 : f32
      %748 = arith.mulf %747, %746 : f32
      %749 = arith.mulf %748, %in_2322 : f32
      %750 = arith.addf %749, %in_2323 : f32
      linalg.yield %750 : f32
    } -> tensor<1x416x2x2xf32>
    %197 = linalg.generic {indexing_maps = [#map2, #map], iterator_types = ["parallel", "parallel", "parallel", "parallel"]} ins(%196 : tensor<1x416x2x2xf32>) outs(%195 : tensor<1x416x2x2xf32>) {
    ^bb0(%in: f32, %out: f32):
      %744 = arith.cmpf ugt, %in, %cst_319 : f32
      %745 = arith.select %744, %in, %cst_319 : f32
      linalg.yield %745 : f32
    } -> tensor<1x416x2x2xf32>
    %198 = linalg.conv_2d_nchw_fchw {dilations = dense<1> : vector<2xi64>, strides = dense<1> : vector<2xi64>} ins(%197, %cst_239 : tensor<1x416x2x2xf32>, tensor<128x416x1x1xf32>) outs(%160 : tensor<1x128x2x2xf32>) -> tensor<1x128x2x2xf32>
    cf.assert %3, "training is not supported for now"
    %199 = linalg.generic {indexing_maps = [#map, #map1, #map1, #map1, #map1, #map], iterator_types = ["parallel", "parallel", "parallel", "parallel"]} ins(%198, %cst_314, %cst_313, %cst_313, %cst_314 : tensor<1x128x2x2xf32>, tensor<128xf32>, tensor<128xf32>, tensor<128xf32>, tensor<128xf32>) outs(%198 : tensor<1x128x2x2xf32>) {
    ^bb0(%in: f32, %in_2322: f32, %in_2323: f32, %in_2324: f32, %in_2325: f32, %out: f32):
      %744 = arith.truncf %cst_321 : f64 to f32
      %745 = arith.addf %in_2325, %744 : f32
      %746 = math.rsqrt %745 : f32
      %747 = arith.subf %in, %in_2324 : f32
      %748 = arith.mulf %747, %746 : f32
      %749 = arith.mulf %748, %in_2322 : f32
      %750 = arith.addf %749, %in_2323 : f32
      linalg.yield %750 : f32
    } -> tensor<1x128x2x2xf32>
    %200 = linalg.generic {indexing_maps = [#map2, #map], iterator_types = ["parallel", "parallel", "parallel", "parallel"]} ins(%199 : tensor<1x128x2x2xf32>) outs(%159 : tensor<1x128x2x2xf32>) {
    ^bb0(%in: f32, %out: f32):
      %744 = arith.cmpf ugt, %in, %cst_319 : f32
      %745 = arith.select %744, %in, %cst_319 : f32
      linalg.yield %745 : f32
    } -> tensor<1x128x2x2xf32>
    %padded_483 = tensor.pad %200 low[0, 0, 1, 1] high[0, 0, 1, 1] {
    ^bb0(%arg1: index, %arg2: index, %arg3: index, %arg4: index):
      tensor.yield %cst_319 : f32
    } : tensor<1x128x2x2xf32> to tensor<1x128x4x4xf32>
    %201 = linalg.conv_2d_nchw_fchw {dilations = dense<1> : vector<2xi64>, strides = dense<1> : vector<2xi64>} ins(%padded_483, %cst_238 : tensor<1x128x4x4xf32>, tensor<32x128x3x3xf32>) outs(%165 : tensor<1x32x2x2xf32>) -> tensor<1x32x2x2xf32>
    %202 = tensor.empty() : tensor<1x448x2x2xf32>
    %inserted_slice_484 = tensor.insert_slice %156 into %202[0, 0, 0, 0] [1, 256, 2, 2] [1, 1, 1, 1] : tensor<1x256x2x2xf32> into tensor<1x448x2x2xf32>
    %inserted_slice_485 = tensor.insert_slice %166 into %inserted_slice_484[0, 256, 0, 0] [1, 32, 2, 2] [1, 1, 1, 1] : tensor<1x32x2x2xf32> into tensor<1x448x2x2xf32>
    %inserted_slice_486 = tensor.insert_slice %173 into %inserted_slice_485[0, 288, 0, 0] [1, 32, 2, 2] [1, 1, 1, 1] : tensor<1x32x2x2xf32> into tensor<1x448x2x2xf32>
    %inserted_slice_487 = tensor.insert_slice %180 into %inserted_slice_486[0, 320, 0, 0] [1, 32, 2, 2] [1, 1, 1, 1] : tensor<1x32x2x2xf32> into tensor<1x448x2x2xf32>
    %inserted_slice_488 = tensor.insert_slice %187 into %inserted_slice_487[0, 352, 0, 0] [1, 32, 2, 2] [1, 1, 1, 1] : tensor<1x32x2x2xf32> into tensor<1x448x2x2xf32>
    %inserted_slice_489 = tensor.insert_slice %194 into %inserted_slice_488[0, 384, 0, 0] [1, 32, 2, 2] [1, 1, 1, 1] : tensor<1x32x2x2xf32> into tensor<1x448x2x2xf32>
    %inserted_slice_490 = tensor.insert_slice %201 into %inserted_slice_489[0, 416, 0, 0] [1, 32, 2, 2] [1, 1, 1, 1] : tensor<1x32x2x2xf32> into tensor<1x448x2x2xf32>
    cf.assert %3, "training is not supported for now"
    %203 = linalg.generic {indexing_maps = [#map, #map1, #map1, #map1, #map1, #map], iterator_types = ["parallel", "parallel", "parallel", "parallel"]} ins(%inserted_slice_490, %cst_260, %cst_259, %cst_259, %cst_260 : tensor<1x448x2x2xf32>, tensor<448xf32>, tensor<448xf32>, tensor<448xf32>, tensor<448xf32>) outs(%inserted_slice_490 : tensor<1x448x2x2xf32>) {
    ^bb0(%in: f32, %in_2322: f32, %in_2323: f32, %in_2324: f32, %in_2325: f32, %out: f32):
      %744 = arith.truncf %cst_321 : f64 to f32
      %745 = arith.addf %in_2325, %744 : f32
      %746 = math.rsqrt %745 : f32
      %747 = arith.subf %in, %in_2324 : f32
      %748 = arith.mulf %747, %746 : f32
      %749 = arith.mulf %748, %in_2322 : f32
      %750 = arith.addf %749, %in_2323 : f32
      linalg.yield %750 : f32
    } -> tensor<1x448x2x2xf32>
    %204 = linalg.generic {indexing_maps = [#map2, #map], iterator_types = ["parallel", "parallel", "parallel", "parallel"]} ins(%203 : tensor<1x448x2x2xf32>) outs(%202 : tensor<1x448x2x2xf32>) {
    ^bb0(%in: f32, %out: f32):
      %744 = arith.cmpf ugt, %in, %cst_319 : f32
      %745 = arith.select %744, %in, %cst_319 : f32
      linalg.yield %745 : f32
    } -> tensor<1x448x2x2xf32>
    %205 = linalg.conv_2d_nchw_fchw {dilations = dense<1> : vector<2xi64>, strides = dense<1> : vector<2xi64>} ins(%204, %cst_237 : tensor<1x448x2x2xf32>, tensor<128x448x1x1xf32>) outs(%160 : tensor<1x128x2x2xf32>) -> tensor<1x128x2x2xf32>
    cf.assert %3, "training is not supported for now"
    %206 = linalg.generic {indexing_maps = [#map, #map1, #map1, #map1, #map1, #map], iterator_types = ["parallel", "parallel", "parallel", "parallel"]} ins(%205, %cst_314, %cst_313, %cst_313, %cst_314 : tensor<1x128x2x2xf32>, tensor<128xf32>, tensor<128xf32>, tensor<128xf32>, tensor<128xf32>) outs(%205 : tensor<1x128x2x2xf32>) {
    ^bb0(%in: f32, %in_2322: f32, %in_2323: f32, %in_2324: f32, %in_2325: f32, %out: f32):
      %744 = arith.truncf %cst_321 : f64 to f32
      %745 = arith.addf %in_2325, %744 : f32
      %746 = math.rsqrt %745 : f32
      %747 = arith.subf %in, %in_2324 : f32
      %748 = arith.mulf %747, %746 : f32
      %749 = arith.mulf %748, %in_2322 : f32
      %750 = arith.addf %749, %in_2323 : f32
      linalg.yield %750 : f32
    } -> tensor<1x128x2x2xf32>
    %207 = linalg.generic {indexing_maps = [#map2, #map], iterator_types = ["parallel", "parallel", "parallel", "parallel"]} ins(%206 : tensor<1x128x2x2xf32>) outs(%159 : tensor<1x128x2x2xf32>) {
    ^bb0(%in: f32, %out: f32):
      %744 = arith.cmpf ugt, %in, %cst_319 : f32
      %745 = arith.select %744, %in, %cst_319 : f32
      linalg.yield %745 : f32
    } -> tensor<1x128x2x2xf32>
    %padded_491 = tensor.pad %207 low[0, 0, 1, 1] high[0, 0, 1, 1] {
    ^bb0(%arg1: index, %arg2: index, %arg3: index, %arg4: index):
      tensor.yield %cst_319 : f32
    } : tensor<1x128x2x2xf32> to tensor<1x128x4x4xf32>
    %208 = linalg.conv_2d_nchw_fchw {dilations = dense<1> : vector<2xi64>, strides = dense<1> : vector<2xi64>} ins(%padded_491, %cst_236 : tensor<1x128x4x4xf32>, tensor<32x128x3x3xf32>) outs(%165 : tensor<1x32x2x2xf32>) -> tensor<1x32x2x2xf32>
    %209 = tensor.empty() : tensor<1x480x2x2xf32>
    %inserted_slice_492 = tensor.insert_slice %156 into %209[0, 0, 0, 0] [1, 256, 2, 2] [1, 1, 1, 1] : tensor<1x256x2x2xf32> into tensor<1x480x2x2xf32>
    %inserted_slice_493 = tensor.insert_slice %166 into %inserted_slice_492[0, 256, 0, 0] [1, 32, 2, 2] [1, 1, 1, 1] : tensor<1x32x2x2xf32> into tensor<1x480x2x2xf32>
    %inserted_slice_494 = tensor.insert_slice %173 into %inserted_slice_493[0, 288, 0, 0] [1, 32, 2, 2] [1, 1, 1, 1] : tensor<1x32x2x2xf32> into tensor<1x480x2x2xf32>
    %inserted_slice_495 = tensor.insert_slice %180 into %inserted_slice_494[0, 320, 0, 0] [1, 32, 2, 2] [1, 1, 1, 1] : tensor<1x32x2x2xf32> into tensor<1x480x2x2xf32>
    %inserted_slice_496 = tensor.insert_slice %187 into %inserted_slice_495[0, 352, 0, 0] [1, 32, 2, 2] [1, 1, 1, 1] : tensor<1x32x2x2xf32> into tensor<1x480x2x2xf32>
    %inserted_slice_497 = tensor.insert_slice %194 into %inserted_slice_496[0, 384, 0, 0] [1, 32, 2, 2] [1, 1, 1, 1] : tensor<1x32x2x2xf32> into tensor<1x480x2x2xf32>
    %inserted_slice_498 = tensor.insert_slice %201 into %inserted_slice_497[0, 416, 0, 0] [1, 32, 2, 2] [1, 1, 1, 1] : tensor<1x32x2x2xf32> into tensor<1x480x2x2xf32>
    %inserted_slice_499 = tensor.insert_slice %208 into %inserted_slice_498[0, 448, 0, 0] [1, 32, 2, 2] [1, 1, 1, 1] : tensor<1x32x2x2xf32> into tensor<1x480x2x2xf32>
    cf.assert %3, "training is not supported for now"
    %210 = linalg.generic {indexing_maps = [#map, #map1, #map1, #map1, #map1, #map], iterator_types = ["parallel", "parallel", "parallel", "parallel"]} ins(%inserted_slice_499, %cst_256, %cst_255, %cst_255, %cst_256 : tensor<1x480x2x2xf32>, tensor<480xf32>, tensor<480xf32>, tensor<480xf32>, tensor<480xf32>) outs(%inserted_slice_499 : tensor<1x480x2x2xf32>) {
    ^bb0(%in: f32, %in_2322: f32, %in_2323: f32, %in_2324: f32, %in_2325: f32, %out: f32):
      %744 = arith.truncf %cst_321 : f64 to f32
      %745 = arith.addf %in_2325, %744 : f32
      %746 = math.rsqrt %745 : f32
      %747 = arith.subf %in, %in_2324 : f32
      %748 = arith.mulf %747, %746 : f32
      %749 = arith.mulf %748, %in_2322 : f32
      %750 = arith.addf %749, %in_2323 : f32
      linalg.yield %750 : f32
    } -> tensor<1x480x2x2xf32>
    %211 = linalg.generic {indexing_maps = [#map2, #map], iterator_types = ["parallel", "parallel", "parallel", "parallel"]} ins(%210 : tensor<1x480x2x2xf32>) outs(%209 : tensor<1x480x2x2xf32>) {
    ^bb0(%in: f32, %out: f32):
      %744 = arith.cmpf ugt, %in, %cst_319 : f32
      %745 = arith.select %744, %in, %cst_319 : f32
      linalg.yield %745 : f32
    } -> tensor<1x480x2x2xf32>
    %212 = linalg.conv_2d_nchw_fchw {dilations = dense<1> : vector<2xi64>, strides = dense<1> : vector<2xi64>} ins(%211, %cst_235 : tensor<1x480x2x2xf32>, tensor<128x480x1x1xf32>) outs(%160 : tensor<1x128x2x2xf32>) -> tensor<1x128x2x2xf32>
    cf.assert %3, "training is not supported for now"
    %213 = linalg.generic {indexing_maps = [#map, #map1, #map1, #map1, #map1, #map], iterator_types = ["parallel", "parallel", "parallel", "parallel"]} ins(%212, %cst_314, %cst_313, %cst_313, %cst_314 : tensor<1x128x2x2xf32>, tensor<128xf32>, tensor<128xf32>, tensor<128xf32>, tensor<128xf32>) outs(%212 : tensor<1x128x2x2xf32>) {
    ^bb0(%in: f32, %in_2322: f32, %in_2323: f32, %in_2324: f32, %in_2325: f32, %out: f32):
      %744 = arith.truncf %cst_321 : f64 to f32
      %745 = arith.addf %in_2325, %744 : f32
      %746 = math.rsqrt %745 : f32
      %747 = arith.subf %in, %in_2324 : f32
      %748 = arith.mulf %747, %746 : f32
      %749 = arith.mulf %748, %in_2322 : f32
      %750 = arith.addf %749, %in_2323 : f32
      linalg.yield %750 : f32
    } -> tensor<1x128x2x2xf32>
    %214 = linalg.generic {indexing_maps = [#map2, #map], iterator_types = ["parallel", "parallel", "parallel", "parallel"]} ins(%213 : tensor<1x128x2x2xf32>) outs(%159 : tensor<1x128x2x2xf32>) {
    ^bb0(%in: f32, %out: f32):
      %744 = arith.cmpf ugt, %in, %cst_319 : f32
      %745 = arith.select %744, %in, %cst_319 : f32
      linalg.yield %745 : f32
    } -> tensor<1x128x2x2xf32>
    %padded_500 = tensor.pad %214 low[0, 0, 1, 1] high[0, 0, 1, 1] {
    ^bb0(%arg1: index, %arg2: index, %arg3: index, %arg4: index):
      tensor.yield %cst_319 : f32
    } : tensor<1x128x2x2xf32> to tensor<1x128x4x4xf32>
    %215 = linalg.conv_2d_nchw_fchw {dilations = dense<1> : vector<2xi64>, strides = dense<1> : vector<2xi64>} ins(%padded_500, %cst_234 : tensor<1x128x4x4xf32>, tensor<32x128x3x3xf32>) outs(%165 : tensor<1x32x2x2xf32>) -> tensor<1x32x2x2xf32>
    %216 = tensor.empty() : tensor<1x512x2x2xf32>
    %inserted_slice_501 = tensor.insert_slice %156 into %216[0, 0, 0, 0] [1, 256, 2, 2] [1, 1, 1, 1] : tensor<1x256x2x2xf32> into tensor<1x512x2x2xf32>
    %inserted_slice_502 = tensor.insert_slice %166 into %inserted_slice_501[0, 256, 0, 0] [1, 32, 2, 2] [1, 1, 1, 1] : tensor<1x32x2x2xf32> into tensor<1x512x2x2xf32>
    %inserted_slice_503 = tensor.insert_slice %173 into %inserted_slice_502[0, 288, 0, 0] [1, 32, 2, 2] [1, 1, 1, 1] : tensor<1x32x2x2xf32> into tensor<1x512x2x2xf32>
    %inserted_slice_504 = tensor.insert_slice %180 into %inserted_slice_503[0, 320, 0, 0] [1, 32, 2, 2] [1, 1, 1, 1] : tensor<1x32x2x2xf32> into tensor<1x512x2x2xf32>
    %inserted_slice_505 = tensor.insert_slice %187 into %inserted_slice_504[0, 352, 0, 0] [1, 32, 2, 2] [1, 1, 1, 1] : tensor<1x32x2x2xf32> into tensor<1x512x2x2xf32>
    %inserted_slice_506 = tensor.insert_slice %194 into %inserted_slice_505[0, 384, 0, 0] [1, 32, 2, 2] [1, 1, 1, 1] : tensor<1x32x2x2xf32> into tensor<1x512x2x2xf32>
    %inserted_slice_507 = tensor.insert_slice %201 into %inserted_slice_506[0, 416, 0, 0] [1, 32, 2, 2] [1, 1, 1, 1] : tensor<1x32x2x2xf32> into tensor<1x512x2x2xf32>
    %inserted_slice_508 = tensor.insert_slice %208 into %inserted_slice_507[0, 448, 0, 0] [1, 32, 2, 2] [1, 1, 1, 1] : tensor<1x32x2x2xf32> into tensor<1x512x2x2xf32>
    %inserted_slice_509 = tensor.insert_slice %215 into %inserted_slice_508[0, 480, 0, 0] [1, 32, 2, 2] [1, 1, 1, 1] : tensor<1x32x2x2xf32> into tensor<1x512x2x2xf32>
    cf.assert %3, "training is not supported for now"
    %217 = linalg.generic {indexing_maps = [#map, #map1, #map1, #map1, #map1, #map], iterator_types = ["parallel", "parallel", "parallel", "parallel"]} ins(%inserted_slice_509, %cst_252, %cst_251, %cst_251, %cst_252 : tensor<1x512x2x2xf32>, tensor<512xf32>, tensor<512xf32>, tensor<512xf32>, tensor<512xf32>) outs(%inserted_slice_509 : tensor<1x512x2x2xf32>) {
    ^bb0(%in: f32, %in_2322: f32, %in_2323: f32, %in_2324: f32, %in_2325: f32, %out: f32):
      %744 = arith.truncf %cst_321 : f64 to f32
      %745 = arith.addf %in_2325, %744 : f32
      %746 = math.rsqrt %745 : f32
      %747 = arith.subf %in, %in_2324 : f32
      %748 = arith.mulf %747, %746 : f32
      %749 = arith.mulf %748, %in_2322 : f32
      %750 = arith.addf %749, %in_2323 : f32
      linalg.yield %750 : f32
    } -> tensor<1x512x2x2xf32>
    %218 = linalg.generic {indexing_maps = [#map2, #map], iterator_types = ["parallel", "parallel", "parallel", "parallel"]} ins(%217 : tensor<1x512x2x2xf32>) outs(%216 : tensor<1x512x2x2xf32>) {
    ^bb0(%in: f32, %out: f32):
      %744 = arith.cmpf ugt, %in, %cst_319 : f32
      %745 = arith.select %744, %in, %cst_319 : f32
      linalg.yield %745 : f32
    } -> tensor<1x512x2x2xf32>
    %219 = linalg.conv_2d_nchw_fchw {dilations = dense<1> : vector<2xi64>, strides = dense<1> : vector<2xi64>} ins(%218, %cst_233 : tensor<1x512x2x2xf32>, tensor<128x512x1x1xf32>) outs(%160 : tensor<1x128x2x2xf32>) -> tensor<1x128x2x2xf32>
    cf.assert %3, "training is not supported for now"
    %220 = linalg.generic {indexing_maps = [#map, #map1, #map1, #map1, #map1, #map], iterator_types = ["parallel", "parallel", "parallel", "parallel"]} ins(%219, %cst_314, %cst_313, %cst_313, %cst_314 : tensor<1x128x2x2xf32>, tensor<128xf32>, tensor<128xf32>, tensor<128xf32>, tensor<128xf32>) outs(%219 : tensor<1x128x2x2xf32>) {
    ^bb0(%in: f32, %in_2322: f32, %in_2323: f32, %in_2324: f32, %in_2325: f32, %out: f32):
      %744 = arith.truncf %cst_321 : f64 to f32
      %745 = arith.addf %in_2325, %744 : f32
      %746 = math.rsqrt %745 : f32
      %747 = arith.subf %in, %in_2324 : f32
      %748 = arith.mulf %747, %746 : f32
      %749 = arith.mulf %748, %in_2322 : f32
      %750 = arith.addf %749, %in_2323 : f32
      linalg.yield %750 : f32
    } -> tensor<1x128x2x2xf32>
    %221 = linalg.generic {indexing_maps = [#map2, #map], iterator_types = ["parallel", "parallel", "parallel", "parallel"]} ins(%220 : tensor<1x128x2x2xf32>) outs(%159 : tensor<1x128x2x2xf32>) {
    ^bb0(%in: f32, %out: f32):
      %744 = arith.cmpf ugt, %in, %cst_319 : f32
      %745 = arith.select %744, %in, %cst_319 : f32
      linalg.yield %745 : f32
    } -> tensor<1x128x2x2xf32>
    %padded_510 = tensor.pad %221 low[0, 0, 1, 1] high[0, 0, 1, 1] {
    ^bb0(%arg1: index, %arg2: index, %arg3: index, %arg4: index):
      tensor.yield %cst_319 : f32
    } : tensor<1x128x2x2xf32> to tensor<1x128x4x4xf32>
    %222 = linalg.conv_2d_nchw_fchw {dilations = dense<1> : vector<2xi64>, strides = dense<1> : vector<2xi64>} ins(%padded_510, %cst_232 : tensor<1x128x4x4xf32>, tensor<32x128x3x3xf32>) outs(%165 : tensor<1x32x2x2xf32>) -> tensor<1x32x2x2xf32>
    %223 = tensor.empty() : tensor<1x544x2x2xf32>
    %inserted_slice_511 = tensor.insert_slice %156 into %223[0, 0, 0, 0] [1, 256, 2, 2] [1, 1, 1, 1] : tensor<1x256x2x2xf32> into tensor<1x544x2x2xf32>
    %inserted_slice_512 = tensor.insert_slice %166 into %inserted_slice_511[0, 256, 0, 0] [1, 32, 2, 2] [1, 1, 1, 1] : tensor<1x32x2x2xf32> into tensor<1x544x2x2xf32>
    %inserted_slice_513 = tensor.insert_slice %173 into %inserted_slice_512[0, 288, 0, 0] [1, 32, 2, 2] [1, 1, 1, 1] : tensor<1x32x2x2xf32> into tensor<1x544x2x2xf32>
    %inserted_slice_514 = tensor.insert_slice %180 into %inserted_slice_513[0, 320, 0, 0] [1, 32, 2, 2] [1, 1, 1, 1] : tensor<1x32x2x2xf32> into tensor<1x544x2x2xf32>
    %inserted_slice_515 = tensor.insert_slice %187 into %inserted_slice_514[0, 352, 0, 0] [1, 32, 2, 2] [1, 1, 1, 1] : tensor<1x32x2x2xf32> into tensor<1x544x2x2xf32>
    %inserted_slice_516 = tensor.insert_slice %194 into %inserted_slice_515[0, 384, 0, 0] [1, 32, 2, 2] [1, 1, 1, 1] : tensor<1x32x2x2xf32> into tensor<1x544x2x2xf32>
    %inserted_slice_517 = tensor.insert_slice %201 into %inserted_slice_516[0, 416, 0, 0] [1, 32, 2, 2] [1, 1, 1, 1] : tensor<1x32x2x2xf32> into tensor<1x544x2x2xf32>
    %inserted_slice_518 = tensor.insert_slice %208 into %inserted_slice_517[0, 448, 0, 0] [1, 32, 2, 2] [1, 1, 1, 1] : tensor<1x32x2x2xf32> into tensor<1x544x2x2xf32>
    %inserted_slice_519 = tensor.insert_slice %215 into %inserted_slice_518[0, 480, 0, 0] [1, 32, 2, 2] [1, 1, 1, 1] : tensor<1x32x2x2xf32> into tensor<1x544x2x2xf32>
    %inserted_slice_520 = tensor.insert_slice %222 into %inserted_slice_519[0, 512, 0, 0] [1, 32, 2, 2] [1, 1, 1, 1] : tensor<1x32x2x2xf32> into tensor<1x544x2x2xf32>
    cf.assert %3, "training is not supported for now"
    %224 = linalg.generic {indexing_maps = [#map, #map1, #map1, #map1, #map1, #map], iterator_types = ["parallel", "parallel", "parallel", "parallel"]} ins(%inserted_slice_520, %cst_231, %cst_230, %cst_230, %cst_231 : tensor<1x544x2x2xf32>, tensor<544xf32>, tensor<544xf32>, tensor<544xf32>, tensor<544xf32>) outs(%inserted_slice_520 : tensor<1x544x2x2xf32>) {
    ^bb0(%in: f32, %in_2322: f32, %in_2323: f32, %in_2324: f32, %in_2325: f32, %out: f32):
      %744 = arith.truncf %cst_321 : f64 to f32
      %745 = arith.addf %in_2325, %744 : f32
      %746 = math.rsqrt %745 : f32
      %747 = arith.subf %in, %in_2324 : f32
      %748 = arith.mulf %747, %746 : f32
      %749 = arith.mulf %748, %in_2322 : f32
      %750 = arith.addf %749, %in_2323 : f32
      linalg.yield %750 : f32
    } -> tensor<1x544x2x2xf32>
    %225 = linalg.generic {indexing_maps = [#map2, #map], iterator_types = ["parallel", "parallel", "parallel", "parallel"]} ins(%224 : tensor<1x544x2x2xf32>) outs(%223 : tensor<1x544x2x2xf32>) {
    ^bb0(%in: f32, %out: f32):
      %744 = arith.cmpf ugt, %in, %cst_319 : f32
      %745 = arith.select %744, %in, %cst_319 : f32
      linalg.yield %745 : f32
    } -> tensor<1x544x2x2xf32>
    %226 = linalg.conv_2d_nchw_fchw {dilations = dense<1> : vector<2xi64>, strides = dense<1> : vector<2xi64>} ins(%225, %cst_229 : tensor<1x544x2x2xf32>, tensor<128x544x1x1xf32>) outs(%160 : tensor<1x128x2x2xf32>) -> tensor<1x128x2x2xf32>
    cf.assert %3, "training is not supported for now"
    %227 = linalg.generic {indexing_maps = [#map, #map1, #map1, #map1, #map1, #map], iterator_types = ["parallel", "parallel", "parallel", "parallel"]} ins(%226, %cst_314, %cst_313, %cst_313, %cst_314 : tensor<1x128x2x2xf32>, tensor<128xf32>, tensor<128xf32>, tensor<128xf32>, tensor<128xf32>) outs(%226 : tensor<1x128x2x2xf32>) {
    ^bb0(%in: f32, %in_2322: f32, %in_2323: f32, %in_2324: f32, %in_2325: f32, %out: f32):
      %744 = arith.truncf %cst_321 : f64 to f32
      %745 = arith.addf %in_2325, %744 : f32
      %746 = math.rsqrt %745 : f32
      %747 = arith.subf %in, %in_2324 : f32
      %748 = arith.mulf %747, %746 : f32
      %749 = arith.mulf %748, %in_2322 : f32
      %750 = arith.addf %749, %in_2323 : f32
      linalg.yield %750 : f32
    } -> tensor<1x128x2x2xf32>
    %228 = linalg.generic {indexing_maps = [#map2, #map], iterator_types = ["parallel", "parallel", "parallel", "parallel"]} ins(%227 : tensor<1x128x2x2xf32>) outs(%159 : tensor<1x128x2x2xf32>) {
    ^bb0(%in: f32, %out: f32):
      %744 = arith.cmpf ugt, %in, %cst_319 : f32
      %745 = arith.select %744, %in, %cst_319 : f32
…
    %inserted_slice_2135 = tensor.insert_slice %514 into %inserted_slice_2134[0, 896, 0, 0] [1, 32, 1, 1] [1, 1, 1, 1] : tensor<1x32x1x1xf32> into tensor<1x1760x1x1xf32>
    %inserted_slice_2136 = tensor.insert_slice %521 into %inserted_slice_2135[0, 928, 0, 0] [1, 32, 1, 1] [1, 1, 1, 1] : tensor<1x32x1x1xf32> into tensor<1x1760x1x1xf32>
    %inserted_slice_2137 = tensor.insert_slice %528 into %inserted_slice_2136[0, 960, 0, 0] [1, 32, 1, 1] [1, 1, 1, 1] : tensor<1x32x1x1xf32> into tensor<1x1760x1x1xf32>
    %inserted_slice_2138 = tensor.insert_slice %535 into %inserted_slice_2137[0, 992, 0, 0] [1, 32, 1, 1] [1, 1, 1, 1] : tensor<1x32x1x1xf32> into tensor<1x1760x1x1xf32>
    %inserted_slice_2139 = tensor.insert_slice %542 into %inserted_slice_2138[0, 1024, 0, 0] [1, 32, 1, 1] [1, 1, 1, 1] : tensor<1x32x1x1xf32> into tensor<1x1760x1x1xf32>
    %inserted_slice_2140 = tensor.insert_slice %549 into %inserted_slice_2139[0, 1056, 0, 0] [1, 32, 1, 1] [1, 1, 1, 1] : tensor<1x32x1x1xf32> into tensor<1x1760x1x1xf32>
    %inserted_slice_2141 = tensor.insert_slice %556 into %inserted_slice_2140[0, 1088, 0, 0] [1, 32, 1, 1] [1, 1, 1, 1] : tensor<1x32x1x1xf32> into tensor<1x1760x1x1xf32>
    %inserted_slice_2142 = tensor.insert_slice %563 into %inserted_slice_2141[0, 1120, 0, 0] [1, 32, 1, 1] [1, 1, 1, 1] : tensor<1x32x1x1xf32> into tensor<1x1760x1x1xf32>
    %inserted_slice_2143 = tensor.insert_slice %570 into %inserted_slice_2142[0, 1152, 0, 0] [1, 32, 1, 1] [1, 1, 1, 1] : tensor<1x32x1x1xf32> into tensor<1x1760x1x1xf32>
    %inserted_slice_2144 = tensor.insert_slice %577 into %inserted_slice_2143[0, 1184, 0, 0] [1, 32, 1, 1] [1, 1, 1, 1] : tensor<1x32x1x1xf32> into tensor<1x1760x1x1xf32>
    %inserted_slice_2145 = tensor.insert_slice %584 into %inserted_slice_2144[0, 1216, 0, 0] [1, 32, 1, 1] [1, 1, 1, 1] : tensor<1x32x1x1xf32> into tensor<1x1760x1x1xf32>
    %inserted_slice_2146 = tensor.insert_slice %591 into %inserted_slice_2145[0, 1248, 0, 0] [1, 32, 1, 1] [1, 1, 1, 1] : tensor<1x32x1x1xf32> into tensor<1x1760x1x1xf32>
    %inserted_slice_2147 = tensor.insert_slice %598 into %inserted_slice_2146[0, 1280, 0, 0] [1, 32, 1, 1] [1, 1, 1, 1] : tensor<1x32x1x1xf32> into tensor<1x1760x1x1xf32>
    %inserted_slice_2148 = tensor.insert_slice %605 into %inserted_slice_2147[0, 1312, 0, 0] [1, 32, 1, 1] [1, 1, 1, 1] : tensor<1x32x1x1xf32> into tensor<1x1760x1x1xf32>
    %inserted_slice_2149 = tensor.insert_slice %612 into %inserted_slice_2148[0, 1344, 0, 0] [1, 32, 1, 1] [1, 1, 1, 1] : tensor<1x32x1x1xf32> into tensor<1x1760x1x1xf32>
    %inserted_slice_2150 = tensor.insert_slice %619 into %inserted_slice_2149[0, 1376, 0, 0] [1, 32, 1, 1] [1, 1, 1, 1] : tensor<1x32x1x1xf32> into tensor<1x1760x1x1xf32>
    %inserted_slice_2151 = tensor.insert_slice %626 into %inserted_slice_2150[0, 1408, 0, 0] [1, 32, 1, 1] [1, 1, 1, 1] : tensor<1x32x1x1xf32> into tensor<1x1760x1x1xf32>
    %inserted_slice_2152 = tensor.insert_slice %633 into %inserted_slice_2151[0, 1440, 0, 0] [1, 32, 1, 1] [1, 1, 1, 1] : tensor<1x32x1x1xf32> into tensor<1x1760x1x1xf32>
    %inserted_slice_2153 = tensor.insert_slice %640 into %inserted_slice_2152[0, 1472, 0, 0] [1, 32, 1, 1] [1, 1, 1, 1] : tensor<1x32x1x1xf32> into tensor<1x1760x1x1xf32>
    %inserted_slice_2154 = tensor.insert_slice %647 into %inserted_slice_2153[0, 1504, 0, 0] [1, 32, 1, 1] [1, 1, 1, 1] : tensor<1x32x1x1xf32> into tensor<1x1760x1x1xf32>
    %inserted_slice_2155 = tensor.insert_slice %654 into %inserted_slice_2154[0, 1536, 0, 0] [1, 32, 1, 1] [1, 1, 1, 1] : tensor<1x32x1x1xf32> into tensor<1x1760x1x1xf32>
    %inserted_slice_2156 = tensor.insert_slice %661 into %inserted_slice_2155[0, 1568, 0, 0] [1, 32, 1, 1] [1, 1, 1, 1] : tensor<1x32x1x1xf32> into tensor<1x1760x1x1xf32>
    %inserted_slice_2157 = tensor.insert_slice %668 into %inserted_slice_2156[0, 1600, 0, 0] [1, 32, 1, 1] [1, 1, 1, 1] : tensor<1x32x1x1xf32> into tensor<1x1760x1x1xf32>
    %inserted_slice_2158 = tensor.insert_slice %675 into %inserted_slice_2157[0, 1632, 0, 0] [1, 32, 1, 1] [1, 1, 1, 1] : tensor<1x32x1x1xf32> into tensor<1x1760x1x1xf32>
    %inserted_slice_2159 = tensor.insert_slice %682 into %inserted_slice_2158[0, 1664, 0, 0] [1, 32, 1, 1] [1, 1, 1, 1] : tensor<1x32x1x1xf32> into tensor<1x1760x1x1xf32>
    %inserted_slice_2160 = tensor.insert_slice %689 into %inserted_slice_2159[0, 1696, 0, 0] [1, 32, 1, 1] [1, 1, 1, 1] : tensor<1x32x1x1xf32> into tensor<1x1760x1x1xf32>
    %inserted_slice_2161 = tensor.insert_slice %696 into %inserted_slice_2160[0, 1728, 0, 0] [1, 32, 1, 1] [1, 1, 1, 1] : tensor<1x32x1x1xf32> into tensor<1x1760x1x1xf32>
    cf.assert %3, "training is not supported for now"
    %698 = linalg.generic {indexing_maps = [#map, #map1, #map1, #map1, #map1, #map], iterator_types = ["parallel", "parallel", "parallel", "parallel"]} ins(%inserted_slice_2161, %cst_79, %cst_78, %cst_78, %cst_79 : tensor<1x1760x1x1xf32>, tensor<1760xf32>, tensor<1760xf32>, tensor<1760xf32>, tensor<1760xf32>) outs(%inserted_slice_2161 : tensor<1x1760x1x1xf32>) {
    ^bb0(%in: f32, %in_2322: f32, %in_2323: f32, %in_2324: f32, %in_2325: f32, %out: f32):
      %744 = arith.truncf %cst_321 : f64 to f32
      %745 = arith.addf %in_2325, %744 : f32
      %746 = math.rsqrt %745 : f32
      %747 = arith.subf %in, %in_2324 : f32
      %748 = arith.mulf %747, %746 : f32
      %749 = arith.mulf %748, %in_2322 : f32
      %750 = arith.addf %749, %in_2323 : f32
      linalg.yield %750 : f32
    } -> tensor<1x1760x1x1xf32>
    %699 = linalg.generic {indexing_maps = [#map3, #map], iterator_types = ["parallel", "parallel", "parallel", "parallel"]} ins(%698 : tensor<1x1760x1x1xf32>) outs(%697 : tensor<1x1760x1x1xf32>) {
    ^bb0(%in: f32, %out: f32):
      %744 = arith.cmpf ugt, %in, %cst_319 : f32
      %745 = arith.select %744, %in, %cst_319 : f32
      linalg.yield %745 : f32
    } -> tensor<1x1760x1x1xf32>
    %700 = linalg.conv_2d_nchw_fchw {dilations = dense<1> : vector<2xi64>, strides = dense<1> : vector<2xi64>} ins(%699, %cst_18 : tensor<1x1760x1x1xf32>, tensor<128x1760x1x1xf32>) outs(%508 : tensor<1x128x1x1xf32>) -> tensor<1x128x1x1xf32>
    cf.assert %3, "training is not supported for now"
    %701 = linalg.generic {indexing_maps = [#map, #map1, #map1, #map1, #map1, #map], iterator_types = ["parallel", "parallel", "parallel", "parallel"]} ins(%700, %cst_314, %cst_313, %cst_313, %cst_314 : tensor<1x128x1x1xf32>, tensor<128xf32>, tensor<128xf32>, tensor<128xf32>, tensor<128xf32>) outs(%700 : tensor<1x128x1x1xf32>) {
    ^bb0(%in: f32, %in_2322: f32, %in_2323: f32, %in_2324: f32, %in_2325: f32, %out: f32):
      %744 = arith.truncf %cst_321 : f64 to f32
      %745 = arith.addf %in_2325, %744 : f32
      %746 = math.rsqrt %745 : f32
      %747 = arith.subf %in, %in_2324 : f32
      %748 = arith.mulf %747, %746 : f32
      %749 = arith.mulf %748, %in_2322 : f32
      %750 = arith.addf %749, %in_2323 : f32
      linalg.yield %750 : f32
    } -> tensor<1x128x1x1xf32>
    %702 = linalg.generic {indexing_maps = [#map3, #map], iterator_types = ["parallel", "parallel", "parallel", "parallel"]} ins(%701 : tensor<1x128x1x1xf32>) outs(%507 : tensor<1x128x1x1xf32>) {
    ^bb0(%in: f32, %out: f32):
      %744 = arith.cmpf ugt, %in, %cst_319 : f32
      %745 = arith.select %744, %in, %cst_319 : f32
      linalg.yield %745 : f32
    } -> tensor<1x128x1x1xf32>
    %padded_2162 = tensor.pad %702 low[0, 0, 1, 1] high[0, 0, 1, 1] {
    ^bb0(%arg1: index, %arg2: index, %arg3: index, %arg4: index):
      tensor.yield %cst_319 : f32
    } : tensor<1x128x1x1xf32> to tensor<1x128x3x3xf32>
    %703 = linalg.conv_2d_nchw_fchw {dilations = dense<1> : vector<2xi64>, strides = dense<1> : vector<2xi64>} ins(%padded_2162, %cst_17 : tensor<1x128x3x3xf32>, tensor<32x128x3x3xf32>) outs(%513 : tensor<1x32x1x1xf32>) -> tensor<1x32x1x1xf32>
    %704 = tensor.empty() : tensor<1x1792x1x1xf32>
    %inserted_slice_2163 = tensor.insert_slice %504 into %704[0, 0, 0, 0] [1, 896, 1, 1] [1, 1, 1, 1] : tensor<1x896x1x1xf32> into tensor<1x1792x1x1xf32>
    %inserted_slice_2164 = tensor.insert_slice %514 into %inserted_slice_2163[0, 896, 0, 0] [1, 32, 1, 1] [1, 1, 1, 1] : tensor<1x32x1x1xf32> into tensor<1x1792x1x1xf32>
    %inserted_slice_2165 = tensor.insert_slice %521 into %inserted_slice_2164[0, 928, 0, 0] [1, 32, 1, 1] [1, 1, 1, 1] : tensor<1x32x1x1xf32> into tensor<1x1792x1x1xf32>
    %inserted_slice_2166 = tensor.insert_slice %528 into %inserted_slice_2165[0, 960, 0, 0] [1, 32, 1, 1] [1, 1, 1, 1] : tensor<1x32x1x1xf32> into tensor<1x1792x1x1xf32>
    %inserted_slice_2167 = tensor.insert_slice %535 into %inserted_slice_2166[0, 992, 0, 0] [1, 32, 1, 1] [1, 1, 1, 1] : tensor<1x32x1x1xf32> into tensor<1x1792x1x1xf32>
    %inserted_slice_2168 = tensor.insert_slice %542 into %inserted_slice_2167[0, 1024, 0, 0] [1, 32, 1, 1] [1, 1, 1, 1] : tensor<1x32x1x1xf32> into tensor<1x1792x1x1xf32>
    %inserted_slice_2169 = tensor.insert_slice %549 into %inserted_slice_2168[0, 1056, 0, 0] [1, 32, 1, 1] [1, 1, 1, 1] : tensor<1x32x1x1xf32> into tensor<1x1792x1x1xf32>
    %inserted_slice_2170 = tensor.insert_slice %556 into %inserted_slice_2169[0, 1088, 0, 0] [1, 32, 1, 1] [1, 1, 1, 1] : tensor<1x32x1x1xf32> into tensor<1x1792x1x1xf32>
    %inserted_slice_2171 = tensor.insert_slice %563 into %inserted_slice_2170[0, 1120, 0, 0] [1, 32, 1, 1] [1, 1, 1, 1] : tensor<1x32x1x1xf32> into tensor<1x1792x1x1xf32>
    %inserted_slice_2172 = tensor.insert_slice %570 into %inserted_slice_2171[0, 1152, 0, 0] [1, 32, 1, 1] [1, 1, 1, 1] : tensor<1x32x1x1xf32> into tensor<1x1792x1x1xf32>
    %inserted_slice_2173 = tensor.insert_slice %577 into %inserted_slice_2172[0, 1184, 0, 0] [1, 32, 1, 1] [1, 1, 1, 1] : tensor<1x32x1x1xf32> into tensor<1x1792x1x1xf32>
    %inserted_slice_2174 = tensor.insert_slice %584 into %inserted_slice_2173[0, 1216, 0, 0] [1, 32, 1, 1] [1, 1, 1, 1] : tensor<1x32x1x1xf32> into tensor<1x1792x1x1xf32>
    %inserted_slice_2175 = tensor.insert_slice %591 into %inserted_slice_2174[0, 1248, 0, 0] [1, 32, 1, 1] [1, 1, 1, 1] : tensor<1x32x1x1xf32> into tensor<1x1792x1x1xf32>
    %inserted_slice_2176 = tensor.insert_slice %598 into %inserted_slice_2175[0, 1280, 0, 0] [1, 32, 1, 1] [1, 1, 1, 1] : tensor<1x32x1x1xf32> into tensor<1x1792x1x1xf32>
    %inserted_slice_2177 = tensor.insert_slice %605 into %inserted_slice_2176[0, 1312, 0, 0] [1, 32, 1, 1] [1, 1, 1, 1] : tensor<1x32x1x1xf32> into tensor<1x1792x1x1xf32>
    %inserted_slice_2178 = tensor.insert_slice %612 into %inserted_slice_2177[0, 1344, 0, 0] [1, 32, 1, 1] [1, 1, 1, 1] : tensor<1x32x1x1xf32> into tensor<1x1792x1x1xf32>
    %inserted_slice_2179 = tensor.insert_slice %619 into %inserted_slice_2178[0, 1376, 0, 0] [1, 32, 1, 1] [1, 1, 1, 1] : tensor<1x32x1x1xf32> into tensor<1x1792x1x1xf32>
    %inserted_slice_2180 = tensor.insert_slice %626 into %inserted_slice_2179[0, 1408, 0, 0] [1, 32, 1, 1] [1, 1, 1, 1] : tensor<1x32x1x1xf32> into tensor<1x1792x1x1xf32>
    %inserted_slice_2181 = tensor.insert_slice %633 into %inserted_slice_2180[0, 1440, 0, 0] [1, 32, 1, 1] [1, 1, 1, 1] : tensor<1x32x1x1xf32> into tensor<1x1792x1x1xf32>
    %inserted_slice_2182 = tensor.insert_slice %640 into %inserted_slice_2181[0, 1472, 0, 0] [1, 32, 1, 1] [1, 1, 1, 1] : tensor<1x32x1x1xf32> into tensor<1x1792x1x1xf32>
    %inserted_slice_2183 = tensor.insert_slice %647 into %inserted_slice_2182[0, 1504, 0, 0] [1, 32, 1, 1] [1, 1, 1, 1] : tensor<1x32x1x1xf32> into tensor<1x1792x1x1xf32>
    %inserted_slice_2184 = tensor.insert_slice %654 into %inserted_slice_2183[0, 1536, 0, 0] [1, 32, 1, 1] [1, 1, 1, 1] : tensor<1x32x1x1xf32> into tensor<1x1792x1x1xf32>
    %inserted_slice_2185 = tensor.insert_slice %661 into %inserted_slice_2184[0, 1568, 0, 0] [1, 32, 1, 1] [1, 1, 1, 1] : tensor<1x32x1x1xf32> into tensor<1x1792x1x1xf32>
    %inserted_slice_2186 = tensor.insert_slice %668 into %inserted_slice_2185[0, 1600, 0, 0] [1, 32, 1, 1] [1, 1, 1, 1] : tensor<1x32x1x1xf32> into tensor<1x1792x1x1xf32>
    %inserted_slice_2187 = tensor.insert_slice %675 into %inserted_slice_2186[0, 1632, 0, 0] [1, 32, 1, 1] [1, 1, 1, 1] : tensor<1x32x1x1xf32> into tensor<1x1792x1x1xf32>
    %inserted_slice_2188 = tensor.insert_slice %682 into %inserted_slice_2187[0, 1664, 0, 0] [1, 32, 1, 1] [1, 1, 1, 1] : tensor<1x32x1x1xf32> into tensor<1x1792x1x1xf32>
    %inserted_slice_2189 = tensor.insert_slice %689 into %inserted_slice_2188[0, 1696, 0, 0] [1, 32, 1, 1] [1, 1, 1, 1] : tensor<1x32x1x1xf32> into tensor<1x1792x1x1xf32>
    %inserted_slice_2190 = tensor.insert_slice %696 into %inserted_slice_2189[0, 1728, 0, 0] [1, 32, 1, 1] [1, 1, 1, 1] : tensor<1x32x1x1xf32> into tensor<1x1792x1x1xf32>
    %inserted_slice_2191 = tensor.insert_slice %703 into %inserted_slice_2190[0, 1760, 0, 0] [1, 32, 1, 1] [1, 1, 1, 1] : tensor<1x32x1x1xf32> into tensor<1x1792x1x1xf32>
    cf.assert %3, "training is not supported for now"
    %705 = linalg.generic {indexing_maps = [#map, #map1, #map1, #map1, #map1, #map], iterator_types = ["parallel", "parallel", "parallel", "parallel"]} ins(%inserted_slice_2191, %cst_75, %cst_74, %cst_74, %cst_75 : tensor<1x1792x1x1xf32>, tensor<1792xf32>, tensor<1792xf32>, tensor<1792xf32>, tensor<1792xf32>) outs(%inserted_slice_2191 : tensor<1x1792x1x1xf32>) {
    ^bb0(%in: f32, %in_2322: f32, %in_2323: f32, %in_2324: f32, %in_2325: f32, %out: f32):
      %744 = arith.truncf %cst_321 : f64 to f32
      %745 = arith.addf %in_2325, %744 : f32
      %746 = math.rsqrt %745 : f32
      %747 = arith.subf %in, %in_2324 : f32
      %748 = arith.mulf %747, %746 : f32
      %749 = arith.mulf %748, %in_2322 : f32
      %750 = arith.addf %749, %in_2323 : f32
      linalg.yield %750 : f32
    } -> tensor<1x1792x1x1xf32>
    %706 = linalg.generic {indexing_maps = [#map3, #map], iterator_types = ["parallel", "parallel", "parallel", "parallel"]} ins(%705 : tensor<1x1792x1x1xf32>) outs(%704 : tensor<1x1792x1x1xf32>) {
    ^bb0(%in: f32, %out: f32):
      %744 = arith.cmpf ugt, %in, %cst_319 : f32
      %745 = arith.select %744, %in, %cst_319 : f32
      linalg.yield %745 : f32
    } -> tensor<1x1792x1x1xf32>
    %707 = linalg.conv_2d_nchw_fchw {dilations = dense<1> : vector<2xi64>, strides = dense<1> : vector<2xi64>} ins(%706, %cst_16 : tensor<1x1792x1x1xf32>, tensor<128x1792x1x1xf32>) outs(%508 : tensor<1x128x1x1xf32>) -> tensor<1x128x1x1xf32>
    cf.assert %3, "training is not supported for now"
    %708 = linalg.generic {indexing_maps = [#map, #map1, #map1, #map1, #map1, #map], iterator_types = ["parallel", "parallel", "parallel", "parallel"]} ins(%707, %cst_314, %cst_313, %cst_313, %cst_314 : tensor<1x128x1x1xf32>, tensor<128xf32>, tensor<128xf32>, tensor<128xf32>, tensor<128xf32>) outs(%707 : tensor<1x128x1x1xf32>) {
    ^bb0(%in: f32, %in_2322: f32, %in_2323: f32, %in_2324: f32, %in_2325: f32, %out: f32):
      %744 = arith.truncf %cst_321 : f64 to f32
      %745 = arith.addf %in_2325, %744 : f32
      %746 = math.rsqrt %745 : f32
      %747 = arith.subf %in, %in_2324 : f32
      %748 = arith.mulf %747, %746 : f32
      %749 = arith.mulf %748, %in_2322 : f32
      %750 = arith.addf %749, %in_2323 : f32
      linalg.yield %750 : f32
    } -> tensor<1x128x1x1xf32>
    %709 = linalg.generic {indexing_maps = [#map3, #map], iterator_types = ["parallel", "parallel", "parallel", "parallel"]} ins(%708 : tensor<1x128x1x1xf32>) outs(%507 : tensor<1x128x1x1xf32>) {
    ^bb0(%in: f32, %out: f32):
      %744 = arith.cmpf ugt, %in, %cst_319 : f32
      %745 = arith.select %744, %in, %cst_319 : f32
      linalg.yield %745 : f32
    } -> tensor<1x128x1x1xf32>
    %padded_2192 = tensor.pad %709 low[0, 0, 1, 1] high[0, 0, 1, 1] {
    ^bb0(%arg1: index, %arg2: index, %arg3: index, %arg4: index):
      tensor.yield %cst_319 : f32
    } : tensor<1x128x1x1xf32> to tensor<1x128x3x3xf32>
    %710 = linalg.conv_2d_nchw_fchw {dilations = dense<1> : vector<2xi64>, strides = dense<1> : vector<2xi64>} ins(%padded_2192, %cst_15 : tensor<1x128x3x3xf32>, tensor<32x128x3x3xf32>) outs(%513 : tensor<1x32x1x1xf32>) -> tensor<1x32x1x1xf32>
    %711 = tensor.empty() : tensor<1x1824x1x1xf32>
    %inserted_slice_2193 = tensor.insert_slice %504 into %711[0, 0, 0, 0] [1, 896, 1, 1] [1, 1, 1, 1] : tensor<1x896x1x1xf32> into tensor<1x1824x1x1xf32>
    %inserted_slice_2194 = tensor.insert_slice %514 into %inserted_slice_2193[0, 896, 0, 0] [1, 32, 1, 1] [1, 1, 1, 1] : tensor<1x32x1x1xf32> into tensor<1x1824x1x1xf32>
    %inserted_slice_2195 = tensor.insert_slice %521 into %inserted_slice_2194[0, 928, 0, 0] [1, 32, 1, 1] [1, 1, 1, 1] : tensor<1x32x1x1xf32> into tensor<1x1824x1x1xf32>
    %inserted_slice_2196 = tensor.insert_slice %528 into %inserted_slice_2195[0, 960, 0, 0] [1, 32, 1, 1] [1, 1, 1, 1] : tensor<1x32x1x1xf32> into tensor<1x1824x1x1xf32>
    %inserted_slice_2197 = tensor.insert_slice %535 into %inserted_slice_2196[0, 992, 0, 0] [1, 32, 1, 1] [1, 1, 1, 1] : tensor<1x32x1x1xf32> into tensor<1x1824x1x1xf32>
    %inserted_slice_2198 = tensor.insert_slice %542 into %inserted_slice_2197[0, 1024, 0, 0] [1, 32, 1, 1] [1, 1, 1, 1] : tensor<1x32x1x1xf32> into tensor<1x1824x1x1xf32>
    %inserted_slice_2199 = tensor.insert_slice %549 into %inserted_slice_2198[0, 1056, 0, 0] [1, 32, 1, 1] [1, 1, 1, 1] : tensor<1x32x1x1xf32> into tensor<1x1824x1x1xf32>
    %inserted_slice_2200 = tensor.insert_slice %556 into %inserted_slice_2199[0, 1088, 0, 0] [1, 32, 1, 1] [1, 1, 1, 1] : tensor<1x32x1x1xf32> into tensor<1x1824x1x1xf32>
    %inserted_slice_2201 = tensor.insert_slice %563 into %inserted_slice_2200[0, 1120, 0, 0] [1, 32, 1, 1] [1, 1, 1, 1] : tensor<1x32x1x1xf32> into tensor<1x1824x1x1xf32>
    %inserted_slice_2202 = tensor.insert_slice %570 into %inserted_slice_2201[0, 1152, 0, 0] [1, 32, 1, 1] [1, 1, 1, 1] : tensor<1x32x1x1xf32> into tensor<1x1824x1x1xf32>
    %inserted_slice_2203 = tensor.insert_slice %577 into %inserted_slice_2202[0, 1184, 0, 0] [1, 32, 1, 1] [1, 1, 1, 1] : tensor<1x32x1x1xf32> into tensor<1x1824x1x1xf32>
    %inserted_slice_2204 = tensor.insert_slice %584 into %inserted_slice_2203[0, 1216, 0, 0] [1, 32, 1, 1] [1, 1, 1, 1] : tensor<1x32x1x1xf32> into tensor<1x1824x1x1xf32>
    %inserted_slice_2205 = tensor.insert_slice %591 into %inserted_slice_2204[0, 1248, 0, 0] [1, 32, 1, 1] [1, 1, 1, 1] : tensor<1x32x1x1xf32> into tensor<1x1824x1x1xf32>
    %inserted_slice_2206 = tensor.insert_slice %598 into %inserted_slice_2205[0, 1280, 0, 0] [1, 32, 1, 1] [1, 1, 1, 1] : tensor<1x32x1x1xf32> into tensor<1x1824x1x1xf32>
    %inserted_slice_2207 = tensor.insert_slice %605 into %inserted_slice_2206[0, 1312, 0, 0] [1, 32, 1, 1] [1, 1, 1, 1] : tensor<1x32x1x1xf32> into tensor<1x1824x1x1xf32>
    %inserted_slice_2208 = tensor.insert_slice %612 into %inserted_slice_2207[0, 1344, 0, 0] [1, 32, 1, 1] [1, 1, 1, 1] : tensor<1x32x1x1xf32> into tensor<1x1824x1x1xf32>
    %inserted_slice_2209 = tensor.insert_slice %619 into %inserted_slice_2208[0, 1376, 0, 0] [1, 32, 1, 1] [1, 1, 1, 1] : tensor<1x32x1x1xf32> into tensor<1x1824x1x1xf32>
    %inserted_slice_2210 = tensor.insert_slice %626 into %inserted_slice_2209[0, 1408, 0, 0] [1, 32, 1, 1] [1, 1, 1, 1] : tensor<1x32x1x1xf32> into tensor<1x1824x1x1xf32>
    %inserted_slice_2211 = tensor.insert_slice %633 into %inserted_slice_2210[0, 1440, 0, 0] [1, 32, 1, 1] [1, 1, 1, 1] : tensor<1x32x1x1xf32> into tensor<1x1824x1x1xf32>
    %inserted_slice_2212 = tensor.insert_slice %640 into %inserted_slice_2211[0, 1472, 0, 0] [1, 32, 1, 1] [1, 1, 1, 1] : tensor<1x32x1x1xf32> into tensor<1x1824x1x1xf32>
    %inserted_slice_2213 = tensor.insert_slice %647 into %inserted_slice_2212[0, 1504, 0, 0] [1, 32, 1, 1] [1, 1, 1, 1] : tensor<1x32x1x1xf32> into tensor<1x1824x1x1xf32>
    %inserted_slice_2214 = tensor.insert_slice %654 into %inserted_slice_2213[0, 1536, 0, 0] [1, 32, 1, 1] [1, 1, 1, 1] : tensor<1x32x1x1xf32> into tensor<1x1824x1x1xf32>
    %inserted_slice_2215 = tensor.insert_slice %661 into %inserted_slice_2214[0, 1568, 0, 0] [1, 32, 1, 1] [1, 1, 1, 1] : tensor<1x32x1x1xf32> into tensor<1x1824x1x1xf32>
    %inserted_slice_2216 = tensor.insert_slice %668 into %inserted_slice_2215[0, 1600, 0, 0] [1, 32, 1, 1] [1, 1, 1, 1] : tensor<1x32x1x1xf32> into tensor<1x1824x1x1xf32>
    %inserted_slice_2217 = tensor.insert_slice %675 into %inserted_slice_2216[0, 1632, 0, 0] [1, 32, 1, 1] [1, 1, 1, 1] : tensor<1x32x1x1xf32> into tensor<1x1824x1x1xf32>
    %inserted_slice_2218 = tensor.insert_slice %682 into %inserted_slice_2217[0, 1664, 0, 0] [1, 32, 1, 1] [1, 1, 1, 1] : tensor<1x32x1x1xf32> into tensor<1x1824x1x1xf32>
    %inserted_slice_2219 = tensor.insert_slice %689 into %inserted_slice_2218[0, 1696, 0, 0] [1, 32, 1, 1] [1, 1, 1, 1] : tensor<1x32x1x1xf32> into tensor<1x1824x1x1xf32>
    %inserted_slice_2220 = tensor.insert_slice %696 into %inserted_slice_2219[0, 1728, 0, 0] [1, 32, 1, 1] [1, 1, 1, 1] : tensor<1x32x1x1xf32> into tensor<1x1824x1x1xf32>
    %inserted_slice_2221 = tensor.insert_slice %703 into %inserted_slice_2220[0, 1760, 0, 0] [1, 32, 1, 1] [1, 1, 1, 1] : tensor<1x32x1x1xf32> into tensor<1x1824x1x1xf32>
    %inserted_slice_2222 = tensor.insert_slice %710 into %inserted_slice_2221[0, 1792, 0, 0] [1, 32, 1, 1] [1, 1, 1, 1] : tensor<1x32x1x1xf32> into tensor<1x1824x1x1xf32>
    cf.assert %3, "training is not supported for now"
    %712 = linalg.generic {indexing_maps = [#map, #map1, #map1, #map1, #map1, #map], iterator_types = ["parallel", "parallel", "parallel", "parallel"]} ins(%inserted_slice_2222, %cst_14, %cst_13, %cst_13, %cst_14 : tensor<1x1824x1x1xf32>, tensor<1824xf32>, tensor<1824xf32>, tensor<1824xf32>, tensor<1824xf32>) outs(%inserted_slice_2222 : tensor<1x1824x1x1xf32>) {
    ^bb0(%in: f32, %in_2322: f32, %in_2323: f32, %in_2324: f32, %in_2325: f32, %out: f32):
      %744 = arith.truncf %cst_321 : f64 to f32
      %745 = arith.addf %in_2325, %744 : f32
      %746 = math.rsqrt %745 : f32
      %747 = arith.subf %in, %in_2324 : f32
      %748 = arith.mulf %747, %746 : f32
      %749 = arith.mulf %748, %in_2322 : f32
      %750 = arith.addf %749, %in_2323 : f32
      linalg.yield %750 : f32
    } -> tensor<1x1824x1x1xf32>
    %713 = linalg.generic {indexing_maps = [#map3, #map], iterator_types = ["parallel", "parallel", "parallel", "parallel"]} ins(%712 : tensor<1x1824x1x1xf32>) outs(%711 : tensor<1x1824x1x1xf32>) {
    ^bb0(%in: f32, %out: f32):
      %744 = arith.cmpf ugt, %in, %cst_319 : f32
      %745 = arith.select %744, %in, %cst_319 : f32
      linalg.yield %745 : f32
    } -> tensor<1x1824x1x1xf32>
    %714 = linalg.conv_2d_nchw_fchw {dilations = dense<1> : vector<2xi64>, strides = dense<1> : vector<2xi64>} ins(%713, %cst_12 : tensor<1x1824x1x1xf32>, tensor<128x1824x1x1xf32>) outs(%508 : tensor<1x128x1x1xf32>) -> tensor<1x128x1x1xf32>
    cf.assert %3, "training is not supported for now"
    %715 = linalg.generic {indexing_maps = [#map, #map1, #map1, #map1, #map1, #map], iterator_types = ["parallel", "parallel", "parallel", "parallel"]} ins(%714, %cst_314, %cst_313, %cst_313, %cst_314 : tensor<1x128x1x1xf32>, tensor<128xf32>, tensor<128xf32>, tensor<128xf32>, tensor<128xf32>) outs(%714 : tensor<1x128x1x1xf32>) {
    ^bb0(%in: f32, %in_2322: f32, %in_2323: f32, %in_2324: f32, %in_2325: f32, %out: f32):
      %744 = arith.truncf %cst_321 : f64 to f32
      %745 = arith.addf %in_2325, %744 : f32
      %746 = math.rsqrt %745 : f32
      %747 = arith.subf %in, %in_2324 : f32
      %748 = arith.mulf %747, %746 : f32
      %749 = arith.mulf %748, %in_2322 : f32
      %750 = arith.addf %749, %in_2323 : f32
      linalg.yield %750 : f32
    } -> tensor<1x128x1x1xf32>
    %716 = linalg.generic {indexing_maps = [#map3, #map], iterator_types = ["parallel", "parallel", "parallel", "parallel"]} ins(%715 : tensor<1x128x1x1xf32>) outs(%507 : tensor<1x128x1x1xf32>) {
    ^bb0(%in: f32, %out: f32):
      %744 = arith.cmpf ugt, %in, %cst_319 : f32
      %745 = arith.select %744, %in, %cst_319 : f32
      linalg.yield %745 : f32
    } -> tensor<1x128x1x1xf32>
    %padded_2223 = tensor.pad %716 low[0, 0, 1, 1] high[0, 0, 1, 1] {
    ^bb0(%arg1: index, %arg2: index, %arg3: index, %arg4: index):
      tensor.yield %cst_319 : f32
    } : tensor<1x128x1x1xf32> to tensor<1x128x3x3xf32>
    %717 = linalg.conv_2d_nchw_fchw {dilations = dense<1> : vector<2xi64>, strides = dense<1> : vector<2xi64>} ins(%padded_2223, %cst_11 : tensor<1x128x3x3xf32>, tensor<32x128x3x3xf32>) outs(%513 : tensor<1x32x1x1xf32>) -> tensor<1x32x1x1xf32>
    %718 = tensor.empty() : tensor<1x1856x1x1xf32>
    %inserted_slice_2224 = tensor.insert_slice %504 into %718[0, 0, 0, 0] [1, 896, 1, 1] [1, 1, 1, 1] : tensor<1x896x1x1xf32> into tensor<1x1856x1x1xf32>
    %inserted_slice_2225 = tensor.insert_slice %514 into %inserted_slice_2224[0, 896, 0, 0] [1, 32, 1, 1] [1, 1, 1, 1] : tensor<1x32x1x1xf32> into tensor<1x1856x1x1xf32>
    %inserted_slice_2226 = tensor.insert_slice %521 into %inserted_slice_2225[0, 928, 0, 0] [1, 32, 1, 1] [1, 1, 1, 1] : tensor<1x32x1x1xf32> into tensor<1x1856x1x1xf32>
    %inserted_slice_2227 = tensor.insert_slice %528 into %inserted_slice_2226[0, 960, 0, 0] [1, 32, 1, 1] [1, 1, 1, 1] : tensor<1x32x1x1xf32> into tensor<1x1856x1x1xf32>
    %inserted_slice_2228 = tensor.insert_slice %535 into %inserted_slice_2227[0, 992, 0, 0] [1, 32, 1, 1] [1, 1, 1, 1] : tensor<1x32x1x1xf32> into tensor<1x1856x1x1xf32>
    %inserted_slice_2229 = tensor.insert_slice %542 into %inserted_slice_2228[0, 1024, 0, 0] [1, 32, 1, 1] [1, 1, 1, 1] : tensor<1x32x1x1xf32> into tensor<1x1856x1x1xf32>
    %inserted_slice_2230 = tensor.insert_slice %549 into %inserted_slice_2229[0, 1056, 0, 0] [1, 32, 1, 1] [1, 1, 1, 1] : tensor<1x32x1x1xf32> into tensor<1x1856x1x1xf32>
    %inserted_slice_2231 = tensor.insert_slice %556 into %inserted_slice_2230[0, 1088, 0, 0] [1, 32, 1, 1] [1, 1, 1, 1] : tensor<1x32x1x1xf32> into tensor<1x1856x1x1xf32>
    %inserted_slice_2232 = tensor.insert_slice %563 into %inserted_slice_2231[0, 1120, 0, 0] [1, 32, 1, 1] [1, 1, 1, 1] : tensor<1x32x1x1xf32> into tensor<1x1856x1x1xf32>
    %inserted_slice_2233 = tensor.insert_slice %570 into %inserted_slice_2232[0, 1152, 0, 0] [1, 32, 1, 1] [1, 1, 1, 1] : tensor<1x32x1x1xf32> into tensor<1x1856x1x1xf32>
    %inserted_slice_2234 = tensor.insert_slice %577 into %inserted_slice_2233[0, 1184, 0, 0] [1, 32, 1, 1] [1, 1, 1, 1] : tensor<1x32x1x1xf32> into tensor<1x1856x1x1xf32>
    %inserted_slice_2235 = tensor.insert_slice %584 into %inserted_slice_2234[0, 1216, 0, 0] [1, 32, 1, 1] [1, 1, 1, 1] : tensor<1x32x1x1xf32> into tensor<1x1856x1x1xf32>
    %inserted_slice_2236 = tensor.insert_slice %591 into %inserted_slice_2235[0, 1248, 0, 0] [1, 32, 1, 1] [1, 1, 1, 1] : tensor<1x32x1x1xf32> into tensor<1x1856x1x1xf32>
    %inserted_slice_2237 = tensor.insert_slice %598 into %inserted_slice_2236[0, 1280, 0, 0] [1, 32, 1, 1] [1, 1, 1, 1] : tensor<1x32x1x1xf32> into tensor<1x1856x1x1xf32>
    %inserted_slice_2238 = tensor.insert_slice %605 into %inserted_slice_2237[0, 1312, 0, 0] [1, 32, 1, 1] [1, 1, 1, 1] : tensor<1x32x1x1xf32> into tensor<1x1856x1x1xf32>
    %inserted_slice_2239 = tensor.insert_slice %612 into %inserted_slice_2238[0, 1344, 0, 0] [1, 32, 1, 1] [1, 1, 1, 1] : tensor<1x32x1x1xf32> into tensor<1x1856x1x1xf32>
    %inserted_slice_2240 = tensor.insert_slice %619 into %inserted_slice_2239[0, 1376, 0, 0] [1, 32, 1, 1] [1, 1, 1, 1] : tensor<1x32x1x1xf32> into tensor<1x1856x1x1xf32>
    %inserted_slice_2241 = tensor.insert_slice %626 into %inserted_slice_2240[0, 1408, 0, 0] [1, 32, 1, 1] [1, 1, 1, 1] : tensor<1x32x1x1xf32> into tensor<1x1856x1x1xf32>
    %inserted_slice_2242 = tensor.insert_slice %633 into %inserted_slice_2241[0, 1440, 0, 0] [1, 32, 1, 1] [1, 1, 1, 1] : tensor<1x32x1x1xf32> into tensor<1x1856x1x1xf32>
    %inserted_slice_2243 = tensor.insert_slice %640 into %inserted_slice_2242[0, 1472, 0, 0] [1, 32, 1, 1] [1, 1, 1, 1] : tensor<1x32x1x1xf32> into tensor<1x1856x1x1xf32>
    %inserted_slice_2244 = tensor.insert_slice %647 into %inserted_slice_2243[0, 1504, 0, 0] [1, 32, 1, 1] [1, 1, 1, 1] : tensor<1x32x1x1xf32> into tensor<1x1856x1x1xf32>
    %inserted_slice_2245 = tensor.insert_slice %654 into %inserted_slice_2244[0, 1536, 0, 0] [1, 32, 1, 1] [1, 1, 1, 1] : tensor<1x32x1x1xf32> into tensor<1x1856x1x1xf32>
    %inserted_slice_2246 = tensor.insert_slice %661 into %inserted_slice_2245[0, 1568, 0, 0] [1, 32, 1, 1] [1, 1, 1, 1] : tensor<1x32x1x1xf32> into tensor<1x1856x1x1xf32>
    %inserted_slice_2247 = tensor.insert_slice %668 into %inserted_slice_2246[0, 1600, 0, 0] [1, 32, 1, 1] [1, 1, 1, 1] : tensor<1x32x1x1xf32> into tensor<1x1856x1x1xf32>
    %inserted_slice_2248 = tensor.insert_slice %675 into %inserted_slice_2247[0, 1632, 0, 0] [1, 32, 1, 1] [1, 1, 1, 1] : tensor<1x32x1x1xf32> into tensor<1x1856x1x1xf32>
    %inserted_slice_2249 = tensor.insert_slice %682 into %inserted_slice_2248[0, 1664, 0, 0] [1, 32, 1, 1] [1, 1, 1, 1] : tensor<1x32x1x1xf32> into tensor<1x1856x1x1xf32>
    %inserted_slice_2250 = tensor.insert_slice %689 into %inserted_slice_2249[0, 1696, 0, 0] [1, 32, 1, 1] [1, 1, 1, 1] : tensor<1x32x1x1xf32> into tensor<1x1856x1x1xf32>
    %inserted_slice_2251 = tensor.insert_slice %696 into %inserted_slice_2250[0, 1728, 0, 0] [1, 32, 1, 1] [1, 1, 1, 1] : tensor<1x32x1x1xf32> into tensor<1x1856x1x1xf32>
    %inserted_slice_2252 = tensor.insert_slice %703 into %inserted_slice_2251[0, 1760, 0, 0] [1, 32, 1, 1] [1, 1, 1, 1] : tensor<1x32x1x1xf32> into tensor<1x1856x1x1xf32>
    %inserted_slice_2253 = tensor.insert_slice %710 into %inserted_slice_2252[0, 1792, 0, 0] [1, 32, 1, 1] [1, 1, 1, 1] : tensor<1x32x1x1xf32> into tensor<1x1856x1x1xf32>
    %inserted_slice_2254 = tensor.insert_slice %717 into %inserted_slice_2253[0, 1824, 0, 0] [1, 32, 1, 1] [1, 1, 1, 1] : tensor<1x32x1x1xf32> into tensor<1x1856x1x1xf32>
    cf.assert %3, "training is not supported for now"
    %719 = linalg.generic {indexing_maps = [#map, #map1, #map1, #map1, #map1, #map], iterator_types = ["parallel", "parallel", "parallel", "parallel"]} ins(%inserted_slice_2254, %cst_10, %cst_9, %cst_9, %cst_10 : tensor<1x1856x1x1xf32>, tensor<1856xf32>, tensor<1856xf32>, tensor<1856xf32>, tensor<1856xf32>) outs(%inserted_slice_2254 : tensor<1x1856x1x1xf32>) {
    ^bb0(%in: f32, %in_2322: f32, %in_2323: f32, %in_2324: f32, %in_2325: f32, %out: f32):
      %744 = arith.truncf %cst_321 : f64 to f32
      %745 = arith.addf %in_2325, %744 : f32
      %746 = math.rsqrt %745 : f32
      %747 = arith.subf %in, %in_2324 : f32
      %748 = arith.mulf %747, %746 : f32
      %749 = arith.mulf %748, %in_2322 : f32
      %750 = arith.addf %749, %in_2323 : f32
      linalg.yield %750 : f32
    } -> tensor<1x1856x1x1xf32>
    %720 = linalg.generic {indexing_maps = [#map3, #map], iterator_types = ["parallel", "parallel", "parallel", "parallel"]} ins(%719 : tensor<1x1856x1x1xf32>) outs(%718 : tensor<1x1856x1x1xf32>) {
    ^bb0(%in: f32, %out: f32):
      %744 = arith.cmpf ugt, %in, %cst_319 : f32
      %745 = arith.select %744, %in, %cst_319 : f32
      linalg.yield %745 : f32
    } -> tensor<1x1856x1x1xf32>
    %721 = linalg.conv_2d_nchw_fchw {dilations = dense<1> : vector<2xi64>, strides = dense<1> : vector<2xi64>} ins(%720, %cst_8 : tensor<1x1856x1x1xf32>, tensor<128x1856x1x1xf32>) outs(%508 : tensor<1x128x1x1xf32>) -> tensor<1x128x1x1xf32>
    cf.assert %3, "training is not supported for now"
    %722 = linalg.generic {indexing_maps = [#map, #map1, #map1, #map1, #map1, #map], iterator_types = ["parallel", "parallel", "parallel", "parallel"]} ins(%721, %cst_314, %cst_313, %cst_313, %cst_314 : tensor<1x128x1x1xf32>, tensor<128xf32>, tensor<128xf32>, tensor<128xf32>, tensor<128xf32>) outs(%721 : tensor<1x128x1x1xf32>) {
    ^bb0(%in: f32, %in_2322: f32, %in_2323: f32, %in_2324: f32, %in_2325: f32, %out: f32):
      %744 = arith.truncf %cst_321 : f64 to f32
      %745 = arith.addf %in_2325, %744 : f32
      %746 = math.rsqrt %745 : f32
      %747 = arith.subf %in, %in_2324 : f32
      %748 = arith.mulf %747, %746 : f32
      %749 = arith.mulf %748, %in_2322 : f32
      %750 = arith.addf %749, %in_2323 : f32
      linalg.yield %750 : f32
    } -> tensor<1x128x1x1xf32>
    %723 = linalg.generic {indexing_maps = [#map3, #map], iterator_types = ["parallel", "parallel", "parallel", "parallel"]} ins(%722 : tensor<1x128x1x1xf32>) outs(%507 : tensor<1x128x1x1xf32>) {
    ^bb0(%in: f32, %out: f32):
      %744 = arith.cmpf ugt, %in, %cst_319 : f32
      %745 = arith.select %744, %in, %cst_319 : f32
      linalg.yield %745 : f32
    } -> tensor<1x128x1x1xf32>
    %padded_2255 = tensor.pad %723 low[0, 0, 1, 1] high[0, 0, 1, 1] {
    ^bb0(%arg1: index, %arg2: index, %arg3: index, %arg4: index):
      tensor.yield %cst_319 : f32
    } : tensor<1x128x1x1xf32> to tensor<1x128x3x3xf32>
    %724 = linalg.conv_2d_nchw_fchw {dilations = dense<1> : vector<2xi64>, strides = dense<1> : vector<2xi64>} ins(%padded_2255, %cst_7 : tensor<1x128x3x3xf32>, tensor<32x128x3x3xf32>) outs(%513 : tensor<1x32x1x1xf32>) -> tensor<1x32x1x1xf32>
    %725 = tensor.empty() : tensor<1x1888x1x1xf32>
    %inserted_slice_2256 = tensor.insert_slice %504 into %725[0, 0, 0, 0] [1, 896, 1, 1] [1, 1, 1, 1] : tensor<1x896x1x1xf32> into tensor<1x1888x1x1xf32>
    %inserted_slice_2257 = tensor.insert_slice %514 into %inserted_slice_2256[0, 896, 0, 0] [1, 32, 1, 1] [1, 1, 1, 1] : tensor<1x32x1x1xf32> into tensor<1x1888x1x1xf32>
    %inserted_slice_2258 = tensor.insert_slice %521 into %inserted_slice_2257[0, 928, 0, 0] [1, 32, 1, 1] [1, 1, 1, 1] : tensor<1x32x1x1xf32> into tensor<1x1888x1x1xf32>
    %inserted_slice_2259 = tensor.insert_slice %528 into %inserted_slice_2258[0, 960, 0, 0] [1, 32, 1, 1] [1, 1, 1, 1] : tensor<1x32x1x1xf32> into tensor<1x1888x1x1xf32>
    %inserted_slice_2260 = tensor.insert_slice %535 into %inserted_slice_2259[0, 992, 0, 0] [1, 32, 1, 1] [1, 1, 1, 1] : tensor<1x32x1x1xf32> into tensor<1x1888x1x1xf32>
    %inserted_slice_2261 = tensor.insert_slice %542 into %inserted_slice_2260[0, 1024, 0, 0] [1, 32, 1, 1] [1, 1, 1, 1] : tensor<1x32x1x1xf32> into tensor<1x1888x1x1xf32>
    %inserted_slice_2262 = tensor.insert_slice %549 into %inserted_slice_2261[0, 1056, 0, 0] [1, 32, 1, 1] [1, 1, 1, 1] : tensor<1x32x1x1xf32> into tensor<1x1888x1x1xf32>
    %inserted_slice_2263 = tensor.insert_slice %556 into %inserted_slice_2262[0, 1088, 0, 0] [1, 32, 1, 1] [1, 1, 1, 1] : tensor<1x32x1x1xf32> into tensor<1x1888x1x1xf32>
    %inserted_slice_2264 = tensor.insert_slice %563 into %inserted_slice_2263[0, 1120, 0, 0] [1, 32, 1, 1] [1, 1, 1, 1] : tensor<1x32x1x1xf32> into tensor<1x1888x1x1xf32>
    %inserted_slice_2265 = tensor.insert_slice %570 into %inserted_slice_2264[0, 1152, 0, 0] [1, 32, 1, 1] [1, 1, 1, 1] : tensor<1x32x1x1xf32> into tensor<1x1888x1x1xf32>
    %inserted_slice_2266 = tensor.insert_slice %577 into %inserted_slice_2265[0, 1184, 0, 0] [1, 32, 1, 1] [1, 1, 1, 1] : tensor<1x32x1x1xf32> into tensor<1x1888x1x1xf32>
    %inserted_slice_2267 = tensor.insert_slice %584 into %inserted_slice_2266[0, 1216, 0, 0] [1, 32, 1, 1] [1, 1, 1, 1] : tensor<1x32x1x1xf32> into tensor<1x1888x1x1xf32>
    %inserted_slice_2268 = tensor.insert_slice %591 into %inserted_slice_2267[0, 1248, 0, 0] [1, 32, 1, 1] [1, 1, 1, 1] : tensor<1x32x1x1xf32> into tensor<1x1888x1x1xf32>
    %inserted_slice_2269 = tensor.insert_slice %598 into %inserted_slice_2268[0, 1280, 0, 0] [1, 32, 1, 1] [1, 1, 1, 1] : tensor<1x32x1x1xf32> into tensor<1x1888x1x1xf32>
    %inserted_slice_2270 = tensor.insert_slice %605 into %inserted_slice_2269[0, 1312, 0, 0] [1, 32, 1, 1] [1, 1, 1, 1] : tensor<1x32x1x1xf32> into tensor<1x1888x1x1xf32>
    %inserted_slice_2271 = tensor.insert_slice %612 into %inserted_slice_2270[0, 1344, 0, 0] [1, 32, 1, 1] [1, 1, 1, 1] : tensor<1x32x1x1xf32> into tensor<1x1888x1x1xf32>
    %inserted_slice_2272 = tensor.insert_slice %619 into %inserted_slice_2271[0, 1376, 0, 0] [1, 32, 1, 1] [1, 1, 1, 1] : tensor<1x32x1x1xf32> into tensor<1x1888x1x1xf32>
    %inserted_slice_2273 = tensor.insert_slice %626 into %inserted_slice_2272[0, 1408, 0, 0] [1, 32, 1, 1] [1, 1, 1, 1] : tensor<1x32x1x1xf32> into tensor<1x1888x1x1xf32>
    %inserted_slice_2274 = tensor.insert_slice %633 into %inserted_slice_2273[0, 1440, 0, 0] [1, 32, 1, 1] [1, 1, 1, 1] : tensor<1x32x1x1xf32> into tensor<1x1888x1x1xf32>
    %inserted_slice_2275 = tensor.insert_slice %640 into %inserted_slice_2274[0, 1472, 0, 0] [1, 32, 1, 1] [1, 1, 1, 1] : tensor<1x32x1x1xf32> into tensor<1x1888x1x1xf32>
    %inserted_slice_2276 = tensor.insert_slice %647 into %inserted_slice_2275[0, 1504, 0, 0] [1, 32, 1, 1] [1, 1, 1, 1] : tensor<1x32x1x1xf32> into tensor<1x1888x1x1xf32>
    %inserted_slice_2277 = tensor.insert_slice %654 into %inserted_slice_2276[0, 1536, 0, 0] [1, 32, 1, 1] [1, 1, 1, 1] : tensor<1x32x1x1xf32> into tensor<1x1888x1x1xf32>
    %inserted_slice_2278 = tensor.insert_slice %661 into %inserted_slice_2277[0, 1568, 0, 0] [1, 32, 1, 1] [1, 1, 1, 1] : tensor<1x32x1x1xf32> into tensor<1x1888x1x1xf32>
    %inserted_slice_2279 = tensor.insert_slice %668 into %inserted_slice_2278[0, 1600, 0, 0] [1, 32, 1, 1] [1, 1, 1, 1] : tensor<1x32x1x1xf32> into tensor<1x1888x1x1xf32>
    %inserted_slice_2280 = tensor.insert_slice %675 into %inserted_slice_2279[0, 1632, 0, 0] [1, 32, 1, 1] [1, 1, 1, 1] : tensor<1x32x1x1xf32> into tensor<1x1888x1x1xf32>
    %inserted_slice_2281 = tensor.insert_slice %682 into %inserted_slice_2280[0, 1664, 0, 0] [1, 32, 1, 1] [1, 1, 1, 1] : tensor<1x32x1x1xf32> into tensor<1x1888x1x1xf32>
    %inserted_slice_2282 = tensor.insert_slice %689 into %inserted_slice_2281[0, 1696, 0, 0] [1, 32, 1, 1] [1, 1, 1, 1] : tensor<1x32x1x1xf32> into tensor<1x1888x1x1xf32>
    %inserted_slice_2283 = tensor.insert_slice %696 into %inserted_slice_2282[0, 1728, 0, 0] [1, 32, 1, 1] [1, 1, 1, 1] : tensor<1x32x1x1xf32> into tensor<1x1888x1x1xf32>
    %inserted_slice_2284 = tensor.insert_slice %703 into %inserted_slice_2283[0, 1760, 0, 0] [1, 32, 1, 1] [1, 1, 1, 1] : tensor<1x32x1x1xf32> into tensor<1x1888x1x1xf32>
    %inserted_slice_2285 = tensor.insert_slice %710 into %inserted_slice_2284[0, 1792, 0, 0] [1, 32, 1, 1] [1, 1, 1, 1] : tensor<1x32x1x1xf32> into tensor<1x1888x1x1xf32>
    %inserted_slice_2286 = tensor.insert_slice %717 into %inserted_slice_2285[0, 1824, 0, 0] [1, 32, 1, 1] [1, 1, 1, 1] : tensor<1x32x1x1xf32> into tensor<1x1888x1x1xf32>
    %inserted_slice_2287 = tensor.insert_slice %724 into %inserted_slice_2286[0, 1856, 0, 0] [1, 32, 1, 1] [1, 1, 1, 1] : tensor<1x32x1x1xf32> into tensor<1x1888x1x1xf32>
    cf.assert %3, "training is not supported for now"
    %726 = linalg.generic {indexing_maps = [#map, #map1, #map1, #map1, #map1, #map], iterator_types = ["parallel", "parallel", "parallel", "parallel"]} ins(%inserted_slice_2287, %cst_6, %cst_5, %cst_5, %cst_6 : tensor<1x1888x1x1xf32>, tensor<1888xf32>, tensor<1888xf32>, tensor<1888xf32>, tensor<1888xf32>) outs(%inserted_slice_2287 : tensor<1x1888x1x1xf32>) {
    ^bb0(%in: f32, %in_2322: f32, %in_2323: f32, %in_2324: f32, %in_2325: f32, %out: f32):
      %744 = arith.truncf %cst_321 : f64 to f32
      %745 = arith.addf %in_2325, %744 : f32
      %746 = math.rsqrt %745 : f32
      %747 = arith.subf %in, %in_2324 : f32
      %748 = arith.mulf %747, %746 : f32
      %749 = arith.mulf %748, %in_2322 : f32
      %750 = arith.addf %749, %in_2323 : f32
      linalg.yield %750 : f32
    } -> tensor<1x1888x1x1xf32>
    %727 = linalg.generic {indexing_maps = [#map3, #map], iterator_types = ["parallel", "parallel", "parallel", "parallel"]} ins(%726 : tensor<1x1888x1x1xf32>) outs(%725 : tensor<1x1888x1x1xf32>) {
    ^bb0(%in: f32, %out: f32):
      %744 = arith.cmpf ugt, %in, %cst_319 : f32
      %745 = arith.select %744, %in, %cst_319 : f32
      linalg.yield %745 : f32
    } -> tensor<1x1888x1x1xf32>
    %728 = linalg.conv_2d_nchw_fchw {dilations = dense<1> : vector<2xi64>, strides = dense<1> : vector<2xi64>} ins(%727, %cst_4 : tensor<1x1888x1x1xf32>, tensor<128x1888x1x1xf32>) outs(%508 : tensor<1x128x1x1xf32>) -> tensor<1x128x1x1xf32>
    cf.assert %3, "training is not supported for now"
    %729 = linalg.generic {indexing_maps = [#map, #map1, #map1, #map1, #map1, #map], iterator_types = ["parallel", "parallel", "parallel", "parallel"]} ins(%728, %cst_314, %cst_313, %cst_313, %cst_314 : tensor<1x128x1x1xf32>, tensor<128xf32>, tensor<128xf32>, tensor<128xf32>, tensor<128xf32>) outs(%728 : tensor<1x128x1x1xf32>) {
    ^bb0(%in: f32, %in_2322: f32, %in_2323: f32, %in_2324: f32, %in_2325: f32, %out: f32):
      %744 = arith.truncf %cst_321 : f64 to f32
      %745 = arith.addf %in_2325, %744 : f32
      %746 = math.rsqrt %745 : f32
      %747 = arith.subf %in, %in_2324 : f32
      %748 = arith.mulf %747, %746 : f32
      %749 = arith.mulf %748, %in_2322 : f32
      %750 = arith.addf %749, %in_2323 : f32
      linalg.yield %750 : f32
    } -> tensor<1x128x1x1xf32>
    %730 = linalg.generic {indexing_maps = [#map3, #map], iterator_types = ["parallel", "parallel", "parallel", "parallel"]} ins(%729 : tensor<1x128x1x1xf32>) outs(%507 : tensor<1x128x1x1xf32>) {
    ^bb0(%in: f32, %out: f32):
      %744 = arith.cmpf ugt, %in, %cst_319 : f32
      %745 = arith.select %744, %in, %cst_319 : f32
      linalg.yield %745 : f32
    } -> tensor<1x128x1x1xf32>
    %padded_2288 = tensor.pad %730 low[0, 0, 1, 1] high[0, 0, 1, 1] {
    ^bb0(%arg1: index, %arg2: index, %arg3: index, %arg4: index):
      tensor.yield %cst_319 : f32
    } : tensor<1x128x1x1xf32> to tensor<1x128x3x3xf32>
    %731 = linalg.conv_2d_nchw_fchw {dilations = dense<1> : vector<2xi64>, strides = dense<1> : vector<2xi64>} ins(%padded_2288, %cst_3 : tensor<1x128x3x3xf32>, tensor<32x128x3x3xf32>) outs(%513 : tensor<1x32x1x1xf32>) -> tensor<1x32x1x1xf32>
    %732 = tensor.empty() : tensor<1x1920x1x1xf32>
    %inserted_slice_2289 = tensor.insert_slice %504 into %732[0, 0, 0, 0] [1, 896, 1, 1] [1, 1, 1, 1] : tensor<1x896x1x1xf32> into tensor<1x1920x1x1xf32>
    %inserted_slice_2290 = tensor.insert_slice %514 into %inserted_slice_2289[0, 896, 0, 0] [1, 32, 1, 1] [1, 1, 1, 1] : tensor<1x32x1x1xf32> into tensor<1x1920x1x1xf32>
    %inserted_slice_2291 = tensor.insert_slice %521 into %inserted_slice_2290[0, 928, 0, 0] [1, 32, 1, 1] [1, 1, 1, 1] : tensor<1x32x1x1xf32> into tensor<1x1920x1x1xf32>
    %inserted_slice_2292 = tensor.insert_slice %528 into %inserted_slice_2291[0, 960, 0, 0] [1, 32, 1, 1] [1, 1, 1, 1] : tensor<1x32x1x1xf32> into tensor<1x1920x1x1xf32>
    %inserted_slice_2293 = tensor.insert_slice %535 into %inserted_slice_2292[0, 992, 0, 0] [1, 32, 1, 1] [1, 1, 1, 1] : tensor<1x32x1x1xf32> into tensor<1x1920x1x1xf32>
    %inserted_slice_2294 = tensor.insert_slice %542 into %inserted_slice_2293[0, 1024, 0, 0] [1, 32, 1, 1] [1, 1, 1, 1] : tensor<1x32x1x1xf32> into tensor<1x1920x1x1xf32>
    %inserted_slice_2295 = tensor.insert_slice %549 into %inserted_slice_2294[0, 1056, 0, 0] [1, 32, 1, 1] [1, 1, 1, 1] : tensor<1x32x1x1xf32> into tensor<1x1920x1x1xf32>
    %inserted_slice_2296 = tensor.insert_slice %556 into %inserted_slice_2295[0, 1088, 0, 0] [1, 32, 1, 1] [1, 1, 1, 1] : tensor<1x32x1x1xf32> into tensor<1x1920x1x1xf32>
    %inserted_slice_2297 = tensor.insert_slice %563 into %inserted_slice_2296[0, 1120, 0, 0] [1, 32, 1, 1] [1, 1, 1, 1] : tensor<1x32x1x1xf32> into tensor<1x1920x1x1xf32>
    %inserted_slice_2298 = tensor.insert_slice %570 into %inserted_slice_2297[0, 1152, 0, 0] [1, 32, 1, 1] [1, 1, 1, 1] : tensor<1x32x1x1xf32> into tensor<1x1920x1x1xf32>
    %inserted_slice_2299 = tensor.insert_slice %577 into %inserted_slice_2298[0, 1184, 0, 0] [1, 32, 1, 1] [1, 1, 1, 1] : tensor<1x32x1x1xf32> into tensor<1x1920x1x1xf32>
    %inserted_slice_2300 = tensor.insert_slice %584 into %inserted_slice_2299[0, 1216, 0, 0] [1, 32, 1, 1] [1, 1, 1, 1] : tensor<1x32x1x1xf32> into tensor<1x1920x1x1xf32>
    %inserted_slice_2301 = tensor.insert_slice %591 into %inserted_slice_2300[0, 1248, 0, 0] [1, 32, 1, 1] [1, 1, 1, 1] : tensor<1x32x1x1xf32> into tensor<1x1920x1x1xf32>
    %inserted_slice_2302 = tensor.insert_slice %598 into %inserted_slice_2301[0, 1280, 0, 0] [1, 32, 1, 1] [1, 1, 1, 1] : tensor<1x32x1x1xf32> into tensor<1x1920x1x1xf32>
    %inserted_slice_2303 = tensor.insert_slice %605 into %inserted_slice_2302[0, 1312, 0, 0] [1, 32, 1, 1] [1, 1, 1, 1] : tensor<1x32x1x1xf32> into tensor<1x1920x1x1xf32>
    %inserted_slice_2304 = tensor.insert_slice %612 into %inserted_slice_2303[0, 1344, 0, 0] [1, 32, 1, 1] [1, 1, 1, 1] : tensor<1x32x1x1xf32> into tensor<1x1920x1x1xf32>
    %inserted_slice_2305 = tensor.insert_slice %619 into %inserted_slice_2304[0, 1376, 0, 0] [1, 32, 1, 1] [1, 1, 1, 1] : tensor<1x32x1x1xf32> into tensor<1x1920x1x1xf32>
    %inserted_slice_2306 = tensor.insert_slice %626 into %inserted_slice_2305[0, 1408, 0, 0] [1, 32, 1, 1] [1, 1, 1, 1] : tensor<1x32x1x1xf32> into tensor<1x1920x1x1xf32>
    %inserted_slice_2307 = tensor.insert_slice %633 into %inserted_slice_2306[0, 1440, 0, 0] [1, 32, 1, 1] [1, 1, 1, 1] : tensor<1x32x1x1xf32> into tensor<1x1920x1x1xf32>
    %inserted_slice_2308 = tensor.insert_slice %640 into %inserted_slice_2307[0, 1472, 0, 0] [1, 32, 1, 1] [1, 1, 1, 1] : tensor<1x32x1x1xf32> into tensor<1x1920x1x1xf32>
    %inserted_slice_2309 = tensor.insert_slice %647 into %inserted_slice_2308[0, 1504, 0, 0] [1, 32, 1, 1] [1, 1, 1, 1] : tensor<1x32x1x1xf32> into tensor<1x1920x1x1xf32>
    %inserted_slice_2310 = tensor.insert_slice %654 into %inserted_slice_2309[0, 1536, 0, 0] [1, 32, 1, 1] [1, 1, 1, 1] : tensor<1x32x1x1xf32> into tensor<1x1920x1x1xf32>
    %inserted_slice_2311 = tensor.insert_slice %661 into %inserted_slice_2310[0, 1568, 0, 0] [1, 32, 1, 1] [1, 1, 1, 1] : tensor<1x32x1x1xf32> into tensor<1x1920x1x1xf32>
    %inserted_slice_2312 = tensor.insert_slice %668 into %inserted_slice_2311[0, 1600, 0, 0] [1, 32, 1, 1] [1, 1, 1, 1] : tensor<1x32x1x1xf32> into tensor<1x1920x1x1xf32>
    %inserted_slice_2313 = tensor.insert_slice %675 into %inserted_slice_2312[0, 1632, 0, 0] [1, 32, 1, 1] [1, 1, 1, 1] : tensor<1x32x1x1xf32> into tensor<1x1920x1x1xf32>
    %inserted_slice_2314 = tensor.insert_slice %682 into %inserted_slice_2313[0, 1664, 0, 0] [1, 32, 1, 1] [1, 1, 1, 1] : tensor<1x32x1x1xf32> into tensor<1x1920x1x1xf32>
    %inserted_slice_2315 = tensor.insert_slice %689 into %inserted_slice_2314[0, 1696, 0, 0] [1, 32, 1, 1] [1, 1, 1, 1] : tensor<1x32x1x1xf32> into tensor<1x1920x1x1xf32>
    %inserted_slice_2316 = tensor.insert_slice %696 into %inserted_slice_2315[0, 1728, 0, 0] [1, 32, 1, 1] [1, 1, 1, 1] : tensor<1x32x1x1xf32> into tensor<1x1920x1x1xf32>
    %inserted_slice_2317 = tensor.insert_slice %703 into %inserted_slice_2316[0, 1760, 0, 0] [1, 32, 1, 1] [1, 1, 1, 1] : tensor<1x32x1x1xf32> into tensor<1x1920x1x1xf32>
    %inserted_slice_2318 = tensor.insert_slice %710 into %inserted_slice_2317[0, 1792, 0, 0] [1, 32, 1, 1] [1, 1, 1, 1] : tensor<1x32x1x1xf32> into tensor<1x1920x1x1xf32>
    %inserted_slice_2319 = tensor.insert_slice %717 into %inserted_slice_2318[0, 1824, 0, 0] [1, 32, 1, 1] [1, 1, 1, 1] : tensor<1x32x1x1xf32> into tensor<1x1920x1x1xf32>
    %inserted_slice_2320 = tensor.insert_slice %724 into %inserted_slice_2319[0, 1856, 0, 0] [1, 32, 1, 1] [1, 1, 1, 1] : tensor<1x32x1x1xf32> into tensor<1x1920x1x1xf32>
    %inserted_slice_2321 = tensor.insert_slice %731 into %inserted_slice_2320[0, 1888, 0, 0] [1, 32, 1, 1] [1, 1, 1, 1] : tensor<1x32x1x1xf32> into tensor<1x1920x1x1xf32>
    cf.assert %3, "training is not supported for now"
    %733 = linalg.generic {indexing_maps = [#map, #map1, #map1, #map1, #map1, #map], iterator_types = ["parallel", "parallel", "parallel", "parallel"]} ins(%inserted_slice_2321, %cst_2, %cst_1, %cst_1, %cst_2 : tensor<1x1920x1x1xf32>, tensor<1920xf32>, tensor<1920xf32>, tensor<1920xf32>, tensor<1920xf32>) outs(%inserted_slice_2321 : tensor<1x1920x1x1xf32>) {
    ^bb0(%in: f32, %in_2322: f32, %in_2323: f32, %in_2324: f32, %in_2325: f32, %out: f32):
      %744 = arith.truncf %cst_321 : f64 to f32
      %745 = arith.addf %in_2325, %744 : f32
      %746 = math.rsqrt %745 : f32
      %747 = arith.subf %in, %in_2324 : f32
      %748 = arith.mulf %747, %746 : f32
      %749 = arith.mulf %748, %in_2322 : f32
      %750 = arith.addf %749, %in_2323 : f32
      linalg.yield %750 : f32
    } -> tensor<1x1920x1x1xf32>
    %734 = linalg.generic {indexing_maps = [#map3, #map], iterator_types = ["parallel", "parallel", "parallel", "parallel"]} ins(%733 : tensor<1x1920x1x1xf32>) outs(%732 : tensor<1x1920x1x1xf32>) {
    ^bb0(%in: f32, %out: f32):
      %744 = arith.cmpf ugt, %in, %cst_319 : f32
      %745 = arith.select %744, %in, %cst_319 : f32
      linalg.yield %745 : f32
    } -> tensor<1x1920x1x1xf32>
    %735 = linalg.fill ins(%cst_319 : f32) outs(%732 : tensor<1x1920x1x1xf32>) -> tensor<1x1920x1x1xf32>
    %736 = tensor.empty() : tensor<1x1xf32>
    %737 = linalg.pooling_nchw_sum {dilations = dense<1> : vector<2xi64>, strides = dense<1> : vector<2xi64>} ins(%734, %736 : tensor<1x1920x1x1xf32>, tensor<1x1xf32>) outs(%735 : tensor<1x1920x1x1xf32>) -> tensor<1x1920x1x1xf32>
    %collapsed = tensor.collapse_shape %737 [[0], [1, 2, 3]] : tensor<1x1920x1x1xf32> into tensor<1x1920xf32>
    %738 = tensor.empty() : tensor<1920x1000xf32>
    %739 = linalg.generic {indexing_maps = [#map4, #map5], iterator_types = ["parallel", "parallel"]} ins(%cst : tensor<1000x1920xf32>) outs(%738 : tensor<1920x1000xf32>) {
    ^bb0(%in: f32, %out: f32):
      linalg.yield %in : f32
    } -> tensor<1920x1000xf32>
    %740 = tensor.empty() : tensor<1x1000xf32>
    %741 = linalg.fill ins(%cst_319 : f32) outs(%740 : tensor<1x1000xf32>) -> tensor<1x1000xf32>
    %742 = linalg.matmul ins(%collapsed, %739 : tensor<1x1920xf32>, tensor<1920x1000xf32>) outs(%741 : tensor<1x1000xf32>) -> tensor<1x1000xf32>
    %743 = linalg.generic {indexing_maps = [#map6, #map7, #map4], iterator_types = ["parallel", "parallel"]} ins(%742, %cst_0 : tensor<1x1000xf32>, tensor<1000xf32>) outs(%740 : tensor<1x1000xf32>) {
    ^bb0(%in: f32, %in_2322: f32, %out: f32):
      %744 = arith.addf %in, %in_2322 : f32
      linalg.yield %744 : f32
    } -> tensor<1x1000xf32>
    return %743 : tensor<1x1000xf32>
  }
}
