#map = affine_map<(d0, d1, d2, d3) -> (d0, d1, d2, d3)>
#map1 = affine_map<(d0, d1, d2, d3) -> (d1)>
#map2 = affine_map<(d0, d1, d2, d3) -> (0, d1, d2, d3)>
#map3 = affine_map<(d0, d1, d2, d3) -> (0, d1, 0, 0)>
#map4 = affine_map<(d0, d1) -> (d0, d1)>
#map5 = affine_map<(d0, d1) -> (d1, d0)>
#map6 = affine_map<(d0, d1) -> (0, d1)>
#map7 = affine_map<(d0, d1) -> (d1)>
module attributes {torch.debug_module_name = "DenseNet"} {
    func.func @forward(%arg0: tensor<1x3x32x32xf32>) -> tensor<1x1000xf32> {
    %false = arith.constant false
    %cst = arith.constant dense<-0.000885e+00> : tensor<1000x2208xf32>
    %cst_0 = arith.constant dense<0.000000e+00> : tensor<1000xf32>
    %cst_1 = arith.constant dense<0.000000e+00> : tensor<2208xf32>
    %cst_2 = arith.constant dense<1.000000e+00> : tensor<2208xf32>
    %cst_3 = arith.constant dense<-0.009018e+00> : tensor<48x192x3x3xf32>
    %cst_4 = arith.constant dense<0.004060e+00> : tensor<192x2160x1x1xf32>
    %cst_5 = arith.constant dense<0.000000e+00> : tensor<2160xf32>
    %cst_6 = arith.constant dense<1.000000e+00> : tensor<2160xf32>
    %cst_7 = arith.constant dense<-0.002766e+00> : tensor<48x192x3x3xf32>
    %cst_8 = arith.constant dense<0.005523e+00> : tensor<192x2112x1x1xf32>
    %cst_9 = arith.constant dense<-0.006364e+00> : tensor<48x192x3x3xf32>
    %cst_10 = arith.constant dense<-0.001711e+00> : tensor<192x2064x1x1xf32>
    %cst_11 = arith.constant dense<0.005431e+00> : tensor<48x192x3x3xf32>
    %cst_12 = arith.constant dense<0.022208e+00> : tensor<192x2016x1x1xf32>
    %cst_13 = arith.constant dense<-0.002365e+00> : tensor<48x192x3x3xf32>
    %cst_14 = arith.constant dense<0.008214e+00> : tensor<192x1968x1x1xf32>
    %cst_15 = arith.constant dense<-0.014130e+00> : tensor<48x192x3x3xf32>
    %cst_16 = arith.constant dense<0.004852e+00> : tensor<192x1920x1x1xf32>
    %cst_17 = arith.constant dense<-0.002509e+00> : tensor<48x192x3x3xf32>
    %cst_18 = arith.constant dense<-0.007970e+00> : tensor<192x1872x1x1xf32>
    %cst_19 = arith.constant dense<0.026184e+00> : tensor<48x192x3x3xf32>
    %cst_20 = arith.constant dense<0.017122e+00> : tensor<192x1824x1x1xf32>
    %cst_21 = arith.constant dense<-0.002330e+00> : tensor<48x192x3x3xf32>
    %cst_22 = arith.constant dense<0.016281e+00> : tensor<192x1776x1x1xf32>
    %cst_23 = arith.constant dense<0.001705e+00> : tensor<48x192x3x3xf32>
    %cst_24 = arith.constant dense<0.011138e+00> : tensor<192x1728x1x1xf32>
    %cst_25 = arith.constant dense<-0.009927e+00> : tensor<48x192x3x3xf32>
    %cst_26 = arith.constant dense<-0.001444e+00> : tensor<192x1680x1x1xf32>
    %cst_27 = arith.constant dense<-0.018032e+00> : tensor<48x192x3x3xf32>
    %cst_28 = arith.constant dense<0.002168e+00> : tensor<192x1632x1x1xf32>
    %cst_29 = arith.constant dense<-0.005705e+00> : tensor<48x192x3x3xf32>
    %cst_30 = arith.constant dense<0.013130e+00> : tensor<192x1584x1x1xf32>
    %cst_31 = arith.constant dense<-0.008734e+00> : tensor<48x192x3x3xf32>
    %cst_32 = arith.constant dense<0.005339e+00> : tensor<192x1536x1x1xf32>
    %cst_33 = arith.constant dense<0.011927e+00> : tensor<48x192x3x3xf32>
    %cst_34 = arith.constant dense<-0.007331e+00> : tensor<192x1488x1x1xf32>
    %cst_35 = arith.constant dense<-0.005057e+00> : tensor<48x192x3x3xf32>
    %cst_36 = arith.constant dense<0.001336e+00> : tensor<192x1440x1x1xf32>
    %cst_37 = arith.constant dense<-0.006079e+00> : tensor<48x192x3x3xf32>
    %cst_38 = arith.constant dense<-0.000921e+00> : tensor<192x1392x1x1xf32>
    %cst_39 = arith.constant dense<0.019283e+00> : tensor<48x192x3x3xf32>
    %cst_40 = arith.constant dense<0.001425e+00> : tensor<192x1344x1x1xf32>
    %cst_41 = arith.constant dense<0.013800e+00> : tensor<48x192x3x3xf32>
    %cst_42 = arith.constant dense<-0.003379e+00> : tensor<192x1296x1x1xf32>
    %cst_43 = arith.constant dense<0.014852e+00> : tensor<48x192x3x3xf32>
    %cst_44 = arith.constant dense<0.006911e+00> : tensor<192x1248x1x1xf32>
    %cst_45 = arith.constant dense<-0.006871e+00> : tensor<48x192x3x3xf32>
    %cst_46 = arith.constant dense<-0.013483e+00> : tensor<192x1200x1x1xf32>
    %cst_47 = arith.constant dense<0.001126e+00> : tensor<48x192x3x3xf32>
    %cst_48 = arith.constant dense<0.001851e+00> : tensor<192x1152x1x1xf32>
    %cst_49 = arith.constant dense<0.016721e+00> : tensor<48x192x3x3xf32>
    %cst_50 = arith.constant dense<-0.003185e+00> : tensor<192x1104x1x1xf32>
    %cst_51 = arith.constant dense<0.001691e+00> : tensor<48x192x3x3xf32>
    %cst_52 = arith.constant dense<-0.000968e+00> : tensor<192x1056x1x1xf32>
    %cst_53 = arith.constant dense<0.005077e+00> : tensor<1056x2112x1x1xf32>
    %cst_54 = arith.constant dense<0.000000e+00> : tensor<2112xf32>
    %cst_55 = arith.constant dense<1.000000e+00> : tensor<2112xf32>
    %cst_56 = arith.constant dense<-0.014783e+00> : tensor<48x192x3x3xf32>
    %cst_57 = arith.constant dense<-0.000882e+00> : tensor<192x2064x1x1xf32>
    %cst_58 = arith.constant dense<0.000000e+00> : tensor<2064xf32>
    %cst_59 = arith.constant dense<1.000000e+00> : tensor<2064xf32>
    %cst_60 = arith.constant dense<0.006069e+00> : tensor<48x192x3x3xf32>
    %cst_61 = arith.constant dense<-0.004381e+00> : tensor<192x2016x1x1xf32>
    %cst_62 = arith.constant dense<0.000000e+00> : tensor<2016xf32>
    %cst_63 = arith.constant dense<1.000000e+00> : tensor<2016xf32>
    %cst_64 = arith.constant dense<-0.003402e+00> : tensor<48x192x3x3xf32>
    %cst_65 = arith.constant dense<-0.012247e+00> : tensor<192x1968x1x1xf32>
    %cst_66 = arith.constant dense<0.000000e+00> : tensor<1968xf32>
    %cst_67 = arith.constant dense<1.000000e+00> : tensor<1968xf32>
    %cst_68 = arith.constant dense<0.011022e+00> : tensor<48x192x3x3xf32>
    %cst_69 = arith.constant dense<-0.005772e+00> : tensor<192x1920x1x1xf32>
    %cst_70 = arith.constant dense<0.000000e+00> : tensor<1920xf32>
    %cst_71 = arith.constant dense<1.000000e+00> : tensor<1920xf32>
    %cst_72 = arith.constant dense<-0.003882e+00> : tensor<48x192x3x3xf32>
    %cst_73 = arith.constant dense<0.007087e+00> : tensor<192x1872x1x1xf32>
    %cst_74 = arith.constant dense<0.000000e+00> : tensor<1872xf32>
    %cst_75 = arith.constant dense<1.000000e+00> : tensor<1872xf32>
    %cst_76 = arith.constant dense<0.007996e+00> : tensor<48x192x3x3xf32>
    %cst_77 = arith.constant dense<-0.006517e+00> : tensor<192x1824x1x1xf32>
    %cst_78 = arith.constant dense<0.000000e+00> : tensor<1824xf32>
    %cst_79 = arith.constant dense<1.000000e+00> : tensor<1824xf32>
    %cst_80 = arith.constant dense<-0.006129e+00> : tensor<48x192x3x3xf32>
    %cst_81 = arith.constant dense<-0.009301e+00> : tensor<192x1776x1x1xf32>
    %cst_82 = arith.constant dense<0.000000e+00> : tensor<1776xf32>
    %cst_83 = arith.constant dense<1.000000e+00> : tensor<1776xf32>
    %cst_84 = arith.constant dense<0.014135e+00> : tensor<48x192x3x3xf32>
    %cst_85 = arith.constant dense<0.007082e+00> : tensor<192x1728x1x1xf32>
    %cst_86 = arith.constant dense<0.000000e+00> : tensor<1728xf32>
    %cst_87 = arith.constant dense<1.000000e+00> : tensor<1728xf32>
    %cst_88 = arith.constant dense<-0.005840e+00> : tensor<48x192x3x3xf32>
    %cst_89 = arith.constant dense<-0.005428e+00> : tensor<192x1680x1x1xf32>
    %cst_90 = arith.constant dense<0.000000e+00> : tensor<1680xf32>
    %cst_91 = arith.constant dense<1.000000e+00> : tensor<1680xf32>
    %cst_92 = arith.constant dense<-0.009919e+00> : tensor<48x192x3x3xf32>
    %cst_93 = arith.constant dense<-0.001481e+00> : tensor<192x1632x1x1xf32>
    %cst_94 = arith.constant dense<0.000000e+00> : tensor<1632xf32>
    %cst_95 = arith.constant dense<1.000000e+00> : tensor<1632xf32>
    %cst_96 = arith.constant dense<-0.017651e+00> : tensor<48x192x3x3xf32>
    %cst_97 = arith.constant dense<-0.006048e+00> : tensor<192x1584x1x1xf32>
    %cst_98 = arith.constant dense<0.000000e+00> : tensor<1584xf32>
    %cst_99 = arith.constant dense<1.000000e+00> : tensor<1584xf32>
    %cst_100 = arith.constant dense<-0.001310e+00> : tensor<48x192x3x3xf32>
    %cst_101 = arith.constant dense<-0.005676e+00> : tensor<192x1536x1x1xf32>
    %cst_102 = arith.constant dense<0.000000e+00> : tensor<1536xf32>
    %cst_103 = arith.constant dense<1.000000e+00> : tensor<1536xf32>
    %cst_104 = arith.constant dense<-0.001247e+00> : tensor<48x192x3x3xf32>
    %cst_105 = arith.constant dense<0.000124e+00> : tensor<192x1488x1x1xf32>
    %cst_106 = arith.constant dense<0.000000e+00> : tensor<1488xf32>
    %cst_107 = arith.constant dense<1.000000e+00> : tensor<1488xf32>
    %cst_108 = arith.constant dense<-0.013574e+00> : tensor<48x192x3x3xf32>
    %cst_109 = arith.constant dense<-0.001621e+00> : tensor<192x1440x1x1xf32>
    %cst_110 = arith.constant dense<0.000000e+00> : tensor<1440xf32>
    %cst_111 = arith.constant dense<1.000000e+00> : tensor<1440xf32>
    %cst_112 = arith.constant dense<0.009416e+00> : tensor<48x192x3x3xf32>
    %cst_113 = arith.constant dense<0.001395e+00> : tensor<192x1392x1x1xf32>
    %cst_114 = arith.constant dense<0.000000e+00> : tensor<1392xf32>
    %cst_115 = arith.constant dense<1.000000e+00> : tensor<1392xf32>
    %cst_116 = arith.constant dense<-0.007024e+00> : tensor<48x192x3x3xf32>
    %cst_117 = arith.constant dense<0.007241e+00> : tensor<192x1344x1x1xf32>
    %cst_118 = arith.constant dense<0.000000e+00> : tensor<1344xf32>
    %cst_119 = arith.constant dense<1.000000e+00> : tensor<1344xf32>
    %cst_120 = arith.constant dense<-0.000878e+00> : tensor<48x192x3x3xf32>
    %cst_121 = arith.constant dense<0.005015e+00> : tensor<192x1296x1x1xf32>
    %cst_122 = arith.constant dense<0.000000e+00> : tensor<1296xf32>
    %cst_123 = arith.constant dense<1.000000e+00> : tensor<1296xf32>
    %cst_124 = arith.constant dense<-0.009383e+00> : tensor<48x192x3x3xf32>
    %cst_125 = arith.constant dense<0.010643e+00> : tensor<192x1248x1x1xf32>
    %cst_126 = arith.constant dense<0.000000e+00> : tensor<1248xf32>
    %cst_127 = arith.constant dense<1.000000e+00> : tensor<1248xf32>
    %cst_128 = arith.constant dense<0.003019e+00> : tensor<48x192x3x3xf32>
    %cst_129 = arith.constant dense<0.005162e+00> : tensor<192x1200x1x1xf32>
    %cst_130 = arith.constant dense<0.000000e+00> : tensor<1200xf32>
    %cst_131 = arith.constant dense<1.000000e+00> : tensor<1200xf32>
    %cst_132 = arith.constant dense<-0.009861e+00> : tensor<48x192x3x3xf32>
    %cst_133 = arith.constant dense<-0.011986e+00> : tensor<192x1152x1x1xf32>
    %cst_134 = arith.constant dense<0.000000e+00> : tensor<1152xf32>
    %cst_135 = arith.constant dense<1.000000e+00> : tensor<1152xf32>
    %cst_136 = arith.constant dense<-0.011785e+00> : tensor<48x192x3x3xf32>
    %cst_137 = arith.constant dense<0.002220e+00> : tensor<192x1104x1x1xf32>
    %cst_138 = arith.constant dense<0.000000e+00> : tensor<1104xf32>
    %cst_139 = arith.constant dense<1.000000e+00> : tensor<1104xf32>
    %cst_140 = arith.constant dense<-0.012038e+00> : tensor<48x192x3x3xf32>
    %cst_141 = arith.constant dense<0.000479e+00> : tensor<192x1056x1x1xf32>
    %cst_142 = arith.constant dense<0.000000e+00> : tensor<1056xf32>
    %cst_143 = arith.constant dense<1.000000e+00> : tensor<1056xf32>
    %cst_144 = arith.constant dense<-0.007947e+00> : tensor<48x192x3x3xf32>
    %cst_145 = arith.constant dense<0.009269e+00> : tensor<192x1008x1x1xf32>
    %cst_146 = arith.constant dense<0.000000e+00> : tensor<1008xf32>
    %cst_147 = arith.constant dense<1.000000e+00> : tensor<1008xf32>
    %cst_148 = arith.constant dense<-0.011536e+00> : tensor<48x192x3x3xf32>
    %cst_149 = arith.constant dense<-0.008067e+00> : tensor<192x960x1x1xf32>
    %cst_150 = arith.constant dense<0.000000e+00> : tensor<960xf32>
    %cst_151 = arith.constant dense<1.000000e+00> : tensor<960xf32>
    %cst_152 = arith.constant dense<0.003025e+00> : tensor<48x192x3x3xf32>
    %cst_153 = arith.constant dense<-0.006937e+00> : tensor<192x912x1x1xf32>
    %cst_154 = arith.constant dense<0.000000e+00> : tensor<912xf32>
    %cst_155 = arith.constant dense<1.000000e+00> : tensor<912xf32>
    %cst_156 = arith.constant dense<0.000332e+00> : tensor<48x192x3x3xf32>
    %cst_157 = arith.constant dense<-0.009932e+00> : tensor<192x864x1x1xf32>
    %cst_158 = arith.constant dense<0.000000e+00> : tensor<864xf32>
    %cst_159 = arith.constant dense<1.000000e+00> : tensor<864xf32>
    %cst_160 = arith.constant dense<0.003548e+00> : tensor<48x192x3x3xf32>
    %cst_161 = arith.constant dense<-0.027223e+00> : tensor<192x816x1x1xf32>
    %cst_162 = arith.constant dense<0.000000e+00> : tensor<816xf32>
    %cst_163 = arith.constant dense<1.000000e+00> : tensor<816xf32>
    %cst_164 = arith.constant dense<-0.007609e+00> : tensor<48x192x3x3xf32>
    %cst_165 = arith.constant dense<-0.013843e+00> : tensor<192x768x1x1xf32>
    %cst_166 = arith.constant dense<0.020742e+00> : tensor<48x192x3x3xf32>
    %cst_167 = arith.constant dense<-0.012576e+00> : tensor<192x720x1x1xf32>
    %cst_168 = arith.constant dense<-0.013690e+00> : tensor<48x192x3x3xf32>
    %cst_169 = arith.constant dense<0.001813e+00> : tensor<192x672x1x1xf32>
    %cst_170 = arith.constant dense<0.004737e+00> : tensor<48x192x3x3xf32>
    %cst_171 = arith.constant dense<-0.003094e+00> : tensor<192x624x1x1xf32>
    %cst_172 = arith.constant dense<-0.005486e+00> : tensor<48x192x3x3xf32>
    %cst_173 = arith.constant dense<0.014382e+00> : tensor<192x576x1x1xf32>
    %cst_174 = arith.constant dense<-0.004119e+00> : tensor<48x192x3x3xf32>
    %cst_175 = arith.constant dense<0.002658e+00> : tensor<192x528x1x1xf32>
    %cst_176 = arith.constant dense<-0.007641e+00> : tensor<48x192x3x3xf32>
    %cst_177 = arith.constant dense<-0.001957e+00> : tensor<192x480x1x1xf32>
    %cst_178 = arith.constant dense<-0.012416e+00> : tensor<48x192x3x3xf32>
    %cst_179 = arith.constant dense<0.008057e+00> : tensor<192x432x1x1xf32>
    %cst_180 = arith.constant dense<-0.006896e+00> : tensor<48x192x3x3xf32>
    %cst_181 = arith.constant dense<-0.011488e+00> : tensor<192x384x1x1xf32>
    %cst_182 = arith.constant dense<0.001165e+00> : tensor<384x768x1x1xf32>
    %cst_183 = arith.constant dense<0.000000e+00> : tensor<768xf32>
    %cst_184 = arith.constant dense<1.000000e+00> : tensor<768xf32>
    %cst_185 = arith.constant dense<0.012915e+00> : tensor<48x192x3x3xf32>
    %cst_186 = arith.constant dense<0.012141e+00> : tensor<192x720x1x1xf32>
    %cst_187 = arith.constant dense<0.000000e+00> : tensor<720xf32>
    %cst_188 = arith.constant dense<1.000000e+00> : tensor<720xf32>
    %cst_189 = arith.constant dense<0.003097e+00> : tensor<48x192x3x3xf32>
    %cst_190 = arith.constant dense<0.005869e+00> : tensor<192x672x1x1xf32>
    %cst_191 = arith.constant dense<0.000000e+00> : tensor<672xf32>
    %cst_192 = arith.constant dense<1.000000e+00> : tensor<672xf32>
    %cst_193 = arith.constant dense<0.004936e+00> : tensor<48x192x3x3xf32>
    %cst_194 = arith.constant dense<0.009109e+00> : tensor<192x624x1x1xf32>
    %cst_195 = arith.constant dense<0.000000e+00> : tensor<624xf32>
    %cst_196 = arith.constant dense<1.000000e+00> : tensor<624xf32>
    %cst_197 = arith.constant dense<-0.016601e+00> : tensor<48x192x3x3xf32>
    %cst_198 = arith.constant dense<-0.006042e+00> : tensor<192x576x1x1xf32>
    %cst_199 = arith.constant dense<0.000000e+00> : tensor<576xf32>
    %cst_200 = arith.constant dense<1.000000e+00> : tensor<576xf32>
    %cst_201 = arith.constant dense<0.020455e+00> : tensor<48x192x3x3xf32>
    %cst_202 = arith.constant dense<0.002270e+00> : tensor<192x528x1x1xf32>
    %cst_203 = arith.constant dense<0.000000e+00> : tensor<528xf32>
    %cst_204 = arith.constant dense<1.000000e+00> : tensor<528xf32>
    %cst_205 = arith.constant dense<0.014971e+00> : tensor<48x192x3x3xf32>
    %cst_206 = arith.constant dense<0.006445e+00> : tensor<192x480x1x1xf32>
    %cst_207 = arith.constant dense<0.000000e+00> : tensor<480xf32>
    %cst_208 = arith.constant dense<1.000000e+00> : tensor<480xf32>
    %cst_209 = arith.constant dense<-0.007847e+00> : tensor<48x192x3x3xf32>
    %cst_210 = arith.constant dense<0.034504e+00> : tensor<192x432x1x1xf32>
    %cst_211 = arith.constant dense<0.000000e+00> : tensor<432xf32>
    %cst_212 = arith.constant dense<1.000000e+00> : tensor<432xf32>
    %cst_213 = arith.constant dense<-0.003354e+00> : tensor<48x192x3x3xf32>
    %cst_214 = arith.constant dense<0.004265e+00> : tensor<192x384x1x1xf32>
    %cst_215 = arith.constant dense<0.012159e+00> : tensor<48x192x3x3xf32>
    %cst_216 = arith.constant dense<0.001638e+00> : tensor<192x336x1x1xf32>
    %cst_217 = arith.constant dense<-0.025092e+00> : tensor<48x192x3x3xf32>
    %cst_218 = arith.constant dense<-0.003169e+00> : tensor<192x288x1x1xf32>
    %cst_219 = arith.constant dense<0.001561e+00> : tensor<48x192x3x3xf32>
    %cst_220 = arith.constant dense<-0.009962e+00> : tensor<192x240x1x1xf32>
    %cst_221 = arith.constant dense<-0.007535e+00> : tensor<48x192x3x3xf32>
    %cst_222 = arith.constant dense<-0.010716e+00> : tensor<192x192x1x1xf32>
    %cst_223 = arith.constant dense<-0.002782e+00> : tensor<192x384x1x1xf32>
    %cst_224 = arith.constant dense<0.000000e+00> : tensor<384xf32>
    %cst_225 = arith.constant dense<1.000000e+00> : tensor<384xf32>
    %cst_226 = arith.constant dense<0.020605e+00> : tensor<48x192x3x3xf32>
    %cst_227 = arith.constant dense<0.001649e+00> : tensor<192x336x1x1xf32>
    %cst_228 = arith.constant dense<0.000000e+00> : tensor<336xf32>
    %cst_229 = arith.constant dense<1.000000e+00> : tensor<336xf32>
    %cst_230 = arith.constant dense<0.001811e+00> : tensor<48x192x3x3xf32>
    %cst_231 = arith.constant dense<-0.013700e+00> : tensor<192x288x1x1xf32>
    %cst_232 = arith.constant dense<0.000000e+00> : tensor<288xf32>
    %cst_233 = arith.constant dense<1.000000e+00> : tensor<288xf32>
    %cst_234 = arith.constant dense<-0.005293e+00> : tensor<48x192x3x3xf32>
    %cst_235 = arith.constant dense<-0.001529e+00> : tensor<192x240x1x1xf32>
    %cst_236 = arith.constant dense<0.000000e+00> : tensor<240xf32>
    %cst_237 = arith.constant dense<1.000000e+00> : tensor<240xf32>
    %cst_238 = arith.constant dense<-0.016323e+00> : tensor<48x192x3x3xf32>
    %cst_239 = arith.constant dense<-0.009966e+00> : tensor<192x192x1x1xf32>
    %cst_240 = arith.constant dense<0.006985e+00> : tensor<48x192x3x3xf32>
    %cst_241 = arith.constant dense<0.011232e+00> : tensor<192x144x1x1xf32>
    %cst_242 = arith.constant dense<0.000000e+00> : tensor<144xf32>
    %cst_243 = arith.constant dense<1.000000e+00> : tensor<144xf32>
    %cst_244 = arith.constant dense<-0.006151e+00> : tensor<48x192x3x3xf32>
    %cst_245 = arith.constant dense<0.000000e+00> : tensor<192xf32>
    %cst_246 = arith.constant dense<1.000000e+00> : tensor<192xf32>
    %cst_247 = arith.constant dense<-0.005579e+00> : tensor<192x96x1x1xf32>
    %cst_248 = arith.constant dense<0.000000e+00> : tensor<96xf32>
    %cst_249 = arith.constant dense<1.000000e+00> : tensor<96xf32>
    %cst_250 = arith.constant dense<0.008863e+00> : tensor<96x3x7x7xf32>
    %cst_251 = arith.constant 0.000000e+00 : f32
    %cst_252 = arith.constant -3.40282347E+38 : f32
    %cst_253 = arith.constant 1.000000e-05 : f64
    %c3 = arith.constant 3 : index
    %cst_254 = arith.constant 4.000000e+00 : f32
    %c0 = arith.constant 0 : index
    %c1 = arith.constant 1 : index
    %padded = tensor.pad %arg0 low[0, 0, 3, 3] high[0, 0, 3, 3] {
    ^bb0(%arg1: index, %arg2: index, %arg3: index, %arg4: index):
      tensor.yield %cst_251 : f32
    } : tensor<1x3x32x32xf32> to tensor<1x3x38x38xf32>
    %0 = tensor.empty() : tensor<1x96x16x16xf32>
    %1 = linalg.fill ins(%cst_251 : f32) outs(%0 : tensor<1x96x16x16xf32>) -> tensor<1x96x16x16xf32>
    %2 = linalg.conv_2d_nchw_fchw {dilations = dense<1> : vector<2xi64>, strides = dense<2> : vector<2xi64>} ins(%padded, %cst_250 : tensor<1x3x38x38xf32>, tensor<96x3x7x7xf32>) outs(%1 : tensor<1x96x16x16xf32>) -> tensor<1x96x16x16xf32>
    %3 = arith.cmpi eq, %false, %false : i1
    cf.assert %3, "training is not supported for now"
    %4 = linalg.generic {indexing_maps = [#map, #map1, #map1, #map1, #map1, #map], iterator_types = ["parallel", "parallel", "parallel", "parallel"]} ins(%2, %cst_249, %cst_248, %cst_248, %cst_249 : tensor<1x96x16x16xf32>, tensor<96xf32>, tensor<96xf32>, tensor<96xf32>, tensor<96xf32>) outs(%2 : tensor<1x96x16x16xf32>) {
    ^bb0(%in: f32, %in_1476: f32, %in_1477: f32, %in_1478: f32, %in_1479: f32, %out: f32):
      %604 = arith.truncf %cst_253 : f64 to f32
      %605 = arith.addf %in_1479, %604 : f32
      %606 = math.rsqrt %605 : f32
      %607 = arith.subf %in, %in_1478 : f32
      %608 = arith.mulf %607, %606 : f32
      %609 = arith.mulf %608, %in_1476 : f32
      %610 = arith.addf %609, %in_1477 : f32
      linalg.yield %610 : f32
    } -> tensor<1x96x16x16xf32>
    %5 = linalg.generic {indexing_maps = [#map2, #map], iterator_types = ["parallel", "parallel", "parallel", "parallel"]} ins(%4 : tensor<1x96x16x16xf32>) outs(%0 : tensor<1x96x16x16xf32>) {
    ^bb0(%in: f32, %out: f32):
      %604 = arith.cmpf ugt, %in, %cst_251 : f32
      %605 = arith.select %604, %in, %cst_251 : f32
      linalg.yield %605 : f32
    } -> tensor<1x96x16x16xf32>
    %padded_255 = tensor.pad %5 low[0, 0, 1, 1] high[0, 0, 1, 1] {
    ^bb0(%arg1: index, %arg2: index, %arg3: index, %arg4: index):
      tensor.yield %cst_252 : f32
    } : tensor<1x96x16x16xf32> to tensor<1x96x18x18xf32>
    %6 = tensor.empty() : tensor<1x96x8x8xf32>
    %7 = linalg.fill ins(%cst_252 : f32) outs(%6 : tensor<1x96x8x8xf32>) -> tensor<1x96x8x8xf32>
    %8 = tensor.empty() : tensor<3x3xf32>
    %9 = linalg.pooling_nchw_max {dilations = dense<1> : vector<2xi64>, strides = dense<2> : vector<2xi64>} ins(%padded_255, %8 : tensor<1x96x18x18xf32>, tensor<3x3xf32>) outs(%7 : tensor<1x96x8x8xf32>) -> tensor<1x96x8x8xf32>
    cf.assert %3, "training is not supported for now"
    %10 = linalg.generic {indexing_maps = [#map, #map1, #map1, #map1, #map1, #map], iterator_types = ["parallel", "parallel", "parallel", "parallel"]} ins(%9, %cst_249, %cst_248, %cst_248, %cst_249 : tensor<1x96x8x8xf32>, tensor<96xf32>, tensor<96xf32>, tensor<96xf32>, tensor<96xf32>) outs(%9 : tensor<1x96x8x8xf32>) {
    ^bb0(%in: f32, %in_1476: f32, %in_1477: f32, %in_1478: f32, %in_1479: f32, %out: f32):
      %604 = arith.truncf %cst_253 : f64 to f32
      %605 = arith.addf %in_1479, %604 : f32
      %606 = math.rsqrt %605 : f32
      %607 = arith.subf %in, %in_1478 : f32
      %608 = arith.mulf %607, %606 : f32
      %609 = arith.mulf %608, %in_1476 : f32
      %610 = arith.addf %609, %in_1477 : f32
      linalg.yield %610 : f32
    } -> tensor<1x96x8x8xf32>
    %11 = linalg.generic {indexing_maps = [#map2, #map], iterator_types = ["parallel", "parallel", "parallel", "parallel"]} ins(%10 : tensor<1x96x8x8xf32>) outs(%6 : tensor<1x96x8x8xf32>) {
    ^bb0(%in: f32, %out: f32):
      %604 = arith.cmpf ugt, %in, %cst_251 : f32
      %605 = arith.select %604, %in, %cst_251 : f32
      linalg.yield %605 : f32
    } -> tensor<1x96x8x8xf32>
    %12 = tensor.empty() : tensor<1x192x8x8xf32>
    %13 = linalg.fill ins(%cst_251 : f32) outs(%12 : tensor<1x192x8x8xf32>) -> tensor<1x192x8x8xf32>
    %14 = linalg.conv_2d_nchw_fchw {dilations = dense<1> : vector<2xi64>, strides = dense<1> : vector<2xi64>} ins(%11, %cst_247 : tensor<1x96x8x8xf32>, tensor<192x96x1x1xf32>) outs(%13 : tensor<1x192x8x8xf32>) -> tensor<1x192x8x8xf32>
    cf.assert %3, "training is not supported for now"
    %15 = linalg.generic {indexing_maps = [#map, #map1, #map1, #map1, #map1, #map], iterator_types = ["parallel", "parallel", "parallel", "parallel"]} ins(%14, %cst_246, %cst_245, %cst_245, %cst_246 : tensor<1x192x8x8xf32>, tensor<192xf32>, tensor<192xf32>, tensor<192xf32>, tensor<192xf32>) outs(%14 : tensor<1x192x8x8xf32>) {
    ^bb0(%in: f32, %in_1476: f32, %in_1477: f32, %in_1478: f32, %in_1479: f32, %out: f32):
      %604 = arith.truncf %cst_253 : f64 to f32
      %605 = arith.addf %in_1479, %604 : f32
      %606 = math.rsqrt %605 : f32
      %607 = arith.subf %in, %in_1478 : f32
      %608 = arith.mulf %607, %606 : f32
      %609 = arith.mulf %608, %in_1476 : f32
      %610 = arith.addf %609, %in_1477 : f32
      linalg.yield %610 : f32
    } -> tensor<1x192x8x8xf32>
    %16 = linalg.generic {indexing_maps = [#map2, #map], iterator_types = ["parallel", "parallel", "parallel", "parallel"]} ins(%15 : tensor<1x192x8x8xf32>) outs(%12 : tensor<1x192x8x8xf32>) {
    ^bb0(%in: f32, %out: f32):
      %604 = arith.cmpf ugt, %in, %cst_251 : f32
      %605 = arith.select %604, %in, %cst_251 : f32
      linalg.yield %605 : f32
    } -> tensor<1x192x8x8xf32>
    %padded_256 = tensor.pad %16 low[0, 0, 1, 1] high[0, 0, 1, 1] {
    ^bb0(%arg1: index, %arg2: index, %arg3: index, %arg4: index):
      tensor.yield %cst_251 : f32
    } : tensor<1x192x8x8xf32> to tensor<1x192x10x10xf32>
    %17 = tensor.empty() : tensor<1x48x8x8xf32>
    %18 = linalg.fill ins(%cst_251 : f32) outs(%17 : tensor<1x48x8x8xf32>) -> tensor<1x48x8x8xf32>
    %19 = linalg.conv_2d_nchw_fchw {dilations = dense<1> : vector<2xi64>, strides = dense<1> : vector<2xi64>} ins(%padded_256, %cst_244 : tensor<1x192x10x10xf32>, tensor<48x192x3x3xf32>) outs(%18 : tensor<1x48x8x8xf32>) -> tensor<1x48x8x8xf32>
    %20 = tensor.empty() : tensor<1x144x8x8xf32>
    %inserted_slice = tensor.insert_slice %9 into %20[0, 0, 0, 0] [1, 96, 8, 8] [1, 1, 1, 1] : tensor<1x96x8x8xf32> into tensor<1x144x8x8xf32>
    %inserted_slice_257 = tensor.insert_slice %19 into %inserted_slice[0, 96, 0, 0] [1, 48, 8, 8] [1, 1, 1, 1] : tensor<1x48x8x8xf32> into tensor<1x144x8x8xf32>
    cf.assert %3, "training is not supported for now"
    %21 = linalg.generic {indexing_maps = [#map, #map1, #map1, #map1, #map1, #map], iterator_types = ["parallel", "parallel", "parallel", "parallel"]} ins(%inserted_slice_257, %cst_243, %cst_242, %cst_242, %cst_243 : tensor<1x144x8x8xf32>, tensor<144xf32>, tensor<144xf32>, tensor<144xf32>, tensor<144xf32>) outs(%inserted_slice_257 : tensor<1x144x8x8xf32>) {
    ^bb0(%in: f32, %in_1476: f32, %in_1477: f32, %in_1478: f32, %in_1479: f32, %out: f32):
      %604 = arith.truncf %cst_253 : f64 to f32
      %605 = arith.addf %in_1479, %604 : f32
      %606 = math.rsqrt %605 : f32
      %607 = arith.subf %in, %in_1478 : f32
      %608 = arith.mulf %607, %606 : f32
      %609 = arith.mulf %608, %in_1476 : f32
      %610 = arith.addf %609, %in_1477 : f32
      linalg.yield %610 : f32
    } -> tensor<1x144x8x8xf32>
    %22 = linalg.generic {indexing_maps = [#map2, #map], iterator_types = ["parallel", "parallel", "parallel", "parallel"]} ins(%21 : tensor<1x144x8x8xf32>) outs(%20 : tensor<1x144x8x8xf32>) {
    ^bb0(%in: f32, %out: f32):
      %604 = arith.cmpf ugt, %in, %cst_251 : f32
      %605 = arith.select %604, %in, %cst_251 : f32
      linalg.yield %605 : f32
    } -> tensor<1x144x8x8xf32>
    %23 = linalg.conv_2d_nchw_fchw {dilations = dense<1> : vector<2xi64>, strides = dense<1> : vector<2xi64>} ins(%22, %cst_241 : tensor<1x144x8x8xf32>, tensor<192x144x1x1xf32>) outs(%13 : tensor<1x192x8x8xf32>) -> tensor<1x192x8x8xf32>
    cf.assert %3, "training is not supported for now"
    %24 = linalg.generic {indexing_maps = [#map, #map1, #map1, #map1, #map1, #map], iterator_types = ["parallel", "parallel", "parallel", "parallel"]} ins(%23, %cst_246, %cst_245, %cst_245, %cst_246 : tensor<1x192x8x8xf32>, tensor<192xf32>, tensor<192xf32>, tensor<192xf32>, tensor<192xf32>) outs(%23 : tensor<1x192x8x8xf32>) {
    ^bb0(%in: f32, %in_1476: f32, %in_1477: f32, %in_1478: f32, %in_1479: f32, %out: f32):
      %604 = arith.truncf %cst_253 : f64 to f32
      %605 = arith.addf %in_1479, %604 : f32
      %606 = math.rsqrt %605 : f32
      %607 = arith.subf %in, %in_1478 : f32
      %608 = arith.mulf %607, %606 : f32
      %609 = arith.mulf %608, %in_1476 : f32
      %610 = arith.addf %609, %in_1477 : f32
      linalg.yield %610 : f32
    } -> tensor<1x192x8x8xf32>
    %25 = linalg.generic {indexing_maps = [#map2, #map], iterator_types = ["parallel", "parallel", "parallel", "parallel"]} ins(%24 : tensor<1x192x8x8xf32>) outs(%12 : tensor<1x192x8x8xf32>) {
    ^bb0(%in: f32, %out: f32):
      %604 = arith.cmpf ugt, %in, %cst_251 : f32
      %605 = arith.select %604, %in, %cst_251 : f32
      linalg.yield %605 : f32
    } -> tensor<1x192x8x8xf32>
    %padded_258 = tensor.pad %25 low[0, 0, 1, 1] high[0, 0, 1, 1] {
    ^bb0(%arg1: index, %arg2: index, %arg3: index, %arg4: index):
      tensor.yield %cst_251 : f32
    } : tensor<1x192x8x8xf32> to tensor<1x192x10x10xf32>
    %26 = linalg.conv_2d_nchw_fchw {dilations = dense<1> : vector<2xi64>, strides = dense<1> : vector<2xi64>} ins(%padded_258, %cst_240 : tensor<1x192x10x10xf32>, tensor<48x192x3x3xf32>) outs(%18 : tensor<1x48x8x8xf32>) -> tensor<1x48x8x8xf32>
    %inserted_slice_259 = tensor.insert_slice %9 into %12[0, 0, 0, 0] [1, 96, 8, 8] [1, 1, 1, 1] : tensor<1x96x8x8xf32> into tensor<1x192x8x8xf32>
    %inserted_slice_260 = tensor.insert_slice %19 into %inserted_slice_259[0, 96, 0, 0] [1, 48, 8, 8] [1, 1, 1, 1] : tensor<1x48x8x8xf32> into tensor<1x192x8x8xf32>
    %inserted_slice_261 = tensor.insert_slice %26 into %inserted_slice_260[0, 144, 0, 0] [1, 48, 8, 8] [1, 1, 1, 1] : tensor<1x48x8x8xf32> into tensor<1x192x8x8xf32>
    cf.assert %3, "training is not supported for now"
    %27 = linalg.generic {indexing_maps = [#map, #map1, #map1, #map1, #map1, #map], iterator_types = ["parallel", "parallel", "parallel", "parallel"]} ins(%inserted_slice_261, %cst_246, %cst_245, %cst_245, %cst_246 : tensor<1x192x8x8xf32>, tensor<192xf32>, tensor<192xf32>, tensor<192xf32>, tensor<192xf32>) outs(%inserted_slice_261 : tensor<1x192x8x8xf32>) {
    ^bb0(%in: f32, %in_1476: f32, %in_1477: f32, %in_1478: f32, %in_1479: f32, %out: f32):
      %604 = arith.truncf %cst_253 : f64 to f32
      %605 = arith.addf %in_1479, %604 : f32
      %606 = math.rsqrt %605 : f32
      %607 = arith.subf %in, %in_1478 : f32
      %608 = arith.mulf %607, %606 : f32
      %609 = arith.mulf %608, %in_1476 : f32
      %610 = arith.addf %609, %in_1477 : f32
      linalg.yield %610 : f32
    } -> tensor<1x192x8x8xf32>
    %28 = linalg.generic {indexing_maps = [#map2, #map], iterator_types = ["parallel", "parallel", "parallel", "parallel"]} ins(%27 : tensor<1x192x8x8xf32>) outs(%12 : tensor<1x192x8x8xf32>) {
    ^bb0(%in: f32, %out: f32):
      %604 = arith.cmpf ugt, %in, %cst_251 : f32
      %605 = arith.select %604, %in, %cst_251 : f32
      linalg.yield %605 : f32
    } -> tensor<1x192x8x8xf32>
    %29 = linalg.conv_2d_nchw_fchw {dilations = dense<1> : vector<2xi64>, strides = dense<1> : vector<2xi64>} ins(%28, %cst_239 : tensor<1x192x8x8xf32>, tensor<192x192x1x1xf32>) outs(%13 : tensor<1x192x8x8xf32>) -> tensor<1x192x8x8xf32>
    cf.assert %3, "training is not supported for now"
    %30 = linalg.generic {indexing_maps = [#map, #map1, #map1, #map1, #map1, #map], iterator_types = ["parallel", "parallel", "parallel", "parallel"]} ins(%29, %cst_246, %cst_245, %cst_245, %cst_246 : tensor<1x192x8x8xf32>, tensor<192xf32>, tensor<192xf32>, tensor<192xf32>, tensor<192xf32>) outs(%29 : tensor<1x192x8x8xf32>) {
    ^bb0(%in: f32, %in_1476: f32, %in_1477: f32, %in_1478: f32, %in_1479: f32, %out: f32):
      %604 = arith.truncf %cst_253 : f64 to f32
      %605 = arith.addf %in_1479, %604 : f32
      %606 = math.rsqrt %605 : f32
      %607 = arith.subf %in, %in_1478 : f32
      %608 = arith.mulf %607, %606 : f32
      %609 = arith.mulf %608, %in_1476 : f32
      %610 = arith.addf %609, %in_1477 : f32
      linalg.yield %610 : f32
    } -> tensor<1x192x8x8xf32>
    %31 = linalg.generic {indexing_maps = [#map2, #map], iterator_types = ["parallel", "parallel", "parallel", "parallel"]} ins(%30 : tensor<1x192x8x8xf32>) outs(%12 : tensor<1x192x8x8xf32>) {
    ^bb0(%in: f32, %out: f32):
      %604 = arith.cmpf ugt, %in, %cst_251 : f32
      %605 = arith.select %604, %in, %cst_251 : f32
      linalg.yield %605 : f32
    } -> tensor<1x192x8x8xf32>
    %padded_262 = tensor.pad %31 low[0, 0, 1, 1] high[0, 0, 1, 1] {
    ^bb0(%arg1: index, %arg2: index, %arg3: index, %arg4: index):
      tensor.yield %cst_251 : f32
    } : tensor<1x192x8x8xf32> to tensor<1x192x10x10xf32>
    %32 = linalg.conv_2d_nchw_fchw {dilations = dense<1> : vector<2xi64>, strides = dense<1> : vector<2xi64>} ins(%padded_262, %cst_238 : tensor<1x192x10x10xf32>, tensor<48x192x3x3xf32>) outs(%18 : tensor<1x48x8x8xf32>) -> tensor<1x48x8x8xf32>
    %33 = tensor.empty() : tensor<1x240x8x8xf32>
    %inserted_slice_263 = tensor.insert_slice %9 into %33[0, 0, 0, 0] [1, 96, 8, 8] [1, 1, 1, 1] : tensor<1x96x8x8xf32> into tensor<1x240x8x8xf32>
    %inserted_slice_264 = tensor.insert_slice %19 into %inserted_slice_263[0, 96, 0, 0] [1, 48, 8, 8] [1, 1, 1, 1] : tensor<1x48x8x8xf32> into tensor<1x240x8x8xf32>
    %inserted_slice_265 = tensor.insert_slice %26 into %inserted_slice_264[0, 144, 0, 0] [1, 48, 8, 8] [1, 1, 1, 1] : tensor<1x48x8x8xf32> into tensor<1x240x8x8xf32>
    %inserted_slice_266 = tensor.insert_slice %32 into %inserted_slice_265[0, 192, 0, 0] [1, 48, 8, 8] [1, 1, 1, 1] : tensor<1x48x8x8xf32> into tensor<1x240x8x8xf32>
    cf.assert %3, "training is not supported for now"
    %34 = linalg.generic {indexing_maps = [#map, #map1, #map1, #map1, #map1, #map], iterator_types = ["parallel", "parallel", "parallel", "parallel"]} ins(%inserted_slice_266, %cst_237, %cst_236, %cst_236, %cst_237 : tensor<1x240x8x8xf32>, tensor<240xf32>, tensor<240xf32>, tensor<240xf32>, tensor<240xf32>) outs(%inserted_slice_266 : tensor<1x240x8x8xf32>) {
    ^bb0(%in: f32, %in_1476: f32, %in_1477: f32, %in_1478: f32, %in_1479: f32, %out: f32):
      %604 = arith.truncf %cst_253 : f64 to f32
      %605 = arith.addf %in_1479, %604 : f32
      %606 = math.rsqrt %605 : f32
      %607 = arith.subf %in, %in_1478 : f32
      %608 = arith.mulf %607, %606 : f32
      %609 = arith.mulf %608, %in_1476 : f32
      %610 = arith.addf %609, %in_1477 : f32
      linalg.yield %610 : f32
    } -> tensor<1x240x8x8xf32>
    %35 = linalg.generic {indexing_maps = [#map2, #map], iterator_types = ["parallel", "parallel", "parallel", "parallel"]} ins(%34 : tensor<1x240x8x8xf32>) outs(%33 : tensor<1x240x8x8xf32>) {
    ^bb0(%in: f32, %out: f32):
      %604 = arith.cmpf ugt, %in, %cst_251 : f32
      %605 = arith.select %604, %in, %cst_251 : f32
      linalg.yield %605 : f32
    } -> tensor<1x240x8x8xf32>
    %36 = linalg.conv_2d_nchw_fchw {dilations = dense<1> : vector<2xi64>, strides = dense<1> : vector<2xi64>} ins(%35, %cst_235 : tensor<1x240x8x8xf32>, tensor<192x240x1x1xf32>) outs(%13 : tensor<1x192x8x8xf32>) -> tensor<1x192x8x8xf32>
    cf.assert %3, "training is not supported for now"
    %37 = linalg.generic {indexing_maps = [#map, #map1, #map1, #map1, #map1, #map], iterator_types = ["parallel", "parallel", "parallel", "parallel"]} ins(%36, %cst_246, %cst_245, %cst_245, %cst_246 : tensor<1x192x8x8xf32>, tensor<192xf32>, tensor<192xf32>, tensor<192xf32>, tensor<192xf32>) outs(%36 : tensor<1x192x8x8xf32>) {
    ^bb0(%in: f32, %in_1476: f32, %in_1477: f32, %in_1478: f32, %in_1479: f32, %out: f32):
      %604 = arith.truncf %cst_253 : f64 to f32
      %605 = arith.addf %in_1479, %604 : f32
      %606 = math.rsqrt %605 : f32
      %607 = arith.subf %in, %in_1478 : f32
      %608 = arith.mulf %607, %606 : f32
      %609 = arith.mulf %608, %in_1476 : f32
      %610 = arith.addf %609, %in_1477 : f32
      linalg.yield %610 : f32
    } -> tensor<1x192x8x8xf32>
    %38 = linalg.generic {indexing_maps = [#map2, #map], iterator_types = ["parallel", "parallel", "parallel", "parallel"]} ins(%37 : tensor<1x192x8x8xf32>) outs(%12 : tensor<1x192x8x8xf32>) {
    ^bb0(%in: f32, %out: f32):
      %604 = arith.cmpf ugt, %in, %cst_251 : f32
      %605 = arith.select %604, %in, %cst_251 : f32
      linalg.yield %605 : f32
    } -> tensor<1x192x8x8xf32>
    %padded_267 = tensor.pad %38 low[0, 0, 1, 1] high[0, 0, 1, 1] {
    ^bb0(%arg1: index, %arg2: index, %arg3: index, %arg4: index):
      tensor.yield %cst_251 : f32
    } : tensor<1x192x8x8xf32> to tensor<1x192x10x10xf32>
    %39 = linalg.conv_2d_nchw_fchw {dilations = dense<1> : vector<2xi64>, strides = dense<1> : vector<2xi64>} ins(%padded_267, %cst_234 : tensor<1x192x10x10xf32>, tensor<48x192x3x3xf32>) outs(%18 : tensor<1x48x8x8xf32>) -> tensor<1x48x8x8xf32>
    %40 = tensor.empty() : tensor<1x288x8x8xf32>
    %inserted_slice_268 = tensor.insert_slice %9 into %40[0, 0, 0, 0] [1, 96, 8, 8] [1, 1, 1, 1] : tensor<1x96x8x8xf32> into tensor<1x288x8x8xf32>
    %inserted_slice_269 = tensor.insert_slice %19 into %inserted_slice_268[0, 96, 0, 0] [1, 48, 8, 8] [1, 1, 1, 1] : tensor<1x48x8x8xf32> into tensor<1x288x8x8xf32>
    %inserted_slice_270 = tensor.insert_slice %26 into %inserted_slice_269[0, 144, 0, 0] [1, 48, 8, 8] [1, 1, 1, 1] : tensor<1x48x8x8xf32> into tensor<1x288x8x8xf32>
    %inserted_slice_271 = tensor.insert_slice %32 into %inserted_slice_270[0, 192, 0, 0] [1, 48, 8, 8] [1, 1, 1, 1] : tensor<1x48x8x8xf32> into tensor<1x288x8x8xf32>
    %inserted_slice_272 = tensor.insert_slice %39 into %inserted_slice_271[0, 240, 0, 0] [1, 48, 8, 8] [1, 1, 1, 1] : tensor<1x48x8x8xf32> into tensor<1x288x8x8xf32>
    cf.assert %3, "training is not supported for now"
    %41 = linalg.generic {indexing_maps = [#map, #map1, #map1, #map1, #map1, #map], iterator_types = ["parallel", "parallel", "parallel", "parallel"]} ins(%inserted_slice_272, %cst_233, %cst_232, %cst_232, %cst_233 : tensor<1x288x8x8xf32>, tensor<288xf32>, tensor<288xf32>, tensor<288xf32>, tensor<288xf32>) outs(%inserted_slice_272 : tensor<1x288x8x8xf32>) {
    ^bb0(%in: f32, %in_1476: f32, %in_1477: f32, %in_1478: f32, %in_1479: f32, %out: f32):
      %604 = arith.truncf %cst_253 : f64 to f32
      %605 = arith.addf %in_1479, %604 : f32
      %606 = math.rsqrt %605 : f32
      %607 = arith.subf %in, %in_1478 : f32
      %608 = arith.mulf %607, %606 : f32
      %609 = arith.mulf %608, %in_1476 : f32
      %610 = arith.addf %609, %in_1477 : f32
      linalg.yield %610 : f32
    } -> tensor<1x288x8x8xf32>
    %42 = linalg.generic {indexing_maps = [#map2, #map], iterator_types = ["parallel", "parallel", "parallel", "parallel"]} ins(%41 : tensor<1x288x8x8xf32>) outs(%40 : tensor<1x288x8x8xf32>) {
    ^bb0(%in: f32, %out: f32):
      %604 = arith.cmpf ugt, %in, %cst_251 : f32
      %605 = arith.select %604, %in, %cst_251 : f32
      linalg.yield %605 : f32
    } -> tensor<1x288x8x8xf32>
    %43 = linalg.conv_2d_nchw_fchw {dilations = dense<1> : vector<2xi64>, strides = dense<1> : vector<2xi64>} ins(%42, %cst_231 : tensor<1x288x8x8xf32>, tensor<192x288x1x1xf32>) outs(%13 : tensor<1x192x8x8xf32>) -> tensor<1x192x8x8xf32>
    cf.assert %3, "training is not supported for now"
    %44 = linalg.generic {indexing_maps = [#map, #map1, #map1, #map1, #map1, #map], iterator_types = ["parallel", "parallel", "parallel", "parallel"]} ins(%43, %cst_246, %cst_245, %cst_245, %cst_246 : tensor<1x192x8x8xf32>, tensor<192xf32>, tensor<192xf32>, tensor<192xf32>, tensor<192xf32>) outs(%43 : tensor<1x192x8x8xf32>) {
    ^bb0(%in: f32, %in_1476: f32, %in_1477: f32, %in_1478: f32, %in_1479: f32, %out: f32):
      %604 = arith.truncf %cst_253 : f64 to f32
      %605 = arith.addf %in_1479, %604 : f32
      %606 = math.rsqrt %605 : f32
      %607 = arith.subf %in, %in_1478 : f32
      %608 = arith.mulf %607, %606 : f32
      %609 = arith.mulf %608, %in_1476 : f32
      %610 = arith.addf %609, %in_1477 : f32
      linalg.yield %610 : f32
    } -> tensor<1x192x8x8xf32>
    %45 = linalg.generic {indexing_maps = [#map2, #map], iterator_types = ["parallel", "parallel", "parallel", "parallel"]} ins(%44 : tensor<1x192x8x8xf32>) outs(%12 : tensor<1x192x8x8xf32>) {
    ^bb0(%in: f32, %out: f32):
      %604 = arith.cmpf ugt, %in, %cst_251 : f32
      %605 = arith.select %604, %in, %cst_251 : f32
      linalg.yield %605 : f32
    } -> tensor<1x192x8x8xf32>
    %padded_273 = tensor.pad %45 low[0, 0, 1, 1] high[0, 0, 1, 1] {
    ^bb0(%arg1: index, %arg2: index, %arg3: index, %arg4: index):
      tensor.yield %cst_251 : f32
    } : tensor<1x192x8x8xf32> to tensor<1x192x10x10xf32>
    %46 = linalg.conv_2d_nchw_fchw {dilations = dense<1> : vector<2xi64>, strides = dense<1> : vector<2xi64>} ins(%padded_273, %cst_230 : tensor<1x192x10x10xf32>, tensor<48x192x3x3xf32>) outs(%18 : tensor<1x48x8x8xf32>) -> tensor<1x48x8x8xf32>
    %47 = tensor.empty() : tensor<1x336x8x8xf32>
    %inserted_slice_274 = tensor.insert_slice %9 into %47[0, 0, 0, 0] [1, 96, 8, 8] [1, 1, 1, 1] : tensor<1x96x8x8xf32> into tensor<1x336x8x8xf32>
    %inserted_slice_275 = tensor.insert_slice %19 into %inserted_slice_274[0, 96, 0, 0] [1, 48, 8, 8] [1, 1, 1, 1] : tensor<1x48x8x8xf32> into tensor<1x336x8x8xf32>
    %inserted_slice_276 = tensor.insert_slice %26 into %inserted_slice_275[0, 144, 0, 0] [1, 48, 8, 8] [1, 1, 1, 1] : tensor<1x48x8x8xf32> into tensor<1x336x8x8xf32>
    %inserted_slice_277 = tensor.insert_slice %32 into %inserted_slice_276[0, 192, 0, 0] [1, 48, 8, 8] [1, 1, 1, 1] : tensor<1x48x8x8xf32> into tensor<1x336x8x8xf32>
    %inserted_slice_278 = tensor.insert_slice %39 into %inserted_slice_277[0, 240, 0, 0] [1, 48, 8, 8] [1, 1, 1, 1] : tensor<1x48x8x8xf32> into tensor<1x336x8x8xf32>
    %inserted_slice_279 = tensor.insert_slice %46 into %inserted_slice_278[0, 288, 0, 0] [1, 48, 8, 8] [1, 1, 1, 1] : tensor<1x48x8x8xf32> into tensor<1x336x8x8xf32>
    cf.assert %3, "training is not supported for now"
    %48 = linalg.generic {indexing_maps = [#map, #map1, #map1, #map1, #map1, #map], iterator_types = ["parallel", "parallel", "parallel", "parallel"]} ins(%inserted_slice_279, %cst_229, %cst_228, %cst_228, %cst_229 : tensor<1x336x8x8xf32>, tensor<336xf32>, tensor<336xf32>, tensor<336xf32>, tensor<336xf32>) outs(%inserted_slice_279 : tensor<1x336x8x8xf32>) {
    ^bb0(%in: f32, %in_1476: f32, %in_1477: f32, %in_1478: f32, %in_1479: f32, %out: f32):
      %604 = arith.truncf %cst_253 : f64 to f32
      %605 = arith.addf %in_1479, %604 : f32
      %606 = math.rsqrt %605 : f32
      %607 = arith.subf %in, %in_1478 : f32
      %608 = arith.mulf %607, %606 : f32
      %609 = arith.mulf %608, %in_1476 : f32
      %610 = arith.addf %609, %in_1477 : f32
      linalg.yield %610 : f32
    } -> tensor<1x336x8x8xf32>
    %49 = linalg.generic {indexing_maps = [#map2, #map], iterator_types = ["parallel", "parallel", "parallel", "parallel"]} ins(%48 : tensor<1x336x8x8xf32>) outs(%47 : tensor<1x336x8x8xf32>) {
    ^bb0(%in: f32, %out: f32):
      %604 = arith.cmpf ugt, %in, %cst_251 : f32
      %605 = arith.select %604, %in, %cst_251 : f32
      linalg.yield %605 : f32
    } -> tensor<1x336x8x8xf32>
    %50 = linalg.conv_2d_nchw_fchw {dilations = dense<1> : vector<2xi64>, strides = dense<1> : vector<2xi64>} ins(%49, %cst_227 : tensor<1x336x8x8xf32>, tensor<192x336x1x1xf32>) outs(%13 : tensor<1x192x8x8xf32>) -> tensor<1x192x8x8xf32>
    cf.assert %3, "training is not supported for now"
    %51 = linalg.generic {indexing_maps = [#map, #map1, #map1, #map1, #map1, #map], iterator_types = ["parallel", "parallel", "parallel", "parallel"]} ins(%50, %cst_246, %cst_245, %cst_245, %cst_246 : tensor<1x192x8x8xf32>, tensor<192xf32>, tensor<192xf32>, tensor<192xf32>, tensor<192xf32>) outs(%50 : tensor<1x192x8x8xf32>) {
    ^bb0(%in: f32, %in_1476: f32, %in_1477: f32, %in_1478: f32, %in_1479: f32, %out: f32):
      %604 = arith.truncf %cst_253 : f64 to f32
      %605 = arith.addf %in_1479, %604 : f32
      %606 = math.rsqrt %605 : f32
      %607 = arith.subf %in, %in_1478 : f32
      %608 = arith.mulf %607, %606 : f32
      %609 = arith.mulf %608, %in_1476 : f32
      %610 = arith.addf %609, %in_1477 : f32
      linalg.yield %610 : f32
    } -> tensor<1x192x8x8xf32>
    %52 = linalg.generic {indexing_maps = [#map2, #map], iterator_types = ["parallel", "parallel", "parallel", "parallel"]} ins(%51 : tensor<1x192x8x8xf32>) outs(%12 : tensor<1x192x8x8xf32>) {
    ^bb0(%in: f32, %out: f32):
      %604 = arith.cmpf ugt, %in, %cst_251 : f32
      %605 = arith.select %604, %in, %cst_251 : f32
      linalg.yield %605 : f32
    } -> tensor<1x192x8x8xf32>
    %padded_280 = tensor.pad %52 low[0, 0, 1, 1] high[0, 0, 1, 1] {
    ^bb0(%arg1: index, %arg2: index, %arg3: index, %arg4: index):
      tensor.yield %cst_251 : f32
    } : tensor<1x192x8x8xf32> to tensor<1x192x10x10xf32>
    %53 = linalg.conv_2d_nchw_fchw {dilations = dense<1> : vector<2xi64>, strides = dense<1> : vector<2xi64>} ins(%padded_280, %cst_226 : tensor<1x192x10x10xf32>, tensor<48x192x3x3xf32>) outs(%18 : tensor<1x48x8x8xf32>) -> tensor<1x48x8x8xf32>
    %54 = tensor.empty() : tensor<1x384x8x8xf32>
    %inserted_slice_281 = tensor.insert_slice %9 into %54[0, 0, 0, 0] [1, 96, 8, 8] [1, 1, 1, 1] : tensor<1x96x8x8xf32> into tensor<1x384x8x8xf32>
    %inserted_slice_282 = tensor.insert_slice %19 into %inserted_slice_281[0, 96, 0, 0] [1, 48, 8, 8] [1, 1, 1, 1] : tensor<1x48x8x8xf32> into tensor<1x384x8x8xf32>
    %inserted_slice_283 = tensor.insert_slice %26 into %inserted_slice_282[0, 144, 0, 0] [1, 48, 8, 8] [1, 1, 1, 1] : tensor<1x48x8x8xf32> into tensor<1x384x8x8xf32>
    %inserted_slice_284 = tensor.insert_slice %32 into %inserted_slice_283[0, 192, 0, 0] [1, 48, 8, 8] [1, 1, 1, 1] : tensor<1x48x8x8xf32> into tensor<1x384x8x8xf32>
    %inserted_slice_285 = tensor.insert_slice %39 into %inserted_slice_284[0, 240, 0, 0] [1, 48, 8, 8] [1, 1, 1, 1] : tensor<1x48x8x8xf32> into tensor<1x384x8x8xf32>
    %inserted_slice_286 = tensor.insert_slice %46 into %inserted_slice_285[0, 288, 0, 0] [1, 48, 8, 8] [1, 1, 1, 1] : tensor<1x48x8x8xf32> into tensor<1x384x8x8xf32>
    %inserted_slice_287 = tensor.insert_slice %53 into %inserted_slice_286[0, 336, 0, 0] [1, 48, 8, 8] [1, 1, 1, 1] : tensor<1x48x8x8xf32> into tensor<1x384x8x8xf32>
    cf.assert %3, "training is not supported for now"
    %55 = linalg.generic {indexing_maps = [#map, #map1, #map1, #map1, #map1, #map], iterator_types = ["parallel", "parallel", "parallel", "parallel"]} ins(%inserted_slice_287, %cst_225, %cst_224, %cst_224, %cst_225 : tensor<1x384x8x8xf32>, tensor<384xf32>, tensor<384xf32>, tensor<384xf32>, tensor<384xf32>) outs(%inserted_slice_287 : tensor<1x384x8x8xf32>) {
    ^bb0(%in: f32, %in_1476: f32, %in_1477: f32, %in_1478: f32, %in_1479: f32, %out: f32):
      %604 = arith.truncf %cst_253 : f64 to f32
      %605 = arith.addf %in_1479, %604 : f32
      %606 = math.rsqrt %605 : f32
      %607 = arith.subf %in, %in_1478 : f32
      %608 = arith.mulf %607, %606 : f32
      %609 = arith.mulf %608, %in_1476 : f32
      %610 = arith.addf %609, %in_1477 : f32
      linalg.yield %610 : f32
    } -> tensor<1x384x8x8xf32>
    %56 = linalg.generic {indexing_maps = [#map2, #map], iterator_types = ["parallel", "parallel", "parallel", "parallel"]} ins(%55 : tensor<1x384x8x8xf32>) outs(%54 : tensor<1x384x8x8xf32>) {
    ^bb0(%in: f32, %out: f32):
      %604 = arith.cmpf ugt, %in, %cst_251 : f32
      %605 = arith.select %604, %in, %cst_251 : f32
      linalg.yield %605 : f32
    } -> tensor<1x384x8x8xf32>
    %57 = linalg.conv_2d_nchw_fchw {dilations = dense<1> : vector<2xi64>, strides = dense<1> : vector<2xi64>} ins(%56, %cst_223 : tensor<1x384x8x8xf32>, tensor<192x384x1x1xf32>) outs(%13 : tensor<1x192x8x8xf32>) -> tensor<1x192x8x8xf32>
    %58 = tensor.empty() : tensor<1x192x4x4xf32>
    %59 = linalg.fill ins(%cst_251 : f32) outs(%58 : tensor<1x192x4x4xf32>) -> tensor<1x192x4x4xf32>
    %60 = tensor.empty() : tensor<2x2xf32>
    %61 = linalg.pooling_nchw_sum {dilations = dense<1> : vector<2xi64>, strides = dense<2> : vector<2xi64>} ins(%57, %60 : tensor<1x192x8x8xf32>, tensor<2x2xf32>) outs(%59 : tensor<1x192x4x4xf32>) -> tensor<1x192x4x4xf32>
    %62 = linalg.generic {indexing_maps = [#map, #map], iterator_types = ["parallel", "parallel", "parallel", "parallel"]} ins(%61 : tensor<1x192x4x4xf32>) outs(%58 : tensor<1x192x4x4xf32>) {
    ^bb0(%in: f32, %out: f32):
      %604 = arith.divf %in, %cst_254 : f32
      linalg.yield %604 : f32
    } -> tensor<1x192x4x4xf32>
    cf.assert %3, "training is not supported for now"
    %63 = linalg.generic {indexing_maps = [#map, #map1, #map1, #map1, #map1, #map], iterator_types = ["parallel", "parallel", "parallel", "parallel"]} ins(%62, %cst_246, %cst_245, %cst_245, %cst_246 : tensor<1x192x4x4xf32>, tensor<192xf32>, tensor<192xf32>, tensor<192xf32>, tensor<192xf32>) outs(%62 : tensor<1x192x4x4xf32>) {
    ^bb0(%in: f32, %in_1476: f32, %in_1477: f32, %in_1478: f32, %in_1479: f32, %out: f32):
      %604 = arith.truncf %cst_253 : f64 to f32
      %605 = arith.addf %in_1479, %604 : f32
      %606 = math.rsqrt %605 : f32
      %607 = arith.subf %in, %in_1478 : f32
      %608 = arith.mulf %607, %606 : f32
      %609 = arith.mulf %608, %in_1476 : f32
      %610 = arith.addf %609, %in_1477 : f32
      linalg.yield %610 : f32
    } -> tensor<1x192x4x4xf32>
    %64 = linalg.generic {indexing_maps = [#map2, #map], iterator_types = ["parallel", "parallel", "parallel", "parallel"]} ins(%63 : tensor<1x192x4x4xf32>) outs(%58 : tensor<1x192x4x4xf32>) {
    ^bb0(%in: f32, %out: f32):
      %604 = arith.cmpf ugt, %in, %cst_251 : f32
      %605 = arith.select %604, %in, %cst_251 : f32
      linalg.yield %605 : f32
    } -> tensor<1x192x4x4xf32>
    %65 = linalg.conv_2d_nchw_fchw {dilations = dense<1> : vector<2xi64>, strides = dense<1> : vector<2xi64>} ins(%64, %cst_222 : tensor<1x192x4x4xf32>, tensor<192x192x1x1xf32>) outs(%59 : tensor<1x192x4x4xf32>) -> tensor<1x192x4x4xf32>
    cf.assert %3, "training is not supported for now"
    %66 = linalg.generic {indexing_maps = [#map, #map1, #map1, #map1, #map1, #map], iterator_types = ["parallel", "parallel", "parallel", "parallel"]} ins(%65, %cst_246, %cst_245, %cst_245, %cst_246 : tensor<1x192x4x4xf32>, tensor<192xf32>, tensor<192xf32>, tensor<192xf32>, tensor<192xf32>) outs(%65 : tensor<1x192x4x4xf32>) {
    ^bb0(%in: f32, %in_1476: f32, %in_1477: f32, %in_1478: f32, %in_1479: f32, %out: f32):
      %604 = arith.truncf %cst_253 : f64 to f32
      %605 = arith.addf %in_1479, %604 : f32
      %606 = math.rsqrt %605 : f32
      %607 = arith.subf %in, %in_1478 : f32
      %608 = arith.mulf %607, %606 : f32
      %609 = arith.mulf %608, %in_1476 : f32
      %610 = arith.addf %609, %in_1477 : f32
      linalg.yield %610 : f32
    } -> tensor<1x192x4x4xf32>
    %67 = linalg.generic {indexing_maps = [#map2, #map], iterator_types = ["parallel", "parallel", "parallel", "parallel"]} ins(%66 : tensor<1x192x4x4xf32>) outs(%58 : tensor<1x192x4x4xf32>) {
    ^bb0(%in: f32, %out: f32):
      %604 = arith.cmpf ugt, %in, %cst_251 : f32
      %605 = arith.select %604, %in, %cst_251 : f32
      linalg.yield %605 : f32
    } -> tensor<1x192x4x4xf32>
    %padded_288 = tensor.pad %67 low[0, 0, 1, 1] high[0, 0, 1, 1] {
    ^bb0(%arg1: index, %arg2: index, %arg3: index, %arg4: index):
      tensor.yield %cst_251 : f32
    } : tensor<1x192x4x4xf32> to tensor<1x192x6x6xf32>
    %68 = tensor.empty() : tensor<1x48x4x4xf32>
    %69 = linalg.fill ins(%cst_251 : f32) outs(%68 : tensor<1x48x4x4xf32>) -> tensor<1x48x4x4xf32>
    %70 = linalg.conv_2d_nchw_fchw {dilations = dense<1> : vector<2xi64>, strides = dense<1> : vector<2xi64>} ins(%padded_288, %cst_221 : tensor<1x192x6x6xf32>, tensor<48x192x3x3xf32>) outs(%69 : tensor<1x48x4x4xf32>) -> tensor<1x48x4x4xf32>
    %71 = tensor.empty() : tensor<1x240x4x4xf32>
    %inserted_slice_289 = tensor.insert_slice %62 into %71[0, 0, 0, 0] [1, 192, 4, 4] [1, 1, 1, 1] : tensor<1x192x4x4xf32> into tensor<1x240x4x4xf32>
    %inserted_slice_290 = tensor.insert_slice %70 into %inserted_slice_289[0, 192, 0, 0] [1, 48, 4, 4] [1, 1, 1, 1] : tensor<1x48x4x4xf32> into tensor<1x240x4x4xf32>
    cf.assert %3, "training is not supported for now"
    %72 = linalg.generic {indexing_maps = [#map, #map1, #map1, #map1, #map1, #map], iterator_types = ["parallel", "parallel", "parallel", "parallel"]} ins(%inserted_slice_290, %cst_237, %cst_236, %cst_236, %cst_237 : tensor<1x240x4x4xf32>, tensor<240xf32>, tensor<240xf32>, tensor<240xf32>, tensor<240xf32>) outs(%inserted_slice_290 : tensor<1x240x4x4xf32>) {
    ^bb0(%in: f32, %in_1476: f32, %in_1477: f32, %in_1478: f32, %in_1479: f32, %out: f32):
      %604 = arith.truncf %cst_253 : f64 to f32
      %605 = arith.addf %in_1479, %604 : f32
      %606 = math.rsqrt %605 : f32
      %607 = arith.subf %in, %in_1478 : f32
      %608 = arith.mulf %607, %606 : f32
      %609 = arith.mulf %608, %in_1476 : f32
      %610 = arith.addf %609, %in_1477 : f32
      linalg.yield %610 : f32
    } -> tensor<1x240x4x4xf32>
    %73 = linalg.generic {indexing_maps = [#map2, #map], iterator_types = ["parallel", "parallel", "parallel", "parallel"]} ins(%72 : tensor<1x240x4x4xf32>) outs(%71 : tensor<1x240x4x4xf32>) {
    ^bb0(%in: f32, %out: f32):
      %604 = arith.cmpf ugt, %in, %cst_251 : f32
      %605 = arith.select %604, %in, %cst_251 : f32
      linalg.yield %605 : f32
    } -> tensor<1x240x4x4xf32>
    %74 = linalg.conv_2d_nchw_fchw {dilations = dense<1> : vector<2xi64>, strides = dense<1> : vector<2xi64>} ins(%73, %cst_220 : tensor<1x240x4x4xf32>, tensor<192x240x1x1xf32>) outs(%59 : tensor<1x192x4x4xf32>) -> tensor<1x192x4x4xf32>
    cf.assert %3, "training is not supported for now"
    %75 = linalg.generic {indexing_maps = [#map, #map1, #map1, #map1, #map1, #map], iterator_types = ["parallel", "parallel", "parallel", "parallel"]} ins(%74, %cst_246, %cst_245, %cst_245, %cst_246 : tensor<1x192x4x4xf32>, tensor<192xf32>, tensor<192xf32>, tensor<192xf32>, tensor<192xf32>) outs(%74 : tensor<1x192x4x4xf32>) {
    ^bb0(%in: f32, %in_1476: f32, %in_1477: f32, %in_1478: f32, %in_1479: f32, %out: f32):
      %604 = arith.truncf %cst_253 : f64 to f32
      %605 = arith.addf %in_1479, %604 : f32
      %606 = math.rsqrt %605 : f32
      %607 = arith.subf %in, %in_1478 : f32
      %608 = arith.mulf %607, %606 : f32
      %609 = arith.mulf %608, %in_1476 : f32
      %610 = arith.addf %609, %in_1477 : f32
      linalg.yield %610 : f32
    } -> tensor<1x192x4x4xf32>
    %76 = linalg.generic {indexing_maps = [#map2, #map], iterator_types = ["parallel", "parallel", "parallel", "parallel"]} ins(%75 : tensor<1x192x4x4xf32>) outs(%58 : tensor<1x192x4x4xf32>) {
    ^bb0(%in: f32, %out: f32):
      %604 = arith.cmpf ugt, %in, %cst_251 : f32
      %605 = arith.select %604, %in, %cst_251 : f32
      linalg.yield %605 : f32
    } -> tensor<1x192x4x4xf32>
    %padded_291 = tensor.pad %76 low[0, 0, 1, 1] high[0, 0, 1, 1] {
    ^bb0(%arg1: index, %arg2: index, %arg3: index, %arg4: index):
      tensor.yield %cst_251 : f32
    } : tensor<1x192x4x4xf32> to tensor<1x192x6x6xf32>
    %77 = linalg.conv_2d_nchw_fchw {dilations = dense<1> : vector<2xi64>, strides = dense<1> : vector<2xi64>} ins(%padded_291, %cst_219 : tensor<1x192x6x6xf32>, tensor<48x192x3x3xf32>) outs(%69 : tensor<1x48x4x4xf32>) -> tensor<1x48x4x4xf32>
    %78 = tensor.empty() : tensor<1x288x4x4xf32>
    %inserted_slice_292 = tensor.insert_slice %62 into %78[0, 0, 0, 0] [1, 192, 4, 4] [1, 1, 1, 1] : tensor<1x192x4x4xf32> into tensor<1x288x4x4xf32>
    %inserted_slice_293 = tensor.insert_slice %70 into %inserted_slice_292[0, 192, 0, 0] [1, 48, 4, 4] [1, 1, 1, 1] : tensor<1x48x4x4xf32> into tensor<1x288x4x4xf32>
    %inserted_slice_294 = tensor.insert_slice %77 into %inserted_slice_293[0, 240, 0, 0] [1, 48, 4, 4] [1, 1, 1, 1] : tensor<1x48x4x4xf32> into tensor<1x288x4x4xf32>
    cf.assert %3, "training is not supported for now"
    %79 = linalg.generic {indexing_maps = [#map, #map1, #map1, #map1, #map1, #map], iterator_types = ["parallel", "parallel", "parallel", "parallel"]} ins(%inserted_slice_294, %cst_233, %cst_232, %cst_232, %cst_233 : tensor<1x288x4x4xf32>, tensor<288xf32>, tensor<288xf32>, tensor<288xf32>, tensor<288xf32>) outs(%inserted_slice_294 : tensor<1x288x4x4xf32>) {
    ^bb0(%in: f32, %in_1476: f32, %in_1477: f32, %in_1478: f32, %in_1479: f32, %out: f32):
      %604 = arith.truncf %cst_253 : f64 to f32
      %605 = arith.addf %in_1479, %604 : f32
      %606 = math.rsqrt %605 : f32
      %607 = arith.subf %in, %in_1478 : f32
      %608 = arith.mulf %607, %606 : f32
      %609 = arith.mulf %608, %in_1476 : f32
      %610 = arith.addf %609, %in_1477 : f32
      linalg.yield %610 : f32
    } -> tensor<1x288x4x4xf32>
    %80 = linalg.generic {indexing_maps = [#map2, #map], iterator_types = ["parallel", "parallel", "parallel", "parallel"]} ins(%79 : tensor<1x288x4x4xf32>) outs(%78 : tensor<1x288x4x4xf32>) {
    ^bb0(%in: f32, %out: f32):
      %604 = arith.cmpf ugt, %in, %cst_251 : f32
      %605 = arith.select %604, %in, %cst_251 : f32
      linalg.yield %605 : f32
    } -> tensor<1x288x4x4xf32>
    %81 = linalg.conv_2d_nchw_fchw {dilations = dense<1> : vector<2xi64>, strides = dense<1> : vector<2xi64>} ins(%80, %cst_218 : tensor<1x288x4x4xf32>, tensor<192x288x1x1xf32>) outs(%59 : tensor<1x192x4x4xf32>) -> tensor<1x192x4x4xf32>
    cf.assert %3, "training is not supported for now"
    %82 = linalg.generic {indexing_maps = [#map, #map1, #map1, #map1, #map1, #map], iterator_types = ["parallel", "parallel", "parallel", "parallel"]} ins(%81, %cst_246, %cst_245, %cst_245, %cst_246 : tensor<1x192x4x4xf32>, tensor<192xf32>, tensor<192xf32>, tensor<192xf32>, tensor<192xf32>) outs(%81 : tensor<1x192x4x4xf32>) {
    ^bb0(%in: f32, %in_1476: f32, %in_1477: f32, %in_1478: f32, %in_1479: f32, %out: f32):
      %604 = arith.truncf %cst_253 : f64 to f32
      %605 = arith.addf %in_1479, %604 : f32
      %606 = math.rsqrt %605 : f32
      %607 = arith.subf %in, %in_1478 : f32
      %608 = arith.mulf %607, %606 : f32
      %609 = arith.mulf %608, %in_1476 : f32
      %610 = arith.addf %609, %in_1477 : f32
      linalg.yield %610 : f32
    } -> tensor<1x192x4x4xf32>
    %83 = linalg.generic {indexing_maps = [#map2, #map], iterator_types = ["parallel", "parallel", "parallel", "parallel"]} ins(%82 : tensor<1x192x4x4xf32>) outs(%58 : tensor<1x192x4x4xf32>) {
    ^bb0(%in: f32, %out: f32):
      %604 = arith.cmpf ugt, %in, %cst_251 : f32
      %605 = arith.select %604, %in, %cst_251 : f32
      linalg.yield %605 : f32
    } -> tensor<1x192x4x4xf32>
    %padded_295 = tensor.pad %83 low[0, 0, 1, 1] high[0, 0, 1, 1] {
    ^bb0(%arg1: index, %arg2: index, %arg3: index, %arg4: index):
      tensor.yield %cst_251 : f32
    } : tensor<1x192x4x4xf32> to tensor<1x192x6x6xf32>
    %84 = linalg.conv_2d_nchw_fchw {dilations = dense<1> : vector<2xi64>, strides = dense<1> : vector<2xi64>} ins(%padded_295, %cst_217 : tensor<1x192x6x6xf32>, tensor<48x192x3x3xf32>) outs(%69 : tensor<1x48x4x4xf32>) -> tensor<1x48x4x4xf32>
    %85 = tensor.empty() : tensor<1x336x4x4xf32>
    %inserted_slice_296 = tensor.insert_slice %62 into %85[0, 0, 0, 0] [1, 192, 4, 4] [1, 1, 1, 1] : tensor<1x192x4x4xf32> into tensor<1x336x4x4xf32>
    %inserted_slice_297 = tensor.insert_slice %70 into %inserted_slice_296[0, 192, 0, 0] [1, 48, 4, 4] [1, 1, 1, 1] : tensor<1x48x4x4xf32> into tensor<1x336x4x4xf32>
    %inserted_slice_298 = tensor.insert_slice %77 into %inserted_slice_297[0, 240, 0, 0] [1, 48, 4, 4] [1, 1, 1, 1] : tensor<1x48x4x4xf32> into tensor<1x336x4x4xf32>
    %inserted_slice_299 = tensor.insert_slice %84 into %inserted_slice_298[0, 288, 0, 0] [1, 48, 4, 4] [1, 1, 1, 1] : tensor<1x48x4x4xf32> into tensor<1x336x4x4xf32>
    cf.assert %3, "training is not supported for now"
    %86 = linalg.generic {indexing_maps = [#map, #map1, #map1, #map1, #map1, #map], iterator_types = ["parallel", "parallel", "parallel", "parallel"]} ins(%inserted_slice_299, %cst_229, %cst_228, %cst_228, %cst_229 : tensor<1x336x4x4xf32>, tensor<336xf32>, tensor<336xf32>, tensor<336xf32>, tensor<336xf32>) outs(%inserted_slice_299 : tensor<1x336x4x4xf32>) {
    ^bb0(%in: f32, %in_1476: f32, %in_1477: f32, %in_1478: f32, %in_1479: f32, %out: f32):
      %604 = arith.truncf %cst_253 : f64 to f32
      %605 = arith.addf %in_1479, %604 : f32
      %606 = math.rsqrt %605 : f32
      %607 = arith.subf %in, %in_1478 : f32
      %608 = arith.mulf %607, %606 : f32
      %609 = arith.mulf %608, %in_1476 : f32
      %610 = arith.addf %609, %in_1477 : f32
      linalg.yield %610 : f32
    } -> tensor<1x336x4x4xf32>
    %87 = linalg.generic {indexing_maps = [#map2, #map], iterator_types = ["parallel", "parallel", "parallel", "parallel"]} ins(%86 : tensor<1x336x4x4xf32>) outs(%85 : tensor<1x336x4x4xf32>) {
    ^bb0(%in: f32, %out: f32):
      %604 = arith.cmpf ugt, %in, %cst_251 : f32
      %605 = arith.select %604, %in, %cst_251 : f32
      linalg.yield %605 : f32
    } -> tensor<1x336x4x4xf32>
    %88 = linalg.conv_2d_nchw_fchw {dilations = dense<1> : vector<2xi64>, strides = dense<1> : vector<2xi64>} ins(%87, %cst_216 : tensor<1x336x4x4xf32>, tensor<192x336x1x1xf32>) outs(%59 : tensor<1x192x4x4xf32>) -> tensor<1x192x4x4xf32>
    cf.assert %3, "training is not supported for now"
    %89 = linalg.generic {indexing_maps = [#map, #map1, #map1, #map1, #map1, #map], iterator_types = ["parallel", "parallel", "parallel", "parallel"]} ins(%88, %cst_246, %cst_245, %cst_245, %cst_246 : tensor<1x192x4x4xf32>, tensor<192xf32>, tensor<192xf32>, tensor<192xf32>, tensor<192xf32>) outs(%88 : tensor<1x192x4x4xf32>) {
    ^bb0(%in: f32, %in_1476: f32, %in_1477: f32, %in_1478: f32, %in_1479: f32, %out: f32):
      %604 = arith.truncf %cst_253 : f64 to f32
      %605 = arith.addf %in_1479, %604 : f32
      %606 = math.rsqrt %605 : f32
      %607 = arith.subf %in, %in_1478 : f32
      %608 = arith.mulf %607, %606 : f32
      %609 = arith.mulf %608, %in_1476 : f32
      %610 = arith.addf %609, %in_1477 : f32
      linalg.yield %610 : f32
    } -> tensor<1x192x4x4xf32>
    %90 = linalg.generic {indexing_maps = [#map2, #map], iterator_types = ["parallel", "parallel", "parallel", "parallel"]} ins(%89 : tensor<1x192x4x4xf32>) outs(%58 : tensor<1x192x4x4xf32>) {
    ^bb0(%in: f32, %out: f32):
      %604 = arith.cmpf ugt, %in, %cst_251 : f32
      %605 = arith.select %604, %in, %cst_251 : f32
      linalg.yield %605 : f32
    } -> tensor<1x192x4x4xf32>
    %padded_300 = tensor.pad %90 low[0, 0, 1, 1] high[0, 0, 1, 1] {
    ^bb0(%arg1: index, %arg2: index, %arg3: index, %arg4: index):
      tensor.yield %cst_251 : f32
    } : tensor<1x192x4x4xf32> to tensor<1x192x6x6xf32>
    %91 = linalg.conv_2d_nchw_fchw {dilations = dense<1> : vector<2xi64>, strides = dense<1> : vector<2xi64>} ins(%padded_300, %cst_215 : tensor<1x192x6x6xf32>, tensor<48x192x3x3xf32>) outs(%69 : tensor<1x48x4x4xf32>) -> tensor<1x48x4x4xf32>
    %92 = tensor.empty() : tensor<1x384x4x4xf32>
    %inserted_slice_301 = tensor.insert_slice %62 into %92[0, 0, 0, 0] [1, 192, 4, 4] [1, 1, 1, 1] : tensor<1x192x4x4xf32> into tensor<1x384x4x4xf32>
    %inserted_slice_302 = tensor.insert_slice %70 into %inserted_slice_301[0, 192, 0, 0] [1, 48, 4, 4] [1, 1, 1, 1] : tensor<1x48x4x4xf32> into tensor<1x384x4x4xf32>
    %inserted_slice_303 = tensor.insert_slice %77 into %inserted_slice_302[0, 240, 0, 0] [1, 48, 4, 4] [1, 1, 1, 1] : tensor<1x48x4x4xf32> into tensor<1x384x4x4xf32>
    %inserted_slice_304 = tensor.insert_slice %84 into %inserted_slice_303[0, 288, 0, 0] [1, 48, 4, 4] [1, 1, 1, 1] : tensor<1x48x4x4xf32> into tensor<1x384x4x4xf32>
    %inserted_slice_305 = tensor.insert_slice %91 into %inserted_slice_304[0, 336, 0, 0] [1, 48, 4, 4] [1, 1, 1, 1] : tensor<1x48x4x4xf32> into tensor<1x384x4x4xf32>
    cf.assert %3, "training is not supported for now"
    %93 = linalg.generic {indexing_maps = [#map, #map1, #map1, #map1, #map1, #map], iterator_types = ["parallel", "parallel", "parallel", "parallel"]} ins(%inserted_slice_305, %cst_225, %cst_224, %cst_224, %cst_225 : tensor<1x384x4x4xf32>, tensor<384xf32>, tensor<384xf32>, tensor<384xf32>, tensor<384xf32>) outs(%inserted_slice_305 : tensor<1x384x4x4xf32>) {
    ^bb0(%in: f32, %in_1476: f32, %in_1477: f32, %in_1478: f32, %in_1479: f32, %out: f32):
      %604 = arith.truncf %cst_253 : f64 to f32
      %605 = arith.addf %in_1479, %604 : f32
      %606 = math.rsqrt %605 : f32
      %607 = arith.subf %in, %in_1478 : f32
      %608 = arith.mulf %607, %606 : f32
      %609 = arith.mulf %608, %in_1476 : f32
      %610 = arith.addf %609, %in_1477 : f32
      linalg.yield %610 : f32
    } -> tensor<1x384x4x4xf32>
    %94 = linalg.generic {indexing_maps = [#map2, #map], iterator_types = ["parallel", "parallel", "parallel", "parallel"]} ins(%93 : tensor<1x384x4x4xf32>) outs(%92 : tensor<1x384x4x4xf32>) {
    ^bb0(%in: f32, %out: f32):
      %604 = arith.cmpf ugt, %in, %cst_251 : f32
      %605 = arith.select %604, %in, %cst_251 : f32
      linalg.yield %605 : f32
    } -> tensor<1x384x4x4xf32>
    %95 = linalg.conv_2d_nchw_fchw {dilations = dense<1> : vector<2xi64>, strides = dense<1> : vector<2xi64>} ins(%94, %cst_214 : tensor<1x384x4x4xf32>, tensor<192x384x1x1xf32>) outs(%59 : tensor<1x192x4x4xf32>) -> tensor<1x192x4x4xf32>
    cf.assert %3, "training is not supported for now"
    %96 = linalg.generic {indexing_maps = [#map, #map1, #map1, #map1, #map1, #map], iterator_types = ["parallel", "parallel", "parallel", "parallel"]} ins(%95, %cst_246, %cst_245, %cst_245, %cst_246 : tensor<1x192x4x4xf32>, tensor<192xf32>, tensor<192xf32>, tensor<192xf32>, tensor<192xf32>) outs(%95 : tensor<1x192x4x4xf32>) {
    ^bb0(%in: f32, %in_1476: f32, %in_1477: f32, %in_1478: f32, %in_1479: f32, %out: f32):
      %604 = arith.truncf %cst_253 : f64 to f32
      %605 = arith.addf %in_1479, %604 : f32
      %606 = math.rsqrt %605 : f32
      %607 = arith.subf %in, %in_1478 : f32
      %608 = arith.mulf %607, %606 : f32
      %609 = arith.mulf %608, %in_1476 : f32
      %610 = arith.addf %609, %in_1477 : f32
      linalg.yield %610 : f32
    } -> tensor<1x192x4x4xf32>
    %97 = linalg.generic {indexing_maps = [#map2, #map], iterator_types = ["parallel", "parallel", "parallel", "parallel"]} ins(%96 : tensor<1x192x4x4xf32>) outs(%58 : tensor<1x192x4x4xf32>) {
    ^bb0(%in: f32, %out: f32):
      %604 = arith.cmpf ugt, %in, %cst_251 : f32
      %605 = arith.select %604, %in, %cst_251 : f32
      linalg.yield %605 : f32
    } -> tensor<1x192x4x4xf32>
    %padded_306 = tensor.pad %97 low[0, 0, 1, 1] high[0, 0, 1, 1] {
    ^bb0(%arg1: index, %arg2: index, %arg3: index, %arg4: index):
      tensor.yield %cst_251 : f32
    } : tensor<1x192x4x4xf32> to tensor<1x192x6x6xf32>
    %98 = linalg.conv_2d_nchw_fchw {dilations = dense<1> : vector<2xi64>, strides = dense<1> : vector<2xi64>} ins(%padded_306, %cst_213 : tensor<1x192x6x6xf32>, tensor<48x192x3x3xf32>) outs(%69 : tensor<1x48x4x4xf32>) -> tensor<1x48x4x4xf32>
    %99 = tensor.empty() : tensor<1x432x4x4xf32>
    %inserted_slice_307 = tensor.insert_slice %62 into %99[0, 0, 0, 0] [1, 192, 4, 4] [1, 1, 1, 1] : tensor<1x192x4x4xf32> into tensor<1x432x4x4xf32>
    %inserted_slice_308 = tensor.insert_slice %70 into %inserted_slice_307[0, 192, 0, 0] [1, 48, 4, 4] [1, 1, 1, 1] : tensor<1x48x4x4xf32> into tensor<1x432x4x4xf32>
    %inserted_slice_309 = tensor.insert_slice %77 into %inserted_slice_308[0, 240, 0, 0] [1, 48, 4, 4] [1, 1, 1, 1] : tensor<1x48x4x4xf32> into tensor<1x432x4x4xf32>
    %inserted_slice_310 = tensor.insert_slice %84 into %inserted_slice_309[0, 288, 0, 0] [1, 48, 4, 4] [1, 1, 1, 1] : tensor<1x48x4x4xf32> into tensor<1x432x4x4xf32>
    %inserted_slice_311 = tensor.insert_slice %91 into %inserted_slice_310[0, 336, 0, 0] [1, 48, 4, 4] [1, 1, 1, 1] : tensor<1x48x4x4xf32> into tensor<1x432x4x4xf32>
    %inserted_slice_312 = tensor.insert_slice %98 into %inserted_slice_311[0, 384, 0, 0] [1, 48, 4, 4] [1, 1, 1, 1] : tensor<1x48x4x4xf32> into tensor<1x432x4x4xf32>
    cf.assert %3, "training is not supported for now"
    %100 = linalg.generic {indexing_maps = [#map, #map1, #map1, #map1, #map1, #map], iterator_types = ["parallel", "parallel", "parallel", "parallel"]} ins(%inserted_slice_312, %cst_212, %cst_211, %cst_211, %cst_212 : tensor<1x432x4x4xf32>, tensor<432xf32>, tensor<432xf32>, tensor<432xf32>, tensor<432xf32>) outs(%inserted_slice_312 : tensor<1x432x4x4xf32>) {
    ^bb0(%in: f32, %in_1476: f32, %in_1477: f32, %in_1478: f32, %in_1479: f32, %out: f32):
      %604 = arith.truncf %cst_253 : f64 to f32
      %605 = arith.addf %in_1479, %604 : f32
      %606 = math.rsqrt %605 : f32
      %607 = arith.subf %in, %in_1478 : f32
      %608 = arith.mulf %607, %606 : f32
      %609 = arith.mulf %608, %in_1476 : f32
      %610 = arith.addf %609, %in_1477 : f32
      linalg.yield %610 : f32
    } -> tensor<1x432x4x4xf32>
    %101 = linalg.generic {indexing_maps = [#map2, #map], iterator_types = ["parallel", "parallel", "parallel", "parallel"]} ins(%100 : tensor<1x432x4x4xf32>) outs(%99 : tensor<1x432x4x4xf32>) {
    ^bb0(%in: f32, %out: f32):
      %604 = arith.cmpf ugt, %in, %cst_251 : f32
      %605 = arith.select %604, %in, %cst_251 : f32
      linalg.yield %605 : f32
    } -> tensor<1x432x4x4xf32>
    %102 = linalg.conv_2d_nchw_fchw {dilations = dense<1> : vector<2xi64>, strides = dense<1> : vector<2xi64>} ins(%101, %cst_210 : tensor<1x432x4x4xf32>, tensor<192x432x1x1xf32>) outs(%59 : tensor<1x192x4x4xf32>) -> tensor<1x192x4x4xf32>
    cf.assert %3, "training is not supported for now"
    %103 = linalg.generic {indexing_maps = [#map, #map1, #map1, #map1, #map1, #map], iterator_types = ["parallel", "parallel", "parallel", "parallel"]} ins(%102, %cst_246, %cst_245, %cst_245, %cst_246 : tensor<1x192x4x4xf32>, tensor<192xf32>, tensor<192xf32>, tensor<192xf32>, tensor<192xf32>) outs(%102 : tensor<1x192x4x4xf32>) {
    ^bb0(%in: f32, %in_1476: f32, %in_1477: f32, %in_1478: f32, %in_1479: f32, %out: f32):
      %604 = arith.truncf %cst_253 : f64 to f32
      %605 = arith.addf %in_1479, %604 : f32
      %606 = math.rsqrt %605 : f32
      %607 = arith.subf %in, %in_1478 : f32
      %608 = arith.mulf %607, %606 : f32
      %609 = arith.mulf %608, %in_1476 : f32
      %610 = arith.addf %609, %in_1477 : f32
      linalg.yield %610 : f32
    } -> tensor<1x192x4x4xf32>
    %104 = linalg.generic {indexing_maps = [#map2, #map], iterator_types = ["parallel", "parallel", "parallel", "parallel"]} ins(%103 : tensor<1x192x4x4xf32>) outs(%58 : tensor<1x192x4x4xf32>) {
    ^bb0(%in: f32, %out: f32):
      %604 = arith.cmpf ugt, %in, %cst_251 : f32
      %605 = arith.select %604, %in, %cst_251 : f32
      linalg.yield %605 : f32
    } -> tensor<1x192x4x4xf32>
    %padded_313 = tensor.pad %104 low[0, 0, 1, 1] high[0, 0, 1, 1] {
    ^bb0(%arg1: index, %arg2: index, %arg3: index, %arg4: index):
      tensor.yield %cst_251 : f32
    } : tensor<1x192x4x4xf32> to tensor<1x192x6x6xf32>
    %105 = linalg.conv_2d_nchw_fchw {dilations = dense<1> : vector<2xi64>, strides = dense<1> : vector<2xi64>} ins(%padded_313, %cst_209 : tensor<1x192x6x6xf32>, tensor<48x192x3x3xf32>) outs(%69 : tensor<1x48x4x4xf32>) -> tensor<1x48x4x4xf32>
    %106 = tensor.empty() : tensor<1x480x4x4xf32>
    %inserted_slice_314 = tensor.insert_slice %62 into %106[0, 0, 0, 0] [1, 192, 4, 4] [1, 1, 1, 1] : tensor<1x192x4x4xf32> into tensor<1x480x4x4xf32>
    %inserted_slice_315 = tensor.insert_slice %70 into %inserted_slice_314[0, 192, 0, 0] [1, 48, 4, 4] [1, 1, 1, 1] : tensor<1x48x4x4xf32> into tensor<1x480x4x4xf32>
    %inserted_slice_316 = tensor.insert_slice %77 into %inserted_slice_315[0, 240, 0, 0] [1, 48, 4, 4] [1, 1, 1, 1] : tensor<1x48x4x4xf32> into tensor<1x480x4x4xf32>
    %inserted_slice_317 = tensor.insert_slice %84 into %inserted_slice_316[0, 288, 0, 0] [1, 48, 4, 4] [1, 1, 1, 1] : tensor<1x48x4x4xf32> into tensor<1x480x4x4xf32>
    %inserted_slice_318 = tensor.insert_slice %91 into %inserted_slice_317[0, 336, 0, 0] [1, 48, 4, 4] [1, 1, 1, 1] : tensor<1x48x4x4xf32> into tensor<1x480x4x4xf32>
    %inserted_slice_319 = tensor.insert_slice %98 into %inserted_slice_318[0, 384, 0, 0] [1, 48, 4, 4] [1, 1, 1, 1] : tensor<1x48x4x4xf32> into tensor<1x480x4x4xf32>
    %inserted_slice_320 = tensor.insert_slice %105 into %inserted_slice_319[0, 432, 0, 0] [1, 48, 4, 4] [1, 1, 1, 1] : tensor<1x48x4x4xf32> into tensor<1x480x4x4xf32>
    cf.assert %3, "training is not supported for now"
    %107 = linalg.generic {indexing_maps = [#map, #map1, #map1, #map1, #map1, #map], iterator_types = ["parallel", "parallel", "parallel", "parallel"]} ins(%inserted_slice_320, %cst_208, %cst_207, %cst_207, %cst_208 : tensor<1x480x4x4xf32>, tensor<480xf32>, tensor<480xf32>, tensor<480xf32>, tensor<480xf32>) outs(%inserted_slice_320 : tensor<1x480x4x4xf32>) {
    ^bb0(%in: f32, %in_1476: f32, %in_1477: f32, %in_1478: f32, %in_1479: f32, %out: f32):
      %604 = arith.truncf %cst_253 : f64 to f32
      %605 = arith.addf %in_1479, %604 : f32
      %606 = math.rsqrt %605 : f32
      %607 = arith.subf %in, %in_1478 : f32
      %608 = arith.mulf %607, %606 : f32
      %609 = arith.mulf %608, %in_1476 : f32
      %610 = arith.addf %609, %in_1477 : f32
      linalg.yield %610 : f32
    } -> tensor<1x480x4x4xf32>
    %108 = linalg.generic {indexing_maps = [#map2, #map], iterator_types = ["parallel", "parallel", "parallel", "parallel"]} ins(%107 : tensor<1x480x4x4xf32>) outs(%106 : tensor<1x480x4x4xf32>) {
    ^bb0(%in: f32, %out: f32):
      %604 = arith.cmpf ugt, %in, %cst_251 : f32
      %605 = arith.select %604, %in, %cst_251 : f32
      linalg.yield %605 : f32
    } -> tensor<1x480x4x4xf32>
    %109 = linalg.conv_2d_nchw_fchw {dilations = dense<1> : vector<2xi64>, strides = dense<1> : vector<2xi64>} ins(%108, %cst_206 : tensor<1x480x4x4xf32>, tensor<192x480x1x1xf32>) outs(%59 : tensor<1x192x4x4xf32>) -> tensor<1x192x4x4xf32>
    cf.assert %3, "training is not supported for now"
    %110 = linalg.generic {indexing_maps = [#map, #map1, #map1, #map1, #map1, #map], iterator_types = ["parallel", "parallel", "parallel", "parallel"]} ins(%109, %cst_246, %cst_245, %cst_245, %cst_246 : tensor<1x192x4x4xf32>, tensor<192xf32>, tensor<192xf32>, tensor<192xf32>, tensor<192xf32>) outs(%109 : tensor<1x192x4x4xf32>) {
    ^bb0(%in: f32, %in_1476: f32, %in_1477: f32, %in_1478: f32, %in_1479: f32, %out: f32):
      %604 = arith.truncf %cst_253 : f64 to f32
      %605 = arith.addf %in_1479, %604 : f32
      %606 = math.rsqrt %605 : f32
      %607 = arith.subf %in, %in_1478 : f32
      %608 = arith.mulf %607, %606 : f32
      %609 = arith.mulf %608, %in_1476 : f32
      %610 = arith.addf %609, %in_1477 : f32
      linalg.yield %610 : f32
    } -> tensor<1x192x4x4xf32>
    %111 = linalg.generic {indexing_maps = [#map2, #map], iterator_types = ["parallel", "parallel", "parallel", "parallel"]} ins(%110 : tensor<1x192x4x4xf32>) outs(%58 : tensor<1x192x4x4xf32>) {
    ^bb0(%in: f32, %out: f32):
      %604 = arith.cmpf ugt, %in, %cst_251 : f32
      %605 = arith.select %604, %in, %cst_251 : f32
      linalg.yield %605 : f32
    } -> tensor<1x192x4x4xf32>
    %padded_321 = tensor.pad %111 low[0, 0, 1, 1] high[0, 0, 1, 1] {
    ^bb0(%arg1: index, %arg2: index, %arg3: index, %arg4: index):
      tensor.yield %cst_251 : f32
    } : tensor<1x192x4x4xf32> to tensor<1x192x6x6xf32>
    %112 = linalg.conv_2d_nchw_fchw {dilations = dense<1> : vector<2xi64>, strides = dense<1> : vector<2xi64>} ins(%padded_321, %cst_205 : tensor<1x192x6x6xf32>, tensor<48x192x3x3xf32>) outs(%69 : tensor<1x48x4x4xf32>) -> tensor<1x48x4x4xf32>
    %113 = tensor.empty() : tensor<1x528x4x4xf32>
    %inserted_slice_322 = tensor.insert_slice %62 into %113[0, 0, 0, 0] [1, 192, 4, 4] [1, 1, 1, 1] : tensor<1x192x4x4xf32> into tensor<1x528x4x4xf32>
    %inserted_slice_323 = tensor.insert_slice %70 into %inserted_slice_322[0, 192, 0, 0] [1, 48, 4, 4] [1, 1, 1, 1] : tensor<1x48x4x4xf32> into tensor<1x528x4x4xf32>
    %inserted_slice_324 = tensor.insert_slice %77 into %inserted_slice_323[0, 240, 0, 0] [1, 48, 4, 4] [1, 1, 1, 1] : tensor<1x48x4x4xf32> into tensor<1x528x4x4xf32>
    %inserted_slice_325 = tensor.insert_slice %84 into %inserted_slice_324[0, 288, 0, 0] [1, 48, 4, 4] [1, 1, 1, 1] : tensor<1x48x4x4xf32> into tensor<1x528x4x4xf32>
    %inserted_slice_326 = tensor.insert_slice %91 into %inserted_slice_325[0, 336, 0, 0] [1, 48, 4, 4] [1, 1, 1, 1] : tensor<1x48x4x4xf32> into tensor<1x528x4x4xf32>
    %inserted_slice_327 = tensor.insert_slice %98 into %inserted_slice_326[0, 384, 0, 0] [1, 48, 4, 4] [1, 1, 1, 1] : tensor<1x48x4x4xf32> into tensor<1x528x4x4xf32>
    %inserted_slice_328 = tensor.insert_slice %105 into %inserted_slice_327[0, 432, 0, 0] [1, 48, 4, 4] [1, 1, 1, 1] : tensor<1x48x4x4xf32> into tensor<1x528x4x4xf32>
    %inserted_slice_329 = tensor.insert_slice %112 into %inserted_slice_328[0, 480, 0, 0] [1, 48, 4, 4] [1, 1, 1, 1] : tensor<1x48x4x4xf32> into tensor<1x528x4x4xf32>
    cf.assert %3, "training is not supported for now"
    %114 = linalg.generic {indexing_maps = [#map, #map1, #map1, #map1, #map1, #map], iterator_types = ["parallel", "parallel", "parallel", "parallel"]} ins(%inserted_slice_329, %cst_204, %cst_203, %cst_203, %cst_204 : tensor<1x528x4x4xf32>, tensor<528xf32>, tensor<528xf32>, tensor<528xf32>, tensor<528xf32>) outs(%inserted_slice_329 : tensor<1x528x4x4xf32>) {
    ^bb0(%in: f32, %in_1476: f32, %in_1477: f32, %in_1478: f32, %in_1479: f32, %out: f32):
      %604 = arith.truncf %cst_253 : f64 to f32
      %605 = arith.addf %in_1479, %604 : f32
      %606 = math.rsqrt %605 : f32
      %607 = arith.subf %in, %in_1478 : f32
      %608 = arith.mulf %607, %606 : f32
      %609 = arith.mulf %608, %in_1476 : f32
      %610 = arith.addf %609, %in_1477 : f32
      linalg.yield %610 : f32
    } -> tensor<1x528x4x4xf32>
    %115 = linalg.generic {indexing_maps = [#map2, #map], iterator_types = ["parallel", "parallel", "parallel", "parallel"]} ins(%114 : tensor<1x528x4x4xf32>) outs(%113 : tensor<1x528x4x4xf32>) {
    ^bb0(%in: f32, %out: f32):
      %604 = arith.cmpf ugt, %in, %cst_251 : f32
      %605 = arith.select %604, %in, %cst_251 : f32
      linalg.yield %605 : f32
    } -> tensor<1x528x4x4xf32>
    %116 = linalg.conv_2d_nchw_fchw {dilations = dense<1> : vector<2xi64>, strides = dense<1> : vector<2xi64>} ins(%115, %cst_202 : tensor<1x528x4x4xf32>, tensor<192x528x1x1xf32>) outs(%59 : tensor<1x192x4x4xf32>) -> tensor<1x192x4x4xf32>
    cf.assert %3, "training is not supported for now"
    %117 = linalg.generic {indexing_maps = [#map, #map1, #map1, #map1, #map1, #map], iterator_types = ["parallel", "parallel", "parallel", "parallel"]} ins(%116, %cst_246, %cst_245, %cst_245, %cst_246 : tensor<1x192x4x4xf32>, tensor<192xf32>, tensor<192xf32>, tensor<192xf32>, tensor<192xf32>) outs(%116 : tensor<1x192x4x4xf32>) {
    ^bb0(%in: f32, %in_1476: f32, %in_1477: f32, %in_1478: f32, %in_1479: f32, %out: f32):
      %604 = arith.truncf %cst_253 : f64 to f32
      %605 = arith.addf %in_1479, %604 : f32
      %606 = math.rsqrt %605 : f32
      %607 = arith.subf %in, %in_1478 : f32
      %608 = arith.mulf %607, %606 : f32
      %609 = arith.mulf %608, %in_1476 : f32
      %610 = arith.addf %609, %in_1477 : f32
      linalg.yield %610 : f32
    } -> tensor<1x192x4x4xf32>
    %118 = linalg.generic {indexing_maps = [#map2, #map], iterator_types = ["parallel", "parallel", "parallel", "parallel"]} ins(%117 : tensor<1x192x4x4xf32>) outs(%58 : tensor<1x192x4x4xf32>) {
    ^bb0(%in: f32, %out: f32):
      %604 = arith.cmpf ugt, %in, %cst_251 : f32
      %605 = arith.select %604, %in, %cst_251 : f32
      linalg.yield %605 : f32
    } -> tensor<1x192x4x4xf32>
    %padded_330 = tensor.pad %118 low[0, 0, 1, 1] high[0, 0, 1, 1] {
    ^bb0(%arg1: index, %arg2: index, %arg3: index, %arg4: index):
      tensor.yield %cst_251 : f32
    } : tensor<1x192x4x4xf32> to tensor<1x192x6x6xf32>
    %119 = linalg.conv_2d_nchw_fchw {dilations = dense<1> : vector<2xi64>, strides = dense<1> : vector<2xi64>} ins(%padded_330, %cst_201 : tensor<1x192x6x6xf32>, tensor<48x192x3x3xf32>) outs(%69 : tensor<1x48x4x4xf32>) -> tensor<1x48x4x4xf32>
    %120 = tensor.empty() : tensor<1x576x4x4xf32>
    %inserted_slice_331 = tensor.insert_slice %62 into %120[0, 0, 0, 0] [1, 192, 4, 4] [1, 1, 1, 1] : tensor<1x192x4x4xf32> into tensor<1x576x4x4xf32>
    %inserted_slice_332 = tensor.insert_slice %70 into %inserted_slice_331[0, 192, 0, 0] [1, 48, 4, 4] [1, 1, 1, 1] : tensor<1x48x4x4xf32> into tensor<1x576x4x4xf32>
    %inserted_slice_333 = tensor.insert_slice %77 into %inserted_slice_332[0, 240, 0, 0] [1, 48, 4, 4] [1, 1, 1, 1] : tensor<1x48x4x4xf32> into tensor<1x576x4x4xf32>
    %inserted_slice_334 = tensor.insert_slice %84 into %inserted_slice_333[0, 288, 0, 0] [1, 48, 4, 4] [1, 1, 1, 1] : tensor<1x48x4x4xf32> into tensor<1x576x4x4xf32>
    %inserted_slice_335 = tensor.insert_slice %91 into %inserted_slice_334[0, 336, 0, 0] [1, 48, 4, 4] [1, 1, 1, 1] : tensor<1x48x4x4xf32> into tensor<1x576x4x4xf32>
    %inserted_slice_336 = tensor.insert_slice %98 into %inserted_slice_335[0, 384, 0, 0] [1, 48, 4, 4] [1, 1, 1, 1] : tensor<1x48x4x4xf32> into tensor<1x576x4x4xf32>
    %inserted_slice_337 = tensor.insert_slice %105 into %inserted_slice_336[0, 432, 0, 0] [1, 48, 4, 4] [1, 1, 1, 1] : tensor<1x48x4x4xf32> into tensor<1x576x4x4xf32>
    %inserted_slice_338 = tensor.insert_slice %112 into %inserted_slice_337[0, 480, 0, 0] [1, 48, 4, 4] [1, 1, 1, 1] : tensor<1x48x4x4xf32> into tensor<1x576x4x4xf32>
    %inserted_slice_339 = tensor.insert_slice %119 into %inserted_slice_338[0, 528, 0, 0] [1, 48, 4, 4] [1, 1, 1, 1] : tensor<1x48x4x4xf32> into tensor<1x576x4x4xf32>
    cf.assert %3, "training is not supported for now"
    %121 = linalg.generic {indexing_maps = [#map, #map1, #map1, #map1, #map1, #map], iterator_types = ["parallel", "parallel", "parallel", "parallel"]} ins(%inserted_slice_339, %cst_200, %cst_199, %cst_199, %cst_200 : tensor<1x576x4x4xf32>, tensor<576xf32>, tensor<576xf32>, tensor<576xf32>, tensor<576xf32>) outs(%inserted_slice_339 : tensor<1x576x4x4xf32>) {
    ^bb0(%in: f32, %in_1476: f32, %in_1477: f32, %in_1478: f32, %in_1479: f32, %out: f32):
      %604 = arith.truncf %cst_253 : f64 to f32
      %605 = arith.addf %in_1479, %604 : f32
      %606 = math.rsqrt %605 : f32
      %607 = arith.subf %in, %in_1478 : f32
      %608 = arith.mulf %607, %606 : f32
      %609 = arith.mulf %608, %in_1476 : f32
      %610 = arith.addf %609, %in_1477 : f32
      linalg.yield %610 : f32
    } -> tensor<1x576x4x4xf32>
    %122 = linalg.generic {indexing_maps = [#map2, #map], iterator_types = ["parallel", "parallel", "parallel", "parallel"]} ins(%121 : tensor<1x576x4x4xf32>) outs(%120 : tensor<1x576x4x4xf32>) {
    ^bb0(%in: f32, %out: f32):
      %604 = arith.cmpf ugt, %in, %cst_251 : f32
      %605 = arith.select %604, %in, %cst_251 : f32
      linalg.yield %605 : f32
    } -> tensor<1x576x4x4xf32>
    %123 = linalg.conv_2d_nchw_fchw {dilations = dense<1> : vector<2xi64>, strides = dense<1> : vector<2xi64>} ins(%122, %cst_198 : tensor<1x576x4x4xf32>, tensor<192x576x1x1xf32>) outs(%59 : tensor<1x192x4x4xf32>) -> tensor<1x192x4x4xf32>
    cf.assert %3, "training is not supported for now"
    %124 = linalg.generic {indexing_maps = [#map, #map1, #map1, #map1, #map1, #map], iterator_types = ["parallel", "parallel", "parallel", "parallel"]} ins(%123, %cst_246, %cst_245, %cst_245, %cst_246 : tensor<1x192x4x4xf32>, tensor<192xf32>, tensor<192xf32>, tensor<192xf32>, tensor<192xf32>) outs(%123 : tensor<1x192x4x4xf32>) {
    ^bb0(%in: f32, %in_1476: f32, %in_1477: f32, %in_1478: f32, %in_1479: f32, %out: f32):
      %604 = arith.truncf %cst_253 : f64 to f32
      %605 = arith.addf %in_1479, %604 : f32
      %606 = math.rsqrt %605 : f32
      %607 = arith.subf %in, %in_1478 : f32
      %608 = arith.mulf %607, %606 : f32
      %609 = arith.mulf %608, %in_1476 : f32
      %610 = arith.addf %609, %in_1477 : f32
      linalg.yield %610 : f32
    } -> tensor<1x192x4x4xf32>
    %125 = linalg.generic {indexing_maps = [#map2, #map], iterator_types = ["parallel", "parallel", "parallel", "parallel"]} ins(%124 : tensor<1x192x4x4xf32>) outs(%58 : tensor<1x192x4x4xf32>) {
    ^bb0(%in: f32, %out: f32):
      %604 = arith.cmpf ugt, %in, %cst_251 : f32
      %605 = arith.select %604, %in, %cst_251 : f32
      linalg.yield %605 : f32
    } -> tensor<1x192x4x4xf32>
    %padded_340 = tensor.pad %125 low[0, 0, 1, 1] high[0, 0, 1, 1] {
    ^bb0(%arg1: index, %arg2: index, %arg3: index, %arg4: index):
      tensor.yield %cst_251 : f32
    } : tensor<1x192x4x4xf32> to tensor<1x192x6x6xf32>
    %126 = linalg.conv_2d_nchw_fchw {dilations = dense<1> : vector<2xi64>, strides = dense<1> : vector<2xi64>} ins(%padded_340, %cst_197 : tensor<1x192x6x6xf32>, tensor<48x192x3x3xf32>) outs(%69 : tensor<1x48x4x4xf32>) -> tensor<1x48x4x4xf32>
    %127 = tensor.empty() : tensor<1x624x4x4xf32>
    %inserted_slice_341 = tensor.insert_slice %62 into %127[0, 0, 0, 0] [1, 192, 4, 4] [1, 1, 1, 1] : tensor<1x192x4x4xf32> into tensor<1x624x4x4xf32>
    %inserted_slice_342 = tensor.insert_slice %70 into %inserted_slice_341[0, 192, 0, 0] [1, 48, 4, 4] [1, 1, 1, 1] : tensor<1x48x4x4xf32> into tensor<1x624x4x4xf32>
    %inserted_slice_343 = tensor.insert_slice %77 into %inserted_slice_342[0, 240, 0, 0] [1, 48, 4, 4] [1, 1, 1, 1] : tensor<1x48x4x4xf32> into tensor<1x624x4x4xf32>
    %inserted_slice_344 = tensor.insert_slice %84 into %inserted_slice_343[0, 288, 0, 0] [1, 48, 4, 4] [1, 1, 1, 1] : tensor<1x48x4x4xf32> into tensor<1x624x4x4xf32>
    %inserted_slice_345 = tensor.insert_slice %91 into %inserted_slice_344[0, 336, 0, 0] [1, 48, 4, 4] [1, 1, 1, 1] : tensor<1x48x4x4xf32> into tensor<1x624x4x4xf32>
    %inserted_slice_346 = tensor.insert_slice %98 into %inserted_slice_345[0, 384, 0, 0] [1, 48, 4, 4] [1, 1, 1, 1] : tensor<1x48x4x4xf32> into tensor<1x624x4x4xf32>
    %inserted_slice_347 = tensor.insert_slice %105 into %inserted_slice_346[0, 432, 0, 0] [1, 48, 4, 4] [1, 1, 1, 1] : tensor<1x48x4x4xf32> into tensor<1x624x4x4xf32>
    %inserted_slice_348 = tensor.insert_slice %112 into %inserted_slice_347[0, 480, 0, 0] [1, 48, 4, 4] [1, 1, 1, 1] : tensor<1x48x4x4xf32> into tensor<1x624x4x4xf32>
    %inserted_slice_349 = tensor.insert_slice %119 into %inserted_slice_348[0, 528, 0, 0] [1, 48, 4, 4] [1, 1, 1, 1] : tensor<1x48x4x4xf32> into tensor<1x624x4x4xf32>
    %inserted_slice_350 = tensor.insert_slice %126 into %inserted_slice_349[0, 576, 0, 0] [1, 48, 4, 4] [1, 1, 1, 1] : tensor<1x48x4x4xf32> into tensor<1x624x4x4xf32>
    cf.assert %3, "training is not supported for now"
    %128 = linalg.generic {indexing_maps = [#map, #map1, #map1, #map1, #map1, #map], iterator_types = ["parallel", "parallel", "parallel", "parallel"]} ins(%inserted_slice_350, %cst_196, %cst_195, %cst_195, %cst_196 : tensor<1x624x4x4xf32>, tensor<624xf32>, tensor<624xf32>, tensor<624xf32>, tensor<624xf32>) outs(%inserted_slice_350 : tensor<1x624x4x4xf32>) {
    ^bb0(%in: f32, %in_1476: f32, %in_1477: f32, %in_1478: f32, %in_1479: f32, %out: f32):
      %604 = arith.truncf %cst_253 : f64 to f32
      %605 = arith.addf %in_1479, %604 : f32
      %606 = math.rsqrt %605 : f32
      %607 = arith.subf %in, %in_1478 : f32
      %608 = arith.mulf %607, %606 : f32
      %609 = arith.mulf %608, %in_1476 : f32
      %610 = arith.addf %609, %in_1477 : f32
      linalg.yield %610 : f32
    } -> tensor<1x624x4x4xf32>
    %129 = linalg.generic {indexing_maps = [#map2, #map], iterator_types = ["parallel", "parallel", "parallel", "parallel"]} ins(%128 : tensor<1x624x4x4xf32>) outs(%127 : tensor<1x624x4x4xf32>) {
    ^bb0(%in: f32, %out: f32):
      %604 = arith.cmpf ugt, %in, %cst_251 : f32
      %605 = arith.select %604, %in, %cst_251 : f32
      linalg.yield %605 : f32
    } -> tensor<1x624x4x4xf32>
    %130 = linalg.conv_2d_nchw_fchw {dilations = dense<1> : vector<2xi64>, strides = dense<1> : vector<2xi64>} ins(%129, %cst_194 : tensor<1x624x4x4xf32>, tensor<192x624x1x1xf32>) outs(%59 : tensor<1x192x4x4xf32>) -> tensor<1x192x4x4xf32>
    cf.assert %3, "training is not supported for now"
    %131 = linalg.generic {indexing_maps = [#map, #map1, #map1, #map1, #map1, #map], iterator_types = ["parallel", "parallel", "parallel", "parallel"]} ins(%130, %cst_246, %cst_245, %cst_245, %cst_246 : tensor<1x192x4x4xf32>, tensor<192xf32>, tensor<192xf32>, tensor<192xf32>, tensor<192xf32>) outs(%130 : tensor<1x192x4x4xf32>) {
    ^bb0(%in: f32, %in_1476: f32, %in_1477: f32, %in_1478: f32, %in_1479: f32, %out: f32):
      %604 = arith.truncf %cst_253 : f64 to f32
      %605 = arith.addf %in_1479, %604 : f32
      %606 = math.rsqrt %605 : f32
      %607 = arith.subf %in, %in_1478 : f32
      %608 = arith.mulf %607, %606 : f32
      %609 = arith.mulf %608, %in_1476 : f32
      %610 = arith.addf %609, %in_1477 : f32
      linalg.yield %610 : f32
    } -> tensor<1x192x4x4xf32>
    %132 = linalg.generic {indexing_maps = [#map2, #map], iterator_types = ["parallel", "parallel", "parallel", "parallel"]} ins(%131 : tensor<1x192x4x4xf32>) outs(%58 : tensor<1x192x4x4xf32>) {
    ^bb0(%in: f32, %out: f32):
      %604 = arith.cmpf ugt, %in, %cst_251 : f32
      %605 = arith.select %604, %in, %cst_251 : f32
      linalg.yield %605 : f32
    } -> tensor<1x192x4x4xf32>
    %padded_351 = tensor.pad %132 low[0, 0, 1, 1] high[0, 0, 1, 1] {
    ^bb0(%arg1: index, %arg2: index, %arg3: index, %arg4: index):
      tensor.yield %cst_251 : f32
    } : tensor<1x192x4x4xf32> to tensor<1x192x6x6xf32>
    %133 = linalg.conv_2d_nchw_fchw {dilations = dense<1> : vector<2xi64>, strides = dense<1> : vector<2xi64>} ins(%padded_351, %cst_193 : tensor<1x192x6x6xf32>, tensor<48x192x3x3xf32>) outs(%69 : tensor<1x48x4x4xf32>) -> tensor<1x48x4x4xf32>
    %134 = tensor.empty() : tensor<1x672x4x4xf32>
    %inserted_slice_352 = tensor.insert_slice %62 into %134[0, 0, 0, 0] [1, 192, 4, 4] [1, 1, 1, 1] : tensor<1x192x4x4xf32> into tensor<1x672x4x4xf32>
    %inserted_slice_353 = tensor.insert_slice %70 into %inserted_slice_352[0, 192, 0, 0] [1, 48, 4, 4] [1, 1, 1, 1] : tensor<1x48x4x4xf32> into tensor<1x672x4x4xf32>
    %inserted_slice_354 = tensor.insert_slice %77 into %inserted_slice_353[0, 240, 0, 0] [1, 48, 4, 4] [1, 1, 1, 1] : tensor<1x48x4x4xf32> into tensor<1x672x4x4xf32>
    %inserted_slice_355 = tensor.insert_slice %84 into %inserted_slice_354[0, 288, 0, 0] [1, 48, 4, 4] [1, 1, 1, 1] : tensor<1x48x4x4xf32> into tensor<1x672x4x4xf32>
    %inserted_slice_356 = tensor.insert_slice %91 into %inserted_slice_355[0, 336, 0, 0] [1, 48, 4, 4] [1, 1, 1, 1] : tensor<1x48x4x4xf32> into tensor<1x672x4x4xf32>
    %inserted_slice_357 = tensor.insert_slice %98 into %inserted_slice_356[0, 384, 0, 0] [1, 48, 4, 4] [1, 1, 1, 1] : tensor<1x48x4x4xf32> into tensor<1x672x4x4xf32>
    %inserted_slice_358 = tensor.insert_slice %105 into %inserted_slice_357[0, 432, 0, 0] [1, 48, 4, 4] [1, 1, 1, 1] : tensor<1x48x4x4xf32> into tensor<1x672x4x4xf32>
    %inserted_slice_359 = tensor.insert_slice %112 into %inserted_slice_358[0, 480, 0, 0] [1, 48, 4, 4] [1, 1, 1, 1] : tensor<1x48x4x4xf32> into tensor<1x672x4x4xf32>
    %inserted_slice_360 = tensor.insert_slice %119 into %inserted_slice_359[0, 528, 0, 0] [1, 48, 4, 4] [1, 1, 1, 1] : tensor<1x48x4x4xf32> into tensor<1x672x4x4xf32>
    %inserted_slice_361 = tensor.insert_slice %126 into %inserted_slice_360[0, 576, 0, 0] [1, 48, 4, 4] [1, 1, 1, 1] : tensor<1x48x4x4xf32> into tensor<1x672x4x4xf32>
    %inserted_slice_362 = tensor.insert_slice %133 into %inserted_slice_361[0, 624, 0, 0] [1, 48, 4, 4] [1, 1, 1, 1] : tensor<1x48x4x4xf32> into tensor<1x672x4x4xf32>
    cf.assert %3, "training is not supported for now"
    %135 = linalg.generic {indexing_maps = [#map, #map1, #map1, #map1, #map1, #map], iterator_types = ["parallel", "parallel", "parallel", "parallel"]} ins(%inserted_slice_362, %cst_192, %cst_191, %cst_191, %cst_192 : tensor<1x672x4x4xf32>, tensor<672xf32>, tensor<672xf32>, tensor<672xf32>, tensor<672xf32>) outs(%inserted_slice_362 : tensor<1x672x4x4xf32>) {
    ^bb0(%in: f32, %in_1476: f32, %in_1477: f32, %in_1478: f32, %in_1479: f32, %out: f32):
      %604 = arith.truncf %cst_253 : f64 to f32
      %605 = arith.addf %in_1479, %604 : f32
      %606 = math.rsqrt %605 : f32
      %607 = arith.subf %in, %in_1478 : f32
      %608 = arith.mulf %607, %606 : f32
      %609 = arith.mulf %608, %in_1476 : f32
      %610 = arith.addf %609, %in_1477 : f32
      linalg.yield %610 : f32
    } -> tensor<1x672x4x4xf32>
    %136 = linalg.generic {indexing_maps = [#map2, #map], iterator_types = ["parallel", "parallel", "parallel", "parallel"]} ins(%135 : tensor<1x672x4x4xf32>) outs(%134 : tensor<1x672x4x4xf32>) {
    ^bb0(%in: f32, %out: f32):
      %604 = arith.cmpf ugt, %in, %cst_251 : f32
      %605 = arith.select %604, %in, %cst_251 : f32
      linalg.yield %605 : f32
    } -> tensor<1x672x4x4xf32>
    %137 = linalg.conv_2d_nchw_fchw {dilations = dense<1> : vector<2xi64>, strides = dense<1> : vector<2xi64>} ins(%136, %cst_190 : tensor<1x672x4x4xf32>, tensor<192x672x1x1xf32>) outs(%59 : tensor<1x192x4x4xf32>) -> tensor<1x192x4x4xf32>
    cf.assert %3, "training is not supported for now"
    %138 = linalg.generic {indexing_maps = [#map, #map1, #map1, #map1, #map1, #map], iterator_types = ["parallel", "parallel", "parallel", "parallel"]} ins(%137, %cst_246, %cst_245, %cst_245, %cst_246 : tensor<1x192x4x4xf32>, tensor<192xf32>, tensor<192xf32>, tensor<192xf32>, tensor<192xf32>) outs(%137 : tensor<1x192x4x4xf32>) {
    ^bb0(%in: f32, %in_1476: f32, %in_1477: f32, %in_1478: f32, %in_1479: f32, %out: f32):
      %604 = arith.truncf %cst_253 : f64 to f32
      %605 = arith.addf %in_1479, %604 : f32
      %606 = math.rsqrt %605 : f32
      %607 = arith.subf %in, %in_1478 : f32
      %608 = arith.mulf %607, %606 : f32
      %609 = arith.mulf %608, %in_1476 : f32
      %610 = arith.addf %609, %in_1477 : f32
      linalg.yield %610 : f32
    } -> tensor<1x192x4x4xf32>
    %139 = linalg.generic {indexing_maps = [#map2, #map], iterator_types = ["parallel", "parallel", "parallel", "parallel"]} ins(%138 : tensor<1x192x4x4xf32>) outs(%58 : tensor<1x192x4x4xf32>) {
    ^bb0(%in: f32, %out: f32):
      %604 = arith.cmpf ugt, %in, %cst_251 : f32
      %605 = arith.select %604, %in, %cst_251 : f32
      linalg.yield %605 : f32
    } -> tensor<1x192x4x4xf32>
    %padded_363 = tensor.pad %139 low[0, 0, 1, 1] high[0, 0, 1, 1] {
    ^bb0(%arg1: index, %arg2: index, %arg3: index, %arg4: index):
      tensor.yield %cst_251 : f32
    } : tensor<1x192x4x4xf32> to tensor<1x192x6x6xf32>
    %140 = linalg.conv_2d_nchw_fchw {dilations = dense<1> : vector<2xi64>, strides = dense<1> : vector<2xi64>} ins(%padded_363, %cst_189 : tensor<1x192x6x6xf32>, tensor<48x192x3x3xf32>) outs(%69 : tensor<1x48x4x4xf32>) -> tensor<1x48x4x4xf32>
    %141 = tensor.empty() : tensor<1x720x4x4xf32>
    %inserted_slice_364 = tensor.insert_slice %62 into %141[0, 0, 0, 0] [1, 192, 4, 4] [1, 1, 1, 1] : tensor<1x192x4x4xf32> into tensor<1x720x4x4xf32>
    %inserted_slice_365 = tensor.insert_slice %70 into %inserted_slice_364[0, 192, 0, 0] [1, 48, 4, 4] [1, 1, 1, 1] : tensor<1x48x4x4xf32> into tensor<1x720x4x4xf32>
    %inserted_slice_366 = tensor.insert_slice %77 into %inserted_slice_365[0, 240, 0, 0] [1, 48, 4, 4] [1, 1, 1, 1] : tensor<1x48x4x4xf32> into tensor<1x720x4x4xf32>
    %inserted_slice_367 = tensor.insert_slice %84 into %inserted_slice_366[0, 288, 0, 0] [1, 48, 4, 4] [1, 1, 1, 1] : tensor<1x48x4x4xf32> into tensor<1x720x4x4xf32>
    %inserted_slice_368 = tensor.insert_slice %91 into %inserted_slice_367[0, 336, 0, 0] [1, 48, 4, 4] [1, 1, 1, 1] : tensor<1x48x4x4xf32> into tensor<1x720x4x4xf32>
    %inserted_slice_369 = tensor.insert_slice %98 into %inserted_slice_368[0, 384, 0, 0] [1, 48, 4, 4] [1, 1, 1, 1] : tensor<1x48x4x4xf32> into tensor<1x720x4x4xf32>
    %inserted_slice_370 = tensor.insert_slice %105 into %inserted_slice_369[0, 432, 0, 0] [1, 48, 4, 4] [1, 1, 1, 1] : tensor<1x48x4x4xf32> into tensor<1x720x4x4xf32>
    %inserted_slice_371 = tensor.insert_slice %112 into %inserted_slice_370[0, 480, 0, 0] [1, 48, 4, 4] [1, 1, 1, 1] : tensor<1x48x4x4xf32> into tensor<1x720x4x4xf32>
    %inserted_slice_372 = tensor.insert_slice %119 into %inserted_slice_371[0, 528, 0, 0] [1, 48, 4, 4] [1, 1, 1, 1] : tensor<1x48x4x4xf32> into tensor<1x720x4x4xf32>
    %inserted_slice_373 = tensor.insert_slice %126 into %inserted_slice_372[0, 576, 0, 0] [1, 48, 4, 4] [1, 1, 1, 1] : tensor<1x48x4x4xf32> into tensor<1x720x4x4xf32>
    %inserted_slice_374 = tensor.insert_slice %133 into %inserted_slice_373[0, 624, 0, 0] [1, 48, 4, 4] [1, 1, 1, 1] : tensor<1x48x4x4xf32> into tensor<1x720x4x4xf32>
    %inserted_slice_375 = tensor.insert_slice %140 into %inserted_slice_374[0, 672, 0, 0] [1, 48, 4, 4] [1, 1, 1, 1] : tensor<1x48x4x4xf32> into tensor<1x720x4x4xf32>
    cf.assert %3, "training is not supported for now"
    %142 = linalg.generic {indexing_maps = [#map, #map1, #map1, #map1, #map1, #map], iterator_types = ["parallel", "parallel", "parallel", "parallel"]} ins(%inserted_slice_375, %cst_188, %cst_187, %cst_187, %cst_188 : tensor<1x720x4x4xf32>, tensor<720xf32>, tensor<720xf32>, tensor<720xf32>, tensor<720xf32>) outs(%inserted_slice_375 : tensor<1x720x4x4xf32>) {
    ^bb0(%in: f32, %in_1476: f32, %in_1477: f32, %in_1478: f32, %in_1479: f32, %out: f32):
      %604 = arith.truncf %cst_253 : f64 to f32
      %605 = arith.addf %in_1479, %604 : f32
      %606 = math.rsqrt %605 : f32
      %607 = arith.subf %in, %in_1478 : f32
      %608 = arith.mulf %607, %606 : f32
      %609 = arith.mulf %608, %in_1476 : f32
      %610 = arith.addf %609, %in_1477 : f32
      linalg.yield %610 : f32
    } -> tensor<1x720x4x4xf32>
    %143 = linalg.generic {indexing_maps = [#map2, #map], iterator_types = ["parallel", "parallel", "parallel", "parallel"]} ins(%142 : tensor<1x720x4x4xf32>) outs(%141 : tensor<1x720x4x4xf32>) {
    ^bb0(%in: f32, %out: f32):
      %604 = arith.cmpf ugt, %in, %cst_251 : f32
      %605 = arith.select %604, %in, %cst_251 : f32
      linalg.yield %605 : f32
    } -> tensor<1x720x4x4xf32>
    %144 = linalg.conv_2d_nchw_fchw {dilations = dense<1> : vector<2xi64>, strides = dense<1> : vector<2xi64>} ins(%143, %cst_186 : tensor<1x720x4x4xf32>, tensor<192x720x1x1xf32>) outs(%59 : tensor<1x192x4x4xf32>) -> tensor<1x192x4x4xf32>
    cf.assert %3, "training is not supported for now"
    %145 = linalg.generic {indexing_maps = [#map, #map1, #map1, #map1, #map1, #map], iterator_types = ["parallel", "parallel", "parallel", "parallel"]} ins(%144, %cst_246, %cst_245, %cst_245, %cst_246 : tensor<1x192x4x4xf32>, tensor<192xf32>, tensor<192xf32>, tensor<192xf32>, tensor<192xf32>) outs(%144 : tensor<1x192x4x4xf32>) {
    ^bb0(%in: f32, %in_1476: f32, %in_1477: f32, %in_1478: f32, %in_1479: f32, %out: f32):
      %604 = arith.truncf %cst_253 : f64 to f32
      %605 = arith.addf %in_1479, %604 : f32
      %606 = math.rsqrt %605 : f32
      %607 = arith.subf %in, %in_1478 : f32
      %608 = arith.mulf %607, %606 : f32
      %609 = arith.mulf %608, %in_1476 : f32
      %610 = arith.addf %609, %in_1477 : f32
      linalg.yield %610 : f32
    } -> tensor<1x192x4x4xf32>
    %146 = linalg.generic {indexing_maps = [#map2, #map], iterator_types = ["parallel", "parallel", "parallel", "parallel"]} ins(%145 : tensor<1x192x4x4xf32>) outs(%58 : tensor<1x192x4x4xf32>) {
    ^bb0(%in: f32, %out: f32):
      %604 = arith.cmpf ugt, %in, %cst_251 : f32
      %605 = arith.select %604, %in, %cst_251 : f32
      linalg.yield %605 : f32
    } -> tensor<1x192x4x4xf32>
    %padded_376 = tensor.pad %146 low[0, 0, 1, 1] high[0, 0, 1, 1] {
    ^bb0(%arg1: index, %arg2: index, %arg3: index, %arg4: index):
      tensor.yield %cst_251 : f32
    } : tensor<1x192x4x4xf32> to tensor<1x192x6x6xf32>
    %147 = linalg.conv_2d_nchw_fchw {dilations = dense<1> : vector<2xi64>, strides = dense<1> : vector<2xi64>} ins(%padded_376, %cst_185 : tensor<1x192x6x6xf32>, tensor<48x192x3x3xf32>) outs(%69 : tensor<1x48x4x4xf32>) -> tensor<1x48x4x4xf32>
    %148 = tensor.empty() : tensor<1x768x4x4xf32>
    %inserted_slice_377 = tensor.insert_slice %62 into %148[0, 0, 0, 0] [1, 192, 4, 4] [1, 1, 1, 1] : tensor<1x192x4x4xf32> into tensor<1x768x4x4xf32>
    %inserted_slice_378 = tensor.insert_slice %70 into %inserted_slice_377[0, 192, 0, 0] [1, 48, 4, 4] [1, 1, 1, 1] : tensor<1x48x4x4xf32> into tensor<1x768x4x4xf32>
    %inserted_slice_379 = tensor.insert_slice %77 into %inserted_slice_378[0, 240, 0, 0] [1, 48, 4, 4] [1, 1, 1, 1] : tensor<1x48x4x4xf32> into tensor<1x768x4x4xf32>
    %inserted_slice_380 = tensor.insert_slice %84 into %inserted_slice_379[0, 288, 0, 0] [1, 48, 4, 4] [1, 1, 1, 1] : tensor<1x48x4x4xf32> into tensor<1x768x4x4xf32>
    %inserted_slice_381 = tensor.insert_slice %91 into %inserted_slice_380[0, 336, 0, 0] [1, 48, 4, 4] [1, 1, 1, 1] : tensor<1x48x4x4xf32> into tensor<1x768x4x4xf32>
    %inserted_slice_382 = tensor.insert_slice %98 into %inserted_slice_381[0, 384, 0, 0] [1, 48, 4, 4] [1, 1, 1, 1] : tensor<1x48x4x4xf32> into tensor<1x768x4x4xf32>
    %inserted_slice_383 = tensor.insert_slice %105 into %inserted_slice_382[0, 432, 0, 0] [1, 48, 4, 4] [1, 1, 1, 1] : tensor<1x48x4x4xf32> into tensor<1x768x4x4xf32>
    %inserted_slice_384 = tensor.insert_slice %112 into %inserted_slice_383[0, 480, 0, 0] [1, 48, 4, 4] [1, 1, 1, 1] : tensor<1x48x4x4xf32> into tensor<1x768x4x4xf32>
    %inserted_slice_385 = tensor.insert_slice %119 into %inserted_slice_384[0, 528, 0, 0] [1, 48, 4, 4] [1, 1, 1, 1] : tensor<1x48x4x4xf32> into tensor<1x768x4x4xf32>
    %inserted_slice_386 = tensor.insert_slice %126 into %inserted_slice_385[0, 576, 0, 0] [1, 48, 4, 4] [1, 1, 1, 1] : tensor<1x48x4x4xf32> into tensor<1x768x4x4xf32>
    %inserted_slice_387 = tensor.insert_slice %133 into %inserted_slice_386[0, 624, 0, 0] [1, 48, 4, 4] [1, 1, 1, 1] : tensor<1x48x4x4xf32> into tensor<1x768x4x4xf32>
    %inserted_slice_388 = tensor.insert_slice %140 into %inserted_slice_387[0, 672, 0, 0] [1, 48, 4, 4] [1, 1, 1, 1] : tensor<1x48x4x4xf32> into tensor<1x768x4x4xf32>
    %inserted_slice_389 = tensor.insert_slice %147 into %inserted_slice_388[0, 720, 0, 0] [1, 48, 4, 4] [1, 1, 1, 1] : tensor<1x48x4x4xf32> into tensor<1x768x4x4xf32>
    cf.assert %3, "training is not supported for now"
    %149 = linalg.generic {indexing_maps = [#map, #map1, #map1, #map1, #map1, #map], iterator_types = ["parallel", "parallel", "parallel", "parallel"]} ins(%inserted_slice_389, %cst_184, %cst_183, %cst_183, %cst_184 : tensor<1x768x4x4xf32>, tensor<768xf32>, tensor<768xf32>, tensor<768xf32>, tensor<768xf32>) outs(%inserted_slice_389 : tensor<1x768x4x4xf32>) {
    ^bb0(%in: f32, %in_1476: f32, %in_1477: f32, %in_1478: f32, %in_1479: f32, %out: f32):
      %604 = arith.truncf %cst_253 : f64 to f32
      %605 = arith.addf %in_1479, %604 : f32
      %606 = math.rsqrt %605 : f32
      %607 = arith.subf %in, %in_1478 : f32
      %608 = arith.mulf %607, %606 : f32
      %609 = arith.mulf %608, %in_1476 : f32
      %610 = arith.addf %609, %in_1477 : f32
      linalg.yield %610 : f32
    } -> tensor<1x768x4x4xf32>
    %150 = linalg.generic {indexing_maps = [#map2, #map], iterator_types = ["parallel", "parallel", "parallel", "parallel"]} ins(%149 : tensor<1x768x4x4xf32>) outs(%148 : tensor<1x768x4x4xf32>) {
    ^bb0(%in: f32, %out: f32):
      %604 = arith.cmpf ugt, %in, %cst_251 : f32
      %605 = arith.select %604, %in, %cst_251 : f32
      linalg.yield %605 : f32
    } -> tensor<1x768x4x4xf32>
    %151 = linalg.fill ins(%cst_251 : f32) outs(%92 : tensor<1x384x4x4xf32>) -> tensor<1x384x4x4xf32>
    %152 = linalg.conv_2d_nchw_fchw {dilations = dense<1> : vector<2xi64>, strides = dense<1> : vector<2xi64>} ins(%150, %cst_182 : tensor<1x768x4x4xf32>, tensor<384x768x1x1xf32>) outs(%151 : tensor<1x384x4x4xf32>) -> tensor<1x384x4x4xf32>
    %153 = tensor.empty() : tensor<1x384x2x2xf32>
    %154 = linalg.fill ins(%cst_251 : f32) outs(%153 : tensor<1x384x2x2xf32>) -> tensor<1x384x2x2xf32>
    %155 = linalg.pooling_nchw_sum {dilations = dense<1> : vector<2xi64>, strides = dense<2> : vector<2xi64>} ins(%152, %60 : tensor<1x384x4x4xf32>, tensor<2x2xf32>) outs(%154 : tensor<1x384x2x2xf32>) -> tensor<1x384x2x2xf32>
    %156 = linalg.generic {indexing_maps = [#map, #map], iterator_types = ["parallel", "parallel", "parallel", "parallel"]} ins(%155 : tensor<1x384x2x2xf32>) outs(%153 : tensor<1x384x2x2xf32>) {
    ^bb0(%in: f32, %out: f32):
      %604 = arith.divf %in, %cst_254 : f32
      linalg.yield %604 : f32
    } -> tensor<1x384x2x2xf32>
    cf.assert %3, "training is not supported for now"
    %157 = linalg.generic {indexing_maps = [#map, #map1, #map1, #map1, #map1, #map], iterator_types = ["parallel", "parallel", "parallel", "parallel"]} ins(%156, %cst_225, %cst_224, %cst_224, %cst_225 : tensor<1x384x2x2xf32>, tensor<384xf32>, tensor<384xf32>, tensor<384xf32>, tensor<384xf32>) outs(%156 : tensor<1x384x2x2xf32>) {
    ^bb0(%in: f32, %in_1476: f32, %in_1477: f32, %in_1478: f32, %in_1479: f32, %out: f32):
      %604 = arith.truncf %cst_253 : f64 to f32
      %605 = arith.addf %in_1479, %604 : f32
      %606 = math.rsqrt %605 : f32
      %607 = arith.subf %in, %in_1478 : f32
      %608 = arith.mulf %607, %606 : f32
      %609 = arith.mulf %608, %in_1476 : f32
      %610 = arith.addf %609, %in_1477 : f32
      linalg.yield %610 : f32
    } -> tensor<1x384x2x2xf32>
    %158 = linalg.generic {indexing_maps = [#map2, #map], iterator_types = ["parallel", "parallel", "parallel", "parallel"]} ins(%157 : tensor<1x384x2x2xf32>) outs(%153 : tensor<1x384x2x2xf32>) {
    ^bb0(%in: f32, %out: f32):
      %604 = arith.cmpf ugt, %in, %cst_251 : f32
      %605 = arith.select %604, %in, %cst_251 : f32
      linalg.yield %605 : f32
    } -> tensor<1x384x2x2xf32>
    %159 = tensor.empty() : tensor<1x192x2x2xf32>
    %160 = linalg.fill ins(%cst_251 : f32) outs(%159 : tensor<1x192x2x2xf32>) -> tensor<1x192x2x2xf32>
    %161 = linalg.conv_2d_nchw_fchw {dilations = dense<1> : vector<2xi64>, strides = dense<1> : vector<2xi64>} ins(%158, %cst_181 : tensor<1x384x2x2xf32>, tensor<192x384x1x1xf32>) outs(%160 : tensor<1x192x2x2xf32>) -> tensor<1x192x2x2xf32>
    cf.assert %3, "training is not supported for now"
    %162 = linalg.generic {indexing_maps = [#map, #map1, #map1, #map1, #map1, #map], iterator_types = ["parallel", "parallel", "parallel", "parallel"]} ins(%161, %cst_246, %cst_245, %cst_245, %cst_246 : tensor<1x192x2x2xf32>, tensor<192xf32>, tensor<192xf32>, tensor<192xf32>, tensor<192xf32>) outs(%161 : tensor<1x192x2x2xf32>) {
    ^bb0(%in: f32, %in_1476: f32, %in_1477: f32, %in_1478: f32, %in_1479: f32, %out: f32):
      %604 = arith.truncf %cst_253 : f64 to f32
      %605 = arith.addf %in_1479, %604 : f32
      %606 = math.rsqrt %605 : f32
      %607 = arith.subf %in, %in_1478 : f32
      %608 = arith.mulf %607, %606 : f32
      %609 = arith.mulf %608, %in_1476 : f32
      %610 = arith.addf %609, %in_1477 : f32
      linalg.yield %610 : f32
    } -> tensor<1x192x2x2xf32>
    %163 = linalg.generic {indexing_maps = [#map2, #map], iterator_types = ["parallel", "parallel", "parallel", "parallel"]} ins(%162 : tensor<1x192x2x2xf32>) outs(%159 : tensor<1x192x2x2xf32>) {
    ^bb0(%in: f32, %out: f32):
      %604 = arith.cmpf ugt, %in, %cst_251 : f32
      %605 = arith.select %604, %in, %cst_251 : f32
      linalg.yield %605 : f32
    } -> tensor<1x192x2x2xf32>
    %padded_390 = tensor.pad %163 low[0, 0, 1, 1] high[0, 0, 1, 1] {
    ^bb0(%arg1: index, %arg2: index, %arg3: index, %arg4: index):
      tensor.yield %cst_251 : f32
    } : tensor<1x192x2x2xf32> to tensor<1x192x4x4xf32>
    %164 = tensor.empty() : tensor<1x48x2x2xf32>
    %165 = linalg.fill ins(%cst_251 : f32) outs(%164 : tensor<1x48x2x2xf32>) -> tensor<1x48x2x2xf32>
    %166 = linalg.conv_2d_nchw_fchw {dilations = dense<1> : vector<2xi64>, strides = dense<1> : vector<2xi64>} ins(%padded_390, %cst_180 : tensor<1x192x4x4xf32>, tensor<48x192x3x3xf32>) outs(%165 : tensor<1x48x2x2xf32>) -> tensor<1x48x2x2xf32>
    %167 = tensor.empty() : tensor<1x432x2x2xf32>
    %inserted_slice_391 = tensor.insert_slice %156 into %167[0, 0, 0, 0] [1, 384, 2, 2] [1, 1, 1, 1] : tensor<1x384x2x2xf32> into tensor<1x432x2x2xf32>
    %inserted_slice_392 = tensor.insert_slice %166 into %inserted_slice_391[0, 384, 0, 0] [1, 48, 2, 2] [1, 1, 1, 1] : tensor<1x48x2x2xf32> into tensor<1x432x2x2xf32>
    cf.assert %3, "training is not supported for now"
    %168 = linalg.generic {indexing_maps = [#map, #map1, #map1, #map1, #map1, #map], iterator_types = ["parallel", "parallel", "parallel", "parallel"]} ins(%inserted_slice_392, %cst_212, %cst_211, %cst_211, %cst_212 : tensor<1x432x2x2xf32>, tensor<432xf32>, tensor<432xf32>, tensor<432xf32>, tensor<432xf32>) outs(%inserted_slice_392 : tensor<1x432x2x2xf32>) {
    ^bb0(%in: f32, %in_1476: f32, %in_1477: f32, %in_1478: f32, %in_1479: f32, %out: f32):
      %604 = arith.truncf %cst_253 : f64 to f32
      %605 = arith.addf %in_1479, %604 : f32
      %606 = math.rsqrt %605 : f32
      %607 = arith.subf %in, %in_1478 : f32
      %608 = arith.mulf %607, %606 : f32
      %609 = arith.mulf %608, %in_1476 : f32
      %610 = arith.addf %609, %in_1477 : f32
      linalg.yield %610 : f32
    } -> tensor<1x432x2x2xf32>
    %169 = linalg.generic {indexing_maps = [#map2, #map], iterator_types = ["parallel", "parallel", "parallel", "parallel"]} ins(%168 : tensor<1x432x2x2xf32>) outs(%167 : tensor<1x432x2x2xf32>) {
    ^bb0(%in: f32, %out: f32):
      %604 = arith.cmpf ugt, %in, %cst_251 : f32
      %605 = arith.select %604, %in, %cst_251 : f32
      linalg.yield %605 : f32
    } -> tensor<1x432x2x2xf32>
    %170 = linalg.conv_2d_nchw_fchw {dilations = dense<1> : vector<2xi64>, strides = dense<1> : vector<2xi64>} ins(%169, %cst_179 : tensor<1x432x2x2xf32>, tensor<192x432x1x1xf32>) outs(%160 : tensor<1x192x2x2xf32>) -> tensor<1x192x2x2xf32>
    cf.assert %3, "training is not supported for now"
    %171 = linalg.generic {indexing_maps = [#map, #map1, #map1, #map1, #map1, #map], iterator_types = ["parallel", "parallel", "parallel", "parallel"]} ins(%170, %cst_246, %cst_245, %cst_245, %cst_246 : tensor<1x192x2x2xf32>, tensor<192xf32>, tensor<192xf32>, tensor<192xf32>, tensor<192xf32>) outs(%170 : tensor<1x192x2x2xf32>) {
    ^bb0(%in: f32, %in_1476: f32, %in_1477: f32, %in_1478: f32, %in_1479: f32, %out: f32):
      %604 = arith.truncf %cst_253 : f64 to f32
      %605 = arith.addf %in_1479, %604 : f32
      %606 = math.rsqrt %605 : f32
      %607 = arith.subf %in, %in_1478 : f32
      %608 = arith.mulf %607, %606 : f32
      %609 = arith.mulf %608, %in_1476 : f32
      %610 = arith.addf %609, %in_1477 : f32
      linalg.yield %610 : f32
    } -> tensor<1x192x2x2xf32>
    %172 = linalg.generic {indexing_maps = [#map2, #map], iterator_types = ["parallel", "parallel", "parallel", "parallel"]} ins(%171 : tensor<1x192x2x2xf32>) outs(%159 : tensor<1x192x2x2xf32>) {
    ^bb0(%in: f32, %out: f32):
      %604 = arith.cmpf ugt, %in, %cst_251 : f32
      %605 = arith.select %604, %in, %cst_251 : f32
      linalg.yield %605 : f32
    } -> tensor<1x192x2x2xf32>
    %padded_393 = tensor.pad %172 low[0, 0, 1, 1] high[0, 0, 1, 1] {
    ^bb0(%arg1: index, %arg2: index, %arg3: index, %arg4: index):
      tensor.yield %cst_251 : f32
    } : tensor<1x192x2x2xf32> to tensor<1x192x4x4xf32>
    %173 = linalg.conv_2d_nchw_fchw {dilations = dense<1> : vector<2xi64>, strides = dense<1> : vector<2xi64>} ins(%padded_393, %cst_178 : tensor<1x192x4x4xf32>, tensor<48x192x3x3xf32>) outs(%165 : tensor<1x48x2x2xf32>) -> tensor<1x48x2x2xf32>
    %174 = tensor.empty() : tensor<1x480x2x2xf32>
    %inserted_slice_394 = tensor.insert_slice %156 into %174[0, 0, 0, 0] [1, 384, 2, 2] [1, 1, 1, 1] : tensor<1x384x2x2xf32> into tensor<1x480x2x2xf32>
    %inserted_slice_395 = tensor.insert_slice %166 into %inserted_slice_394[0, 384, 0, 0] [1, 48, 2, 2] [1, 1, 1, 1] : tensor<1x48x2x2xf32> into tensor<1x480x2x2xf32>
    %inserted_slice_396 = tensor.insert_slice %173 into %inserted_slice_395[0, 432, 0, 0] [1, 48, 2, 2] [1, 1, 1, 1] : tensor<1x48x2x2xf32> into tensor<1x480x2x2xf32>
    cf.assert %3, "training is not supported for now"
    %175 = linalg.generic {indexing_maps = [#map, #map1, #map1, #map1, #map1, #map], iterator_types = ["parallel", "parallel", "parallel", "parallel"]} ins(%inserted_slice_396, %cst_208, %cst_207, %cst_207, %cst_208 : tensor<1x480x2x2xf32>, tensor<480xf32>, tensor<480xf32>, tensor<480xf32>, tensor<480xf32>) outs(%inserted_slice_396 : tensor<1x480x2x2xf32>) {
    ^bb0(%in: f32, %in_1476: f32, %in_1477: f32, %in_1478: f32, %in_1479: f32, %out: f32):
      %604 = arith.truncf %cst_253 : f64 to f32
      %605 = arith.addf %in_1479, %604 : f32
      %606 = math.rsqrt %605 : f32
      %607 = arith.subf %in, %in_1478 : f32
      %608 = arith.mulf %607, %606 : f32
      %609 = arith.mulf %608, %in_1476 : f32
      %610 = arith.addf %609, %in_1477 : f32
      linalg.yield %610 : f32
    } -> tensor<1x480x2x2xf32>
    %176 = linalg.generic {indexing_maps = [#map2, #map], iterator_types = ["parallel", "parallel", "parallel", "parallel"]} ins(%175 : tensor<1x480x2x2xf32>) outs(%174 : tensor<1x480x2x2xf32>) {
    ^bb0(%in: f32, %out: f32):
      %604 = arith.cmpf ugt, %in, %cst_251 : f32
      %605 = arith.select %604, %in, %cst_251 : f32
      linalg.yield %605 : f32
    } -> tensor<1x480x2x2xf32>
    %177 = linalg.conv_2d_nchw_fchw {dilations = dense<1> : vector<2xi64>, strides = dense<1> : vector<2xi64>} ins(%176, %cst_177 : tensor<1x480x2x2xf32>, tensor<192x480x1x1xf32>) outs(%160 : tensor<1x192x2x2xf32>) -> tensor<1x192x2x2xf32>
    cf.assert %3, "training is not supported for now"
    %178 = linalg.generic {indexing_maps = [#map, #map1, #map1, #map1, #map1, #map], iterator_types = ["parallel", "parallel", "parallel", "parallel"]} ins(%177, %cst_246, %cst_245, %cst_245, %cst_246 : tensor<1x192x2x2xf32>, tensor<192xf32>, tensor<192xf32>, tensor<192xf32>, tensor<192xf32>) outs(%177 : tensor<1x192x2x2xf32>) {
    ^bb0(%in: f32, %in_1476: f32, %in_1477: f32, %in_1478: f32, %in_1479: f32, %out: f32):
      %604 = arith.truncf %cst_253 : f64 to f32
      %605 = arith.addf %in_1479, %604 : f32
      %606 = math.rsqrt %605 : f32
      %607 = arith.subf %in, %in_1478 : f32
      %608 = arith.mulf %607, %606 : f32
      %609 = arith.mulf %608, %in_1476 : f32
      %610 = arith.addf %609, %in_1477 : f32
      linalg.yield %610 : f32
    } -> tensor<1x192x2x2xf32>
    %179 = linalg.generic {indexing_maps = [#map2, #map], iterator_types = ["parallel", "parallel", "parallel", "parallel"]} ins(%178 : tensor<1x192x2x2xf32>) outs(%159 : tensor<1x192x2x2xf32>) {
    ^bb0(%in: f32, %out: f32):
      %604 = arith.cmpf ugt, %in, %cst_251 : f32
      %605 = arith.select %604, %in, %cst_251 : f32
      linalg.yield %605 : f32
    } -> tensor<1x192x2x2xf32>
    %padded_397 = tensor.pad %179 low[0, 0, 1, 1] high[0, 0, 1, 1] {
    ^bb0(%arg1: index, %arg2: index, %arg3: index, %arg4: index):
      tensor.yield %cst_251 : f32
    } : tensor<1x192x2x2xf32> to tensor<1x192x4x4xf32>
    %180 = linalg.conv_2d_nchw_fchw {dilations = dense<1> : vector<2xi64>, strides = dense<1> : vector<2xi64>} ins(%padded_397, %cst_176 : tensor<1x192x4x4xf32>, tensor<48x192x3x3xf32>) outs(%165 : tensor<1x48x2x2xf32>) -> tensor<1x48x2x2xf32>
    %181 = tensor.empty() : tensor<1x528x2x2xf32>
    %inserted_slice_398 = tensor.insert_slice %156 into %181[0, 0, 0, 0] [1, 384, 2, 2] [1, 1, 1, 1] : tensor<1x384x2x2xf32> into tensor<1x528x2x2xf32>
    %inserted_slice_399 = tensor.insert_slice %166 into %inserted_slice_398[0, 384, 0, 0] [1, 48, 2, 2] [1, 1, 1, 1] : tensor<1x48x2x2xf32> into tensor<1x528x2x2xf32>
    %inserted_slice_400 = tensor.insert_slice %173 into %inserted_slice_399[0, 432, 0, 0] [1, 48, 2, 2] [1, 1, 1, 1] : tensor<1x48x2x2xf32> into tensor<1x528x2x2xf32>
    %inserted_slice_401 = tensor.insert_slice %180 into %inserted_slice_400[0, 480, 0, 0] [1, 48, 2, 2] [1, 1, 1, 1] : tensor<1x48x2x2xf32> into tensor<1x528x2x2xf32>
    cf.assert %3, "training is not supported for now"
    %182 = linalg.generic {indexing_maps = [#map, #map1, #map1, #map1, #map1, #map], iterator_types = ["parallel", "parallel", "parallel", "parallel"]} ins(%inserted_slice_401, %cst_204, %cst_203, %cst_203, %cst_204 : tensor<1x528x2x2xf32>, tensor<528xf32>, tensor<528xf32>, tensor<528xf32>, tensor<528xf32>) outs(%inserted_slice_401 : tensor<1x528x2x2xf32>) {
    ^bb0(%in: f32, %in_1476: f32, %in_1477: f32, %in_1478: f32, %in_1479: f32, %out: f32):
      %604 = arith.truncf %cst_253 : f64 to f32
      %605 = arith.addf %in_1479, %604 : f32
      %606 = math.rsqrt %605 : f32
      %607 = arith.subf %in, %in_1478 : f32
      %608 = arith.mulf %607, %606 : f32
      %609 = arith.mulf %608, %in_1476 : f32
      %610 = arith.addf %609, %in_1477 : f32
      linalg.yield %610 : f32
    } -> tensor<1x528x2x2xf32>
    %183 = linalg.generic {indexing_maps = [#map2, #map], iterator_types = ["parallel", "parallel", "parallel", "parallel"]} ins(%182 : tensor<1x528x2x2xf32>) outs(%181 : tensor<1x528x2x2xf32>) {
    ^bb0(%in: f32, %out: f32):
      %604 = arith.cmpf ugt, %in, %cst_251 : f32
      %605 = arith.select %604, %in, %cst_251 : f32
      linalg.yield %605 : f32
    } -> tensor<1x528x2x2xf32>
    %184 = linalg.conv_2d_nchw_fchw {dilations = dense<1> : vector<2xi64>, strides = dense<1> : vector<2xi64>} ins(%183, %cst_175 : tensor<1x528x2x2xf32>, tensor<192x528x1x1xf32>) outs(%160 : tensor<1x192x2x2xf32>) -> tensor<1x192x2x2xf32>
    cf.assert %3, "training is not supported for now"
    %185 = linalg.generic {indexing_maps = [#map, #map1, #map1, #map1, #map1, #map], iterator_types = ["parallel", "parallel", "parallel", "parallel"]} ins(%184, %cst_246, %cst_245, %cst_245, %cst_246 : tensor<1x192x2x2xf32>, tensor<192xf32>, tensor<192xf32>, tensor<192xf32>, tensor<192xf32>) outs(%184 : tensor<1x192x2x2xf32>) {
    ^bb0(%in: f32, %in_1476: f32, %in_1477: f32, %in_1478: f32, %in_1479: f32, %out: f32):
      %604 = arith.truncf %cst_253 : f64 to f32
      %605 = arith.addf %in_1479, %604 : f32
      %606 = math.rsqrt %605 : f32
      %607 = arith.subf %in, %in_1478 : f32
      %608 = arith.mulf %607, %606 : f32
      %609 = arith.mulf %608, %in_1476 : f32
      %610 = arith.addf %609, %in_1477 : f32
      linalg.yield %610 : f32
    } -> tensor<1x192x2x2xf32>
    %186 = linalg.generic {indexing_maps = [#map2, #map], iterator_types = ["parallel", "parallel", "parallel", "parallel"]} ins(%185 : tensor<1x192x2x2xf32>) outs(%159 : tensor<1x192x2x2xf32>) {
    ^bb0(%in: f32, %out: f32):
      %604 = arith.cmpf ugt, %in, %cst_251 : f32
      %605 = arith.select %604, %in, %cst_251 : f32
      linalg.yield %605 : f32
    } -> tensor<1x192x2x2xf32>
    %padded_402 = tensor.pad %186 low[0, 0, 1, 1] high[0, 0, 1, 1] {
    ^bb0(%arg1: index, %arg2: index, %arg3: index, %arg4: index):
      tensor.yield %cst_251 : f32
    } : tensor<1x192x2x2xf32> to tensor<1x192x4x4xf32>
    %187 = linalg.conv_2d_nchw_fchw {dilations = dense<1> : vector<2xi64>, strides = dense<1> : vector<2xi64>} ins(%padded_402, %cst_174 : tensor<1x192x4x4xf32>, tensor<48x192x3x3xf32>) outs(%165 : tensor<1x48x2x2xf32>) -> tensor<1x48x2x2xf32>
    %188 = tensor.empty() : tensor<1x576x2x2xf32>
    %inserted_slice_403 = tensor.insert_slice %156 into %188[0, 0, 0, 0] [1, 384, 2, 2] [1, 1, 1, 1] : tensor<1x384x2x2xf32> into tensor<1x576x2x2xf32>
    %inserted_slice_404 = tensor.insert_slice %166 into %inserted_slice_403[0, 384, 0, 0] [1, 48, 2, 2] [1, 1, 1, 1] : tensor<1x48x2x2xf32> into tensor<1x576x2x2xf32>
    %inserted_slice_405 = tensor.insert_slice %173 into %inserted_slice_404[0, 432, 0, 0] [1, 48, 2, 2] [1, 1, 1, 1] : tensor<1x48x2x2xf32> into tensor<1x576x2x2xf32>
    %inserted_slice_406 = tensor.insert_slice %180 into %inserted_slice_405[0, 480, 0, 0] [1, 48, 2, 2] [1, 1, 1, 1] : tensor<1x48x2x2xf32> into tensor<1x576x2x2xf32>
    %inserted_slice_407 = tensor.insert_slice %187 into %inserted_slice_406[0, 528, 0, 0] [1, 48, 2, 2] [1, 1, 1, 1] : tensor<1x48x2x2xf32> into tensor<1x576x2x2xf32>
    cf.assert %3, "training is not supported for now"
    %189 = linalg.generic {indexing_maps = [#map, #map1, #map1, #map1, #map1, #map], iterator_types = ["parallel", "parallel", "parallel", "parallel"]} ins(%inserted_slice_407, %cst_200, %cst_199, %cst_199, %cst_200 : tensor<1x576x2x2xf32>, tensor<576xf32>, tensor<576xf32>, tensor<576xf32>, tensor<576xf32>) outs(%inserted_slice_407 : tensor<1x576x2x2xf32>) {
    ^bb0(%in: f32, %in_1476: f32, %in_1477: f32, %in_1478: f32, %in_1479: f32, %out: f32):
      %604 = arith.truncf %cst_253 : f64 to f32
      %605 = arith.addf %in_1479, %604 : f32
      %606 = math.rsqrt %605 : f32
      %607 = arith.subf %in, %in_1478 : f32
      %608 = arith.mulf %607, %606 : f32
      %609 = arith.mulf %608, %in_1476 : f32
      %610 = arith.addf %609, %in_1477 : f32
      linalg.yield %610 : f32
    } -> tensor<1x576x2x2xf32>
    %190 = linalg.generic {indexing_maps = [#map2, #map], iterator_types = ["parallel", "parallel", "parallel", "parallel"]} ins(%189 : tensor<1x576x2x2xf32>) outs(%188 : tensor<1x576x2x2xf32>) {
    ^bb0(%in: f32, %out: f32):
      %604 = arith.cmpf ugt, %in, %cst_251 : f32
      %605 = arith.select %604, %in, %cst_251 : f32
      linalg.yield %605 : f32
    } -> tensor<1x576x2x2xf32>
    %191 = linalg.conv_2d_nchw_fchw {dilations = dense<1> : vector<2xi64>, strides = dense<1> : vector<2xi64>} ins(%190, %cst_173 : tensor<1x576x2x2xf32>, tensor<192x576x1x1xf32>) outs(%160 : tensor<1x192x2x2xf32>) -> tensor<1x192x2x2xf32>
    cf.assert %3, "training is not supported for now"
    %192 = linalg.generic {indexing_maps = [#map, #map1, #map1, #map1, #map1, #map], iterator_types = ["parallel", "parallel", "parallel", "parallel"]} ins(%191, %cst_246, %cst_245, %cst_245, %cst_246 : tensor<1x192x2x2xf32>, tensor<192xf32>, tensor<192xf32>, tensor<192xf32>, tensor<192xf32>) outs(%191 : tensor<1x192x2x2xf32>) {
    ^bb0(%in: f32, %in_1476: f32, %in_1477: f32, %in_1478: f32, %in_1479: f32, %out: f32):
      %604 = arith.truncf %cst_253 : f64 to f32
      %605 = arith.addf %in_1479, %604 : f32
      %606 = math.rsqrt %605 : f32
      %607 = arith.subf %in, %in_1478 : f32
      %608 = arith.mulf %607, %606 : f32
      %609 = arith.mulf %608, %in_1476 : f32
      %610 = arith.addf %609, %in_1477 : f32
      linalg.yield %610 : f32
    } -> tensor<1x192x2x2xf32>
    %193 = linalg.generic {indexing_maps = [#map2, #map], iterator_types = ["parallel", "parallel", "parallel", "parallel"]} ins(%192 : tensor<1x192x2x2xf32>) outs(%159 : tensor<1x192x2x2xf32>) {
    ^bb0(%in: f32, %out: f32):
      %604 = arith.cmpf ugt, %in, %cst_251 : f32
      %605 = arith.select %604, %in, %cst_251 : f32
      linalg.yield %605 : f32
    } -> tensor<1x192x2x2xf32>
    %padded_408 = tensor.pad %193 low[0, 0, 1, 1] high[0, 0, 1, 1] {
    ^bb0(%arg1: index, %arg2: index, %arg3: index, %arg4: index):
      tensor.yield %cst_251 : f32
    } : tensor<1x192x2x2xf32> to tensor<1x192x4x4xf32>
    %194 = linalg.conv_2d_nchw_fchw {dilations = dense<1> : vector<2xi64>, strides = dense<1> : vector<2xi64>} ins(%padded_408, %cst_172 : tensor<1x192x4x4xf32>, tensor<48x192x3x3xf32>) outs(%165 : tensor<1x48x2x2xf32>) -> tensor<1x48x2x2xf32>
    %195 = tensor.empty() : tensor<1x624x2x2xf32>
    %inserted_slice_409 = tensor.insert_slice %156 into %195[0, 0, 0, 0] [1, 384, 2, 2] [1, 1, 1, 1] : tensor<1x384x2x2xf32> into tensor<1x624x2x2xf32>
    %inserted_slice_410 = tensor.insert_slice %166 into %inserted_slice_409[0, 384, 0, 0] [1, 48, 2, 2] [1, 1, 1, 1] : tensor<1x48x2x2xf32> into tensor<1x624x2x2xf32>
    %inserted_slice_411 = tensor.insert_slice %173 into %inserted_slice_410[0, 432, 0, 0] [1, 48, 2, 2] [1, 1, 1, 1] : tensor<1x48x2x2xf32> into tensor<1x624x2x2xf32>
    %inserted_slice_412 = tensor.insert_slice %180 into %inserted_slice_411[0, 480, 0, 0] [1, 48, 2, 2] [1, 1, 1, 1] : tensor<1x48x2x2xf32> into tensor<1x624x2x2xf32>
    %inserted_slice_413 = tensor.insert_slice %187 into %inserted_slice_412[0, 528, 0, 0] [1, 48, 2, 2] [1, 1, 1, 1] : tensor<1x48x2x2xf32> into tensor<1x624x2x2xf32>
    %inserted_slice_414 = tensor.insert_slice %194 into %inserted_slice_413[0, 576, 0, 0] [1, 48, 2, 2] [1, 1, 1, 1] : tensor<1x48x2x2xf32> into tensor<1x624x2x2xf32>
    cf.assert %3, "training is not supported for now"
    %196 = linalg.generic {indexing_maps = [#map, #map1, #map1, #map1, #map1, #map], iterator_types = ["parallel", "parallel", "parallel", "parallel"]} ins(%inserted_slice_414, %cst_196, %cst_195, %cst_195, %cst_196 : tensor<1x624x2x2xf32>, tensor<624xf32>, tensor<624xf32>, tensor<624xf32>, tensor<624xf32>) outs(%inserted_slice_414 : tensor<1x624x2x2xf32>) {
    ^bb0(%in: f32, %in_1476: f32, %in_1477: f32, %in_1478: f32, %in_1479: f32, %out: f32):
      %604 = arith.truncf %cst_253 : f64 to f32
      %605 = arith.addf %in_1479, %604 : f32
      %606 = math.rsqrt %605 : f32
      %607 = arith.subf %in, %in_1478 : f32
      %608 = arith.mulf %607, %606 : f32
      %609 = arith.mulf %608, %in_1476 : f32
      %610 = arith.addf %609, %in_1477 : f32
      linalg.yield %610 : f32
    } -> tensor<1x624x2x2xf32>
    %197 = linalg.generic {indexing_maps = [#map2, #map], iterator_types = ["parallel", "parallel", "parallel", "parallel"]} ins(%196 : tensor<1x624x2x2xf32>) outs(%195 : tensor<1x624x2x2xf32>) {
    ^bb0(%in: f32, %out: f32):
      %604 = arith.cmpf ugt, %in, %cst_251 : f32
      %605 = arith.select %604, %in, %cst_251 : f32
      linalg.yield %605 : f32
    } -> tensor<1x624x2x2xf32>
    %198 = linalg.conv_2d_nchw_fchw {dilations = dense<1> : vector<2xi64>, strides = dense<1> : vector<2xi64>} ins(%197, %cst_171 : tensor<1x624x2x2xf32>, tensor<192x624x1x1xf32>) outs(%160 : tensor<1x192x2x2xf32>) -> tensor<1x192x2x2xf32>
    cf.assert %3, "training is not supported for now"
    %199 = linalg.generic {indexing_maps = [#map, #map1, #map1, #map1, #map1, #map], iterator_types = ["parallel", "parallel", "parallel", "parallel"]} ins(%198, %cst_246, %cst_245, %cst_245, %cst_246 : tensor<1x192x2x2xf32>, tensor<192xf32>, tensor<192xf32>, tensor<192xf32>, tensor<192xf32>) outs(%198 : tensor<1x192x2x2xf32>) {
    ^bb0(%in: f32, %in_1476: f32, %in_1477: f32, %in_1478: f32, %in_1479: f32, %out: f32):
      %604 = arith.truncf %cst_253 : f64 to f32
      %605 = arith.addf %in_1479, %604 : f32
      %606 = math.rsqrt %605 : f32
      %607 = arith.subf %in, %in_1478 : f32
      %608 = arith.mulf %607, %606 : f32
      %609 = arith.mulf %608, %in_1476 : f32
      %610 = arith.addf %609, %in_1477 : f32
      linalg.yield %610 : f32
    } -> tensor<1x192x2x2xf32>
    %200 = linalg.generic {indexing_maps = [#map2, #map], iterator_types = ["parallel", "parallel", "parallel", "parallel"]} ins(%199 : tensor<1x192x2x2xf32>) outs(%159 : tensor<1x192x2x2xf32>) {
    ^bb0(%in: f32, %out: f32):
      %604 = arith.cmpf ugt, %in, %cst_251 : f32
      %605 = arith.select %604, %in, %cst_251 : f32
      linalg.yield %605 : f32
    } -> tensor<1x192x2x2xf32>
    %padded_415 = tensor.pad %200 low[0, 0, 1, 1] high[0, 0, 1, 1] {
    ^bb0(%arg1: index, %arg2: index, %arg3: index, %arg4: index):
      tensor.yield %cst_251 : f32
    } : tensor<1x192x2x2xf32> to tensor<1x192x4x4xf32>
    %201 = linalg.conv_2d_nchw_fchw {dilations = dense<1> : vector<2xi64>, strides = dense<1> : vector<2xi64>} ins(%padded_415, %cst_170 : tensor<1x192x4x4xf32>, tensor<48x192x3x3xf32>) outs(%165 : tensor<1x48x2x2xf32>) -> tensor<1x48x2x2xf32>
    %202 = tensor.empty() : tensor<1x672x2x2xf32>
    %inserted_slice_416 = tensor.insert_slice %156 into %202[0, 0, 0, 0] [1, 384, 2, 2] [1, 1, 1, 1] : tensor<1x384x2x2xf32> into tensor<1x672x2x2xf32>
    %inserted_slice_417 = tensor.insert_slice %166 into %inserted_slice_416[0, 384, 0, 0] [1, 48, 2, 2] [1, 1, 1, 1] : tensor<1x48x2x2xf32> into tensor<1x672x2x2xf32>
    %inserted_slice_418 = tensor.insert_slice %173 into %inserted_slice_417[0, 432, 0, 0] [1, 48, 2, 2] [1, 1, 1, 1] : tensor<1x48x2x2xf32> into tensor<1x672x2x2xf32>
    %inserted_slice_419 = tensor.insert_slice %180 into %inserted_slice_418[0, 480, 0, 0] [1, 48, 2, 2] [1, 1, 1, 1] : tensor<1x48x2x2xf32> into tensor<1x672x2x2xf32>
    %inserted_slice_420 = tensor.insert_slice %187 into %inserted_slice_419[0, 528, 0, 0] [1, 48, 2, 2] [1, 1, 1, 1] : tensor<1x48x2x2xf32> into tensor<1x672x2x2xf32>
    %inserted_slice_421 = tensor.insert_slice %194 into %inserted_slice_420[0, 576, 0, 0] [1, 48, 2, 2] [1, 1, 1, 1] : tensor<1x48x2x2xf32> into tensor<1x672x2x2xf32>
    %inserted_slice_422 = tensor.insert_slice %201 into %inserted_slice_421[0, 624, 0, 0] [1, 48, 2, 2] [1, 1, 1, 1] : tensor<1x48x2x2xf32> into tensor<1x672x2x2xf32>
    cf.assert %3, "training is not supported for now"
    %203 = linalg.generic {indexing_maps = [#map, #map1, #map1, #map1, #map1, #map], iterator_types = ["parallel", "parallel", "parallel", "parallel"]} ins(%inserted_slice_422, %cst_192, %cst_191, %cst_191, %cst_192 : tensor<1x672x2x2xf32>, tensor<672xf32>, tensor<672xf32>, tensor<672xf32>, tensor<672xf32>) outs(%inserted_slice_422 : tensor<1x672x2x2xf32>) {
    ^bb0(%in: f32, %in_1476: f32, %in_1477: f32, %in_1478: f32, %in_1479: f32, %out: f32):
      %604 = arith.truncf %cst_253 : f64 to f32
      %605 = arith.addf %in_1479, %604 : f32
      %606 = math.rsqrt %605 : f32
      %607 = arith.subf %in, %in_1478 : f32
      %608 = arith.mulf %607, %606 : f32
      %609 = arith.mulf %608, %in_1476 : f32
      %610 = arith.addf %609, %in_1477 : f32
      linalg.yield %610 : f32
    } -> tensor<1x672x2x2xf32>
    %204 = linalg.generic {indexing_maps = [#map2, #map], iterator_types = ["parallel", "parallel", "parallel", "parallel"]} ins(%203 : tensor<1x672x2x2xf32>) outs(%202 : tensor<1x672x2x2xf32>) {
    ^bb0(%in: f32, %out: f32):
      %604 = arith.cmpf ugt, %in, %cst_251 : f32
      %605 = arith.select %604, %in, %cst_251 : f32
      linalg.yield %605 : f32
    } -> tensor<1x672x2x2xf32>
    %205 = linalg.conv_2d_nchw_fchw {dilations = dense<1> : vector<2xi64>, strides = dense<1> : vector<2xi64>} ins(%204, %cst_169 : tensor<1x672x2x2xf32>, tensor<192x672x1x1xf32>) outs(%160 : tensor<1x192x2x2xf32>) -> tensor<1x192x2x2xf32>
    cf.assert %3, "training is not supported for now"
    %206 = linalg.generic {indexing_maps = [#map, #map1, #map1, #map1, #map1, #map], iterator_types = ["parallel", "parallel", "parallel", "parallel"]} ins(%205, %cst_246, %cst_245, %cst_245, %cst_246 : tensor<1x192x2x2xf32>, tensor<192xf32>, tensor<192xf32>, tensor<192xf32>, tensor<192xf32>) outs(%205 : tensor<1x192x2x2xf32>) {
    ^bb0(%in: f32, %in_1476: f32, %in_1477: f32, %in_1478: f32, %in_1479: f32, %out: f32):
      %604 = arith.truncf %cst_253 : f64 to f32
      %605 = arith.addf %in_1479, %604 : f32
      %606 = math.rsqrt %605 : f32
      %607 = arith.subf %in, %in_1478 : f32
      %608 = arith.mulf %607, %606 : f32
      %609 = arith.mulf %608, %in_1476 : f32
      %610 = arith.addf %609, %in_1477 : f32
      linalg.yield %610 : f32
    } -> tensor<1x192x2x2xf32>
    %207 = linalg.generic {indexing_maps = [#map2, #map], iterator_types = ["parallel", "parallel", "parallel", "parallel"]} ins(%206 : tensor<1x192x2x2xf32>) outs(%159 : tensor<1x192x2x2xf32>) {
    ^bb0(%in: f32, %out: f32):
      %604 = arith.cmpf ugt, %in, %cst_251 : f32
      %605 = arith.select %604, %in, %cst_251 : f32
      linalg.yield %605 : f32
    } -> tensor<1x192x2x2xf32>
    %padded_423 = tensor.pad %207 low[0, 0, 1, 1] high[0, 0, 1, 1] {
    ^bb0(%arg1: index, %arg2: index, %arg3: index, %arg4: index):
      tensor.yield %cst_251 : f32
    } : tensor<1x192x2x2xf32> to tensor<1x192x4x4xf32>
    %208 = linalg.conv_2d_nchw_fchw {dilations = dense<1> : vector<2xi64>, strides = dense<1> : vector<2xi64>} ins(%padded_423, %cst_168 : tensor<1x192x4x4xf32>, tensor<48x192x3x3xf32>) outs(%165 : tensor<1x48x2x2xf32>) -> tensor<1x48x2x2xf32>
    %209 = tensor.empty() : tensor<1x720x2x2xf32>
    %inserted_slice_424 = tensor.insert_slice %156 into %209[0, 0, 0, 0] [1, 384, 2, 2] [1, 1, 1, 1] : tensor<1x384x2x2xf32> into tensor<1x720x2x2xf32>
    %inserted_slice_425 = tensor.insert_slice %166 into %inserted_slice_424[0, 384, 0, 0] [1, 48, 2, 2] [1, 1, 1, 1] : tensor<1x48x2x2xf32> into tensor<1x720x2x2xf32>
    %inserted_slice_426 = tensor.insert_slice %173 into %inserted_slice_425[0, 432, 0, 0] [1, 48, 2, 2] [1, 1, 1, 1] : tensor<1x48x2x2xf32> into tensor<1x720x2x2xf32>
    %inserted_slice_427 = tensor.insert_slice %180 into %inserted_slice_426[0, 480, 0, 0] [1, 48, 2, 2] [1, 1, 1, 1] : tensor<1x48x2x2xf32> into tensor<1x720x2x2xf32>
    %inserted_slice_428 = tensor.insert_slice %187 into %inserted_slice_427[0, 528, 0, 0] [1, 48, 2, 2] [1, 1, 1, 1] : tensor<1x48x2x2xf32> into tensor<1x720x2x2xf32>
    %inserted_slice_429 = tensor.insert_slice %194 into %inserted_slice_428[0, 576, 0, 0] [1, 48, 2, 2] [1, 1, 1, 1] : tensor<1x48x2x2xf32> into tensor<1x720x2x2xf32>
    %inserted_slice_430 = tensor.insert_slice %201 into %inserted_slice_429[0, 624, 0, 0] [1, 48, 2, 2] [1, 1, 1, 1] : tensor<1x48x2x2xf32> into tensor<1x720x2x2xf32>
    %inserted_slice_431 = tensor.insert_slice %208 into %inserted_slice_430[0, 672, 0, 0] [1, 48, 2, 2] [1, 1, 1, 1] : tensor<1x48x2x2xf32> into tensor<1x720x2x2xf32>
    cf.assert %3, "training is not supported for now"
    %210 = linalg.generic {indexing_maps = [#map, #map1, #map1, #map1, #map1, #map], iterator_types = ["parallel", "parallel", "parallel", "parallel"]} ins(%inserted_slice_431, %cst_188, %cst_187, %cst_187, %cst_188 : tensor<1x720x2x2xf32>, tensor<720xf32>, tensor<720xf32>, tensor<720xf32>, tensor<720xf32>) outs(%inserted_slice_431 : tensor<1x720x2x2xf32>) {
    ^bb0(%in: f32, %in_1476: f32, %in_1477: f32, %in_1478: f32, %in_1479: f32, %out: f32):
      %604 = arith.truncf %cst_253 : f64 to f32
      %605 = arith.addf %in_1479, %604 : f32
      %606 = math.rsqrt %605 : f32
      %607 = arith.subf %in, %in_1478 : f32
      %608 = arith.mulf %607, %606 : f32
      %609 = arith.mulf %608, %in_1476 : f32
      %610 = arith.addf %609, %in_1477 : f32
      linalg.yield %610 : f32
    } -> tensor<1x720x2x2xf32>
    %211 = linalg.generic {indexing_maps = [#map2, #map], iterator_types = ["parallel", "parallel", "parallel", "parallel"]} ins(%210 : tensor<1x720x2x2xf32>) outs(%209 : tensor<1x720x2x2xf32>) {
    ^bb0(%in: f32, %out: f32):
      %604 = arith.cmpf ugt, %in, %cst_251 : f32
      %605 = arith.select %604, %in, %cst_251 : f32
      linalg.yield %605 : f32
    } -> tensor<1x720x2x2xf32>
    %212 = linalg.conv_2d_nchw_fchw {dilations = dense<1> : vector<2xi64>, strides = dense<1> : vector<2xi64>} ins(%211, %cst_167 : tensor<1x720x2x2xf32>, tensor<192x720x1x1xf32>) outs(%160 : tensor<1x192x2x2xf32>) -> tensor<1x192x2x2xf32>
    cf.assert %3, "training is not supported for now"
    %213 = linalg.generic {indexing_maps = [#map, #map1, #map1, #map1, #map1, #map], iterator_types = ["parallel", "parallel", "parallel", "parallel"]} ins(%212, %cst_246, %cst_245, %cst_245, %cst_246 : tensor<1x192x2x2xf32>, tensor<192xf32>, tensor<192xf32>, tensor<192xf32>, tensor<192xf32>) outs(%212 : tensor<1x192x2x2xf32>) {
    ^bb0(%in: f32, %in_1476: f32, %in_1477: f32, %in_1478: f32, %in_1479: f32, %out: f32):
      %604 = arith.truncf %cst_253 : f64 to f32
      %605 = arith.addf %in_1479, %604 : f32
      %606 = math.rsqrt %605 : f32
      %607 = arith.subf %in, %in_1478 : f32
      %608 = arith.mulf %607, %606 : f32
      %609 = arith.mulf %608, %in_1476 : f32
      %610 = arith.addf %609, %in_1477 : f32
      linalg.yield %610 : f32
    } -> tensor<1x192x2x2xf32>
    %214 = linalg.generic {indexing_maps = [#map2, #map], iterator_types = ["parallel", "parallel", "parallel", "parallel"]} ins(%213 : tensor<1x192x2x2xf32>) outs(%159 : tensor<1x192x2x2xf32>) {
    ^bb0(%in: f32, %out: f32):
      %604 = arith.cmpf ugt, %in, %cst_251 : f32
      %605 = arith.select %604, %in, %cst_251 : f32
      linalg.yield %605 : f32
    } -> tensor<1x192x2x2xf32>
    %padded_432 = tensor.pad %214 low[0, 0, 1, 1] high[0, 0, 1, 1] {
    ^bb0(%arg1: index, %arg2: index, %arg3: index, %arg4: index):
      tensor.yield %cst_251 : f32
    } : tensor<1x192x2x2xf32> to tensor<1x192x4x4xf32>
    %215 = linalg.conv_2d_nchw_fchw {dilations = dense<1> : vector<2xi64>, strides = dense<1> : vector<2xi64>} ins(%padded_432, %cst_166 : tensor<1x192x4x4xf32>, tensor<48x192x3x3xf32>) outs(%165 : tensor<1x48x2x2xf32>) -> tensor<1x48x2x2xf32>
    %216 = tensor.empty() : tensor<1x768x2x2xf32>
    %inserted_slice_433 = tensor.insert_slice %156 into %216[0, 0, 0, 0] [1, 384, 2, 2] [1, 1, 1, 1] : tensor<1x384x2x2xf32> into tensor<1x768x2x2xf32>
    %inserted_slice_434 = tensor.insert_slice %166 into %inserted_slice_433[0, 384, 0, 0] [1, 48, 2, 2] [1, 1, 1, 1] : tensor<1x48x2x2xf32> into tensor<1x768x2x2xf32>
    %inserted_slice_435 = tensor.insert_slice %173 into %inserted_slice_434[0, 432, 0, 0] [1, 48, 2, 2] [1, 1, 1, 1] : tensor<1x48x2x2xf32> into tensor<1x768x2x2xf32>
    %inserted_slice_436 = tensor.insert_slice %180 into %inserted_slice_435[0, 480, 0, 0] [1, 48, 2, 2] [1, 1, 1, 1] : tensor<1x48x2x2xf32> into tensor<1x768x2x2xf32>
    %inserted_slice_437 = tensor.insert_slice %187 into %inserted_slice_436[0, 528, 0, 0] [1, 48, 2, 2] [1, 1, 1, 1] : tensor<1x48x2x2xf32> into tensor<1x768x2x2xf32>
    %inserted_slice_438 = tensor.insert_slice %194 into %inserted_slice_437[0, 576, 0, 0] [1, 48, 2, 2] [1, 1, 1, 1] : tensor<1x48x2x2xf32> into tensor<1x768x2x2xf32>
    %inserted_slice_439 = tensor.insert_slice %201 into %inserted_slice_438[0, 624, 0, 0] [1, 48, 2, 2] [1, 1, 1, 1] : tensor<1x48x2x2xf32> into tensor<1x768x2x2xf32>
    %inserted_slice_440 = tensor.insert_slice %208 into %inserted_slice_439[0, 672, 0, 0] [1, 48, 2, 2] [1, 1, 1, 1] : tensor<1x48x2x2xf32> into tensor<1x768x2x2xf32>
    %inserted_slice_441 = tensor.insert_slice %215 into %inserted_slice_440[0, 720, 0, 0] [1, 48, 2, 2] [1, 1, 1, 1] : tensor<1x48x2x2xf32> into tensor<1x768x2x2xf32>
    cf.assert %3, "training is not supported for now"
    %217 = linalg.generic {indexing_maps = [#map, #map1, #map1, #map1, #map1, #map], iterator_types = ["parallel", "parallel", "parallel", "parallel"]} ins(%inserted_slice_441, %cst_184, %cst_183, %cst_183, %cst_184 : tensor<1x768x2x2xf32>, tensor<768xf32>, tensor<768xf32>, tensor<768xf32>, tensor<768xf32>) outs(%inserted_slice_441 : tensor<1x768x2x2xf32>) {
    ^bb0(%in: f32, %in_1476: f32, %in_1477: f32, %in_1478: f32, %in_1479: f32, %out: f32):
      %604 = arith.truncf %cst_253 : f64 to f32
      %605 = arith.addf %in_1479, %604 : f32
      %606 = math.rsqrt %605 : f32
      %607 = arith.subf %in, %in_1478 : f32
      %608 = arith.mulf %607, %606 : f32
      %609 = arith.mulf %608, %in_1476 : f32
      %610 = arith.addf %609, %in_1477 : f32
      linalg.yield %610 : f32
    } -> tensor<1x768x2x2xf32>
    %218 = linalg.generic {indexing_maps = [#map2, #map], iterator_types = ["parallel", "parallel", "parallel", "parallel"]} ins(%217 : tensor<1x768x2x2xf32>) outs(%216 : tensor<1x768x2x2xf32>) {
    ^bb0(%in: f32, %out: f32):
      %604 = arith.cmpf ugt, %in, %cst_251 : f32
      %605 = arith.select %604, %in, %cst_251 : f32
      linalg.yield %605 : f32
    } -> tensor<1x768x2x2xf32>
    %219 = linalg.conv_2d_nchw_fchw {dilations = dense<1> : vector<2xi64>, strides = dense<1> : vector<2xi64>} ins(%218, %cst_165 : tensor<1x768x2x2xf32>, tensor<192x768x1x1xf32>) outs(%160 : tensor<1x192x2x2xf32>) -> tensor<1x192x2x2xf32>
    cf.assert %3, "training is not supported for now"
    %220 = linalg.generic {indexing_maps = [#map, #map1, #map1, #map1, #map1, #map], iterator_types = ["parallel", "parallel", "parallel", "parallel"]} ins(%219, %cst_246, %cst_245, %cst_245, %cst_246 : tensor<1x192x2x2xf32>, tensor<192xf32>, tensor<192xf32>, tensor<192xf32>, tensor<192xf32>) outs(%219 : tensor<1x192x2x2xf32>) {
    ^bb0(%in: f32, %in_1476: f32, %in_1477: f32, %in_1478: f32, %in_1479: f32, %out: f32):
      %604 = arith.truncf %cst_253 : f64 to f32
      %605 = arith.addf %in_1479, %604 : f32
      %606 = math.rsqrt %605 : f32
      %607 = arith.subf %in, %in_1478 : f32
      %608 = arith.mulf %607, %606 : f32
      %609 = arith.mulf %608, %in_1476 : f32
      %610 = arith.addf %609, %in_1477 : f32
      linalg.yield %610 : f32
    } -> tensor<1x192x2x2xf32>
    %221 = linalg.generic {indexing_maps = [#map2, #map], iterator_types = ["parallel", "parallel", "parallel", "parallel"]} ins(%220 : tensor<1x192x2x2xf32>) outs(%159 : tensor<1x192x2x2xf32>) {
    ^bb0(%in: f32, %out: f32):
      %604 = arith.cmpf ugt, %in, %cst_251 : f32
      %605 = arith.select %604, %in, %cst_251 : f32
      linalg.yield %605 : f32
    } -> tensor<1x192x2x2xf32>
    %padded_442 = tensor.pad %221 low[0, 0, 1, 1] high[0, 0, 1, 1] {
    ^bb0(%arg1: index, %arg2: index, %arg3: index, %arg4: index):
      tensor.yield %cst_251 : f32
    } : tensor<1x192x2x2xf32> to tensor<1x192x4x4xf32>
    %222 = linalg.conv_2d_nchw_fchw {dilations = dense<1> : vector<2xi64>, strides = dense<1> : vector<2xi64>} ins(%padded_442, %cst_164 : tensor<1x192x4x4xf32>, tensor<48x192x3x3xf32>) outs(%165 : tensor<1x48x2x2xf32>) -> tensor<1x48x2x2xf32>
    %223 = tensor.empty() : tensor<1x816x2x2xf32>
    %inserted_slice_443 = tensor.insert_slice %156 into %223[0, 0, 0, 0] [1, 384, 2, 2] [1, 1, 1, 1] : tensor<1x384x2x2xf32> into tensor<1x816x2x2xf32>
    %inserted_slice_444 = tensor.insert_slice %166 into %inserted_slice_443[0, 384, 0, 0] [1, 48, 2, 2] [1, 1, 1, 1] : tensor<1x48x2x2xf32> into tensor<1x816x2x2xf32>
    %inserted_slice_445 = tensor.insert_slice %173 into %inserted_slice_444[0, 432, 0, 0] [1, 48, 2, 2] [1, 1, 1, 1] : tensor<1x48x2x2xf32> into tensor<1x816x2x2xf32>
    %inserted_slice_446 = tensor.insert_slice %180 into %inserted_slice_445[0, 480, 0, 0] [1, 48, 2, 2] [1, 1, 1, 1] : tensor<1x48x2x2xf32> into tensor<1x816x2x2xf32>
    %inserted_slice_447 = tensor.insert_slice %187 into %inserted_slice_446[0, 528, 0, 0] [1, 48, 2, 2] [1, 1, 1, 1] : tensor<1x48x2x2xf32> into tensor<1x816x2x2xf32>
    %inserted_slice_448 = tensor.insert_slice %194 into %inserted_slice_447[0, 576, 0, 0] [1, 48, 2, 2] [1, 1, 1, 1] : tensor<1x48x2x2xf32> into tensor<1x816x2x2xf32>
    %inserted_slice_449 = tensor.insert_slice %201 into %inserted_slice_448[0, 624, 0, 0] [1, 48, 2, 2] [1, 1, 1, 1] : tensor<1x48x2x2xf32> into tensor<1x816x2x2xf32>
    %inserted_slice_450 = tensor.insert_slice %208 into %inserted_slice_449[0, 672, 0, 0] [1, 48, 2, 2] [1, 1, 1, 1] : tensor<1x48x2x2xf32> into tensor<1x816x2x2xf32>
    %inserted_slice_451 = tensor.insert_slice %215 into %inserted_slice_450[0, 720, 0, 0] [1, 48, 2, 2] [1, 1, 1, 1] : tensor<1x48x2x2xf32> into tensor<1x816x2x2xf32>
    %inserted_slice_452 = tensor.insert_slice %222 into %inserted_slice_451[0, 768, 0, 0] [1, 48, 2, 2] [1, 1, 1, 1] : tensor<1x48x2x2xf32> into tensor<1x816x2x2xf32>
    cf.assert %3, "training is not supported for now"
    %224 = linalg.generic {indexing_maps = [#map, #map1, #map1, #map1, #map1, #map], iterator_types = ["parallel", "parallel", "parallel", "parallel"]} ins(%inserted_slice_452, %cst_163, %cst_162, %cst_162, %cst_163 : tensor<1x816x2x2xf32>, tensor<816xf32>, tensor<816xf32>, tensor<816xf32>, tensor<816xf32>) outs(%inserted_slice_452 : tensor<1x816x2x2xf32>) {
    ^bb0(%in: f32, %in_1476: f32, %in_1477: f32, %in_1478: f32, %in_1479: f32, %out: f32):
      %604 = arith.truncf %cst_253 : f64 to f32
      %605 = arith.addf %in_1479, %604 : f32
      %606 = math.rsqrt %605 : f32
      %607 = arith.subf %in, %in_1478 : f32
      %608 = arith.mulf %607, %606 : f32
      %609 = arith.mulf %608, %in_1476 : f32
      %610 = arith.addf %609, %in_1477 : f32
      linalg.yield %610 : f32
    } -> tensor<1x816x2x2xf32>
    %225 = linalg.generic {indexing_maps = [#map2, #map], iterator_types = ["parallel", "parallel", "parallel", "parallel"]} ins(%224 : tensor<1x816x2x2xf32>) outs(%223 : tensor<1x816x2x2xf32>) {
    ^bb0(%in: f32, %out: f32):
      %604 = arith.cmpf ugt, %in, %cst_251 : f32
      %605 = arith.select %604, %in, %cst_251 : f32
      linalg.yield %605 : f32
    } -> tensor<1x816x2x2xf32>
    %226 = linalg.conv_2d_nchw_fchw {dilations = dense<1> : vector<2xi64>, strides = dense<1> : vector<2xi64>} ins(%225, %cst_161 : tensor<1x816x2x2xf32>, tensor<192x816x1x1xf32>) outs(%160 : tensor<1x192x2x2xf32>) -> tensor<1x192x2x2xf32>
    cf.assert %3, "training is not supported for now"
    %227 = linalg.generic {indexing_maps = [#map, #map1, #map1, #map1, #map1, #map], iterator_types = ["parallel", "parallel", "parallel", "parallel"]} ins(%226, %cst_246, %cst_245, %cst_245, %cst_246 : tensor<1x192x2x2xf32>, tensor<192xf32>, tensor<192xf32>, tensor<192xf32>, tensor<192xf32>) outs(%226 : tensor<1x192x2x2xf32>) {
    ^bb0(%in: f32, %in_1476: f32, %in_1477: f32, %in_1478: f32, %in_1479: f32, %out: f32):
      %604 = arith.truncf %cst_253 : f64 to f32
      %605 = arith.addf %in_1479, %604 : f32
      %606 = math.rsqrt %605 : f32
      %607 = arith.subf %in, %in_1478 : f32
      %608 = arith.mulf %607, %606 : f32
      %609 = arith.mulf %608, %in_1476 : f32
      %610 = arith.addf %609, %in_1477 : f32
      linalg.yield %610 : f32
    } -> tensor<1x192x2x2xf32>
    %228 = linalg.generic {indexing_maps = [#map2, #map], iterator_types = ["parallel", "parallel", "parallel", "parallel"]} ins(%227 : tensor<1x192x2x2xf32>) outs(%159 : tensor<1x192x2x2xf32>) {
    ^bb0(%in: f32, %out: f32):
      %604 = arith.cmpf ugt, %in, %cst_251 : f32
      %605 = arith.select %604, %in, %cst_251 : f32
      linalg.yield %605 : f32
    } -> tensor<1x192x2x2xf32>
    %padded_453 = tensor.pad %228 low[0, 0, 1, 1] high[0, 0, 1, 1] {
    ^bb0(%arg1: index, %arg2: index, %arg3: index, %arg4: index):
      tensor.yield %cst_251 : f32
    } : tensor<1x192x2x2xf32> to tensor<1x192x4x4xf32>
    %229 = linalg.conv_2d_nchw_fchw {dilations = dense<1> : vector<2xi64>, strides = dense<1> : vector<2xi64>} ins(%padded_453, %cst_160 : tensor<1x192x4x4xf32>, tensor<48x192x3x3xf32>) outs(%165 : tensor<1x48x2x2xf32>) -> tensor<1x48x2x2xf32>
    %230 = tensor.empty() : tensor<1x864x2x2xf32>
    %inserted_slice_454 = tensor.insert_slice %156 into %230[0, 0, 0, 0] [1, 384, 2, 2] [1, 1, 1, 1] : tensor<1x384x2x2xf32> into tensor<1x864x2x2xf32>
    %inserted_slice_455 = tensor.insert_slice %166 into %inserted_slice_454[0, 384, 0, 0] [1, 48, 2, 2] [1, 1, 1, 1] : tensor<1x48x2x2xf32> into tensor<1x864x2x2xf32>
    %inserted_slice_456 = tensor.insert_slice %173 into %inserted_slice_455[0, 432, 0, 0] [1, 48, 2, 2] [1, 1, 1, 1] : tensor<1x48x2x2xf32> into tensor<1x864x2x2xf32>
    %inserted_slice_457 = tensor.insert_slice %180 into %inserted_slice_456[0, 480, 0, 0] [1, 48, 2, 2] [1, 1, 1, 1] : tensor<1x48x2x2xf32> into tensor<1x864x2x2xf32>
    %inserted_slice_458 = tensor.insert_slice %187 into %inserted_slice_457[0, 528, 0, 0] [1, 48, 2, 2] [1, 1, 1, 1] : tensor<1x48x2x2xf32> into tensor<1x864x2x2xf32>
    %inserted_slice_459 = tensor.insert_slice %194 into %inserted_slice_458[0, 576, 0, 0] [1, 48, 2, 2] [1, 1, 1, 1] : tensor<1x48x2x2xf32> into tensor<1x864x2x2xf32>
    %inserted_slice_460 = tensor.insert_slice %201 into %inserted_slice_459[0, 624, 0, 0] [1, 48, 2, 2] [1, 1, 1, 1] : tensor<1x48x2x2xf32> into tensor<1x864x2x2xf32>
    %inserted_slice_461 = tensor.insert_slice %208 into %inserted_slice_460[0, 672, 0, 0] [1, 48, 2, 2] [1, 1, 1, 1] : tensor<1x48x2x2xf32> into tensor<1x864x2x2xf32>
    %inserted_slice_462 = tensor.insert_slice %215 into %inserted_slice_461[0, 720, 0, 0] [1, 48, 2, 2] [1, 1, 1, 1] : tensor<1x48x2x2xf32> into tensor<1x864x2x2xf32>
    %inserted_slice_463 = tensor.insert_slice %222 into %inserted_slice_462[0, 768, 0, 0] [1, 48, 2, 2] [1, 1, 1, 1] : tensor<1x48x2x2xf32> into tensor<1x864x2x2xf32>
    %inserted_slice_464 = tensor.insert_slice %229 into %inserted_slice_463[0, 816, 0, 0] [1, 48, 2, 2] [1, 1, 1, 1] : tensor<1x48x2x2xf32> into tensor<1x864x2x2xf32>
    cf.assert %3, "training is not supported for now"
    %231 = linalg.generic {indexing_maps = [#map, #map1, #map1, #map1, #map1, #map], iterator_types = ["parallel", "parallel", "parallel", "parallel"]} ins(%inserted_slice_464, %cst_159, %cst_158, %cst_158, %cst_159 : tensor<1x864x2x2xf32>, tensor<864xf32>, tensor<864xf32>, tensor<864xf32>, tensor<864xf32>) outs(%inserted_slice_464 : tensor<1x864x2x2xf32>) {
    ^bb0(%in: f32, %in_1476: f32, %in_1477: f32, %in_1478: f32, %in_1479: f32, %out: f32):
      %604 = arith.truncf %cst_253 : f64 to f32
      %605 = arith.addf %in_1479, %604 : f32
      %606 = math.rsqrt %605 : f32
      %607 = arith.subf %in, %in_1478 : f32
      %608 = arith.mulf %607, %606 : f32
      %609 = arith.mulf %608, %in_1476 : f32
      %610 = arith.addf %609, %in_1477 : f32
      linalg.yield %610 : f32
    } -> tensor<1x864x2x2xf32>
    %232 = linalg.generic {indexing_maps = [#map2, #map], iterator_types = ["parallel", "parallel", "parallel", "parallel"]} ins(%231 : tensor<1x864x2x2xf32>) outs(%230 : tensor<1x864x2x2xf32>) {
    ^bb0(%in: f32, %out: f32):
      %604 = arith.cmpf ugt, %in, %cst_251 : f32
      %605 = arith.select %604, %in, %cst_251 : f32
      linalg.yield %605 : f32
    } -> tensor<1x864x2x2xf32>
    %233 = linalg.conv_2d_nchw_fchw {dilations = dense<1> : vector<2xi64>, strides = dense<1> : vector<2xi64>} ins(%232, %cst_157 : tensor<1x864x2x2xf32>, tensor<192x864x1x1xf32>) outs(%160 : tensor<1x192x2x2xf32>) -> tensor<1x192x2x2xf32>
    cf.assert %3, "training is not supported for now"
    %234 = linalg.generic {indexing_maps = [#map, #map1, #map1, #map1, #map1, #map], iterator_types = ["parallel", "parallel", "parallel", "parallel"]} ins(%233, %cst_246, %cst_245, %cst_245, %cst_246 : tensor<1x192x2x2xf32>, tensor<192xf32>, tensor<192xf32>, tensor<192xf32>, tensor<192xf32>) outs(%233 : tensor<1x192x2x2xf32>) {
    ^bb0(%in: f32, %in_1476: f32, %in_1477: f32, %in_1478: f32, %in_1479: f32, %out: f32):
      %604 = arith.truncf %cst_253 : f64 to f32
      %605 = arith.addf %in_1479, %604 : f32
      %606 = math.rsqrt %605 : f32
      %607 = arith.subf %in, %in_1478 : f32
      %608 = arith.mulf %607, %606 : f32
      %609 = arith.mulf %608, %in_1476 : f32
      %610 = arith.addf %609, %in_1477 : f32
      linalg.yield %610 : f32
    } -> tensor<1x192x2x2xf32>
    %235 = linalg.generic {indexing_maps = [#map2, #map], iterator_types = ["parallel", "parallel", "parallel", "parallel"]} ins(%234 : tensor<1x192x2x2xf32>) outs(%159 : tensor<1x192x2x2xf32>) {
…
    %547 = linalg.generic {indexing_maps = [#map, #map1, #map1, #map1, #map1, #map], iterator_types = ["parallel", "parallel", "parallel", "parallel"]} ins(%546, %cst_246, %cst_245, %cst_245, %cst_246 : tensor<1x192x1x1xf32>, tensor<192xf32>, tensor<192xf32>, tensor<192xf32>, tensor<192xf32>) outs(%546 : tensor<1x192x1x1xf32>) {
    ^bb0(%in: f32, %in_1476: f32, %in_1477: f32, %in_1478: f32, %in_1479: f32, %out: f32):
      %604 = arith.truncf %cst_253 : f64 to f32
      %605 = arith.addf %in_1479, %604 : f32
      %606 = math.rsqrt %605 : f32
      %607 = arith.subf %in, %in_1478 : f32
      %608 = arith.mulf %607, %606 : f32
      %609 = arith.mulf %608, %in_1476 : f32
      %610 = arith.addf %609, %in_1477 : f32
      linalg.yield %610 : f32
    } -> tensor<1x192x1x1xf32>
    %548 = linalg.generic {indexing_maps = [#map3, #map], iterator_types = ["parallel", "parallel", "parallel", "parallel"]} ins(%547 : tensor<1x192x1x1xf32>) outs(%423 : tensor<1x192x1x1xf32>) {
    ^bb0(%in: f32, %out: f32):
      %604 = arith.cmpf ugt, %in, %cst_251 : f32
      %605 = arith.select %604, %in, %cst_251 : f32
      linalg.yield %605 : f32
    } -> tensor<1x192x1x1xf32>
    %padded_1315 = tensor.pad %548 low[0, 0, 1, 1] high[0, 0, 1, 1] {
    ^bb0(%arg1: index, %arg2: index, %arg3: index, %arg4: index):
      tensor.yield %cst_251 : f32
    } : tensor<1x192x1x1xf32> to tensor<1x192x3x3xf32>
    %549 = linalg.conv_2d_nchw_fchw {dilations = dense<1> : vector<2xi64>, strides = dense<1> : vector<2xi64>} ins(%padded_1315, %cst_17 : tensor<1x192x3x3xf32>, tensor<48x192x3x3xf32>) outs(%429 : tensor<1x48x1x1xf32>) -> tensor<1x48x1x1xf32>
    %550 = tensor.empty() : tensor<1x1920x1x1xf32>
    %inserted_slice_1316 = tensor.insert_slice %420 into %550[0, 0, 0, 0] [1, 1056, 1, 1] [1, 1, 1, 1] : tensor<1x1056x1x1xf32> into tensor<1x1920x1x1xf32>
    %inserted_slice_1317 = tensor.insert_slice %430 into %inserted_slice_1316[0, 1056, 0, 0] [1, 48, 1, 1] [1, 1, 1, 1] : tensor<1x48x1x1xf32> into tensor<1x1920x1x1xf32>
    %inserted_slice_1318 = tensor.insert_slice %437 into %inserted_slice_1317[0, 1104, 0, 0] [1, 48, 1, 1] [1, 1, 1, 1] : tensor<1x48x1x1xf32> into tensor<1x1920x1x1xf32>
    %inserted_slice_1319 = tensor.insert_slice %444 into %inserted_slice_1318[0, 1152, 0, 0] [1, 48, 1, 1] [1, 1, 1, 1] : tensor<1x48x1x1xf32> into tensor<1x1920x1x1xf32>
    %inserted_slice_1320 = tensor.insert_slice %451 into %inserted_slice_1319[0, 1200, 0, 0] [1, 48, 1, 1] [1, 1, 1, 1] : tensor<1x48x1x1xf32> into tensor<1x1920x1x1xf32>
    %inserted_slice_1321 = tensor.insert_slice %458 into %inserted_slice_1320[0, 1248, 0, 0] [1, 48, 1, 1] [1, 1, 1, 1] : tensor<1x48x1x1xf32> into tensor<1x1920x1x1xf32>
    %inserted_slice_1322 = tensor.insert_slice %465 into %inserted_slice_1321[0, 1296, 0, 0] [1, 48, 1, 1] [1, 1, 1, 1] : tensor<1x48x1x1xf32> into tensor<1x1920x1x1xf32>
    %inserted_slice_1323 = tensor.insert_slice %472 into %inserted_slice_1322[0, 1344, 0, 0] [1, 48, 1, 1] [1, 1, 1, 1] : tensor<1x48x1x1xf32> into tensor<1x1920x1x1xf32>
    %inserted_slice_1324 = tensor.insert_slice %479 into %inserted_slice_1323[0, 1392, 0, 0] [1, 48, 1, 1] [1, 1, 1, 1] : tensor<1x48x1x1xf32> into tensor<1x1920x1x1xf32>
    %inserted_slice_1325 = tensor.insert_slice %486 into %inserted_slice_1324[0, 1440, 0, 0] [1, 48, 1, 1] [1, 1, 1, 1] : tensor<1x48x1x1xf32> into tensor<1x1920x1x1xf32>
    %inserted_slice_1326 = tensor.insert_slice %493 into %inserted_slice_1325[0, 1488, 0, 0] [1, 48, 1, 1] [1, 1, 1, 1] : tensor<1x48x1x1xf32> into tensor<1x1920x1x1xf32>
    %inserted_slice_1327 = tensor.insert_slice %500 into %inserted_slice_1326[0, 1536, 0, 0] [1, 48, 1, 1] [1, 1, 1, 1] : tensor<1x48x1x1xf32> into tensor<1x1920x1x1xf32>
    %inserted_slice_1328 = tensor.insert_slice %507 into %inserted_slice_1327[0, 1584, 0, 0] [1, 48, 1, 1] [1, 1, 1, 1] : tensor<1x48x1x1xf32> into tensor<1x1920x1x1xf32>
    %inserted_slice_1329 = tensor.insert_slice %514 into %inserted_slice_1328[0, 1632, 0, 0] [1, 48, 1, 1] [1, 1, 1, 1] : tensor<1x48x1x1xf32> into tensor<1x1920x1x1xf32>
    %inserted_slice_1330 = tensor.insert_slice %521 into %inserted_slice_1329[0, 1680, 0, 0] [1, 48, 1, 1] [1, 1, 1, 1] : tensor<1x48x1x1xf32> into tensor<1x1920x1x1xf32>
    %inserted_slice_1331 = tensor.insert_slice %528 into %inserted_slice_1330[0, 1728, 0, 0] [1, 48, 1, 1] [1, 1, 1, 1] : tensor<1x48x1x1xf32> into tensor<1x1920x1x1xf32>
    %inserted_slice_1332 = tensor.insert_slice %535 into %inserted_slice_1331[0, 1776, 0, 0] [1, 48, 1, 1] [1, 1, 1, 1] : tensor<1x48x1x1xf32> into tensor<1x1920x1x1xf32>
    %inserted_slice_1333 = tensor.insert_slice %542 into %inserted_slice_1332[0, 1824, 0, 0] [1, 48, 1, 1] [1, 1, 1, 1] : tensor<1x48x1x1xf32> into tensor<1x1920x1x1xf32>
    %inserted_slice_1334 = tensor.insert_slice %549 into %inserted_slice_1333[0, 1872, 0, 0] [1, 48, 1, 1] [1, 1, 1, 1] : tensor<1x48x1x1xf32> into tensor<1x1920x1x1xf32>
    cf.assert %3, "training is not supported for now"
    %551 = linalg.generic {indexing_maps = [#map, #map1, #map1, #map1, #map1, #map], iterator_types = ["parallel", "parallel", "parallel", "parallel"]} ins(%inserted_slice_1334, %cst_71, %cst_70, %cst_70, %cst_71 : tensor<1x1920x1x1xf32>, tensor<1920xf32>, tensor<1920xf32>, tensor<1920xf32>, tensor<1920xf32>) outs(%inserted_slice_1334 : tensor<1x1920x1x1xf32>) {
    ^bb0(%in: f32, %in_1476: f32, %in_1477: f32, %in_1478: f32, %in_1479: f32, %out: f32):
      %604 = arith.truncf %cst_253 : f64 to f32
      %605 = arith.addf %in_1479, %604 : f32
      %606 = math.rsqrt %605 : f32
      %607 = arith.subf %in, %in_1478 : f32
      %608 = arith.mulf %607, %606 : f32
      %609 = arith.mulf %608, %in_1476 : f32
      %610 = arith.addf %609, %in_1477 : f32
      linalg.yield %610 : f32
    } -> tensor<1x1920x1x1xf32>
    %552 = linalg.generic {indexing_maps = [#map3, #map], iterator_types = ["parallel", "parallel", "parallel", "parallel"]} ins(%551 : tensor<1x1920x1x1xf32>) outs(%550 : tensor<1x1920x1x1xf32>) {
    ^bb0(%in: f32, %out: f32):
      %604 = arith.cmpf ugt, %in, %cst_251 : f32
      %605 = arith.select %604, %in, %cst_251 : f32
      linalg.yield %605 : f32
    } -> tensor<1x1920x1x1xf32>
    %553 = linalg.conv_2d_nchw_fchw {dilations = dense<1> : vector<2xi64>, strides = dense<1> : vector<2xi64>} ins(%552, %cst_16 : tensor<1x1920x1x1xf32>, tensor<192x1920x1x1xf32>) outs(%424 : tensor<1x192x1x1xf32>) -> tensor<1x192x1x1xf32>
    cf.assert %3, "training is not supported for now"
    %554 = linalg.generic {indexing_maps = [#map, #map1, #map1, #map1, #map1, #map], iterator_types = ["parallel", "parallel", "parallel", "parallel"]} ins(%553, %cst_246, %cst_245, %cst_245, %cst_246 : tensor<1x192x1x1xf32>, tensor<192xf32>, tensor<192xf32>, tensor<192xf32>, tensor<192xf32>) outs(%553 : tensor<1x192x1x1xf32>) {
    ^bb0(%in: f32, %in_1476: f32, %in_1477: f32, %in_1478: f32, %in_1479: f32, %out: f32):
      %604 = arith.truncf %cst_253 : f64 to f32
      %605 = arith.addf %in_1479, %604 : f32
      %606 = math.rsqrt %605 : f32
      %607 = arith.subf %in, %in_1478 : f32
      %608 = arith.mulf %607, %606 : f32
      %609 = arith.mulf %608, %in_1476 : f32
      %610 = arith.addf %609, %in_1477 : f32
      linalg.yield %610 : f32
    } -> tensor<1x192x1x1xf32>
    %555 = linalg.generic {indexing_maps = [#map3, #map], iterator_types = ["parallel", "parallel", "parallel", "parallel"]} ins(%554 : tensor<1x192x1x1xf32>) outs(%423 : tensor<1x192x1x1xf32>) {
    ^bb0(%in: f32, %out: f32):
      %604 = arith.cmpf ugt, %in, %cst_251 : f32
      %605 = arith.select %604, %in, %cst_251 : f32
      linalg.yield %605 : f32
    } -> tensor<1x192x1x1xf32>
    %padded_1335 = tensor.pad %555 low[0, 0, 1, 1] high[0, 0, 1, 1] {
    ^bb0(%arg1: index, %arg2: index, %arg3: index, %arg4: index):
      tensor.yield %cst_251 : f32
    } : tensor<1x192x1x1xf32> to tensor<1x192x3x3xf32>
    %556 = linalg.conv_2d_nchw_fchw {dilations = dense<1> : vector<2xi64>, strides = dense<1> : vector<2xi64>} ins(%padded_1335, %cst_15 : tensor<1x192x3x3xf32>, tensor<48x192x3x3xf32>) outs(%429 : tensor<1x48x1x1xf32>) -> tensor<1x48x1x1xf32>
    %557 = tensor.empty() : tensor<1x1968x1x1xf32>
    %inserted_slice_1336 = tensor.insert_slice %420 into %557[0, 0, 0, 0] [1, 1056, 1, 1] [1, 1, 1, 1] : tensor<1x1056x1x1xf32> into tensor<1x1968x1x1xf32>
    %inserted_slice_1337 = tensor.insert_slice %430 into %inserted_slice_1336[0, 1056, 0, 0] [1, 48, 1, 1] [1, 1, 1, 1] : tensor<1x48x1x1xf32> into tensor<1x1968x1x1xf32>
    %inserted_slice_1338 = tensor.insert_slice %437 into %inserted_slice_1337[0, 1104, 0, 0] [1, 48, 1, 1] [1, 1, 1, 1] : tensor<1x48x1x1xf32> into tensor<1x1968x1x1xf32>
    %inserted_slice_1339 = tensor.insert_slice %444 into %inserted_slice_1338[0, 1152, 0, 0] [1, 48, 1, 1] [1, 1, 1, 1] : tensor<1x48x1x1xf32> into tensor<1x1968x1x1xf32>
    %inserted_slice_1340 = tensor.insert_slice %451 into %inserted_slice_1339[0, 1200, 0, 0] [1, 48, 1, 1] [1, 1, 1, 1] : tensor<1x48x1x1xf32> into tensor<1x1968x1x1xf32>
    %inserted_slice_1341 = tensor.insert_slice %458 into %inserted_slice_1340[0, 1248, 0, 0] [1, 48, 1, 1] [1, 1, 1, 1] : tensor<1x48x1x1xf32> into tensor<1x1968x1x1xf32>
    %inserted_slice_1342 = tensor.insert_slice %465 into %inserted_slice_1341[0, 1296, 0, 0] [1, 48, 1, 1] [1, 1, 1, 1] : tensor<1x48x1x1xf32> into tensor<1x1968x1x1xf32>
    %inserted_slice_1343 = tensor.insert_slice %472 into %inserted_slice_1342[0, 1344, 0, 0] [1, 48, 1, 1] [1, 1, 1, 1] : tensor<1x48x1x1xf32> into tensor<1x1968x1x1xf32>
    %inserted_slice_1344 = tensor.insert_slice %479 into %inserted_slice_1343[0, 1392, 0, 0] [1, 48, 1, 1] [1, 1, 1, 1] : tensor<1x48x1x1xf32> into tensor<1x1968x1x1xf32>
    %inserted_slice_1345 = tensor.insert_slice %486 into %inserted_slice_1344[0, 1440, 0, 0] [1, 48, 1, 1] [1, 1, 1, 1] : tensor<1x48x1x1xf32> into tensor<1x1968x1x1xf32>
    %inserted_slice_1346 = tensor.insert_slice %493 into %inserted_slice_1345[0, 1488, 0, 0] [1, 48, 1, 1] [1, 1, 1, 1] : tensor<1x48x1x1xf32> into tensor<1x1968x1x1xf32>
    %inserted_slice_1347 = tensor.insert_slice %500 into %inserted_slice_1346[0, 1536, 0, 0] [1, 48, 1, 1] [1, 1, 1, 1] : tensor<1x48x1x1xf32> into tensor<1x1968x1x1xf32>
    %inserted_slice_1348 = tensor.insert_slice %507 into %inserted_slice_1347[0, 1584, 0, 0] [1, 48, 1, 1] [1, 1, 1, 1] : tensor<1x48x1x1xf32> into tensor<1x1968x1x1xf32>
    %inserted_slice_1349 = tensor.insert_slice %514 into %inserted_slice_1348[0, 1632, 0, 0] [1, 48, 1, 1] [1, 1, 1, 1] : tensor<1x48x1x1xf32> into tensor<1x1968x1x1xf32>
    %inserted_slice_1350 = tensor.insert_slice %521 into %inserted_slice_1349[0, 1680, 0, 0] [1, 48, 1, 1] [1, 1, 1, 1] : tensor<1x48x1x1xf32> into tensor<1x1968x1x1xf32>
    %inserted_slice_1351 = tensor.insert_slice %528 into %inserted_slice_1350[0, 1728, 0, 0] [1, 48, 1, 1] [1, 1, 1, 1] : tensor<1x48x1x1xf32> into tensor<1x1968x1x1xf32>
    %inserted_slice_1352 = tensor.insert_slice %535 into %inserted_slice_1351[0, 1776, 0, 0] [1, 48, 1, 1] [1, 1, 1, 1] : tensor<1x48x1x1xf32> into tensor<1x1968x1x1xf32>
    %inserted_slice_1353 = tensor.insert_slice %542 into %inserted_slice_1352[0, 1824, 0, 0] [1, 48, 1, 1] [1, 1, 1, 1] : tensor<1x48x1x1xf32> into tensor<1x1968x1x1xf32>
    %inserted_slice_1354 = tensor.insert_slice %549 into %inserted_slice_1353[0, 1872, 0, 0] [1, 48, 1, 1] [1, 1, 1, 1] : tensor<1x48x1x1xf32> into tensor<1x1968x1x1xf32>
    %inserted_slice_1355 = tensor.insert_slice %556 into %inserted_slice_1354[0, 1920, 0, 0] [1, 48, 1, 1] [1, 1, 1, 1] : tensor<1x48x1x1xf32> into tensor<1x1968x1x1xf32>
    cf.assert %3, "training is not supported for now"
    %558 = linalg.generic {indexing_maps = [#map, #map1, #map1, #map1, #map1, #map], iterator_types = ["parallel", "parallel", "parallel", "parallel"]} ins(%inserted_slice_1355, %cst_67, %cst_66, %cst_66, %cst_67 : tensor<1x1968x1x1xf32>, tensor<1968xf32>, tensor<1968xf32>, tensor<1968xf32>, tensor<1968xf32>) outs(%inserted_slice_1355 : tensor<1x1968x1x1xf32>) {
    ^bb0(%in: f32, %in_1476: f32, %in_1477: f32, %in_1478: f32, %in_1479: f32, %out: f32):
      %604 = arith.truncf %cst_253 : f64 to f32
      %605 = arith.addf %in_1479, %604 : f32
      %606 = math.rsqrt %605 : f32
      %607 = arith.subf %in, %in_1478 : f32
      %608 = arith.mulf %607, %606 : f32
      %609 = arith.mulf %608, %in_1476 : f32
      %610 = arith.addf %609, %in_1477 : f32
      linalg.yield %610 : f32
    } -> tensor<1x1968x1x1xf32>
    %559 = linalg.generic {indexing_maps = [#map3, #map], iterator_types = ["parallel", "parallel", "parallel", "parallel"]} ins(%558 : tensor<1x1968x1x1xf32>) outs(%557 : tensor<1x1968x1x1xf32>) {
    ^bb0(%in: f32, %out: f32):
      %604 = arith.cmpf ugt, %in, %cst_251 : f32
      %605 = arith.select %604, %in, %cst_251 : f32
      linalg.yield %605 : f32
    } -> tensor<1x1968x1x1xf32>
    %560 = linalg.conv_2d_nchw_fchw {dilations = dense<1> : vector<2xi64>, strides = dense<1> : vector<2xi64>} ins(%559, %cst_14 : tensor<1x1968x1x1xf32>, tensor<192x1968x1x1xf32>) outs(%424 : tensor<1x192x1x1xf32>) -> tensor<1x192x1x1xf32>
    cf.assert %3, "training is not supported for now"
    %561 = linalg.generic {indexing_maps = [#map, #map1, #map1, #map1, #map1, #map], iterator_types = ["parallel", "parallel", "parallel", "parallel"]} ins(%560, %cst_246, %cst_245, %cst_245, %cst_246 : tensor<1x192x1x1xf32>, tensor<192xf32>, tensor<192xf32>, tensor<192xf32>, tensor<192xf32>) outs(%560 : tensor<1x192x1x1xf32>) {
    ^bb0(%in: f32, %in_1476: f32, %in_1477: f32, %in_1478: f32, %in_1479: f32, %out: f32):
      %604 = arith.truncf %cst_253 : f64 to f32
      %605 = arith.addf %in_1479, %604 : f32
      %606 = math.rsqrt %605 : f32
      %607 = arith.subf %in, %in_1478 : f32
      %608 = arith.mulf %607, %606 : f32
      %609 = arith.mulf %608, %in_1476 : f32
      %610 = arith.addf %609, %in_1477 : f32
      linalg.yield %610 : f32
    } -> tensor<1x192x1x1xf32>
    %562 = linalg.generic {indexing_maps = [#map3, #map], iterator_types = ["parallel", "parallel", "parallel", "parallel"]} ins(%561 : tensor<1x192x1x1xf32>) outs(%423 : tensor<1x192x1x1xf32>) {
    ^bb0(%in: f32, %out: f32):
      %604 = arith.cmpf ugt, %in, %cst_251 : f32
      %605 = arith.select %604, %in, %cst_251 : f32
      linalg.yield %605 : f32
    } -> tensor<1x192x1x1xf32>
    %padded_1356 = tensor.pad %562 low[0, 0, 1, 1] high[0, 0, 1, 1] {
    ^bb0(%arg1: index, %arg2: index, %arg3: index, %arg4: index):
      tensor.yield %cst_251 : f32
    } : tensor<1x192x1x1xf32> to tensor<1x192x3x3xf32>
    %563 = linalg.conv_2d_nchw_fchw {dilations = dense<1> : vector<2xi64>, strides = dense<1> : vector<2xi64>} ins(%padded_1356, %cst_13 : tensor<1x192x3x3xf32>, tensor<48x192x3x3xf32>) outs(%429 : tensor<1x48x1x1xf32>) -> tensor<1x48x1x1xf32>
    %564 = tensor.empty() : tensor<1x2016x1x1xf32>
    %inserted_slice_1357 = tensor.insert_slice %420 into %564[0, 0, 0, 0] [1, 1056, 1, 1] [1, 1, 1, 1] : tensor<1x1056x1x1xf32> into tensor<1x2016x1x1xf32>
    %inserted_slice_1358 = tensor.insert_slice %430 into %inserted_slice_1357[0, 1056, 0, 0] [1, 48, 1, 1] [1, 1, 1, 1] : tensor<1x48x1x1xf32> into tensor<1x2016x1x1xf32>
    %inserted_slice_1359 = tensor.insert_slice %437 into %inserted_slice_1358[0, 1104, 0, 0] [1, 48, 1, 1] [1, 1, 1, 1] : tensor<1x48x1x1xf32> into tensor<1x2016x1x1xf32>
    %inserted_slice_1360 = tensor.insert_slice %444 into %inserted_slice_1359[0, 1152, 0, 0] [1, 48, 1, 1] [1, 1, 1, 1] : tensor<1x48x1x1xf32> into tensor<1x2016x1x1xf32>
    %inserted_slice_1361 = tensor.insert_slice %451 into %inserted_slice_1360[0, 1200, 0, 0] [1, 48, 1, 1] [1, 1, 1, 1] : tensor<1x48x1x1xf32> into tensor<1x2016x1x1xf32>
    %inserted_slice_1362 = tensor.insert_slice %458 into %inserted_slice_1361[0, 1248, 0, 0] [1, 48, 1, 1] [1, 1, 1, 1] : tensor<1x48x1x1xf32> into tensor<1x2016x1x1xf32>
    %inserted_slice_1363 = tensor.insert_slice %465 into %inserted_slice_1362[0, 1296, 0, 0] [1, 48, 1, 1] [1, 1, 1, 1] : tensor<1x48x1x1xf32> into tensor<1x2016x1x1xf32>
    %inserted_slice_1364 = tensor.insert_slice %472 into %inserted_slice_1363[0, 1344, 0, 0] [1, 48, 1, 1] [1, 1, 1, 1] : tensor<1x48x1x1xf32> into tensor<1x2016x1x1xf32>
    %inserted_slice_1365 = tensor.insert_slice %479 into %inserted_slice_1364[0, 1392, 0, 0] [1, 48, 1, 1] [1, 1, 1, 1] : tensor<1x48x1x1xf32> into tensor<1x2016x1x1xf32>
    %inserted_slice_1366 = tensor.insert_slice %486 into %inserted_slice_1365[0, 1440, 0, 0] [1, 48, 1, 1] [1, 1, 1, 1] : tensor<1x48x1x1xf32> into tensor<1x2016x1x1xf32>
    %inserted_slice_1367 = tensor.insert_slice %493 into %inserted_slice_1366[0, 1488, 0, 0] [1, 48, 1, 1] [1, 1, 1, 1] : tensor<1x48x1x1xf32> into tensor<1x2016x1x1xf32>
    %inserted_slice_1368 = tensor.insert_slice %500 into %inserted_slice_1367[0, 1536, 0, 0] [1, 48, 1, 1] [1, 1, 1, 1] : tensor<1x48x1x1xf32> into tensor<1x2016x1x1xf32>
    %inserted_slice_1369 = tensor.insert_slice %507 into %inserted_slice_1368[0, 1584, 0, 0] [1, 48, 1, 1] [1, 1, 1, 1] : tensor<1x48x1x1xf32> into tensor<1x2016x1x1xf32>
    %inserted_slice_1370 = tensor.insert_slice %514 into %inserted_slice_1369[0, 1632, 0, 0] [1, 48, 1, 1] [1, 1, 1, 1] : tensor<1x48x1x1xf32> into tensor<1x2016x1x1xf32>
    %inserted_slice_1371 = tensor.insert_slice %521 into %inserted_slice_1370[0, 1680, 0, 0] [1, 48, 1, 1] [1, 1, 1, 1] : tensor<1x48x1x1xf32> into tensor<1x2016x1x1xf32>
    %inserted_slice_1372 = tensor.insert_slice %528 into %inserted_slice_1371[0, 1728, 0, 0] [1, 48, 1, 1] [1, 1, 1, 1] : tensor<1x48x1x1xf32> into tensor<1x2016x1x1xf32>
    %inserted_slice_1373 = tensor.insert_slice %535 into %inserted_slice_1372[0, 1776, 0, 0] [1, 48, 1, 1] [1, 1, 1, 1] : tensor<1x48x1x1xf32> into tensor<1x2016x1x1xf32>
    %inserted_slice_1374 = tensor.insert_slice %542 into %inserted_slice_1373[0, 1824, 0, 0] [1, 48, 1, 1] [1, 1, 1, 1] : tensor<1x48x1x1xf32> into tensor<1x2016x1x1xf32>
    %inserted_slice_1375 = tensor.insert_slice %549 into %inserted_slice_1374[0, 1872, 0, 0] [1, 48, 1, 1] [1, 1, 1, 1] : tensor<1x48x1x1xf32> into tensor<1x2016x1x1xf32>
    %inserted_slice_1376 = tensor.insert_slice %556 into %inserted_slice_1375[0, 1920, 0, 0] [1, 48, 1, 1] [1, 1, 1, 1] : tensor<1x48x1x1xf32> into tensor<1x2016x1x1xf32>
    %inserted_slice_1377 = tensor.insert_slice %563 into %inserted_slice_1376[0, 1968, 0, 0] [1, 48, 1, 1] [1, 1, 1, 1] : tensor<1x48x1x1xf32> into tensor<1x2016x1x1xf32>
    cf.assert %3, "training is not supported for now"
    %565 = linalg.generic {indexing_maps = [#map, #map1, #map1, #map1, #map1, #map], iterator_types = ["parallel", "parallel", "parallel", "parallel"]} ins(%inserted_slice_1377, %cst_63, %cst_62, %cst_62, %cst_63 : tensor<1x2016x1x1xf32>, tensor<2016xf32>, tensor<2016xf32>, tensor<2016xf32>, tensor<2016xf32>) outs(%inserted_slice_1377 : tensor<1x2016x1x1xf32>) {
    ^bb0(%in: f32, %in_1476: f32, %in_1477: f32, %in_1478: f32, %in_1479: f32, %out: f32):
      %604 = arith.truncf %cst_253 : f64 to f32
      %605 = arith.addf %in_1479, %604 : f32
      %606 = math.rsqrt %605 : f32
      %607 = arith.subf %in, %in_1478 : f32
      %608 = arith.mulf %607, %606 : f32
      %609 = arith.mulf %608, %in_1476 : f32
      %610 = arith.addf %609, %in_1477 : f32
      linalg.yield %610 : f32
    } -> tensor<1x2016x1x1xf32>
    %566 = linalg.generic {indexing_maps = [#map3, #map], iterator_types = ["parallel", "parallel", "parallel", "parallel"]} ins(%565 : tensor<1x2016x1x1xf32>) outs(%564 : tensor<1x2016x1x1xf32>) {
    ^bb0(%in: f32, %out: f32):
      %604 = arith.cmpf ugt, %in, %cst_251 : f32
      %605 = arith.select %604, %in, %cst_251 : f32
      linalg.yield %605 : f32
    } -> tensor<1x2016x1x1xf32>
    %567 = linalg.conv_2d_nchw_fchw {dilations = dense<1> : vector<2xi64>, strides = dense<1> : vector<2xi64>} ins(%566, %cst_12 : tensor<1x2016x1x1xf32>, tensor<192x2016x1x1xf32>) outs(%424 : tensor<1x192x1x1xf32>) -> tensor<1x192x1x1xf32>
    cf.assert %3, "training is not supported for now"
    %568 = linalg.generic {indexing_maps = [#map, #map1, #map1, #map1, #map1, #map], iterator_types = ["parallel", "parallel", "parallel", "parallel"]} ins(%567, %cst_246, %cst_245, %cst_245, %cst_246 : tensor<1x192x1x1xf32>, tensor<192xf32>, tensor<192xf32>, tensor<192xf32>, tensor<192xf32>) outs(%567 : tensor<1x192x1x1xf32>) {
    ^bb0(%in: f32, %in_1476: f32, %in_1477: f32, %in_1478: f32, %in_1479: f32, %out: f32):
      %604 = arith.truncf %cst_253 : f64 to f32
      %605 = arith.addf %in_1479, %604 : f32
      %606 = math.rsqrt %605 : f32
      %607 = arith.subf %in, %in_1478 : f32
      %608 = arith.mulf %607, %606 : f32
      %609 = arith.mulf %608, %in_1476 : f32
      %610 = arith.addf %609, %in_1477 : f32
      linalg.yield %610 : f32
    } -> tensor<1x192x1x1xf32>
    %569 = linalg.generic {indexing_maps = [#map3, #map], iterator_types = ["parallel", "parallel", "parallel", "parallel"]} ins(%568 : tensor<1x192x1x1xf32>) outs(%423 : tensor<1x192x1x1xf32>) {
    ^bb0(%in: f32, %out: f32):
      %604 = arith.cmpf ugt, %in, %cst_251 : f32
      %605 = arith.select %604, %in, %cst_251 : f32
      linalg.yield %605 : f32
    } -> tensor<1x192x1x1xf32>
    %padded_1378 = tensor.pad %569 low[0, 0, 1, 1] high[0, 0, 1, 1] {
    ^bb0(%arg1: index, %arg2: index, %arg3: index, %arg4: index):
      tensor.yield %cst_251 : f32
    } : tensor<1x192x1x1xf32> to tensor<1x192x3x3xf32>
    %570 = linalg.conv_2d_nchw_fchw {dilations = dense<1> : vector<2xi64>, strides = dense<1> : vector<2xi64>} ins(%padded_1378, %cst_11 : tensor<1x192x3x3xf32>, tensor<48x192x3x3xf32>) outs(%429 : tensor<1x48x1x1xf32>) -> tensor<1x48x1x1xf32>
    %571 = tensor.empty() : tensor<1x2064x1x1xf32>
    %inserted_slice_1379 = tensor.insert_slice %420 into %571[0, 0, 0, 0] [1, 1056, 1, 1] [1, 1, 1, 1] : tensor<1x1056x1x1xf32> into tensor<1x2064x1x1xf32>
    %inserted_slice_1380 = tensor.insert_slice %430 into %inserted_slice_1379[0, 1056, 0, 0] [1, 48, 1, 1] [1, 1, 1, 1] : tensor<1x48x1x1xf32> into tensor<1x2064x1x1xf32>
    %inserted_slice_1381 = tensor.insert_slice %437 into %inserted_slice_1380[0, 1104, 0, 0] [1, 48, 1, 1] [1, 1, 1, 1] : tensor<1x48x1x1xf32> into tensor<1x2064x1x1xf32>
    %inserted_slice_1382 = tensor.insert_slice %444 into %inserted_slice_1381[0, 1152, 0, 0] [1, 48, 1, 1] [1, 1, 1, 1] : tensor<1x48x1x1xf32> into tensor<1x2064x1x1xf32>
    %inserted_slice_1383 = tensor.insert_slice %451 into %inserted_slice_1382[0, 1200, 0, 0] [1, 48, 1, 1] [1, 1, 1, 1] : tensor<1x48x1x1xf32> into tensor<1x2064x1x1xf32>
    %inserted_slice_1384 = tensor.insert_slice %458 into %inserted_slice_1383[0, 1248, 0, 0] [1, 48, 1, 1] [1, 1, 1, 1] : tensor<1x48x1x1xf32> into tensor<1x2064x1x1xf32>
    %inserted_slice_1385 = tensor.insert_slice %465 into %inserted_slice_1384[0, 1296, 0, 0] [1, 48, 1, 1] [1, 1, 1, 1] : tensor<1x48x1x1xf32> into tensor<1x2064x1x1xf32>
    %inserted_slice_1386 = tensor.insert_slice %472 into %inserted_slice_1385[0, 1344, 0, 0] [1, 48, 1, 1] [1, 1, 1, 1] : tensor<1x48x1x1xf32> into tensor<1x2064x1x1xf32>
    %inserted_slice_1387 = tensor.insert_slice %479 into %inserted_slice_1386[0, 1392, 0, 0] [1, 48, 1, 1] [1, 1, 1, 1] : tensor<1x48x1x1xf32> into tensor<1x2064x1x1xf32>
    %inserted_slice_1388 = tensor.insert_slice %486 into %inserted_slice_1387[0, 1440, 0, 0] [1, 48, 1, 1] [1, 1, 1, 1] : tensor<1x48x1x1xf32> into tensor<1x2064x1x1xf32>
    %inserted_slice_1389 = tensor.insert_slice %493 into %inserted_slice_1388[0, 1488, 0, 0] [1, 48, 1, 1] [1, 1, 1, 1] : tensor<1x48x1x1xf32> into tensor<1x2064x1x1xf32>
    %inserted_slice_1390 = tensor.insert_slice %500 into %inserted_slice_1389[0, 1536, 0, 0] [1, 48, 1, 1] [1, 1, 1, 1] : tensor<1x48x1x1xf32> into tensor<1x2064x1x1xf32>
    %inserted_slice_1391 = tensor.insert_slice %507 into %inserted_slice_1390[0, 1584, 0, 0] [1, 48, 1, 1] [1, 1, 1, 1] : tensor<1x48x1x1xf32> into tensor<1x2064x1x1xf32>
    %inserted_slice_1392 = tensor.insert_slice %514 into %inserted_slice_1391[0, 1632, 0, 0] [1, 48, 1, 1] [1, 1, 1, 1] : tensor<1x48x1x1xf32> into tensor<1x2064x1x1xf32>
    %inserted_slice_1393 = tensor.insert_slice %521 into %inserted_slice_1392[0, 1680, 0, 0] [1, 48, 1, 1] [1, 1, 1, 1] : tensor<1x48x1x1xf32> into tensor<1x2064x1x1xf32>
    %inserted_slice_1394 = tensor.insert_slice %528 into %inserted_slice_1393[0, 1728, 0, 0] [1, 48, 1, 1] [1, 1, 1, 1] : tensor<1x48x1x1xf32> into tensor<1x2064x1x1xf32>
    %inserted_slice_1395 = tensor.insert_slice %535 into %inserted_slice_1394[0, 1776, 0, 0] [1, 48, 1, 1] [1, 1, 1, 1] : tensor<1x48x1x1xf32> into tensor<1x2064x1x1xf32>
    %inserted_slice_1396 = tensor.insert_slice %542 into %inserted_slice_1395[0, 1824, 0, 0] [1, 48, 1, 1] [1, 1, 1, 1] : tensor<1x48x1x1xf32> into tensor<1x2064x1x1xf32>
    %inserted_slice_1397 = tensor.insert_slice %549 into %inserted_slice_1396[0, 1872, 0, 0] [1, 48, 1, 1] [1, 1, 1, 1] : tensor<1x48x1x1xf32> into tensor<1x2064x1x1xf32>
    %inserted_slice_1398 = tensor.insert_slice %556 into %inserted_slice_1397[0, 1920, 0, 0] [1, 48, 1, 1] [1, 1, 1, 1] : tensor<1x48x1x1xf32> into tensor<1x2064x1x1xf32>
    %inserted_slice_1399 = tensor.insert_slice %563 into %inserted_slice_1398[0, 1968, 0, 0] [1, 48, 1, 1] [1, 1, 1, 1] : tensor<1x48x1x1xf32> into tensor<1x2064x1x1xf32>
    %inserted_slice_1400 = tensor.insert_slice %570 into %inserted_slice_1399[0, 2016, 0, 0] [1, 48, 1, 1] [1, 1, 1, 1] : tensor<1x48x1x1xf32> into tensor<1x2064x1x1xf32>
    cf.assert %3, "training is not supported for now"
    %572 = linalg.generic {indexing_maps = [#map, #map1, #map1, #map1, #map1, #map], iterator_types = ["parallel", "parallel", "parallel", "parallel"]} ins(%inserted_slice_1400, %cst_59, %cst_58, %cst_58, %cst_59 : tensor<1x2064x1x1xf32>, tensor<2064xf32>, tensor<2064xf32>, tensor<2064xf32>, tensor<2064xf32>) outs(%inserted_slice_1400 : tensor<1x2064x1x1xf32>) {
    ^bb0(%in: f32, %in_1476: f32, %in_1477: f32, %in_1478: f32, %in_1479: f32, %out: f32):
      %604 = arith.truncf %cst_253 : f64 to f32
      %605 = arith.addf %in_1479, %604 : f32
      %606 = math.rsqrt %605 : f32
      %607 = arith.subf %in, %in_1478 : f32
      %608 = arith.mulf %607, %606 : f32
      %609 = arith.mulf %608, %in_1476 : f32
      %610 = arith.addf %609, %in_1477 : f32
      linalg.yield %610 : f32
    } -> tensor<1x2064x1x1xf32>
    %573 = linalg.generic {indexing_maps = [#map3, #map], iterator_types = ["parallel", "parallel", "parallel", "parallel"]} ins(%572 : tensor<1x2064x1x1xf32>) outs(%571 : tensor<1x2064x1x1xf32>) {
    ^bb0(%in: f32, %out: f32):
      %604 = arith.cmpf ugt, %in, %cst_251 : f32
      %605 = arith.select %604, %in, %cst_251 : f32
      linalg.yield %605 : f32
    } -> tensor<1x2064x1x1xf32>
    %574 = linalg.conv_2d_nchw_fchw {dilations = dense<1> : vector<2xi64>, strides = dense<1> : vector<2xi64>} ins(%573, %cst_10 : tensor<1x2064x1x1xf32>, tensor<192x2064x1x1xf32>) outs(%424 : tensor<1x192x1x1xf32>) -> tensor<1x192x1x1xf32>
    cf.assert %3, "training is not supported for now"
    %575 = linalg.generic {indexing_maps = [#map, #map1, #map1, #map1, #map1, #map], iterator_types = ["parallel", "parallel", "parallel", "parallel"]} ins(%574, %cst_246, %cst_245, %cst_245, %cst_246 : tensor<1x192x1x1xf32>, tensor<192xf32>, tensor<192xf32>, tensor<192xf32>, tensor<192xf32>) outs(%574 : tensor<1x192x1x1xf32>) {
    ^bb0(%in: f32, %in_1476: f32, %in_1477: f32, %in_1478: f32, %in_1479: f32, %out: f32):
      %604 = arith.truncf %cst_253 : f64 to f32
      %605 = arith.addf %in_1479, %604 : f32
      %606 = math.rsqrt %605 : f32
      %607 = arith.subf %in, %in_1478 : f32
      %608 = arith.mulf %607, %606 : f32
      %609 = arith.mulf %608, %in_1476 : f32
      %610 = arith.addf %609, %in_1477 : f32
      linalg.yield %610 : f32
    } -> tensor<1x192x1x1xf32>
    %576 = linalg.generic {indexing_maps = [#map3, #map], iterator_types = ["parallel", "parallel", "parallel", "parallel"]} ins(%575 : tensor<1x192x1x1xf32>) outs(%423 : tensor<1x192x1x1xf32>) {
    ^bb0(%in: f32, %out: f32):
      %604 = arith.cmpf ugt, %in, %cst_251 : f32
      %605 = arith.select %604, %in, %cst_251 : f32
      linalg.yield %605 : f32
    } -> tensor<1x192x1x1xf32>
    %padded_1401 = tensor.pad %576 low[0, 0, 1, 1] high[0, 0, 1, 1] {
    ^bb0(%arg1: index, %arg2: index, %arg3: index, %arg4: index):
      tensor.yield %cst_251 : f32
    } : tensor<1x192x1x1xf32> to tensor<1x192x3x3xf32>
    %577 = linalg.conv_2d_nchw_fchw {dilations = dense<1> : vector<2xi64>, strides = dense<1> : vector<2xi64>} ins(%padded_1401, %cst_9 : tensor<1x192x3x3xf32>, tensor<48x192x3x3xf32>) outs(%429 : tensor<1x48x1x1xf32>) -> tensor<1x48x1x1xf32>
    %578 = tensor.empty() : tensor<1x2112x1x1xf32>
    %inserted_slice_1402 = tensor.insert_slice %420 into %578[0, 0, 0, 0] [1, 1056, 1, 1] [1, 1, 1, 1] : tensor<1x1056x1x1xf32> into tensor<1x2112x1x1xf32>
    %inserted_slice_1403 = tensor.insert_slice %430 into %inserted_slice_1402[0, 1056, 0, 0] [1, 48, 1, 1] [1, 1, 1, 1] : tensor<1x48x1x1xf32> into tensor<1x2112x1x1xf32>
    %inserted_slice_1404 = tensor.insert_slice %437 into %inserted_slice_1403[0, 1104, 0, 0] [1, 48, 1, 1] [1, 1, 1, 1] : tensor<1x48x1x1xf32> into tensor<1x2112x1x1xf32>
    %inserted_slice_1405 = tensor.insert_slice %444 into %inserted_slice_1404[0, 1152, 0, 0] [1, 48, 1, 1] [1, 1, 1, 1] : tensor<1x48x1x1xf32> into tensor<1x2112x1x1xf32>
    %inserted_slice_1406 = tensor.insert_slice %451 into %inserted_slice_1405[0, 1200, 0, 0] [1, 48, 1, 1] [1, 1, 1, 1] : tensor<1x48x1x1xf32> into tensor<1x2112x1x1xf32>
    %inserted_slice_1407 = tensor.insert_slice %458 into %inserted_slice_1406[0, 1248, 0, 0] [1, 48, 1, 1] [1, 1, 1, 1] : tensor<1x48x1x1xf32> into tensor<1x2112x1x1xf32>
    %inserted_slice_1408 = tensor.insert_slice %465 into %inserted_slice_1407[0, 1296, 0, 0] [1, 48, 1, 1] [1, 1, 1, 1] : tensor<1x48x1x1xf32> into tensor<1x2112x1x1xf32>
    %inserted_slice_1409 = tensor.insert_slice %472 into %inserted_slice_1408[0, 1344, 0, 0] [1, 48, 1, 1] [1, 1, 1, 1] : tensor<1x48x1x1xf32> into tensor<1x2112x1x1xf32>
    %inserted_slice_1410 = tensor.insert_slice %479 into %inserted_slice_1409[0, 1392, 0, 0] [1, 48, 1, 1] [1, 1, 1, 1] : tensor<1x48x1x1xf32> into tensor<1x2112x1x1xf32>
    %inserted_slice_1411 = tensor.insert_slice %486 into %inserted_slice_1410[0, 1440, 0, 0] [1, 48, 1, 1] [1, 1, 1, 1] : tensor<1x48x1x1xf32> into tensor<1x2112x1x1xf32>
    %inserted_slice_1412 = tensor.insert_slice %493 into %inserted_slice_1411[0, 1488, 0, 0] [1, 48, 1, 1] [1, 1, 1, 1] : tensor<1x48x1x1xf32> into tensor<1x2112x1x1xf32>
    %inserted_slice_1413 = tensor.insert_slice %500 into %inserted_slice_1412[0, 1536, 0, 0] [1, 48, 1, 1] [1, 1, 1, 1] : tensor<1x48x1x1xf32> into tensor<1x2112x1x1xf32>
    %inserted_slice_1414 = tensor.insert_slice %507 into %inserted_slice_1413[0, 1584, 0, 0] [1, 48, 1, 1] [1, 1, 1, 1] : tensor<1x48x1x1xf32> into tensor<1x2112x1x1xf32>
    %inserted_slice_1415 = tensor.insert_slice %514 into %inserted_slice_1414[0, 1632, 0, 0] [1, 48, 1, 1] [1, 1, 1, 1] : tensor<1x48x1x1xf32> into tensor<1x2112x1x1xf32>
    %inserted_slice_1416 = tensor.insert_slice %521 into %inserted_slice_1415[0, 1680, 0, 0] [1, 48, 1, 1] [1, 1, 1, 1] : tensor<1x48x1x1xf32> into tensor<1x2112x1x1xf32>
    %inserted_slice_1417 = tensor.insert_slice %528 into %inserted_slice_1416[0, 1728, 0, 0] [1, 48, 1, 1] [1, 1, 1, 1] : tensor<1x48x1x1xf32> into tensor<1x2112x1x1xf32>
    %inserted_slice_1418 = tensor.insert_slice %535 into %inserted_slice_1417[0, 1776, 0, 0] [1, 48, 1, 1] [1, 1, 1, 1] : tensor<1x48x1x1xf32> into tensor<1x2112x1x1xf32>
    %inserted_slice_1419 = tensor.insert_slice %542 into %inserted_slice_1418[0, 1824, 0, 0] [1, 48, 1, 1] [1, 1, 1, 1] : tensor<1x48x1x1xf32> into tensor<1x2112x1x1xf32>
    %inserted_slice_1420 = tensor.insert_slice %549 into %inserted_slice_1419[0, 1872, 0, 0] [1, 48, 1, 1] [1, 1, 1, 1] : tensor<1x48x1x1xf32> into tensor<1x2112x1x1xf32>
    %inserted_slice_1421 = tensor.insert_slice %556 into %inserted_slice_1420[0, 1920, 0, 0] [1, 48, 1, 1] [1, 1, 1, 1] : tensor<1x48x1x1xf32> into tensor<1x2112x1x1xf32>
    %inserted_slice_1422 = tensor.insert_slice %563 into %inserted_slice_1421[0, 1968, 0, 0] [1, 48, 1, 1] [1, 1, 1, 1] : tensor<1x48x1x1xf32> into tensor<1x2112x1x1xf32>
    %inserted_slice_1423 = tensor.insert_slice %570 into %inserted_slice_1422[0, 2016, 0, 0] [1, 48, 1, 1] [1, 1, 1, 1] : tensor<1x48x1x1xf32> into tensor<1x2112x1x1xf32>
    %inserted_slice_1424 = tensor.insert_slice %577 into %inserted_slice_1423[0, 2064, 0, 0] [1, 48, 1, 1] [1, 1, 1, 1] : tensor<1x48x1x1xf32> into tensor<1x2112x1x1xf32>
    cf.assert %3, "training is not supported for now"
    %579 = linalg.generic {indexing_maps = [#map, #map1, #map1, #map1, #map1, #map], iterator_types = ["parallel", "parallel", "parallel", "parallel"]} ins(%inserted_slice_1424, %cst_55, %cst_54, %cst_54, %cst_55 : tensor<1x2112x1x1xf32>, tensor<2112xf32>, tensor<2112xf32>, tensor<2112xf32>, tensor<2112xf32>) outs(%inserted_slice_1424 : tensor<1x2112x1x1xf32>) {
    ^bb0(%in: f32, %in_1476: f32, %in_1477: f32, %in_1478: f32, %in_1479: f32, %out: f32):
      %604 = arith.truncf %cst_253 : f64 to f32
      %605 = arith.addf %in_1479, %604 : f32
      %606 = math.rsqrt %605 : f32
      %607 = arith.subf %in, %in_1478 : f32
      %608 = arith.mulf %607, %606 : f32
      %609 = arith.mulf %608, %in_1476 : f32
      %610 = arith.addf %609, %in_1477 : f32
      linalg.yield %610 : f32
    } -> tensor<1x2112x1x1xf32>
    %580 = linalg.generic {indexing_maps = [#map3, #map], iterator_types = ["parallel", "parallel", "parallel", "parallel"]} ins(%579 : tensor<1x2112x1x1xf32>) outs(%578 : tensor<1x2112x1x1xf32>) {
    ^bb0(%in: f32, %out: f32):
      %604 = arith.cmpf ugt, %in, %cst_251 : f32
      %605 = arith.select %604, %in, %cst_251 : f32
      linalg.yield %605 : f32
    } -> tensor<1x2112x1x1xf32>
    %581 = linalg.conv_2d_nchw_fchw {dilations = dense<1> : vector<2xi64>, strides = dense<1> : vector<2xi64>} ins(%580, %cst_8 : tensor<1x2112x1x1xf32>, tensor<192x2112x1x1xf32>) outs(%424 : tensor<1x192x1x1xf32>) -> tensor<1x192x1x1xf32>
    cf.assert %3, "training is not supported for now"
    %582 = linalg.generic {indexing_maps = [#map, #map1, #map1, #map1, #map1, #map], iterator_types = ["parallel", "parallel", "parallel", "parallel"]} ins(%581, %cst_246, %cst_245, %cst_245, %cst_246 : tensor<1x192x1x1xf32>, tensor<192xf32>, tensor<192xf32>, tensor<192xf32>, tensor<192xf32>) outs(%581 : tensor<1x192x1x1xf32>) {
    ^bb0(%in: f32, %in_1476: f32, %in_1477: f32, %in_1478: f32, %in_1479: f32, %out: f32):
      %604 = arith.truncf %cst_253 : f64 to f32
      %605 = arith.addf %in_1479, %604 : f32
      %606 = math.rsqrt %605 : f32
      %607 = arith.subf %in, %in_1478 : f32
      %608 = arith.mulf %607, %606 : f32
      %609 = arith.mulf %608, %in_1476 : f32
      %610 = arith.addf %609, %in_1477 : f32
      linalg.yield %610 : f32
    } -> tensor<1x192x1x1xf32>
    %583 = linalg.generic {indexing_maps = [#map3, #map], iterator_types = ["parallel", "parallel", "parallel", "parallel"]} ins(%582 : tensor<1x192x1x1xf32>) outs(%423 : tensor<1x192x1x1xf32>) {
    ^bb0(%in: f32, %out: f32):
      %604 = arith.cmpf ugt, %in, %cst_251 : f32
      %605 = arith.select %604, %in, %cst_251 : f32
      linalg.yield %605 : f32
    } -> tensor<1x192x1x1xf32>
    %padded_1425 = tensor.pad %583 low[0, 0, 1, 1] high[0, 0, 1, 1] {
    ^bb0(%arg1: index, %arg2: index, %arg3: index, %arg4: index):
      tensor.yield %cst_251 : f32
    } : tensor<1x192x1x1xf32> to tensor<1x192x3x3xf32>
    %584 = linalg.conv_2d_nchw_fchw {dilations = dense<1> : vector<2xi64>, strides = dense<1> : vector<2xi64>} ins(%padded_1425, %cst_7 : tensor<1x192x3x3xf32>, tensor<48x192x3x3xf32>) outs(%429 : tensor<1x48x1x1xf32>) -> tensor<1x48x1x1xf32>
    %585 = tensor.empty() : tensor<1x2160x1x1xf32>
    %inserted_slice_1426 = tensor.insert_slice %420 into %585[0, 0, 0, 0] [1, 1056, 1, 1] [1, 1, 1, 1] : tensor<1x1056x1x1xf32> into tensor<1x2160x1x1xf32>
    %inserted_slice_1427 = tensor.insert_slice %430 into %inserted_slice_1426[0, 1056, 0, 0] [1, 48, 1, 1] [1, 1, 1, 1] : tensor<1x48x1x1xf32> into tensor<1x2160x1x1xf32>
    %inserted_slice_1428 = tensor.insert_slice %437 into %inserted_slice_1427[0, 1104, 0, 0] [1, 48, 1, 1] [1, 1, 1, 1] : tensor<1x48x1x1xf32> into tensor<1x2160x1x1xf32>
    %inserted_slice_1429 = tensor.insert_slice %444 into %inserted_slice_1428[0, 1152, 0, 0] [1, 48, 1, 1] [1, 1, 1, 1] : tensor<1x48x1x1xf32> into tensor<1x2160x1x1xf32>
    %inserted_slice_1430 = tensor.insert_slice %451 into %inserted_slice_1429[0, 1200, 0, 0] [1, 48, 1, 1] [1, 1, 1, 1] : tensor<1x48x1x1xf32> into tensor<1x2160x1x1xf32>
    %inserted_slice_1431 = tensor.insert_slice %458 into %inserted_slice_1430[0, 1248, 0, 0] [1, 48, 1, 1] [1, 1, 1, 1] : tensor<1x48x1x1xf32> into tensor<1x2160x1x1xf32>
    %inserted_slice_1432 = tensor.insert_slice %465 into %inserted_slice_1431[0, 1296, 0, 0] [1, 48, 1, 1] [1, 1, 1, 1] : tensor<1x48x1x1xf32> into tensor<1x2160x1x1xf32>
    %inserted_slice_1433 = tensor.insert_slice %472 into %inserted_slice_1432[0, 1344, 0, 0] [1, 48, 1, 1] [1, 1, 1, 1] : tensor<1x48x1x1xf32> into tensor<1x2160x1x1xf32>
    %inserted_slice_1434 = tensor.insert_slice %479 into %inserted_slice_1433[0, 1392, 0, 0] [1, 48, 1, 1] [1, 1, 1, 1] : tensor<1x48x1x1xf32> into tensor<1x2160x1x1xf32>
    %inserted_slice_1435 = tensor.insert_slice %486 into %inserted_slice_1434[0, 1440, 0, 0] [1, 48, 1, 1] [1, 1, 1, 1] : tensor<1x48x1x1xf32> into tensor<1x2160x1x1xf32>
    %inserted_slice_1436 = tensor.insert_slice %493 into %inserted_slice_1435[0, 1488, 0, 0] [1, 48, 1, 1] [1, 1, 1, 1] : tensor<1x48x1x1xf32> into tensor<1x2160x1x1xf32>
    %inserted_slice_1437 = tensor.insert_slice %500 into %inserted_slice_1436[0, 1536, 0, 0] [1, 48, 1, 1] [1, 1, 1, 1] : tensor<1x48x1x1xf32> into tensor<1x2160x1x1xf32>
    %inserted_slice_1438 = tensor.insert_slice %507 into %inserted_slice_1437[0, 1584, 0, 0] [1, 48, 1, 1] [1, 1, 1, 1] : tensor<1x48x1x1xf32> into tensor<1x2160x1x1xf32>
    %inserted_slice_1439 = tensor.insert_slice %514 into %inserted_slice_1438[0, 1632, 0, 0] [1, 48, 1, 1] [1, 1, 1, 1] : tensor<1x48x1x1xf32> into tensor<1x2160x1x1xf32>
    %inserted_slice_1440 = tensor.insert_slice %521 into %inserted_slice_1439[0, 1680, 0, 0] [1, 48, 1, 1] [1, 1, 1, 1] : tensor<1x48x1x1xf32> into tensor<1x2160x1x1xf32>
    %inserted_slice_1441 = tensor.insert_slice %528 into %inserted_slice_1440[0, 1728, 0, 0] [1, 48, 1, 1] [1, 1, 1, 1] : tensor<1x48x1x1xf32> into tensor<1x2160x1x1xf32>
    %inserted_slice_1442 = tensor.insert_slice %535 into %inserted_slice_1441[0, 1776, 0, 0] [1, 48, 1, 1] [1, 1, 1, 1] : tensor<1x48x1x1xf32> into tensor<1x2160x1x1xf32>
    %inserted_slice_1443 = tensor.insert_slice %542 into %inserted_slice_1442[0, 1824, 0, 0] [1, 48, 1, 1] [1, 1, 1, 1] : tensor<1x48x1x1xf32> into tensor<1x2160x1x1xf32>
    %inserted_slice_1444 = tensor.insert_slice %549 into %inserted_slice_1443[0, 1872, 0, 0] [1, 48, 1, 1] [1, 1, 1, 1] : tensor<1x48x1x1xf32> into tensor<1x2160x1x1xf32>
    %inserted_slice_1445 = tensor.insert_slice %556 into %inserted_slice_1444[0, 1920, 0, 0] [1, 48, 1, 1] [1, 1, 1, 1] : tensor<1x48x1x1xf32> into tensor<1x2160x1x1xf32>
    %inserted_slice_1446 = tensor.insert_slice %563 into %inserted_slice_1445[0, 1968, 0, 0] [1, 48, 1, 1] [1, 1, 1, 1] : tensor<1x48x1x1xf32> into tensor<1x2160x1x1xf32>
    %inserted_slice_1447 = tensor.insert_slice %570 into %inserted_slice_1446[0, 2016, 0, 0] [1, 48, 1, 1] [1, 1, 1, 1] : tensor<1x48x1x1xf32> into tensor<1x2160x1x1xf32>
    %inserted_slice_1448 = tensor.insert_slice %577 into %inserted_slice_1447[0, 2064, 0, 0] [1, 48, 1, 1] [1, 1, 1, 1] : tensor<1x48x1x1xf32> into tensor<1x2160x1x1xf32>
    %inserted_slice_1449 = tensor.insert_slice %584 into %inserted_slice_1448[0, 2112, 0, 0] [1, 48, 1, 1] [1, 1, 1, 1] : tensor<1x48x1x1xf32> into tensor<1x2160x1x1xf32>
    cf.assert %3, "training is not supported for now"
    %586 = linalg.generic {indexing_maps = [#map, #map1, #map1, #map1, #map1, #map], iterator_types = ["parallel", "parallel", "parallel", "parallel"]} ins(%inserted_slice_1449, %cst_6, %cst_5, %cst_5, %cst_6 : tensor<1x2160x1x1xf32>, tensor<2160xf32>, tensor<2160xf32>, tensor<2160xf32>, tensor<2160xf32>) outs(%inserted_slice_1449 : tensor<1x2160x1x1xf32>) {
    ^bb0(%in: f32, %in_1476: f32, %in_1477: f32, %in_1478: f32, %in_1479: f32, %out: f32):
      %604 = arith.truncf %cst_253 : f64 to f32
      %605 = arith.addf %in_1479, %604 : f32
      %606 = math.rsqrt %605 : f32
      %607 = arith.subf %in, %in_1478 : f32
      %608 = arith.mulf %607, %606 : f32
      %609 = arith.mulf %608, %in_1476 : f32
      %610 = arith.addf %609, %in_1477 : f32
      linalg.yield %610 : f32
    } -> tensor<1x2160x1x1xf32>
    %587 = linalg.generic {indexing_maps = [#map3, #map], iterator_types = ["parallel", "parallel", "parallel", "parallel"]} ins(%586 : tensor<1x2160x1x1xf32>) outs(%585 : tensor<1x2160x1x1xf32>) {
    ^bb0(%in: f32, %out: f32):
      %604 = arith.cmpf ugt, %in, %cst_251 : f32
      %605 = arith.select %604, %in, %cst_251 : f32
      linalg.yield %605 : f32
    } -> tensor<1x2160x1x1xf32>
    %588 = linalg.conv_2d_nchw_fchw {dilations = dense<1> : vector<2xi64>, strides = dense<1> : vector<2xi64>} ins(%587, %cst_4 : tensor<1x2160x1x1xf32>, tensor<192x2160x1x1xf32>) outs(%424 : tensor<1x192x1x1xf32>) -> tensor<1x192x1x1xf32>
    cf.assert %3, "training is not supported for now"
    %589 = linalg.generic {indexing_maps = [#map, #map1, #map1, #map1, #map1, #map], iterator_types = ["parallel", "parallel", "parallel", "parallel"]} ins(%588, %cst_246, %cst_245, %cst_245, %cst_246 : tensor<1x192x1x1xf32>, tensor<192xf32>, tensor<192xf32>, tensor<192xf32>, tensor<192xf32>) outs(%588 : tensor<1x192x1x1xf32>) {
    ^bb0(%in: f32, %in_1476: f32, %in_1477: f32, %in_1478: f32, %in_1479: f32, %out: f32):
      %604 = arith.truncf %cst_253 : f64 to f32
      %605 = arith.addf %in_1479, %604 : f32
      %606 = math.rsqrt %605 : f32
      %607 = arith.subf %in, %in_1478 : f32
      %608 = arith.mulf %607, %606 : f32
      %609 = arith.mulf %608, %in_1476 : f32
      %610 = arith.addf %609, %in_1477 : f32
      linalg.yield %610 : f32
    } -> tensor<1x192x1x1xf32>
    %590 = linalg.generic {indexing_maps = [#map3, #map], iterator_types = ["parallel", "parallel", "parallel", "parallel"]} ins(%589 : tensor<1x192x1x1xf32>) outs(%423 : tensor<1x192x1x1xf32>) {
    ^bb0(%in: f32, %out: f32):
      %604 = arith.cmpf ugt, %in, %cst_251 : f32
      %605 = arith.select %604, %in, %cst_251 : f32
      linalg.yield %605 : f32
    } -> tensor<1x192x1x1xf32>
    %padded_1450 = tensor.pad %590 low[0, 0, 1, 1] high[0, 0, 1, 1] {
    ^bb0(%arg1: index, %arg2: index, %arg3: index, %arg4: index):
      tensor.yield %cst_251 : f32
    } : tensor<1x192x1x1xf32> to tensor<1x192x3x3xf32>
    %591 = linalg.conv_2d_nchw_fchw {dilations = dense<1> : vector<2xi64>, strides = dense<1> : vector<2xi64>} ins(%padded_1450, %cst_3 : tensor<1x192x3x3xf32>, tensor<48x192x3x3xf32>) outs(%429 : tensor<1x48x1x1xf32>) -> tensor<1x48x1x1xf32>
    %592 = tensor.empty() : tensor<1x2208x1x1xf32>
    %inserted_slice_1451 = tensor.insert_slice %420 into %592[0, 0, 0, 0] [1, 1056, 1, 1] [1, 1, 1, 1] : tensor<1x1056x1x1xf32> into tensor<1x2208x1x1xf32>
    %inserted_slice_1452 = tensor.insert_slice %430 into %inserted_slice_1451[0, 1056, 0, 0] [1, 48, 1, 1] [1, 1, 1, 1] : tensor<1x48x1x1xf32> into tensor<1x2208x1x1xf32>
    %inserted_slice_1453 = tensor.insert_slice %437 into %inserted_slice_1452[0, 1104, 0, 0] [1, 48, 1, 1] [1, 1, 1, 1] : tensor<1x48x1x1xf32> into tensor<1x2208x1x1xf32>
    %inserted_slice_1454 = tensor.insert_slice %444 into %inserted_slice_1453[0, 1152, 0, 0] [1, 48, 1, 1] [1, 1, 1, 1] : tensor<1x48x1x1xf32> into tensor<1x2208x1x1xf32>
    %inserted_slice_1455 = tensor.insert_slice %451 into %inserted_slice_1454[0, 1200, 0, 0] [1, 48, 1, 1] [1, 1, 1, 1] : tensor<1x48x1x1xf32> into tensor<1x2208x1x1xf32>
    %inserted_slice_1456 = tensor.insert_slice %458 into %inserted_slice_1455[0, 1248, 0, 0] [1, 48, 1, 1] [1, 1, 1, 1] : tensor<1x48x1x1xf32> into tensor<1x2208x1x1xf32>
    %inserted_slice_1457 = tensor.insert_slice %465 into %inserted_slice_1456[0, 1296, 0, 0] [1, 48, 1, 1] [1, 1, 1, 1] : tensor<1x48x1x1xf32> into tensor<1x2208x1x1xf32>
    %inserted_slice_1458 = tensor.insert_slice %472 into %inserted_slice_1457[0, 1344, 0, 0] [1, 48, 1, 1] [1, 1, 1, 1] : tensor<1x48x1x1xf32> into tensor<1x2208x1x1xf32>
    %inserted_slice_1459 = tensor.insert_slice %479 into %inserted_slice_1458[0, 1392, 0, 0] [1, 48, 1, 1] [1, 1, 1, 1] : tensor<1x48x1x1xf32> into tensor<1x2208x1x1xf32>
    %inserted_slice_1460 = tensor.insert_slice %486 into %inserted_slice_1459[0, 1440, 0, 0] [1, 48, 1, 1] [1, 1, 1, 1] : tensor<1x48x1x1xf32> into tensor<1x2208x1x1xf32>
    %inserted_slice_1461 = tensor.insert_slice %493 into %inserted_slice_1460[0, 1488, 0, 0] [1, 48, 1, 1] [1, 1, 1, 1] : tensor<1x48x1x1xf32> into tensor<1x2208x1x1xf32>
    %inserted_slice_1462 = tensor.insert_slice %500 into %inserted_slice_1461[0, 1536, 0, 0] [1, 48, 1, 1] [1, 1, 1, 1] : tensor<1x48x1x1xf32> into tensor<1x2208x1x1xf32>
    %inserted_slice_1463 = tensor.insert_slice %507 into %inserted_slice_1462[0, 1584, 0, 0] [1, 48, 1, 1] [1, 1, 1, 1] : tensor<1x48x1x1xf32> into tensor<1x2208x1x1xf32>
    %inserted_slice_1464 = tensor.insert_slice %514 into %inserted_slice_1463[0, 1632, 0, 0] [1, 48, 1, 1] [1, 1, 1, 1] : tensor<1x48x1x1xf32> into tensor<1x2208x1x1xf32>
    %inserted_slice_1465 = tensor.insert_slice %521 into %inserted_slice_1464[0, 1680, 0, 0] [1, 48, 1, 1] [1, 1, 1, 1] : tensor<1x48x1x1xf32> into tensor<1x2208x1x1xf32>
    %inserted_slice_1466 = tensor.insert_slice %528 into %inserted_slice_1465[0, 1728, 0, 0] [1, 48, 1, 1] [1, 1, 1, 1] : tensor<1x48x1x1xf32> into tensor<1x2208x1x1xf32>
    %inserted_slice_1467 = tensor.insert_slice %535 into %inserted_slice_1466[0, 1776, 0, 0] [1, 48, 1, 1] [1, 1, 1, 1] : tensor<1x48x1x1xf32> into tensor<1x2208x1x1xf32>
    %inserted_slice_1468 = tensor.insert_slice %542 into %inserted_slice_1467[0, 1824, 0, 0] [1, 48, 1, 1] [1, 1, 1, 1] : tensor<1x48x1x1xf32> into tensor<1x2208x1x1xf32>
    %inserted_slice_1469 = tensor.insert_slice %549 into %inserted_slice_1468[0, 1872, 0, 0] [1, 48, 1, 1] [1, 1, 1, 1] : tensor<1x48x1x1xf32> into tensor<1x2208x1x1xf32>
    %inserted_slice_1470 = tensor.insert_slice %556 into %inserted_slice_1469[0, 1920, 0, 0] [1, 48, 1, 1] [1, 1, 1, 1] : tensor<1x48x1x1xf32> into tensor<1x2208x1x1xf32>
    %inserted_slice_1471 = tensor.insert_slice %563 into %inserted_slice_1470[0, 1968, 0, 0] [1, 48, 1, 1] [1, 1, 1, 1] : tensor<1x48x1x1xf32> into tensor<1x2208x1x1xf32>
    %inserted_slice_1472 = tensor.insert_slice %570 into %inserted_slice_1471[0, 2016, 0, 0] [1, 48, 1, 1] [1, 1, 1, 1] : tensor<1x48x1x1xf32> into tensor<1x2208x1x1xf32>
    %inserted_slice_1473 = tensor.insert_slice %577 into %inserted_slice_1472[0, 2064, 0, 0] [1, 48, 1, 1] [1, 1, 1, 1] : tensor<1x48x1x1xf32> into tensor<1x2208x1x1xf32>
    %inserted_slice_1474 = tensor.insert_slice %584 into %inserted_slice_1473[0, 2112, 0, 0] [1, 48, 1, 1] [1, 1, 1, 1] : tensor<1x48x1x1xf32> into tensor<1x2208x1x1xf32>
    %inserted_slice_1475 = tensor.insert_slice %591 into %inserted_slice_1474[0, 2160, 0, 0] [1, 48, 1, 1] [1, 1, 1, 1] : tensor<1x48x1x1xf32> into tensor<1x2208x1x1xf32>
    cf.assert %3, "training is not supported for now"
    %593 = linalg.generic {indexing_maps = [#map, #map1, #map1, #map1, #map1, #map], iterator_types = ["parallel", "parallel", "parallel", "parallel"]} ins(%inserted_slice_1475, %cst_2, %cst_1, %cst_1, %cst_2 : tensor<1x2208x1x1xf32>, tensor<2208xf32>, tensor<2208xf32>, tensor<2208xf32>, tensor<2208xf32>) outs(%inserted_slice_1475 : tensor<1x2208x1x1xf32>) {
    ^bb0(%in: f32, %in_1476: f32, %in_1477: f32, %in_1478: f32, %in_1479: f32, %out: f32):
      %604 = arith.truncf %cst_253 : f64 to f32
      %605 = arith.addf %in_1479, %604 : f32
      %606 = math.rsqrt %605 : f32
      %607 = arith.subf %in, %in_1478 : f32
      %608 = arith.mulf %607, %606 : f32
      %609 = arith.mulf %608, %in_1476 : f32
      %610 = arith.addf %609, %in_1477 : f32
      linalg.yield %610 : f32
    } -> tensor<1x2208x1x1xf32>
    %594 = linalg.generic {indexing_maps = [#map3, #map], iterator_types = ["parallel", "parallel", "parallel", "parallel"]} ins(%593 : tensor<1x2208x1x1xf32>) outs(%592 : tensor<1x2208x1x1xf32>) {
    ^bb0(%in: f32, %out: f32):
      %604 = arith.cmpf ugt, %in, %cst_251 : f32
      %605 = arith.select %604, %in, %cst_251 : f32
      linalg.yield %605 : f32
    } -> tensor<1x2208x1x1xf32>
    %595 = linalg.fill ins(%cst_251 : f32) outs(%592 : tensor<1x2208x1x1xf32>) -> tensor<1x2208x1x1xf32>
    %596 = tensor.empty() : tensor<1x1xf32>
    %597 = linalg.pooling_nchw_sum {dilations = dense<1> : vector<2xi64>, strides = dense<1> : vector<2xi64>} ins(%594, %596 : tensor<1x2208x1x1xf32>, tensor<1x1xf32>) outs(%595 : tensor<1x2208x1x1xf32>) -> tensor<1x2208x1x1xf32>
    %collapsed = tensor.collapse_shape %597 [[0], [1, 2, 3]] : tensor<1x2208x1x1xf32> into tensor<1x2208xf32>
    %598 = tensor.empty() : tensor<2208x1000xf32>
    %599 = linalg.generic {indexing_maps = [#map4, #map5], iterator_types = ["parallel", "parallel"]} ins(%cst : tensor<1000x2208xf32>) outs(%598 : tensor<2208x1000xf32>) {
    ^bb0(%in: f32, %out: f32):
      linalg.yield %in : f32
    } -> tensor<2208x1000xf32>
    %600 = tensor.empty() : tensor<1x1000xf32>
    %601 = linalg.fill ins(%cst_251 : f32) outs(%600 : tensor<1x1000xf32>) -> tensor<1x1000xf32>
    %602 = linalg.matmul ins(%collapsed, %599 : tensor<1x2208xf32>, tensor<2208x1000xf32>) outs(%601 : tensor<1x1000xf32>) -> tensor<1x1000xf32>
    %603 = linalg.generic {indexing_maps = [#map6, #map7, #map4], iterator_types = ["parallel", "parallel"]} ins(%602, %cst_0 : tensor<1x1000xf32>, tensor<1000xf32>) outs(%600 : tensor<1x1000xf32>) {
    ^bb0(%in: f32, %in_1476: f32, %out: f32):
      %604 = arith.addf %in, %in_1476 : f32
      linalg.yield %604 : f32
    } -> tensor<1x1000xf32>
    return %603 : tensor<1x1000xf32>
  }
}
