#map = affine_map<(d0, d1, d2, d3) -> (d0, d1, d2, d3)>
#map1 = affine_map<(d0, d1, d2, d3) -> (d1)>
#map2 = affine_map<(d0, d1, d2, d3) -> (0, d1, d2, d3)>
#map3 = affine_map<(d0, d1, d2, d3) -> (0, d1, 0, 0)>
#map4 = affine_map<(d0, d1) -> (d0, d1)>
#map5 = affine_map<(d0, d1) -> (d1, d0)>
#map6 = affine_map<(d0, d1) -> (0, d1)>
#map7 = affine_map<(d0, d1) -> (d1)>
module attributes {torch.debug_module_name = "DenseNet"} {
    func.func @forward(%arg0: tensor<1x3x32x32xf32>) -> tensor<1x1000xf32> {
    %false = arith.constant false
    %cst = arith.constant dense<-0.005897e+00> : tensor<1000x1664xf32>
    %cst_0 = arith.constant dense<0.000000e+00> : tensor<1000xf32>
    %cst_1 = arith.constant dense<0.000000e+00> : tensor<1664xf32>
    %cst_2 = arith.constant dense<1.000000e+00> : tensor<1664xf32>
    %cst_3 = arith.constant dense<0.015353e+00> : tensor<32x128x3x3xf32>
    %cst_4 = arith.constant dense<0.004909e+00> : tensor<128x1632x1x1xf32>
    %cst_5 = arith.constant dense<0.000000e+00> : tensor<1632xf32>
    %cst_6 = arith.constant dense<1.000000e+00> : tensor<1632xf32>
    %cst_7 = arith.constant dense<0.000724e+00> : tensor<32x128x3x3xf32>
    %cst_8 = arith.constant dense<-0.016606e+00> : tensor<128x1600x1x1xf32>
    %cst_9 = arith.constant dense<0.000000e+00> : tensor<1600xf32>
    %cst_10 = arith.constant dense<1.000000e+00> : tensor<1600xf32>
    %cst_11 = arith.constant dense<-0.002755e+00> : tensor<32x128x3x3xf32>
    %cst_12 = arith.constant dense<0.009449e+00> : tensor<128x1568x1x1xf32>
    %cst_13 = arith.constant dense<0.000000e+00> : tensor<1568xf32>
    %cst_14 = arith.constant dense<1.000000e+00> : tensor<1568xf32>
    %cst_15 = arith.constant dense<-0.006205e+00> : tensor<32x128x3x3xf32>
    %cst_16 = arith.constant dense<0.004512e+00> : tensor<128x1536x1x1xf32>
    %cst_17 = arith.constant dense<0.000000e+00> : tensor<1536xf32>
    %cst_18 = arith.constant dense<1.000000e+00> : tensor<1536xf32>
    %cst_19 = arith.constant dense<-0.004090e+00> : tensor<32x128x3x3xf32>
    %cst_20 = arith.constant dense<-0.016882e+00> : tensor<128x1504x1x1xf32>
    %cst_21 = arith.constant dense<0.000000e+00> : tensor<1504xf32>
    %cst_22 = arith.constant dense<1.000000e+00> : tensor<1504xf32>
    %cst_23 = arith.constant dense<0.000006e+00> : tensor<32x128x3x3xf32>
    %cst_24 = arith.constant dense<-0.000321e+00> : tensor<128x1472x1x1xf32>
    %cst_25 = arith.constant dense<0.000000e+00> : tensor<1472xf32>
    %cst_26 = arith.constant dense<1.000000e+00> : tensor<1472xf32>
    %cst_27 = arith.constant dense<-0.011269e+00> : tensor<32x128x3x3xf32>
    %cst_28 = arith.constant dense<-0.011621e+00> : tensor<128x1440x1x1xf32>
    %cst_29 = arith.constant dense<0.000000e+00> : tensor<1440xf32>
    %cst_30 = arith.constant dense<1.000000e+00> : tensor<1440xf32>
    %cst_31 = arith.constant dense<-0.012529e+00> : tensor<32x128x3x3xf32>
    %cst_32 = arith.constant dense<-0.002043e+00> : tensor<128x1408x1x1xf32>
    %cst_33 = arith.constant dense<0.000000e+00> : tensor<1408xf32>
    %cst_34 = arith.constant dense<1.000000e+00> : tensor<1408xf32>
    %cst_35 = arith.constant dense<-0.005817e+00> : tensor<32x128x3x3xf32>
    %cst_36 = arith.constant dense<0.007563e+00> : tensor<128x1376x1x1xf32>
    %cst_37 = arith.constant dense<0.000000e+00> : tensor<1376xf32>
    %cst_38 = arith.constant dense<1.000000e+00> : tensor<1376xf32>
    %cst_39 = arith.constant dense<-0.012435e+00> : tensor<32x128x3x3xf32>
    %cst_40 = arith.constant dense<0.022207e+00> : tensor<128x1344x1x1xf32>
    %cst_41 = arith.constant dense<0.000000e+00> : tensor<1344xf32>
    %cst_42 = arith.constant dense<1.000000e+00> : tensor<1344xf32>
    %cst_43 = arith.constant dense<0.006149e+00> : tensor<32x128x3x3xf32>
    %cst_44 = arith.constant dense<0.001416e+00> : tensor<128x1312x1x1xf32>
    %cst_45 = arith.constant dense<0.000000e+00> : tensor<1312xf32>
    %cst_46 = arith.constant dense<1.000000e+00> : tensor<1312xf32>
    %cst_47 = arith.constant dense<0.011562e+00> : tensor<32x128x3x3xf32>
    %cst_48 = arith.constant dense<0.000972e+00> : tensor<128x1280x1x1xf32>
    %cst_49 = arith.constant dense<0.004737e+00> : tensor<32x128x3x3xf32>
    %cst_50 = arith.constant dense<0.017427e+00> : tensor<128x1248x1x1xf32>
    %cst_51 = arith.constant dense<-0.002320e+00> : tensor<32x128x3x3xf32>
    %cst_52 = arith.constant dense<-0.007286e+00> : tensor<128x1216x1x1xf32>
    %cst_53 = arith.constant dense<-0.010635e+00> : tensor<32x128x3x3xf32>
    %cst_54 = arith.constant dense<-0.006300e+00> : tensor<128x1184x1x1xf32>
    %cst_55 = arith.constant dense<-0.020746e+00> : tensor<32x128x3x3xf32>
    %cst_56 = arith.constant dense<0.002705e+00> : tensor<128x1152x1x1xf32>
    %cst_57 = arith.constant dense<0.009371e+00> : tensor<32x128x3x3xf32>
    %cst_58 = arith.constant dense<-0.004891e+00> : tensor<128x1120x1x1xf32>
    %cst_59 = arith.constant dense<0.008790e+00> : tensor<32x128x3x3xf32>
    %cst_60 = arith.constant dense<-0.004187e+00> : tensor<128x1088x1x1xf32>
    %cst_61 = arith.constant dense<0.002822e+00> : tensor<32x128x3x3xf32>
    %cst_62 = arith.constant dense<0.010138e+00> : tensor<128x1056x1x1xf32>
    %cst_63 = arith.constant dense<0.011043e+00> : tensor<32x128x3x3xf32>
    %cst_64 = arith.constant dense<0.005084e+00> : tensor<128x1024x1x1xf32>
    %cst_65 = arith.constant dense<0.007979e+00> : tensor<32x128x3x3xf32>
    %cst_66 = arith.constant dense<-0.006693e+00> : tensor<128x992x1x1xf32>
    %cst_67 = arith.constant dense<0.002290e+00> : tensor<32x128x3x3xf32>
    %cst_68 = arith.constant dense<-0.021766e+00> : tensor<128x960x1x1xf32>
    %cst_69 = arith.constant dense<-0.003371e+00> : tensor<32x128x3x3xf32>
    %cst_70 = arith.constant dense<-0.005877e+00> : tensor<128x928x1x1xf32>
    %cst_71 = arith.constant dense<-0.007594e+00> : tensor<32x128x3x3xf32>
    %cst_72 = arith.constant dense<0.007938e+00> : tensor<128x896x1x1xf32>
    %cst_73 = arith.constant dense<-0.009517e+00> : tensor<32x128x3x3xf32>
    %cst_74 = arith.constant dense<0.003044e+00> : tensor<128x864x1x1xf32>
    %cst_75 = arith.constant dense<0.015592e+00> : tensor<32x128x3x3xf32>
    %cst_76 = arith.constant dense<-0.005900e+00> : tensor<128x832x1x1xf32>
    %cst_77 = arith.constant dense<0.004933e+00> : tensor<32x128x3x3xf32>
    %cst_78 = arith.constant dense<-0.000604e+00> : tensor<128x800x1x1xf32>
    %cst_79 = arith.constant dense<-0.003748e+00> : tensor<32x128x3x3xf32>
    %cst_80 = arith.constant dense<0.010161e+00> : tensor<128x768x1x1xf32>
    %cst_81 = arith.constant dense<-0.019915e+00> : tensor<32x128x3x3xf32>
    %cst_82 = arith.constant dense<-0.002117e+00> : tensor<128x736x1x1xf32>
    %cst_83 = arith.constant dense<-0.011268e+00> : tensor<32x128x3x3xf32>
    %cst_84 = arith.constant dense<-0.003201e+00> : tensor<128x704x1x1xf32>
    %cst_85 = arith.constant dense<0.004277e+00> : tensor<32x128x3x3xf32>
    %cst_86 = arith.constant dense<0.008378e+00> : tensor<128x672x1x1xf32>
    %cst_87 = arith.constant dense<0.021778e+00> : tensor<32x128x3x3xf32>
    %cst_88 = arith.constant dense<-0.008561e+00> : tensor<128x640x1x1xf32>
    %cst_89 = arith.constant dense<-0.004858e+00> : tensor<640x1280x1x1xf32>
    %cst_90 = arith.constant dense<0.000000e+00> : tensor<1280xf32>
    %cst_91 = arith.constant dense<1.000000e+00> : tensor<1280xf32>
    %cst_92 = arith.constant dense<0.005840e+00> : tensor<32x128x3x3xf32>
    %cst_93 = arith.constant dense<0.003003e+00> : tensor<128x1248x1x1xf32>
    %cst_94 = arith.constant dense<0.000000e+00> : tensor<1248xf32>
    %cst_95 = arith.constant dense<1.000000e+00> : tensor<1248xf32>
    %cst_96 = arith.constant dense<-0.001422e+00> : tensor<32x128x3x3xf32>
    %cst_97 = arith.constant dense<0.014274e+00> : tensor<128x1216x1x1xf32>
    %cst_98 = arith.constant dense<0.000000e+00> : tensor<1216xf32>
    %cst_99 = arith.constant dense<1.000000e+00> : tensor<1216xf32>
    %cst_100 = arith.constant dense<-0.011563e+00> : tensor<32x128x3x3xf32>
    %cst_101 = arith.constant dense<0.015033e+00> : tensor<128x1184x1x1xf32>
    %cst_102 = arith.constant dense<0.000000e+00> : tensor<1184xf32>
    %cst_103 = arith.constant dense<1.000000e+00> : tensor<1184xf32>
    %cst_104 = arith.constant dense<0.002163e+00> : tensor<32x128x3x3xf32>
    %cst_105 = arith.constant dense<0.006559e+00> : tensor<128x1152x1x1xf32>
    %cst_106 = arith.constant dense<0.000000e+00> : tensor<1152xf32>
    %cst_107 = arith.constant dense<1.000000e+00> : tensor<1152xf32>
    %cst_108 = arith.constant dense<-0.015533e+00> : tensor<32x128x3x3xf32>
    %cst_109 = arith.constant dense<0.012314e+00> : tensor<128x1120x1x1xf32>
    %cst_110 = arith.constant dense<0.000000e+00> : tensor<1120xf32>
    %cst_111 = arith.constant dense<1.000000e+00> : tensor<1120xf32>
    %cst_112 = arith.constant dense<0.001724e+00> : tensor<32x128x3x3xf32>
    %cst_113 = arith.constant dense<-0.010092e+00> : tensor<128x1088x1x1xf32>
    %cst_114 = arith.constant dense<0.000000e+00> : tensor<1088xf32>
    %cst_115 = arith.constant dense<1.000000e+00> : tensor<1088xf32>
    %cst_116 = arith.constant dense<-0.004337e+00> : tensor<32x128x3x3xf32>
    %cst_117 = arith.constant dense<0.000697e+00> : tensor<128x1056x1x1xf32>
    %cst_118 = arith.constant dense<0.000000e+00> : tensor<1056xf32>
    %cst_119 = arith.constant dense<1.000000e+00> : tensor<1056xf32>
    %cst_120 = arith.constant dense<-0.004590e+00> : tensor<32x128x3x3xf32>
    %cst_121 = arith.constant dense<-0.013867e+00> : tensor<128x1024x1x1xf32>
    %cst_122 = arith.constant dense<0.000000e+00> : tensor<1024xf32>
    %cst_123 = arith.constant dense<1.000000e+00> : tensor<1024xf32>
    %cst_124 = arith.constant dense<0.001871e+00> : tensor<32x128x3x3xf32>
    %cst_125 = arith.constant dense<0.007216e+00> : tensor<128x992x1x1xf32>
    %cst_126 = arith.constant dense<0.000000e+00> : tensor<992xf32>
    %cst_127 = arith.constant dense<1.000000e+00> : tensor<992xf32>
    %cst_128 = arith.constant dense<-0.008041e+00> : tensor<32x128x3x3xf32>
    %cst_129 = arith.constant dense<-0.002698e+00> : tensor<128x960x1x1xf32>
    %cst_130 = arith.constant dense<0.000000e+00> : tensor<960xf32>
    %cst_131 = arith.constant dense<1.000000e+00> : tensor<960xf32>
    %cst_132 = arith.constant dense<-0.005572e+00> : tensor<32x128x3x3xf32>
    %cst_133 = arith.constant dense<-0.003452e+00> : tensor<128x928x1x1xf32>
    %cst_134 = arith.constant dense<0.000000e+00> : tensor<928xf32>
    %cst_135 = arith.constant dense<1.000000e+00> : tensor<928xf32>
    %cst_136 = arith.constant dense<0.009257e+00> : tensor<32x128x3x3xf32>
    %cst_137 = arith.constant dense<-0.004211e+00> : tensor<128x896x1x1xf32>
    %cst_138 = arith.constant dense<0.000000e+00> : tensor<896xf32>
    %cst_139 = arith.constant dense<1.000000e+00> : tensor<896xf32>
    %cst_140 = arith.constant dense<0.002575e+00> : tensor<32x128x3x3xf32>
    %cst_141 = arith.constant dense<0.014238e+00> : tensor<128x864x1x1xf32>
    %cst_142 = arith.constant dense<0.000000e+00> : tensor<864xf32>
    %cst_143 = arith.constant dense<1.000000e+00> : tensor<864xf32>
    %cst_144 = arith.constant dense<0.005181e+00> : tensor<32x128x3x3xf32>
    %cst_145 = arith.constant dense<0.015659e+00> : tensor<128x832x1x1xf32>
    %cst_146 = arith.constant dense<0.000000e+00> : tensor<832xf32>
    %cst_147 = arith.constant dense<1.000000e+00> : tensor<832xf32>
    %cst_148 = arith.constant dense<0.005725e+00> : tensor<32x128x3x3xf32>
    %cst_149 = arith.constant dense<-0.003275e+00> : tensor<128x800x1x1xf32>
    %cst_150 = arith.constant dense<0.000000e+00> : tensor<800xf32>
    %cst_151 = arith.constant dense<1.000000e+00> : tensor<800xf32>
    %cst_152 = arith.constant dense<0.009330e+00> : tensor<32x128x3x3xf32>
    %cst_153 = arith.constant dense<-0.000231e+00> : tensor<128x768x1x1xf32>
    %cst_154 = arith.constant dense<0.000000e+00> : tensor<768xf32>
    %cst_155 = arith.constant dense<1.000000e+00> : tensor<768xf32>
    %cst_156 = arith.constant dense<0.012282e+00> : tensor<32x128x3x3xf32>
    %cst_157 = arith.constant dense<-0.004638e+00> : tensor<128x736x1x1xf32>
    %cst_158 = arith.constant dense<0.000000e+00> : tensor<736xf32>
    %cst_159 = arith.constant dense<1.000000e+00> : tensor<736xf32>
    %cst_160 = arith.constant dense<0.007655e+00> : tensor<32x128x3x3xf32>
    %cst_161 = arith.constant dense<-0.016650e+00> : tensor<128x704x1x1xf32>
    %cst_162 = arith.constant dense<0.000000e+00> : tensor<704xf32>
    %cst_163 = arith.constant dense<1.000000e+00> : tensor<704xf32>
    %cst_164 = arith.constant dense<-0.025262e+00> : tensor<32x128x3x3xf32>
    %cst_165 = arith.constant dense<0.002976e+00> : tensor<128x672x1x1xf32>
    %cst_166 = arith.constant dense<0.000000e+00> : tensor<672xf32>
    %cst_167 = arith.constant dense<1.000000e+00> : tensor<672xf32>
    %cst_168 = arith.constant dense<0.002273e+00> : tensor<32x128x3x3xf32>
    %cst_169 = arith.constant dense<0.011073e+00> : tensor<128x640x1x1xf32>
    %cst_170 = arith.constant dense<0.000000e+00> : tensor<640xf32>
    %cst_171 = arith.constant dense<1.000000e+00> : tensor<640xf32>
    %cst_172 = arith.constant dense<0.014897e+00> : tensor<32x128x3x3xf32>
    %cst_173 = arith.constant dense<0.004399e+00> : tensor<128x608x1x1xf32>
    %cst_174 = arith.constant dense<0.000000e+00> : tensor<608xf32>
    %cst_175 = arith.constant dense<1.000000e+00> : tensor<608xf32>
    %cst_176 = arith.constant dense<0.005874e+00> : tensor<32x128x3x3xf32>
    %cst_177 = arith.constant dense<0.009864e+00> : tensor<128x576x1x1xf32>
    %cst_178 = arith.constant dense<0.000000e+00> : tensor<576xf32>
    %cst_179 = arith.constant dense<1.000000e+00> : tensor<576xf32>
    %cst_180 = arith.constant dense<-0.016897e+00> : tensor<32x128x3x3xf32>
    %cst_181 = arith.constant dense<0.004186e+00> : tensor<128x544x1x1xf32>
    %cst_182 = arith.constant dense<0.000000e+00> : tensor<544xf32>
    %cst_183 = arith.constant dense<1.000000e+00> : tensor<544xf32>
    %cst_184 = arith.constant dense<0.023450e+00> : tensor<32x128x3x3xf32>
    %cst_185 = arith.constant dense<0.019982e+00> : tensor<128x512x1x1xf32>
    %cst_186 = arith.constant dense<0.009489e+00> : tensor<32x128x3x3xf32>
    %cst_187 = arith.constant dense<-0.019452e+00> : tensor<128x480x1x1xf32>
    %cst_188 = arith.constant dense<0.011648e+00> : tensor<32x128x3x3xf32>
    %cst_189 = arith.constant dense<-0.007176e+00> : tensor<128x448x1x1xf32>
    %cst_190 = arith.constant dense<0.011352e+00> : tensor<32x128x3x3xf32>
    %cst_191 = arith.constant dense<-0.005852e+00> : tensor<128x416x1x1xf32>
    %cst_192 = arith.constant dense<0.004113e+00> : tensor<32x128x3x3xf32>
    %cst_193 = arith.constant dense<0.004594e+00> : tensor<128x384x1x1xf32>
    %cst_194 = arith.constant dense<-0.012164e+00> : tensor<32x128x3x3xf32>
    %cst_195 = arith.constant dense<-0.001527e+00> : tensor<128x352x1x1xf32>
    %cst_196 = arith.constant dense<-0.010862e+00> : tensor<32x128x3x3xf32>
    %cst_197 = arith.constant dense<0.000490e+00> : tensor<128x320x1x1xf32>
    %cst_198 = arith.constant dense<0.004352e+00> : tensor<32x128x3x3xf32>
    %cst_199 = arith.constant dense<-0.004939e+00> : tensor<128x288x1x1xf32>
    %cst_200 = arith.constant dense<-0.003558e+00> : tensor<32x128x3x3xf32>
    %cst_201 = arith.constant dense<0.016417e+00> : tensor<128x256x1x1xf32>
    %cst_202 = arith.constant dense<-0.008819e+00> : tensor<256x512x1x1xf32>
    %cst_203 = arith.constant dense<0.000000e+00> : tensor<512xf32>
    %cst_204 = arith.constant dense<1.000000e+00> : tensor<512xf32>
    %cst_205 = arith.constant dense<-0.007905e+00> : tensor<32x128x3x3xf32>
    %cst_206 = arith.constant dense<0.001057e+00> : tensor<128x480x1x1xf32>
    %cst_207 = arith.constant dense<0.000000e+00> : tensor<480xf32>
    %cst_208 = arith.constant dense<1.000000e+00> : tensor<480xf32>
    %cst_209 = arith.constant dense<0.008182e+00> : tensor<32x128x3x3xf32>
    %cst_210 = arith.constant dense<0.004739e+00> : tensor<128x448x1x1xf32>
    %cst_211 = arith.constant dense<0.000000e+00> : tensor<448xf32>
    %cst_212 = arith.constant dense<1.000000e+00> : tensor<448xf32>
    %cst_213 = arith.constant dense<0.010782e+00> : tensor<32x128x3x3xf32>
    %cst_214 = arith.constant dense<0.012870e+00> : tensor<128x416x1x1xf32>
    %cst_215 = arith.constant dense<0.000000e+00> : tensor<416xf32>
    %cst_216 = arith.constant dense<1.000000e+00> : tensor<416xf32>
    %cst_217 = arith.constant dense<0.008107e+00> : tensor<32x128x3x3xf32>
    %cst_218 = arith.constant dense<0.003938e+00> : tensor<128x384x1x1xf32>
    %cst_219 = arith.constant dense<0.000000e+00> : tensor<384xf32>
    %cst_220 = arith.constant dense<1.000000e+00> : tensor<384xf32>
    %cst_221 = arith.constant dense<-0.007596e+00> : tensor<32x128x3x3xf32>
    %cst_222 = arith.constant dense<0.005145e+00> : tensor<128x352x1x1xf32>
    %cst_223 = arith.constant dense<0.000000e+00> : tensor<352xf32>
    %cst_224 = arith.constant dense<1.000000e+00> : tensor<352xf32>
    %cst_225 = arith.constant dense<0.015589e+00> : tensor<32x128x3x3xf32>
    %cst_226 = arith.constant dense<-0.000694e+00> : tensor<128x320x1x1xf32>
    %cst_227 = arith.constant dense<0.000000e+00> : tensor<320xf32>
    %cst_228 = arith.constant dense<1.000000e+00> : tensor<320xf32>
    %cst_229 = arith.constant dense<-0.007021e+00> : tensor<32x128x3x3xf32>
    %cst_230 = arith.constant dense<0.007415e+00> : tensor<128x288x1x1xf32>
    %cst_231 = arith.constant dense<0.000000e+00> : tensor<288xf32>
    %cst_232 = arith.constant dense<1.000000e+00> : tensor<288xf32>
    %cst_233 = arith.constant dense<0.001295e+00> : tensor<32x128x3x3xf32>
    %cst_234 = arith.constant dense<0.000693e+00> : tensor<128x256x1x1xf32>
    %cst_235 = arith.constant dense<-0.011265e+00> : tensor<32x128x3x3xf32>
    %cst_236 = arith.constant dense<0.008542e+00> : tensor<128x224x1x1xf32>
    %cst_237 = arith.constant dense<-0.009348e+00> : tensor<32x128x3x3xf32>
    %cst_238 = arith.constant dense<-0.007906e+00> : tensor<128x192x1x1xf32>
    %cst_239 = arith.constant dense<0.007501e+00> : tensor<32x128x3x3xf32>
    %cst_240 = arith.constant dense<0.005337e+00> : tensor<128x160x1x1xf32>
    %cst_241 = arith.constant dense<-0.004218e+00> : tensor<32x128x3x3xf32>
    %cst_242 = arith.constant dense<0.024073e+00> : tensor<128x128x1x1xf32>
    %cst_243 = arith.constant dense<-0.000818e+00> : tensor<128x256x1x1xf32>
    %cst_244 = arith.constant dense<0.000000e+00> : tensor<256xf32>
    %cst_245 = arith.constant dense<1.000000e+00> : tensor<256xf32>
    %cst_246 = arith.constant dense<0.003045e+00> : tensor<32x128x3x3xf32>
    %cst_247 = arith.constant dense<0.007581e+00> : tensor<128x224x1x1xf32>
    %cst_248 = arith.constant dense<0.000000e+00> : tensor<224xf32>
    %cst_249 = arith.constant dense<1.000000e+00> : tensor<224xf32>
    %cst_250 = arith.constant dense<-0.001352e+00> : tensor<32x128x3x3xf32>
    %cst_251 = arith.constant dense<-0.004939e+00> : tensor<128x192x1x1xf32>
    %cst_252 = arith.constant dense<0.000000e+00> : tensor<192xf32>
    %cst_253 = arith.constant dense<1.000000e+00> : tensor<192xf32>
    %cst_254 = arith.constant dense<0.009041e+00> : tensor<32x128x3x3xf32>
    %cst_255 = arith.constant dense<0.006841e+00> : tensor<128x160x1x1xf32>
    %cst_256 = arith.constant dense<0.000000e+00> : tensor<160xf32>
    %cst_257 = arith.constant dense<1.000000e+00> : tensor<160xf32>
    %cst_258 = arith.constant dense<-0.000608e+00> : tensor<32x128x3x3xf32>
    %cst_259 = arith.constant dense<-0.001424e+00> : tensor<128x128x1x1xf32>
    %cst_260 = arith.constant dense<0.007274e+00> : tensor<32x128x3x3xf32>
    %cst_261 = arith.constant dense<0.009836e+00> : tensor<128x96x1x1xf32>
    %cst_262 = arith.constant dense<0.000000e+00> : tensor<96xf32>
    %cst_263 = arith.constant dense<1.000000e+00> : tensor<96xf32>
    %cst_264 = arith.constant dense<-0.002080e+00> : tensor<32x128x3x3xf32>
    %cst_265 = arith.constant dense<0.000000e+00> : tensor<128xf32>
    %cst_266 = arith.constant dense<1.000000e+00> : tensor<128xf32>
    %cst_267 = arith.constant dense<0.001582e+00> : tensor<128x64x1x1xf32>
    %cst_268 = arith.constant dense<0.000000e+00> : tensor<64xf32>
    %cst_269 = arith.constant dense<1.000000e+00> : tensor<64xf32>
    %cst_270 = arith.constant dense<-0.006649e+00> : tensor<64x3x7x7xf32>
    %cst_271 = arith.constant 0.000000e+00 : f32
    %cst_272 = arith.constant -3.40282347E+38 : f32
    %cst_273 = arith.constant 1.000000e-05 : f64
    %c3 = arith.constant 3 : index
    %cst_274 = arith.constant 4.000000e+00 : f32
    %c0 = arith.constant 0 : index
    %c1 = arith.constant 1 : index
    %padded = tensor.pad %arg0 low[0, 0, 3, 3] high[0, 0, 3, 3] {
    ^bb0(%arg1: index, %arg2: index, %arg3: index, %arg4: index):
      tensor.yield %cst_271 : f32
    } : tensor<1x3x32x32xf32> to tensor<1x3x38x38xf32>
    %0 = tensor.empty() : tensor<1x64x16x16xf32>
    %1 = linalg.fill ins(%cst_271 : f32) outs(%0 : tensor<1x64x16x16xf32>) -> tensor<1x64x16x16xf32>
    %2 = linalg.conv_2d_nchw_fchw {dilations = dense<1> : vector<2xi64>, strides = dense<2> : vector<2xi64>} ins(%padded, %cst_270 : tensor<1x3x38x38xf32>, tensor<64x3x7x7xf32>) outs(%1 : tensor<1x64x16x16xf32>) -> tensor<1x64x16x16xf32>
    %3 = arith.cmpi eq, %false, %false : i1
    cf.assert %3, "training is not supported for now"
    %4 = linalg.generic {indexing_maps = [#map, #map1, #map1, #map1, #map1, #map], iterator_types = ["parallel", "parallel", "parallel", "parallel"]} ins(%2, %cst_269, %cst_268, %cst_268, %cst_269 : tensor<1x64x16x16xf32>, tensor<64xf32>, tensor<64xf32>, tensor<64xf32>, tensor<64xf32>) outs(%2 : tensor<1x64x16x16xf32>) {
    ^bb0(%in: f32, %in_1594: f32, %in_1595: f32, %in_1596: f32, %in_1597: f32, %out: f32):
      %632 = arith.truncf %cst_273 : f64 to f32
      %633 = arith.addf %in_1597, %632 : f32
      %634 = math.rsqrt %633 : f32
      %635 = arith.subf %in, %in_1596 : f32
      %636 = arith.mulf %635, %634 : f32
      %637 = arith.mulf %636, %in_1594 : f32
      %638 = arith.addf %637, %in_1595 : f32
      linalg.yield %638 : f32
    } -> tensor<1x64x16x16xf32>
    %5 = linalg.generic {indexing_maps = [#map2, #map], iterator_types = ["parallel", "parallel", "parallel", "parallel"]} ins(%4 : tensor<1x64x16x16xf32>) outs(%0 : tensor<1x64x16x16xf32>) {
    ^bb0(%in: f32, %out: f32):
      %632 = arith.cmpf ugt, %in, %cst_271 : f32
      %633 = arith.select %632, %in, %cst_271 : f32
      linalg.yield %633 : f32
    } -> tensor<1x64x16x16xf32>
    %padded_275 = tensor.pad %5 low[0, 0, 1, 1] high[0, 0, 1, 1] {
    ^bb0(%arg1: index, %arg2: index, %arg3: index, %arg4: index):
      tensor.yield %cst_272 : f32
    } : tensor<1x64x16x16xf32> to tensor<1x64x18x18xf32>
    %6 = tensor.empty() : tensor<1x64x8x8xf32>
    %7 = linalg.fill ins(%cst_272 : f32) outs(%6 : tensor<1x64x8x8xf32>) -> tensor<1x64x8x8xf32>
    %8 = tensor.empty() : tensor<3x3xf32>
    %9 = linalg.pooling_nchw_max {dilations = dense<1> : vector<2xi64>, strides = dense<2> : vector<2xi64>} ins(%padded_275, %8 : tensor<1x64x18x18xf32>, tensor<3x3xf32>) outs(%7 : tensor<1x64x8x8xf32>) -> tensor<1x64x8x8xf32>
    cf.assert %3, "training is not supported for now"
    %10 = linalg.generic {indexing_maps = [#map, #map1, #map1, #map1, #map1, #map], iterator_types = ["parallel", "parallel", "parallel", "parallel"]} ins(%9, %cst_269, %cst_268, %cst_268, %cst_269 : tensor<1x64x8x8xf32>, tensor<64xf32>, tensor<64xf32>, tensor<64xf32>, tensor<64xf32>) outs(%9 : tensor<1x64x8x8xf32>) {
    ^bb0(%in: f32, %in_1594: f32, %in_1595: f32, %in_1596: f32, %in_1597: f32, %out: f32):
      %632 = arith.truncf %cst_273 : f64 to f32
      %633 = arith.addf %in_1597, %632 : f32
      %634 = math.rsqrt %633 : f32
      %635 = arith.subf %in, %in_1596 : f32
      %636 = arith.mulf %635, %634 : f32
      %637 = arith.mulf %636, %in_1594 : f32
      %638 = arith.addf %637, %in_1595 : f32
      linalg.yield %638 : f32
    } -> tensor<1x64x8x8xf32>
    %11 = linalg.generic {indexing_maps = [#map2, #map], iterator_types = ["parallel", "parallel", "parallel", "parallel"]} ins(%10 : tensor<1x64x8x8xf32>) outs(%6 : tensor<1x64x8x8xf32>) {
    ^bb0(%in: f32, %out: f32):
      %632 = arith.cmpf ugt, %in, %cst_271 : f32
      %633 = arith.select %632, %in, %cst_271 : f32
      linalg.yield %633 : f32
    } -> tensor<1x64x8x8xf32>
    %12 = tensor.empty() : tensor<1x128x8x8xf32>
    %13 = linalg.fill ins(%cst_271 : f32) outs(%12 : tensor<1x128x8x8xf32>) -> tensor<1x128x8x8xf32>
    %14 = linalg.conv_2d_nchw_fchw {dilations = dense<1> : vector<2xi64>, strides = dense<1> : vector<2xi64>} ins(%11, %cst_267 : tensor<1x64x8x8xf32>, tensor<128x64x1x1xf32>) outs(%13 : tensor<1x128x8x8xf32>) -> tensor<1x128x8x8xf32>
    cf.assert %3, "training is not supported for now"
    %15 = linalg.generic {indexing_maps = [#map, #map1, #map1, #map1, #map1, #map], iterator_types = ["parallel", "parallel", "parallel", "parallel"]} ins(%14, %cst_266, %cst_265, %cst_265, %cst_266 : tensor<1x128x8x8xf32>, tensor<128xf32>, tensor<128xf32>, tensor<128xf32>, tensor<128xf32>) outs(%14 : tensor<1x128x8x8xf32>) {
    ^bb0(%in: f32, %in_1594: f32, %in_1595: f32, %in_1596: f32, %in_1597: f32, %out: f32):
      %632 = arith.truncf %cst_273 : f64 to f32
      %633 = arith.addf %in_1597, %632 : f32
      %634 = math.rsqrt %633 : f32
      %635 = arith.subf %in, %in_1596 : f32
      %636 = arith.mulf %635, %634 : f32
      %637 = arith.mulf %636, %in_1594 : f32
      %638 = arith.addf %637, %in_1595 : f32
      linalg.yield %638 : f32
    } -> tensor<1x128x8x8xf32>
    %16 = linalg.generic {indexing_maps = [#map2, #map], iterator_types = ["parallel", "parallel", "parallel", "parallel"]} ins(%15 : tensor<1x128x8x8xf32>) outs(%12 : tensor<1x128x8x8xf32>) {
    ^bb0(%in: f32, %out: f32):
      %632 = arith.cmpf ugt, %in, %cst_271 : f32
      %633 = arith.select %632, %in, %cst_271 : f32
      linalg.yield %633 : f32
    } -> tensor<1x128x8x8xf32>
    %padded_276 = tensor.pad %16 low[0, 0, 1, 1] high[0, 0, 1, 1] {
    ^bb0(%arg1: index, %arg2: index, %arg3: index, %arg4: index):
      tensor.yield %cst_271 : f32
    } : tensor<1x128x8x8xf32> to tensor<1x128x10x10xf32>
    %17 = tensor.empty() : tensor<1x32x8x8xf32>
    %18 = linalg.fill ins(%cst_271 : f32) outs(%17 : tensor<1x32x8x8xf32>) -> tensor<1x32x8x8xf32>
    %19 = linalg.conv_2d_nchw_fchw {dilations = dense<1> : vector<2xi64>, strides = dense<1> : vector<2xi64>} ins(%padded_276, %cst_264 : tensor<1x128x10x10xf32>, tensor<32x128x3x3xf32>) outs(%18 : tensor<1x32x8x8xf32>) -> tensor<1x32x8x8xf32>
    %20 = tensor.empty() : tensor<1x96x8x8xf32>
    %inserted_slice = tensor.insert_slice %9 into %20[0, 0, 0, 0] [1, 64, 8, 8] [1, 1, 1, 1] : tensor<1x64x8x8xf32> into tensor<1x96x8x8xf32>
    %inserted_slice_277 = tensor.insert_slice %19 into %inserted_slice[0, 64, 0, 0] [1, 32, 8, 8] [1, 1, 1, 1] : tensor<1x32x8x8xf32> into tensor<1x96x8x8xf32>
    cf.assert %3, "training is not supported for now"
    %21 = linalg.generic {indexing_maps = [#map, #map1, #map1, #map1, #map1, #map], iterator_types = ["parallel", "parallel", "parallel", "parallel"]} ins(%inserted_slice_277, %cst_263, %cst_262, %cst_262, %cst_263 : tensor<1x96x8x8xf32>, tensor<96xf32>, tensor<96xf32>, tensor<96xf32>, tensor<96xf32>) outs(%inserted_slice_277 : tensor<1x96x8x8xf32>) {
    ^bb0(%in: f32, %in_1594: f32, %in_1595: f32, %in_1596: f32, %in_1597: f32, %out: f32):
      %632 = arith.truncf %cst_273 : f64 to f32
      %633 = arith.addf %in_1597, %632 : f32
      %634 = math.rsqrt %633 : f32
      %635 = arith.subf %in, %in_1596 : f32
      %636 = arith.mulf %635, %634 : f32
      %637 = arith.mulf %636, %in_1594 : f32
      %638 = arith.addf %637, %in_1595 : f32
      linalg.yield %638 : f32
    } -> tensor<1x96x8x8xf32>
    %22 = linalg.generic {indexing_maps = [#map2, #map], iterator_types = ["parallel", "parallel", "parallel", "parallel"]} ins(%21 : tensor<1x96x8x8xf32>) outs(%20 : tensor<1x96x8x8xf32>) {
    ^bb0(%in: f32, %out: f32):
      %632 = arith.cmpf ugt, %in, %cst_271 : f32
      %633 = arith.select %632, %in, %cst_271 : f32
      linalg.yield %633 : f32
    } -> tensor<1x96x8x8xf32>
    %23 = linalg.conv_2d_nchw_fchw {dilations = dense<1> : vector<2xi64>, strides = dense<1> : vector<2xi64>} ins(%22, %cst_261 : tensor<1x96x8x8xf32>, tensor<128x96x1x1xf32>) outs(%13 : tensor<1x128x8x8xf32>) -> tensor<1x128x8x8xf32>
    cf.assert %3, "training is not supported for now"
    %24 = linalg.generic {indexing_maps = [#map, #map1, #map1, #map1, #map1, #map], iterator_types = ["parallel", "parallel", "parallel", "parallel"]} ins(%23, %cst_266, %cst_265, %cst_265, %cst_266 : tensor<1x128x8x8xf32>, tensor<128xf32>, tensor<128xf32>, tensor<128xf32>, tensor<128xf32>) outs(%23 : tensor<1x128x8x8xf32>) {
    ^bb0(%in: f32, %in_1594: f32, %in_1595: f32, %in_1596: f32, %in_1597: f32, %out: f32):
      %632 = arith.truncf %cst_273 : f64 to f32
      %633 = arith.addf %in_1597, %632 : f32
      %634 = math.rsqrt %633 : f32
      %635 = arith.subf %in, %in_1596 : f32
      %636 = arith.mulf %635, %634 : f32
      %637 = arith.mulf %636, %in_1594 : f32
      %638 = arith.addf %637, %in_1595 : f32
      linalg.yield %638 : f32
    } -> tensor<1x128x8x8xf32>
    %25 = linalg.generic {indexing_maps = [#map2, #map], iterator_types = ["parallel", "parallel", "parallel", "parallel"]} ins(%24 : tensor<1x128x8x8xf32>) outs(%12 : tensor<1x128x8x8xf32>) {
    ^bb0(%in: f32, %out: f32):
      %632 = arith.cmpf ugt, %in, %cst_271 : f32
      %633 = arith.select %632, %in, %cst_271 : f32
      linalg.yield %633 : f32
    } -> tensor<1x128x8x8xf32>
    %padded_278 = tensor.pad %25 low[0, 0, 1, 1] high[0, 0, 1, 1] {
    ^bb0(%arg1: index, %arg2: index, %arg3: index, %arg4: index):
      tensor.yield %cst_271 : f32
    } : tensor<1x128x8x8xf32> to tensor<1x128x10x10xf32>
    %26 = linalg.conv_2d_nchw_fchw {dilations = dense<1> : vector<2xi64>, strides = dense<1> : vector<2xi64>} ins(%padded_278, %cst_260 : tensor<1x128x10x10xf32>, tensor<32x128x3x3xf32>) outs(%18 : tensor<1x32x8x8xf32>) -> tensor<1x32x8x8xf32>
    %inserted_slice_279 = tensor.insert_slice %9 into %12[0, 0, 0, 0] [1, 64, 8, 8] [1, 1, 1, 1] : tensor<1x64x8x8xf32> into tensor<1x128x8x8xf32>
    %inserted_slice_280 = tensor.insert_slice %19 into %inserted_slice_279[0, 64, 0, 0] [1, 32, 8, 8] [1, 1, 1, 1] : tensor<1x32x8x8xf32> into tensor<1x128x8x8xf32>
    %inserted_slice_281 = tensor.insert_slice %26 into %inserted_slice_280[0, 96, 0, 0] [1, 32, 8, 8] [1, 1, 1, 1] : tensor<1x32x8x8xf32> into tensor<1x128x8x8xf32>
    cf.assert %3, "training is not supported for now"
    %27 = linalg.generic {indexing_maps = [#map, #map1, #map1, #map1, #map1, #map], iterator_types = ["parallel", "parallel", "parallel", "parallel"]} ins(%inserted_slice_281, %cst_266, %cst_265, %cst_265, %cst_266 : tensor<1x128x8x8xf32>, tensor<128xf32>, tensor<128xf32>, tensor<128xf32>, tensor<128xf32>) outs(%inserted_slice_281 : tensor<1x128x8x8xf32>) {
    ^bb0(%in: f32, %in_1594: f32, %in_1595: f32, %in_1596: f32, %in_1597: f32, %out: f32):
      %632 = arith.truncf %cst_273 : f64 to f32
      %633 = arith.addf %in_1597, %632 : f32
      %634 = math.rsqrt %633 : f32
      %635 = arith.subf %in, %in_1596 : f32
      %636 = arith.mulf %635, %634 : f32
      %637 = arith.mulf %636, %in_1594 : f32
      %638 = arith.addf %637, %in_1595 : f32
      linalg.yield %638 : f32
    } -> tensor<1x128x8x8xf32>
    %28 = linalg.generic {indexing_maps = [#map2, #map], iterator_types = ["parallel", "parallel", "parallel", "parallel"]} ins(%27 : tensor<1x128x8x8xf32>) outs(%12 : tensor<1x128x8x8xf32>) {
    ^bb0(%in: f32, %out: f32):
      %632 = arith.cmpf ugt, %in, %cst_271 : f32
      %633 = arith.select %632, %in, %cst_271 : f32
      linalg.yield %633 : f32
    } -> tensor<1x128x8x8xf32>
    %29 = linalg.conv_2d_nchw_fchw {dilations = dense<1> : vector<2xi64>, strides = dense<1> : vector<2xi64>} ins(%28, %cst_259 : tensor<1x128x8x8xf32>, tensor<128x128x1x1xf32>) outs(%13 : tensor<1x128x8x8xf32>) -> tensor<1x128x8x8xf32>
    cf.assert %3, "training is not supported for now"
    %30 = linalg.generic {indexing_maps = [#map, #map1, #map1, #map1, #map1, #map], iterator_types = ["parallel", "parallel", "parallel", "parallel"]} ins(%29, %cst_266, %cst_265, %cst_265, %cst_266 : tensor<1x128x8x8xf32>, tensor<128xf32>, tensor<128xf32>, tensor<128xf32>, tensor<128xf32>) outs(%29 : tensor<1x128x8x8xf32>) {
    ^bb0(%in: f32, %in_1594: f32, %in_1595: f32, %in_1596: f32, %in_1597: f32, %out: f32):
      %632 = arith.truncf %cst_273 : f64 to f32
      %633 = arith.addf %in_1597, %632 : f32
      %634 = math.rsqrt %633 : f32
      %635 = arith.subf %in, %in_1596 : f32
      %636 = arith.mulf %635, %634 : f32
      %637 = arith.mulf %636, %in_1594 : f32
      %638 = arith.addf %637, %in_1595 : f32
      linalg.yield %638 : f32
    } -> tensor<1x128x8x8xf32>
    %31 = linalg.generic {indexing_maps = [#map2, #map], iterator_types = ["parallel", "parallel", "parallel", "parallel"]} ins(%30 : tensor<1x128x8x8xf32>) outs(%12 : tensor<1x128x8x8xf32>) {
    ^bb0(%in: f32, %out: f32):
      %632 = arith.cmpf ugt, %in, %cst_271 : f32
      %633 = arith.select %632, %in, %cst_271 : f32
      linalg.yield %633 : f32
    } -> tensor<1x128x8x8xf32>
    %padded_282 = tensor.pad %31 low[0, 0, 1, 1] high[0, 0, 1, 1] {
    ^bb0(%arg1: index, %arg2: index, %arg3: index, %arg4: index):
      tensor.yield %cst_271 : f32
    } : tensor<1x128x8x8xf32> to tensor<1x128x10x10xf32>
    %32 = linalg.conv_2d_nchw_fchw {dilations = dense<1> : vector<2xi64>, strides = dense<1> : vector<2xi64>} ins(%padded_282, %cst_258 : tensor<1x128x10x10xf32>, tensor<32x128x3x3xf32>) outs(%18 : tensor<1x32x8x8xf32>) -> tensor<1x32x8x8xf32>
    %33 = tensor.empty() : tensor<1x160x8x8xf32>
    %inserted_slice_283 = tensor.insert_slice %9 into %33[0, 0, 0, 0] [1, 64, 8, 8] [1, 1, 1, 1] : tensor<1x64x8x8xf32> into tensor<1x160x8x8xf32>
    %inserted_slice_284 = tensor.insert_slice %19 into %inserted_slice_283[0, 64, 0, 0] [1, 32, 8, 8] [1, 1, 1, 1] : tensor<1x32x8x8xf32> into tensor<1x160x8x8xf32>
    %inserted_slice_285 = tensor.insert_slice %26 into %inserted_slice_284[0, 96, 0, 0] [1, 32, 8, 8] [1, 1, 1, 1] : tensor<1x32x8x8xf32> into tensor<1x160x8x8xf32>
    %inserted_slice_286 = tensor.insert_slice %32 into %inserted_slice_285[0, 128, 0, 0] [1, 32, 8, 8] [1, 1, 1, 1] : tensor<1x32x8x8xf32> into tensor<1x160x8x8xf32>
    cf.assert %3, "training is not supported for now"
    %34 = linalg.generic {indexing_maps = [#map, #map1, #map1, #map1, #map1, #map], iterator_types = ["parallel", "parallel", "parallel", "parallel"]} ins(%inserted_slice_286, %cst_257, %cst_256, %cst_256, %cst_257 : tensor<1x160x8x8xf32>, tensor<160xf32>, tensor<160xf32>, tensor<160xf32>, tensor<160xf32>) outs(%inserted_slice_286 : tensor<1x160x8x8xf32>) {
    ^bb0(%in: f32, %in_1594: f32, %in_1595: f32, %in_1596: f32, %in_1597: f32, %out: f32):
      %632 = arith.truncf %cst_273 : f64 to f32
      %633 = arith.addf %in_1597, %632 : f32
      %634 = math.rsqrt %633 : f32
      %635 = arith.subf %in, %in_1596 : f32
      %636 = arith.mulf %635, %634 : f32
      %637 = arith.mulf %636, %in_1594 : f32
      %638 = arith.addf %637, %in_1595 : f32
      linalg.yield %638 : f32
    } -> tensor<1x160x8x8xf32>
    %35 = linalg.generic {indexing_maps = [#map2, #map], iterator_types = ["parallel", "parallel", "parallel", "parallel"]} ins(%34 : tensor<1x160x8x8xf32>) outs(%33 : tensor<1x160x8x8xf32>) {
    ^bb0(%in: f32, %out: f32):
      %632 = arith.cmpf ugt, %in, %cst_271 : f32
      %633 = arith.select %632, %in, %cst_271 : f32
      linalg.yield %633 : f32
    } -> tensor<1x160x8x8xf32>
    %36 = linalg.conv_2d_nchw_fchw {dilations = dense<1> : vector<2xi64>, strides = dense<1> : vector<2xi64>} ins(%35, %cst_255 : tensor<1x160x8x8xf32>, tensor<128x160x1x1xf32>) outs(%13 : tensor<1x128x8x8xf32>) -> tensor<1x128x8x8xf32>
    cf.assert %3, "training is not supported for now"
    %37 = linalg.generic {indexing_maps = [#map, #map1, #map1, #map1, #map1, #map], iterator_types = ["parallel", "parallel", "parallel", "parallel"]} ins(%36, %cst_266, %cst_265, %cst_265, %cst_266 : tensor<1x128x8x8xf32>, tensor<128xf32>, tensor<128xf32>, tensor<128xf32>, tensor<128xf32>) outs(%36 : tensor<1x128x8x8xf32>) {
    ^bb0(%in: f32, %in_1594: f32, %in_1595: f32, %in_1596: f32, %in_1597: f32, %out: f32):
      %632 = arith.truncf %cst_273 : f64 to f32
      %633 = arith.addf %in_1597, %632 : f32
      %634 = math.rsqrt %633 : f32
      %635 = arith.subf %in, %in_1596 : f32
      %636 = arith.mulf %635, %634 : f32
      %637 = arith.mulf %636, %in_1594 : f32
      %638 = arith.addf %637, %in_1595 : f32
      linalg.yield %638 : f32
    } -> tensor<1x128x8x8xf32>
    %38 = linalg.generic {indexing_maps = [#map2, #map], iterator_types = ["parallel", "parallel", "parallel", "parallel"]} ins(%37 : tensor<1x128x8x8xf32>) outs(%12 : tensor<1x128x8x8xf32>) {
    ^bb0(%in: f32, %out: f32):
      %632 = arith.cmpf ugt, %in, %cst_271 : f32
      %633 = arith.select %632, %in, %cst_271 : f32
      linalg.yield %633 : f32
    } -> tensor<1x128x8x8xf32>
    %padded_287 = tensor.pad %38 low[0, 0, 1, 1] high[0, 0, 1, 1] {
    ^bb0(%arg1: index, %arg2: index, %arg3: index, %arg4: index):
      tensor.yield %cst_271 : f32
    } : tensor<1x128x8x8xf32> to tensor<1x128x10x10xf32>
    %39 = linalg.conv_2d_nchw_fchw {dilations = dense<1> : vector<2xi64>, strides = dense<1> : vector<2xi64>} ins(%padded_287, %cst_254 : tensor<1x128x10x10xf32>, tensor<32x128x3x3xf32>) outs(%18 : tensor<1x32x8x8xf32>) -> tensor<1x32x8x8xf32>
    %40 = tensor.empty() : tensor<1x192x8x8xf32>
    %inserted_slice_288 = tensor.insert_slice %9 into %40[0, 0, 0, 0] [1, 64, 8, 8] [1, 1, 1, 1] : tensor<1x64x8x8xf32> into tensor<1x192x8x8xf32>
    %inserted_slice_289 = tensor.insert_slice %19 into %inserted_slice_288[0, 64, 0, 0] [1, 32, 8, 8] [1, 1, 1, 1] : tensor<1x32x8x8xf32> into tensor<1x192x8x8xf32>
    %inserted_slice_290 = tensor.insert_slice %26 into %inserted_slice_289[0, 96, 0, 0] [1, 32, 8, 8] [1, 1, 1, 1] : tensor<1x32x8x8xf32> into tensor<1x192x8x8xf32>
    %inserted_slice_291 = tensor.insert_slice %32 into %inserted_slice_290[0, 128, 0, 0] [1, 32, 8, 8] [1, 1, 1, 1] : tensor<1x32x8x8xf32> into tensor<1x192x8x8xf32>
    %inserted_slice_292 = tensor.insert_slice %39 into %inserted_slice_291[0, 160, 0, 0] [1, 32, 8, 8] [1, 1, 1, 1] : tensor<1x32x8x8xf32> into tensor<1x192x8x8xf32>
    cf.assert %3, "training is not supported for now"
    %41 = linalg.generic {indexing_maps = [#map, #map1, #map1, #map1, #map1, #map], iterator_types = ["parallel", "parallel", "parallel", "parallel"]} ins(%inserted_slice_292, %cst_253, %cst_252, %cst_252, %cst_253 : tensor<1x192x8x8xf32>, tensor<192xf32>, tensor<192xf32>, tensor<192xf32>, tensor<192xf32>) outs(%inserted_slice_292 : tensor<1x192x8x8xf32>) {
    ^bb0(%in: f32, %in_1594: f32, %in_1595: f32, %in_1596: f32, %in_1597: f32, %out: f32):
      %632 = arith.truncf %cst_273 : f64 to f32
      %633 = arith.addf %in_1597, %632 : f32
      %634 = math.rsqrt %633 : f32
      %635 = arith.subf %in, %in_1596 : f32
      %636 = arith.mulf %635, %634 : f32
      %637 = arith.mulf %636, %in_1594 : f32
      %638 = arith.addf %637, %in_1595 : f32
      linalg.yield %638 : f32
    } -> tensor<1x192x8x8xf32>
    %42 = linalg.generic {indexing_maps = [#map2, #map], iterator_types = ["parallel", "parallel", "parallel", "parallel"]} ins(%41 : tensor<1x192x8x8xf32>) outs(%40 : tensor<1x192x8x8xf32>) {
    ^bb0(%in: f32, %out: f32):
      %632 = arith.cmpf ugt, %in, %cst_271 : f32
      %633 = arith.select %632, %in, %cst_271 : f32
      linalg.yield %633 : f32
    } -> tensor<1x192x8x8xf32>
    %43 = linalg.conv_2d_nchw_fchw {dilations = dense<1> : vector<2xi64>, strides = dense<1> : vector<2xi64>} ins(%42, %cst_251 : tensor<1x192x8x8xf32>, tensor<128x192x1x1xf32>) outs(%13 : tensor<1x128x8x8xf32>) -> tensor<1x128x8x8xf32>
    cf.assert %3, "training is not supported for now"
    %44 = linalg.generic {indexing_maps = [#map, #map1, #map1, #map1, #map1, #map], iterator_types = ["parallel", "parallel", "parallel", "parallel"]} ins(%43, %cst_266, %cst_265, %cst_265, %cst_266 : tensor<1x128x8x8xf32>, tensor<128xf32>, tensor<128xf32>, tensor<128xf32>, tensor<128xf32>) outs(%43 : tensor<1x128x8x8xf32>) {
    ^bb0(%in: f32, %in_1594: f32, %in_1595: f32, %in_1596: f32, %in_1597: f32, %out: f32):
      %632 = arith.truncf %cst_273 : f64 to f32
      %633 = arith.addf %in_1597, %632 : f32
      %634 = math.rsqrt %633 : f32
      %635 = arith.subf %in, %in_1596 : f32
      %636 = arith.mulf %635, %634 : f32
      %637 = arith.mulf %636, %in_1594 : f32
      %638 = arith.addf %637, %in_1595 : f32
      linalg.yield %638 : f32
    } -> tensor<1x128x8x8xf32>
    %45 = linalg.generic {indexing_maps = [#map2, #map], iterator_types = ["parallel", "parallel", "parallel", "parallel"]} ins(%44 : tensor<1x128x8x8xf32>) outs(%12 : tensor<1x128x8x8xf32>) {
    ^bb0(%in: f32, %out: f32):
      %632 = arith.cmpf ugt, %in, %cst_271 : f32
      %633 = arith.select %632, %in, %cst_271 : f32
      linalg.yield %633 : f32
    } -> tensor<1x128x8x8xf32>
    %padded_293 = tensor.pad %45 low[0, 0, 1, 1] high[0, 0, 1, 1] {
    ^bb0(%arg1: index, %arg2: index, %arg3: index, %arg4: index):
      tensor.yield %cst_271 : f32
    } : tensor<1x128x8x8xf32> to tensor<1x128x10x10xf32>
    %46 = linalg.conv_2d_nchw_fchw {dilations = dense<1> : vector<2xi64>, strides = dense<1> : vector<2xi64>} ins(%padded_293, %cst_250 : tensor<1x128x10x10xf32>, tensor<32x128x3x3xf32>) outs(%18 : tensor<1x32x8x8xf32>) -> tensor<1x32x8x8xf32>
    %47 = tensor.empty() : tensor<1x224x8x8xf32>
    %inserted_slice_294 = tensor.insert_slice %9 into %47[0, 0, 0, 0] [1, 64, 8, 8] [1, 1, 1, 1] : tensor<1x64x8x8xf32> into tensor<1x224x8x8xf32>
    %inserted_slice_295 = tensor.insert_slice %19 into %inserted_slice_294[0, 64, 0, 0] [1, 32, 8, 8] [1, 1, 1, 1] : tensor<1x32x8x8xf32> into tensor<1x224x8x8xf32>
    %inserted_slice_296 = tensor.insert_slice %26 into %inserted_slice_295[0, 96, 0, 0] [1, 32, 8, 8] [1, 1, 1, 1] : tensor<1x32x8x8xf32> into tensor<1x224x8x8xf32>
    %inserted_slice_297 = tensor.insert_slice %32 into %inserted_slice_296[0, 128, 0, 0] [1, 32, 8, 8] [1, 1, 1, 1] : tensor<1x32x8x8xf32> into tensor<1x224x8x8xf32>
    %inserted_slice_298 = tensor.insert_slice %39 into %inserted_slice_297[0, 160, 0, 0] [1, 32, 8, 8] [1, 1, 1, 1] : tensor<1x32x8x8xf32> into tensor<1x224x8x8xf32>
    %inserted_slice_299 = tensor.insert_slice %46 into %inserted_slice_298[0, 192, 0, 0] [1, 32, 8, 8] [1, 1, 1, 1] : tensor<1x32x8x8xf32> into tensor<1x224x8x8xf32>
    cf.assert %3, "training is not supported for now"
    %48 = linalg.generic {indexing_maps = [#map, #map1, #map1, #map1, #map1, #map], iterator_types = ["parallel", "parallel", "parallel", "parallel"]} ins(%inserted_slice_299, %cst_249, %cst_248, %cst_248, %cst_249 : tensor<1x224x8x8xf32>, tensor<224xf32>, tensor<224xf32>, tensor<224xf32>, tensor<224xf32>) outs(%inserted_slice_299 : tensor<1x224x8x8xf32>) {
    ^bb0(%in: f32, %in_1594: f32, %in_1595: f32, %in_1596: f32, %in_1597: f32, %out: f32):
      %632 = arith.truncf %cst_273 : f64 to f32
      %633 = arith.addf %in_1597, %632 : f32
      %634 = math.rsqrt %633 : f32
      %635 = arith.subf %in, %in_1596 : f32
      %636 = arith.mulf %635, %634 : f32
      %637 = arith.mulf %636, %in_1594 : f32
      %638 = arith.addf %637, %in_1595 : f32
      linalg.yield %638 : f32
    } -> tensor<1x224x8x8xf32>
    %49 = linalg.generic {indexing_maps = [#map2, #map], iterator_types = ["parallel", "parallel", "parallel", "parallel"]} ins(%48 : tensor<1x224x8x8xf32>) outs(%47 : tensor<1x224x8x8xf32>) {
    ^bb0(%in: f32, %out: f32):
      %632 = arith.cmpf ugt, %in, %cst_271 : f32
      %633 = arith.select %632, %in, %cst_271 : f32
      linalg.yield %633 : f32
    } -> tensor<1x224x8x8xf32>
    %50 = linalg.conv_2d_nchw_fchw {dilations = dense<1> : vector<2xi64>, strides = dense<1> : vector<2xi64>} ins(%49, %cst_247 : tensor<1x224x8x8xf32>, tensor<128x224x1x1xf32>) outs(%13 : tensor<1x128x8x8xf32>) -> tensor<1x128x8x8xf32>
    cf.assert %3, "training is not supported for now"
    %51 = linalg.generic {indexing_maps = [#map, #map1, #map1, #map1, #map1, #map], iterator_types = ["parallel", "parallel", "parallel", "parallel"]} ins(%50, %cst_266, %cst_265, %cst_265, %cst_266 : tensor<1x128x8x8xf32>, tensor<128xf32>, tensor<128xf32>, tensor<128xf32>, tensor<128xf32>) outs(%50 : tensor<1x128x8x8xf32>) {
    ^bb0(%in: f32, %in_1594: f32, %in_1595: f32, %in_1596: f32, %in_1597: f32, %out: f32):
      %632 = arith.truncf %cst_273 : f64 to f32
      %633 = arith.addf %in_1597, %632 : f32
      %634 = math.rsqrt %633 : f32
      %635 = arith.subf %in, %in_1596 : f32
      %636 = arith.mulf %635, %634 : f32
      %637 = arith.mulf %636, %in_1594 : f32
      %638 = arith.addf %637, %in_1595 : f32
      linalg.yield %638 : f32
    } -> tensor<1x128x8x8xf32>
    %52 = linalg.generic {indexing_maps = [#map2, #map], iterator_types = ["parallel", "parallel", "parallel", "parallel"]} ins(%51 : tensor<1x128x8x8xf32>) outs(%12 : tensor<1x128x8x8xf32>) {
    ^bb0(%in: f32, %out: f32):
      %632 = arith.cmpf ugt, %in, %cst_271 : f32
      %633 = arith.select %632, %in, %cst_271 : f32
      linalg.yield %633 : f32
    } -> tensor<1x128x8x8xf32>
    %padded_300 = tensor.pad %52 low[0, 0, 1, 1] high[0, 0, 1, 1] {
    ^bb0(%arg1: index, %arg2: index, %arg3: index, %arg4: index):
      tensor.yield %cst_271 : f32
    } : tensor<1x128x8x8xf32> to tensor<1x128x10x10xf32>
    %53 = linalg.conv_2d_nchw_fchw {dilations = dense<1> : vector<2xi64>, strides = dense<1> : vector<2xi64>} ins(%padded_300, %cst_246 : tensor<1x128x10x10xf32>, tensor<32x128x3x3xf32>) outs(%18 : tensor<1x32x8x8xf32>) -> tensor<1x32x8x8xf32>
    %54 = tensor.empty() : tensor<1x256x8x8xf32>
    %inserted_slice_301 = tensor.insert_slice %9 into %54[0, 0, 0, 0] [1, 64, 8, 8] [1, 1, 1, 1] : tensor<1x64x8x8xf32> into tensor<1x256x8x8xf32>
    %inserted_slice_302 = tensor.insert_slice %19 into %inserted_slice_301[0, 64, 0, 0] [1, 32, 8, 8] [1, 1, 1, 1] : tensor<1x32x8x8xf32> into tensor<1x256x8x8xf32>
    %inserted_slice_303 = tensor.insert_slice %26 into %inserted_slice_302[0, 96, 0, 0] [1, 32, 8, 8] [1, 1, 1, 1] : tensor<1x32x8x8xf32> into tensor<1x256x8x8xf32>
    %inserted_slice_304 = tensor.insert_slice %32 into %inserted_slice_303[0, 128, 0, 0] [1, 32, 8, 8] [1, 1, 1, 1] : tensor<1x32x8x8xf32> into tensor<1x256x8x8xf32>
    %inserted_slice_305 = tensor.insert_slice %39 into %inserted_slice_304[0, 160, 0, 0] [1, 32, 8, 8] [1, 1, 1, 1] : tensor<1x32x8x8xf32> into tensor<1x256x8x8xf32>
    %inserted_slice_306 = tensor.insert_slice %46 into %inserted_slice_305[0, 192, 0, 0] [1, 32, 8, 8] [1, 1, 1, 1] : tensor<1x32x8x8xf32> into tensor<1x256x8x8xf32>
    %inserted_slice_307 = tensor.insert_slice %53 into %inserted_slice_306[0, 224, 0, 0] [1, 32, 8, 8] [1, 1, 1, 1] : tensor<1x32x8x8xf32> into tensor<1x256x8x8xf32>
    cf.assert %3, "training is not supported for now"
    %55 = linalg.generic {indexing_maps = [#map, #map1, #map1, #map1, #map1, #map], iterator_types = ["parallel", "parallel", "parallel", "parallel"]} ins(%inserted_slice_307, %cst_245, %cst_244, %cst_244, %cst_245 : tensor<1x256x8x8xf32>, tensor<256xf32>, tensor<256xf32>, tensor<256xf32>, tensor<256xf32>) outs(%inserted_slice_307 : tensor<1x256x8x8xf32>) {
    ^bb0(%in: f32, %in_1594: f32, %in_1595: f32, %in_1596: f32, %in_1597: f32, %out: f32):
      %632 = arith.truncf %cst_273 : f64 to f32
      %633 = arith.addf %in_1597, %632 : f32
      %634 = math.rsqrt %633 : f32
      %635 = arith.subf %in, %in_1596 : f32
      %636 = arith.mulf %635, %634 : f32
      %637 = arith.mulf %636, %in_1594 : f32
      %638 = arith.addf %637, %in_1595 : f32
      linalg.yield %638 : f32
    } -> tensor<1x256x8x8xf32>
    %56 = linalg.generic {indexing_maps = [#map2, #map], iterator_types = ["parallel", "parallel", "parallel", "parallel"]} ins(%55 : tensor<1x256x8x8xf32>) outs(%54 : tensor<1x256x8x8xf32>) {
    ^bb0(%in: f32, %out: f32):
      %632 = arith.cmpf ugt, %in, %cst_271 : f32
      %633 = arith.select %632, %in, %cst_271 : f32
      linalg.yield %633 : f32
    } -> tensor<1x256x8x8xf32>
    %57 = linalg.conv_2d_nchw_fchw {dilations = dense<1> : vector<2xi64>, strides = dense<1> : vector<2xi64>} ins(%56, %cst_243 : tensor<1x256x8x8xf32>, tensor<128x256x1x1xf32>) outs(%13 : tensor<1x128x8x8xf32>) -> tensor<1x128x8x8xf32>
    %58 = tensor.empty() : tensor<1x128x4x4xf32>
    %59 = linalg.fill ins(%cst_271 : f32) outs(%58 : tensor<1x128x4x4xf32>) -> tensor<1x128x4x4xf32>
    %60 = tensor.empty() : tensor<2x2xf32>
    %61 = linalg.pooling_nchw_sum {dilations = dense<1> : vector<2xi64>, strides = dense<2> : vector<2xi64>} ins(%57, %60 : tensor<1x128x8x8xf32>, tensor<2x2xf32>) outs(%59 : tensor<1x128x4x4xf32>) -> tensor<1x128x4x4xf32>
    %62 = linalg.generic {indexing_maps = [#map, #map], iterator_types = ["parallel", "parallel", "parallel", "parallel"]} ins(%61 : tensor<1x128x4x4xf32>) outs(%58 : tensor<1x128x4x4xf32>) {
    ^bb0(%in: f32, %out: f32):
      %632 = arith.divf %in, %cst_274 : f32
      linalg.yield %632 : f32
    } -> tensor<1x128x4x4xf32>
    cf.assert %3, "training is not supported for now"
    %63 = linalg.generic {indexing_maps = [#map, #map1, #map1, #map1, #map1, #map], iterator_types = ["parallel", "parallel", "parallel", "parallel"]} ins(%62, %cst_266, %cst_265, %cst_265, %cst_266 : tensor<1x128x4x4xf32>, tensor<128xf32>, tensor<128xf32>, tensor<128xf32>, tensor<128xf32>) outs(%62 : tensor<1x128x4x4xf32>) {
    ^bb0(%in: f32, %in_1594: f32, %in_1595: f32, %in_1596: f32, %in_1597: f32, %out: f32):
      %632 = arith.truncf %cst_273 : f64 to f32
      %633 = arith.addf %in_1597, %632 : f32
      %634 = math.rsqrt %633 : f32
      %635 = arith.subf %in, %in_1596 : f32
      %636 = arith.mulf %635, %634 : f32
      %637 = arith.mulf %636, %in_1594 : f32
      %638 = arith.addf %637, %in_1595 : f32
      linalg.yield %638 : f32
    } -> tensor<1x128x4x4xf32>
    %64 = linalg.generic {indexing_maps = [#map2, #map], iterator_types = ["parallel", "parallel", "parallel", "parallel"]} ins(%63 : tensor<1x128x4x4xf32>) outs(%58 : tensor<1x128x4x4xf32>) {
    ^bb0(%in: f32, %out: f32):
      %632 = arith.cmpf ugt, %in, %cst_271 : f32
      %633 = arith.select %632, %in, %cst_271 : f32
      linalg.yield %633 : f32
    } -> tensor<1x128x4x4xf32>
    %65 = linalg.conv_2d_nchw_fchw {dilations = dense<1> : vector<2xi64>, strides = dense<1> : vector<2xi64>} ins(%64, %cst_242 : tensor<1x128x4x4xf32>, tensor<128x128x1x1xf32>) outs(%59 : tensor<1x128x4x4xf32>) -> tensor<1x128x4x4xf32>
    cf.assert %3, "training is not supported for now"
    %66 = linalg.generic {indexing_maps = [#map, #map1, #map1, #map1, #map1, #map], iterator_types = ["parallel", "parallel", "parallel", "parallel"]} ins(%65, %cst_266, %cst_265, %cst_265, %cst_266 : tensor<1x128x4x4xf32>, tensor<128xf32>, tensor<128xf32>, tensor<128xf32>, tensor<128xf32>) outs(%65 : tensor<1x128x4x4xf32>) {
    ^bb0(%in: f32, %in_1594: f32, %in_1595: f32, %in_1596: f32, %in_1597: f32, %out: f32):
      %632 = arith.truncf %cst_273 : f64 to f32
      %633 = arith.addf %in_1597, %632 : f32
      %634 = math.rsqrt %633 : f32
      %635 = arith.subf %in, %in_1596 : f32
      %636 = arith.mulf %635, %634 : f32
      %637 = arith.mulf %636, %in_1594 : f32
      %638 = arith.addf %637, %in_1595 : f32
      linalg.yield %638 : f32
    } -> tensor<1x128x4x4xf32>
    %67 = linalg.generic {indexing_maps = [#map2, #map], iterator_types = ["parallel", "parallel", "parallel", "parallel"]} ins(%66 : tensor<1x128x4x4xf32>) outs(%58 : tensor<1x128x4x4xf32>) {
    ^bb0(%in: f32, %out: f32):
      %632 = arith.cmpf ugt, %in, %cst_271 : f32
      %633 = arith.select %632, %in, %cst_271 : f32
      linalg.yield %633 : f32
    } -> tensor<1x128x4x4xf32>
    %padded_308 = tensor.pad %67 low[0, 0, 1, 1] high[0, 0, 1, 1] {
    ^bb0(%arg1: index, %arg2: index, %arg3: index, %arg4: index):
      tensor.yield %cst_271 : f32
    } : tensor<1x128x4x4xf32> to tensor<1x128x6x6xf32>
    %68 = tensor.empty() : tensor<1x32x4x4xf32>
    %69 = linalg.fill ins(%cst_271 : f32) outs(%68 : tensor<1x32x4x4xf32>) -> tensor<1x32x4x4xf32>
    %70 = linalg.conv_2d_nchw_fchw {dilations = dense<1> : vector<2xi64>, strides = dense<1> : vector<2xi64>} ins(%padded_308, %cst_241 : tensor<1x128x6x6xf32>, tensor<32x128x3x3xf32>) outs(%69 : tensor<1x32x4x4xf32>) -> tensor<1x32x4x4xf32>
    %71 = tensor.empty() : tensor<1x160x4x4xf32>
    %inserted_slice_309 = tensor.insert_slice %62 into %71[0, 0, 0, 0] [1, 128, 4, 4] [1, 1, 1, 1] : tensor<1x128x4x4xf32> into tensor<1x160x4x4xf32>
    %inserted_slice_310 = tensor.insert_slice %70 into %inserted_slice_309[0, 128, 0, 0] [1, 32, 4, 4] [1, 1, 1, 1] : tensor<1x32x4x4xf32> into tensor<1x160x4x4xf32>
    cf.assert %3, "training is not supported for now"
    %72 = linalg.generic {indexing_maps = [#map, #map1, #map1, #map1, #map1, #map], iterator_types = ["parallel", "parallel", "parallel", "parallel"]} ins(%inserted_slice_310, %cst_257, %cst_256, %cst_256, %cst_257 : tensor<1x160x4x4xf32>, tensor<160xf32>, tensor<160xf32>, tensor<160xf32>, tensor<160xf32>) outs(%inserted_slice_310 : tensor<1x160x4x4xf32>) {
    ^bb0(%in: f32, %in_1594: f32, %in_1595: f32, %in_1596: f32, %in_1597: f32, %out: f32):
      %632 = arith.truncf %cst_273 : f64 to f32
      %633 = arith.addf %in_1597, %632 : f32
      %634 = math.rsqrt %633 : f32
      %635 = arith.subf %in, %in_1596 : f32
      %636 = arith.mulf %635, %634 : f32
      %637 = arith.mulf %636, %in_1594 : f32
      %638 = arith.addf %637, %in_1595 : f32
      linalg.yield %638 : f32
    } -> tensor<1x160x4x4xf32>
    %73 = linalg.generic {indexing_maps = [#map2, #map], iterator_types = ["parallel", "parallel", "parallel", "parallel"]} ins(%72 : tensor<1x160x4x4xf32>) outs(%71 : tensor<1x160x4x4xf32>) {
    ^bb0(%in: f32, %out: f32):
      %632 = arith.cmpf ugt, %in, %cst_271 : f32
      %633 = arith.select %632, %in, %cst_271 : f32
      linalg.yield %633 : f32
    } -> tensor<1x160x4x4xf32>
    %74 = linalg.conv_2d_nchw_fchw {dilations = dense<1> : vector<2xi64>, strides = dense<1> : vector<2xi64>} ins(%73, %cst_240 : tensor<1x160x4x4xf32>, tensor<128x160x1x1xf32>) outs(%59 : tensor<1x128x4x4xf32>) -> tensor<1x128x4x4xf32>
    cf.assert %3, "training is not supported for now"
    %75 = linalg.generic {indexing_maps = [#map, #map1, #map1, #map1, #map1, #map], iterator_types = ["parallel", "parallel", "parallel", "parallel"]} ins(%74, %cst_266, %cst_265, %cst_265, %cst_266 : tensor<1x128x4x4xf32>, tensor<128xf32>, tensor<128xf32>, tensor<128xf32>, tensor<128xf32>) outs(%74 : tensor<1x128x4x4xf32>) {
    ^bb0(%in: f32, %in_1594: f32, %in_1595: f32, %in_1596: f32, %in_1597: f32, %out: f32):
      %632 = arith.truncf %cst_273 : f64 to f32
      %633 = arith.addf %in_1597, %632 : f32
      %634 = math.rsqrt %633 : f32
      %635 = arith.subf %in, %in_1596 : f32
      %636 = arith.mulf %635, %634 : f32
      %637 = arith.mulf %636, %in_1594 : f32
      %638 = arith.addf %637, %in_1595 : f32
      linalg.yield %638 : f32
    } -> tensor<1x128x4x4xf32>
    %76 = linalg.generic {indexing_maps = [#map2, #map], iterator_types = ["parallel", "parallel", "parallel", "parallel"]} ins(%75 : tensor<1x128x4x4xf32>) outs(%58 : tensor<1x128x4x4xf32>) {
    ^bb0(%in: f32, %out: f32):
      %632 = arith.cmpf ugt, %in, %cst_271 : f32
      %633 = arith.select %632, %in, %cst_271 : f32
      linalg.yield %633 : f32
    } -> tensor<1x128x4x4xf32>
    %padded_311 = tensor.pad %76 low[0, 0, 1, 1] high[0, 0, 1, 1] {
    ^bb0(%arg1: index, %arg2: index, %arg3: index, %arg4: index):
      tensor.yield %cst_271 : f32
    } : tensor<1x128x4x4xf32> to tensor<1x128x6x6xf32>
    %77 = linalg.conv_2d_nchw_fchw {dilations = dense<1> : vector<2xi64>, strides = dense<1> : vector<2xi64>} ins(%padded_311, %cst_239 : tensor<1x128x6x6xf32>, tensor<32x128x3x3xf32>) outs(%69 : tensor<1x32x4x4xf32>) -> tensor<1x32x4x4xf32>
    %78 = tensor.empty() : tensor<1x192x4x4xf32>
    %inserted_slice_312 = tensor.insert_slice %62 into %78[0, 0, 0, 0] [1, 128, 4, 4] [1, 1, 1, 1] : tensor<1x128x4x4xf32> into tensor<1x192x4x4xf32>
    %inserted_slice_313 = tensor.insert_slice %70 into %inserted_slice_312[0, 128, 0, 0] [1, 32, 4, 4] [1, 1, 1, 1] : tensor<1x32x4x4xf32> into tensor<1x192x4x4xf32>
    %inserted_slice_314 = tensor.insert_slice %77 into %inserted_slice_313[0, 160, 0, 0] [1, 32, 4, 4] [1, 1, 1, 1] : tensor<1x32x4x4xf32> into tensor<1x192x4x4xf32>
    cf.assert %3, "training is not supported for now"
    %79 = linalg.generic {indexing_maps = [#map, #map1, #map1, #map1, #map1, #map], iterator_types = ["parallel", "parallel", "parallel", "parallel"]} ins(%inserted_slice_314, %cst_253, %cst_252, %cst_252, %cst_253 : tensor<1x192x4x4xf32>, tensor<192xf32>, tensor<192xf32>, tensor<192xf32>, tensor<192xf32>) outs(%inserted_slice_314 : tensor<1x192x4x4xf32>) {
    ^bb0(%in: f32, %in_1594: f32, %in_1595: f32, %in_1596: f32, %in_1597: f32, %out: f32):
      %632 = arith.truncf %cst_273 : f64 to f32
      %633 = arith.addf %in_1597, %632 : f32
      %634 = math.rsqrt %633 : f32
      %635 = arith.subf %in, %in_1596 : f32
      %636 = arith.mulf %635, %634 : f32
      %637 = arith.mulf %636, %in_1594 : f32
      %638 = arith.addf %637, %in_1595 : f32
      linalg.yield %638 : f32
    } -> tensor<1x192x4x4xf32>
    %80 = linalg.generic {indexing_maps = [#map2, #map], iterator_types = ["parallel", "parallel", "parallel", "parallel"]} ins(%79 : tensor<1x192x4x4xf32>) outs(%78 : tensor<1x192x4x4xf32>) {
    ^bb0(%in: f32, %out: f32):
      %632 = arith.cmpf ugt, %in, %cst_271 : f32
      %633 = arith.select %632, %in, %cst_271 : f32
      linalg.yield %633 : f32
    } -> tensor<1x192x4x4xf32>
    %81 = linalg.conv_2d_nchw_fchw {dilations = dense<1> : vector<2xi64>, strides = dense<1> : vector<2xi64>} ins(%80, %cst_238 : tensor<1x192x4x4xf32>, tensor<128x192x1x1xf32>) outs(%59 : tensor<1x128x4x4xf32>) -> tensor<1x128x4x4xf32>
    cf.assert %3, "training is not supported for now"
    %82 = linalg.generic {indexing_maps = [#map, #map1, #map1, #map1, #map1, #map], iterator_types = ["parallel", "parallel", "parallel", "parallel"]} ins(%81, %cst_266, %cst_265, %cst_265, %cst_266 : tensor<1x128x4x4xf32>, tensor<128xf32>, tensor<128xf32>, tensor<128xf32>, tensor<128xf32>) outs(%81 : tensor<1x128x4x4xf32>) {
    ^bb0(%in: f32, %in_1594: f32, %in_1595: f32, %in_1596: f32, %in_1597: f32, %out: f32):
      %632 = arith.truncf %cst_273 : f64 to f32
      %633 = arith.addf %in_1597, %632 : f32
      %634 = math.rsqrt %633 : f32
      %635 = arith.subf %in, %in_1596 : f32
      %636 = arith.mulf %635, %634 : f32
      %637 = arith.mulf %636, %in_1594 : f32
      %638 = arith.addf %637, %in_1595 : f32
      linalg.yield %638 : f32
    } -> tensor<1x128x4x4xf32>
    %83 = linalg.generic {indexing_maps = [#map2, #map], iterator_types = ["parallel", "parallel", "parallel", "parallel"]} ins(%82 : tensor<1x128x4x4xf32>) outs(%58 : tensor<1x128x4x4xf32>) {
    ^bb0(%in: f32, %out: f32):
      %632 = arith.cmpf ugt, %in, %cst_271 : f32
      %633 = arith.select %632, %in, %cst_271 : f32
      linalg.yield %633 : f32
    } -> tensor<1x128x4x4xf32>
    %padded_315 = tensor.pad %83 low[0, 0, 1, 1] high[0, 0, 1, 1] {
    ^bb0(%arg1: index, %arg2: index, %arg3: index, %arg4: index):
      tensor.yield %cst_271 : f32
    } : tensor<1x128x4x4xf32> to tensor<1x128x6x6xf32>
    %84 = linalg.conv_2d_nchw_fchw {dilations = dense<1> : vector<2xi64>, strides = dense<1> : vector<2xi64>} ins(%padded_315, %cst_237 : tensor<1x128x6x6xf32>, tensor<32x128x3x3xf32>) outs(%69 : tensor<1x32x4x4xf32>) -> tensor<1x32x4x4xf32>
    %85 = tensor.empty() : tensor<1x224x4x4xf32>
    %inserted_slice_316 = tensor.insert_slice %62 into %85[0, 0, 0, 0] [1, 128, 4, 4] [1, 1, 1, 1] : tensor<1x128x4x4xf32> into tensor<1x224x4x4xf32>
    %inserted_slice_317 = tensor.insert_slice %70 into %inserted_slice_316[0, 128, 0, 0] [1, 32, 4, 4] [1, 1, 1, 1] : tensor<1x32x4x4xf32> into tensor<1x224x4x4xf32>
    %inserted_slice_318 = tensor.insert_slice %77 into %inserted_slice_317[0, 160, 0, 0] [1, 32, 4, 4] [1, 1, 1, 1] : tensor<1x32x4x4xf32> into tensor<1x224x4x4xf32>
    %inserted_slice_319 = tensor.insert_slice %84 into %inserted_slice_318[0, 192, 0, 0] [1, 32, 4, 4] [1, 1, 1, 1] : tensor<1x32x4x4xf32> into tensor<1x224x4x4xf32>
    cf.assert %3, "training is not supported for now"
    %86 = linalg.generic {indexing_maps = [#map, #map1, #map1, #map1, #map1, #map], iterator_types = ["parallel", "parallel", "parallel", "parallel"]} ins(%inserted_slice_319, %cst_249, %cst_248, %cst_248, %cst_249 : tensor<1x224x4x4xf32>, tensor<224xf32>, tensor<224xf32>, tensor<224xf32>, tensor<224xf32>) outs(%inserted_slice_319 : tensor<1x224x4x4xf32>) {
    ^bb0(%in: f32, %in_1594: f32, %in_1595: f32, %in_1596: f32, %in_1597: f32, %out: f32):
      %632 = arith.truncf %cst_273 : f64 to f32
      %633 = arith.addf %in_1597, %632 : f32
      %634 = math.rsqrt %633 : f32
      %635 = arith.subf %in, %in_1596 : f32
      %636 = arith.mulf %635, %634 : f32
      %637 = arith.mulf %636, %in_1594 : f32
      %638 = arith.addf %637, %in_1595 : f32
      linalg.yield %638 : f32
    } -> tensor<1x224x4x4xf32>
    %87 = linalg.generic {indexing_maps = [#map2, #map], iterator_types = ["parallel", "parallel", "parallel", "parallel"]} ins(%86 : tensor<1x224x4x4xf32>) outs(%85 : tensor<1x224x4x4xf32>) {
    ^bb0(%in: f32, %out: f32):
      %632 = arith.cmpf ugt, %in, %cst_271 : f32
      %633 = arith.select %632, %in, %cst_271 : f32
      linalg.yield %633 : f32
    } -> tensor<1x224x4x4xf32>
    %88 = linalg.conv_2d_nchw_fchw {dilations = dense<1> : vector<2xi64>, strides = dense<1> : vector<2xi64>} ins(%87, %cst_236 : tensor<1x224x4x4xf32>, tensor<128x224x1x1xf32>) outs(%59 : tensor<1x128x4x4xf32>) -> tensor<1x128x4x4xf32>
    cf.assert %3, "training is not supported for now"
    %89 = linalg.generic {indexing_maps = [#map, #map1, #map1, #map1, #map1, #map], iterator_types = ["parallel", "parallel", "parallel", "parallel"]} ins(%88, %cst_266, %cst_265, %cst_265, %cst_266 : tensor<1x128x4x4xf32>, tensor<128xf32>, tensor<128xf32>, tensor<128xf32>, tensor<128xf32>) outs(%88 : tensor<1x128x4x4xf32>) {
    ^bb0(%in: f32, %in_1594: f32, %in_1595: f32, %in_1596: f32, %in_1597: f32, %out: f32):
      %632 = arith.truncf %cst_273 : f64 to f32
      %633 = arith.addf %in_1597, %632 : f32
      %634 = math.rsqrt %633 : f32
      %635 = arith.subf %in, %in_1596 : f32
      %636 = arith.mulf %635, %634 : f32
      %637 = arith.mulf %636, %in_1594 : f32
      %638 = arith.addf %637, %in_1595 : f32
      linalg.yield %638 : f32
    } -> tensor<1x128x4x4xf32>
    %90 = linalg.generic {indexing_maps = [#map2, #map], iterator_types = ["parallel", "parallel", "parallel", "parallel"]} ins(%89 : tensor<1x128x4x4xf32>) outs(%58 : tensor<1x128x4x4xf32>) {
    ^bb0(%in: f32, %out: f32):
      %632 = arith.cmpf ugt, %in, %cst_271 : f32
      %633 = arith.select %632, %in, %cst_271 : f32
      linalg.yield %633 : f32
    } -> tensor<1x128x4x4xf32>
    %padded_320 = tensor.pad %90 low[0, 0, 1, 1] high[0, 0, 1, 1] {
    ^bb0(%arg1: index, %arg2: index, %arg3: index, %arg4: index):
      tensor.yield %cst_271 : f32
    } : tensor<1x128x4x4xf32> to tensor<1x128x6x6xf32>
    %91 = linalg.conv_2d_nchw_fchw {dilations = dense<1> : vector<2xi64>, strides = dense<1> : vector<2xi64>} ins(%padded_320, %cst_235 : tensor<1x128x6x6xf32>, tensor<32x128x3x3xf32>) outs(%69 : tensor<1x32x4x4xf32>) -> tensor<1x32x4x4xf32>
    %92 = tensor.empty() : tensor<1x256x4x4xf32>
    %inserted_slice_321 = tensor.insert_slice %62 into %92[0, 0, 0, 0] [1, 128, 4, 4] [1, 1, 1, 1] : tensor<1x128x4x4xf32> into tensor<1x256x4x4xf32>
    %inserted_slice_322 = tensor.insert_slice %70 into %inserted_slice_321[0, 128, 0, 0] [1, 32, 4, 4] [1, 1, 1, 1] : tensor<1x32x4x4xf32> into tensor<1x256x4x4xf32>
    %inserted_slice_323 = tensor.insert_slice %77 into %inserted_slice_322[0, 160, 0, 0] [1, 32, 4, 4] [1, 1, 1, 1] : tensor<1x32x4x4xf32> into tensor<1x256x4x4xf32>
    %inserted_slice_324 = tensor.insert_slice %84 into %inserted_slice_323[0, 192, 0, 0] [1, 32, 4, 4] [1, 1, 1, 1] : tensor<1x32x4x4xf32> into tensor<1x256x4x4xf32>
    %inserted_slice_325 = tensor.insert_slice %91 into %inserted_slice_324[0, 224, 0, 0] [1, 32, 4, 4] [1, 1, 1, 1] : tensor<1x32x4x4xf32> into tensor<1x256x4x4xf32>
    cf.assert %3, "training is not supported for now"
    %93 = linalg.generic {indexing_maps = [#map, #map1, #map1, #map1, #map1, #map], iterator_types = ["parallel", "parallel", "parallel", "parallel"]} ins(%inserted_slice_325, %cst_245, %cst_244, %cst_244, %cst_245 : tensor<1x256x4x4xf32>, tensor<256xf32>, tensor<256xf32>, tensor<256xf32>, tensor<256xf32>) outs(%inserted_slice_325 : tensor<1x256x4x4xf32>) {
    ^bb0(%in: f32, %in_1594: f32, %in_1595: f32, %in_1596: f32, %in_1597: f32, %out: f32):
      %632 = arith.truncf %cst_273 : f64 to f32
      %633 = arith.addf %in_1597, %632 : f32
      %634 = math.rsqrt %633 : f32
      %635 = arith.subf %in, %in_1596 : f32
      %636 = arith.mulf %635, %634 : f32
      %637 = arith.mulf %636, %in_1594 : f32
      %638 = arith.addf %637, %in_1595 : f32
      linalg.yield %638 : f32
    } -> tensor<1x256x4x4xf32>
    %94 = linalg.generic {indexing_maps = [#map2, #map], iterator_types = ["parallel", "parallel", "parallel", "parallel"]} ins(%93 : tensor<1x256x4x4xf32>) outs(%92 : tensor<1x256x4x4xf32>) {
    ^bb0(%in: f32, %out: f32):
      %632 = arith.cmpf ugt, %in, %cst_271 : f32
      %633 = arith.select %632, %in, %cst_271 : f32
      linalg.yield %633 : f32
    } -> tensor<1x256x4x4xf32>
    %95 = linalg.conv_2d_nchw_fchw {dilations = dense<1> : vector<2xi64>, strides = dense<1> : vector<2xi64>} ins(%94, %cst_234 : tensor<1x256x4x4xf32>, tensor<128x256x1x1xf32>) outs(%59 : tensor<1x128x4x4xf32>) -> tensor<1x128x4x4xf32>
    cf.assert %3, "training is not supported for now"
    %96 = linalg.generic {indexing_maps = [#map, #map1, #map1, #map1, #map1, #map], iterator_types = ["parallel", "parallel", "parallel", "parallel"]} ins(%95, %cst_266, %cst_265, %cst_265, %cst_266 : tensor<1x128x4x4xf32>, tensor<128xf32>, tensor<128xf32>, tensor<128xf32>, tensor<128xf32>) outs(%95 : tensor<1x128x4x4xf32>) {
    ^bb0(%in: f32, %in_1594: f32, %in_1595: f32, %in_1596: f32, %in_1597: f32, %out: f32):
      %632 = arith.truncf %cst_273 : f64 to f32
      %633 = arith.addf %in_1597, %632 : f32
      %634 = math.rsqrt %633 : f32
      %635 = arith.subf %in, %in_1596 : f32
      %636 = arith.mulf %635, %634 : f32
      %637 = arith.mulf %636, %in_1594 : f32
      %638 = arith.addf %637, %in_1595 : f32
      linalg.yield %638 : f32
    } -> tensor<1x128x4x4xf32>
    %97 = linalg.generic {indexing_maps = [#map2, #map], iterator_types = ["parallel", "parallel", "parallel", "parallel"]} ins(%96 : tensor<1x128x4x4xf32>) outs(%58 : tensor<1x128x4x4xf32>) {
    ^bb0(%in: f32, %out: f32):
      %632 = arith.cmpf ugt, %in, %cst_271 : f32
      %633 = arith.select %632, %in, %cst_271 : f32
      linalg.yield %633 : f32
    } -> tensor<1x128x4x4xf32>
    %padded_326 = tensor.pad %97 low[0, 0, 1, 1] high[0, 0, 1, 1] {
    ^bb0(%arg1: index, %arg2: index, %arg3: index, %arg4: index):
      tensor.yield %cst_271 : f32
    } : tensor<1x128x4x4xf32> to tensor<1x128x6x6xf32>
    %98 = linalg.conv_2d_nchw_fchw {dilations = dense<1> : vector<2xi64>, strides = dense<1> : vector<2xi64>} ins(%padded_326, %cst_233 : tensor<1x128x6x6xf32>, tensor<32x128x3x3xf32>) outs(%69 : tensor<1x32x4x4xf32>) -> tensor<1x32x4x4xf32>
    %99 = tensor.empty() : tensor<1x288x4x4xf32>
    %inserted_slice_327 = tensor.insert_slice %62 into %99[0, 0, 0, 0] [1, 128, 4, 4] [1, 1, 1, 1] : tensor<1x128x4x4xf32> into tensor<1x288x4x4xf32>
    %inserted_slice_328 = tensor.insert_slice %70 into %inserted_slice_327[0, 128, 0, 0] [1, 32, 4, 4] [1, 1, 1, 1] : tensor<1x32x4x4xf32> into tensor<1x288x4x4xf32>
    %inserted_slice_329 = tensor.insert_slice %77 into %inserted_slice_328[0, 160, 0, 0] [1, 32, 4, 4] [1, 1, 1, 1] : tensor<1x32x4x4xf32> into tensor<1x288x4x4xf32>
    %inserted_slice_330 = tensor.insert_slice %84 into %inserted_slice_329[0, 192, 0, 0] [1, 32, 4, 4] [1, 1, 1, 1] : tensor<1x32x4x4xf32> into tensor<1x288x4x4xf32>
    %inserted_slice_331 = tensor.insert_slice %91 into %inserted_slice_330[0, 224, 0, 0] [1, 32, 4, 4] [1, 1, 1, 1] : tensor<1x32x4x4xf32> into tensor<1x288x4x4xf32>
    %inserted_slice_332 = tensor.insert_slice %98 into %inserted_slice_331[0, 256, 0, 0] [1, 32, 4, 4] [1, 1, 1, 1] : tensor<1x32x4x4xf32> into tensor<1x288x4x4xf32>
    cf.assert %3, "training is not supported for now"
    %100 = linalg.generic {indexing_maps = [#map, #map1, #map1, #map1, #map1, #map], iterator_types = ["parallel", "parallel", "parallel", "parallel"]} ins(%inserted_slice_332, %cst_232, %cst_231, %cst_231, %cst_232 : tensor<1x288x4x4xf32>, tensor<288xf32>, tensor<288xf32>, tensor<288xf32>, tensor<288xf32>) outs(%inserted_slice_332 : tensor<1x288x4x4xf32>) {
    ^bb0(%in: f32, %in_1594: f32, %in_1595: f32, %in_1596: f32, %in_1597: f32, %out: f32):
      %632 = arith.truncf %cst_273 : f64 to f32
      %633 = arith.addf %in_1597, %632 : f32
      %634 = math.rsqrt %633 : f32
      %635 = arith.subf %in, %in_1596 : f32
      %636 = arith.mulf %635, %634 : f32
      %637 = arith.mulf %636, %in_1594 : f32
      %638 = arith.addf %637, %in_1595 : f32
      linalg.yield %638 : f32
    } -> tensor<1x288x4x4xf32>
    %101 = linalg.generic {indexing_maps = [#map2, #map], iterator_types = ["parallel", "parallel", "parallel", "parallel"]} ins(%100 : tensor<1x288x4x4xf32>) outs(%99 : tensor<1x288x4x4xf32>) {
    ^bb0(%in: f32, %out: f32):
      %632 = arith.cmpf ugt, %in, %cst_271 : f32
      %633 = arith.select %632, %in, %cst_271 : f32
      linalg.yield %633 : f32
    } -> tensor<1x288x4x4xf32>
    %102 = linalg.conv_2d_nchw_fchw {dilations = dense<1> : vector<2xi64>, strides = dense<1> : vector<2xi64>} ins(%101, %cst_230 : tensor<1x288x4x4xf32>, tensor<128x288x1x1xf32>) outs(%59 : tensor<1x128x4x4xf32>) -> tensor<1x128x4x4xf32>
    cf.assert %3, "training is not supported for now"
    %103 = linalg.generic {indexing_maps = [#map, #map1, #map1, #map1, #map1, #map], iterator_types = ["parallel", "parallel", "parallel", "parallel"]} ins(%102, %cst_266, %cst_265, %cst_265, %cst_266 : tensor<1x128x4x4xf32>, tensor<128xf32>, tensor<128xf32>, tensor<128xf32>, tensor<128xf32>) outs(%102 : tensor<1x128x4x4xf32>) {
    ^bb0(%in: f32, %in_1594: f32, %in_1595: f32, %in_1596: f32, %in_1597: f32, %out: f32):
      %632 = arith.truncf %cst_273 : f64 to f32
      %633 = arith.addf %in_1597, %632 : f32
      %634 = math.rsqrt %633 : f32
      %635 = arith.subf %in, %in_1596 : f32
      %636 = arith.mulf %635, %634 : f32
      %637 = arith.mulf %636, %in_1594 : f32
      %638 = arith.addf %637, %in_1595 : f32
      linalg.yield %638 : f32
    } -> tensor<1x128x4x4xf32>
    %104 = linalg.generic {indexing_maps = [#map2, #map], iterator_types = ["parallel", "parallel", "parallel", "parallel"]} ins(%103 : tensor<1x128x4x4xf32>) outs(%58 : tensor<1x128x4x4xf32>) {
    ^bb0(%in: f32, %out: f32):
      %632 = arith.cmpf ugt, %in, %cst_271 : f32
      %633 = arith.select %632, %in, %cst_271 : f32
      linalg.yield %633 : f32
    } -> tensor<1x128x4x4xf32>
    %padded_333 = tensor.pad %104 low[0, 0, 1, 1] high[0, 0, 1, 1] {
    ^bb0(%arg1: index, %arg2: index, %arg3: index, %arg4: index):
      tensor.yield %cst_271 : f32
    } : tensor<1x128x4x4xf32> to tensor<1x128x6x6xf32>
    %105 = linalg.conv_2d_nchw_fchw {dilations = dense<1> : vector<2xi64>, strides = dense<1> : vector<2xi64>} ins(%padded_333, %cst_229 : tensor<1x128x6x6xf32>, tensor<32x128x3x3xf32>) outs(%69 : tensor<1x32x4x4xf32>) -> tensor<1x32x4x4xf32>
    %106 = tensor.empty() : tensor<1x320x4x4xf32>
    %inserted_slice_334 = tensor.insert_slice %62 into %106[0, 0, 0, 0] [1, 128, 4, 4] [1, 1, 1, 1] : tensor<1x128x4x4xf32> into tensor<1x320x4x4xf32>
    %inserted_slice_335 = tensor.insert_slice %70 into %inserted_slice_334[0, 128, 0, 0] [1, 32, 4, 4] [1, 1, 1, 1] : tensor<1x32x4x4xf32> into tensor<1x320x4x4xf32>
    %inserted_slice_336 = tensor.insert_slice %77 into %inserted_slice_335[0, 160, 0, 0] [1, 32, 4, 4] [1, 1, 1, 1] : tensor<1x32x4x4xf32> into tensor<1x320x4x4xf32>
    %inserted_slice_337 = tensor.insert_slice %84 into %inserted_slice_336[0, 192, 0, 0] [1, 32, 4, 4] [1, 1, 1, 1] : tensor<1x32x4x4xf32> into tensor<1x320x4x4xf32>
    %inserted_slice_338 = tensor.insert_slice %91 into %inserted_slice_337[0, 224, 0, 0] [1, 32, 4, 4] [1, 1, 1, 1] : tensor<1x32x4x4xf32> into tensor<1x320x4x4xf32>
    %inserted_slice_339 = tensor.insert_slice %98 into %inserted_slice_338[0, 256, 0, 0] [1, 32, 4, 4] [1, 1, 1, 1] : tensor<1x32x4x4xf32> into tensor<1x320x4x4xf32>
    %inserted_slice_340 = tensor.insert_slice %105 into %inserted_slice_339[0, 288, 0, 0] [1, 32, 4, 4] [1, 1, 1, 1] : tensor<1x32x4x4xf32> into tensor<1x320x4x4xf32>
    cf.assert %3, "training is not supported for now"
    %107 = linalg.generic {indexing_maps = [#map, #map1, #map1, #map1, #map1, #map], iterator_types = ["parallel", "parallel", "parallel", "parallel"]} ins(%inserted_slice_340, %cst_228, %cst_227, %cst_227, %cst_228 : tensor<1x320x4x4xf32>, tensor<320xf32>, tensor<320xf32>, tensor<320xf32>, tensor<320xf32>) outs(%inserted_slice_340 : tensor<1x320x4x4xf32>) {
    ^bb0(%in: f32, %in_1594: f32, %in_1595: f32, %in_1596: f32, %in_1597: f32, %out: f32):
      %632 = arith.truncf %cst_273 : f64 to f32
      %633 = arith.addf %in_1597, %632 : f32
      %634 = math.rsqrt %633 : f32
      %635 = arith.subf %in, %in_1596 : f32
      %636 = arith.mulf %635, %634 : f32
      %637 = arith.mulf %636, %in_1594 : f32
      %638 = arith.addf %637, %in_1595 : f32
      linalg.yield %638 : f32
    } -> tensor<1x320x4x4xf32>
    %108 = linalg.generic {indexing_maps = [#map2, #map], iterator_types = ["parallel", "parallel", "parallel", "parallel"]} ins(%107 : tensor<1x320x4x4xf32>) outs(%106 : tensor<1x320x4x4xf32>) {
    ^bb0(%in: f32, %out: f32):
      %632 = arith.cmpf ugt, %in, %cst_271 : f32
      %633 = arith.select %632, %in, %cst_271 : f32
      linalg.yield %633 : f32
    } -> tensor<1x320x4x4xf32>
    %109 = linalg.conv_2d_nchw_fchw {dilations = dense<1> : vector<2xi64>, strides = dense<1> : vector<2xi64>} ins(%108, %cst_226 : tensor<1x320x4x4xf32>, tensor<128x320x1x1xf32>) outs(%59 : tensor<1x128x4x4xf32>) -> tensor<1x128x4x4xf32>
    cf.assert %3, "training is not supported for now"
    %110 = linalg.generic {indexing_maps = [#map, #map1, #map1, #map1, #map1, #map], iterator_types = ["parallel", "parallel", "parallel", "parallel"]} ins(%109, %cst_266, %cst_265, %cst_265, %cst_266 : tensor<1x128x4x4xf32>, tensor<128xf32>, tensor<128xf32>, tensor<128xf32>, tensor<128xf32>) outs(%109 : tensor<1x128x4x4xf32>) {
    ^bb0(%in: f32, %in_1594: f32, %in_1595: f32, %in_1596: f32, %in_1597: f32, %out: f32):
      %632 = arith.truncf %cst_273 : f64 to f32
      %633 = arith.addf %in_1597, %632 : f32
      %634 = math.rsqrt %633 : f32
      %635 = arith.subf %in, %in_1596 : f32
      %636 = arith.mulf %635, %634 : f32
      %637 = arith.mulf %636, %in_1594 : f32
      %638 = arith.addf %637, %in_1595 : f32
      linalg.yield %638 : f32
    } -> tensor<1x128x4x4xf32>
    %111 = linalg.generic {indexing_maps = [#map2, #map], iterator_types = ["parallel", "parallel", "parallel", "parallel"]} ins(%110 : tensor<1x128x4x4xf32>) outs(%58 : tensor<1x128x4x4xf32>) {
    ^bb0(%in: f32, %out: f32):
      %632 = arith.cmpf ugt, %in, %cst_271 : f32
      %633 = arith.select %632, %in, %cst_271 : f32
      linalg.yield %633 : f32
    } -> tensor<1x128x4x4xf32>
    %padded_341 = tensor.pad %111 low[0, 0, 1, 1] high[0, 0, 1, 1] {
    ^bb0(%arg1: index, %arg2: index, %arg3: index, %arg4: index):
      tensor.yield %cst_271 : f32
    } : tensor<1x128x4x4xf32> to tensor<1x128x6x6xf32>
    %112 = linalg.conv_2d_nchw_fchw {dilations = dense<1> : vector<2xi64>, strides = dense<1> : vector<2xi64>} ins(%padded_341, %cst_225 : tensor<1x128x6x6xf32>, tensor<32x128x3x3xf32>) outs(%69 : tensor<1x32x4x4xf32>) -> tensor<1x32x4x4xf32>
    %113 = tensor.empty() : tensor<1x352x4x4xf32>
    %inserted_slice_342 = tensor.insert_slice %62 into %113[0, 0, 0, 0] [1, 128, 4, 4] [1, 1, 1, 1] : tensor<1x128x4x4xf32> into tensor<1x352x4x4xf32>
    %inserted_slice_343 = tensor.insert_slice %70 into %inserted_slice_342[0, 128, 0, 0] [1, 32, 4, 4] [1, 1, 1, 1] : tensor<1x32x4x4xf32> into tensor<1x352x4x4xf32>
    %inserted_slice_344 = tensor.insert_slice %77 into %inserted_slice_343[0, 160, 0, 0] [1, 32, 4, 4] [1, 1, 1, 1] : tensor<1x32x4x4xf32> into tensor<1x352x4x4xf32>
    %inserted_slice_345 = tensor.insert_slice %84 into %inserted_slice_344[0, 192, 0, 0] [1, 32, 4, 4] [1, 1, 1, 1] : tensor<1x32x4x4xf32> into tensor<1x352x4x4xf32>
    %inserted_slice_346 = tensor.insert_slice %91 into %inserted_slice_345[0, 224, 0, 0] [1, 32, 4, 4] [1, 1, 1, 1] : tensor<1x32x4x4xf32> into tensor<1x352x4x4xf32>
    %inserted_slice_347 = tensor.insert_slice %98 into %inserted_slice_346[0, 256, 0, 0] [1, 32, 4, 4] [1, 1, 1, 1] : tensor<1x32x4x4xf32> into tensor<1x352x4x4xf32>
    %inserted_slice_348 = tensor.insert_slice %105 into %inserted_slice_347[0, 288, 0, 0] [1, 32, 4, 4] [1, 1, 1, 1] : tensor<1x32x4x4xf32> into tensor<1x352x4x4xf32>
    %inserted_slice_349 = tensor.insert_slice %112 into %inserted_slice_348[0, 320, 0, 0] [1, 32, 4, 4] [1, 1, 1, 1] : tensor<1x32x4x4xf32> into tensor<1x352x4x4xf32>
    cf.assert %3, "training is not supported for now"
    %114 = linalg.generic {indexing_maps = [#map, #map1, #map1, #map1, #map1, #map], iterator_types = ["parallel", "parallel", "parallel", "parallel"]} ins(%inserted_slice_349, %cst_224, %cst_223, %cst_223, %cst_224 : tensor<1x352x4x4xf32>, tensor<352xf32>, tensor<352xf32>, tensor<352xf32>, tensor<352xf32>) outs(%inserted_slice_349 : tensor<1x352x4x4xf32>) {
    ^bb0(%in: f32, %in_1594: f32, %in_1595: f32, %in_1596: f32, %in_1597: f32, %out: f32):
      %632 = arith.truncf %cst_273 : f64 to f32
      %633 = arith.addf %in_1597, %632 : f32
      %634 = math.rsqrt %633 : f32
      %635 = arith.subf %in, %in_1596 : f32
      %636 = arith.mulf %635, %634 : f32
      %637 = arith.mulf %636, %in_1594 : f32
      %638 = arith.addf %637, %in_1595 : f32
      linalg.yield %638 : f32
    } -> tensor<1x352x4x4xf32>
    %115 = linalg.generic {indexing_maps = [#map2, #map], iterator_types = ["parallel", "parallel", "parallel", "parallel"]} ins(%114 : tensor<1x352x4x4xf32>) outs(%113 : tensor<1x352x4x4xf32>) {
    ^bb0(%in: f32, %out: f32):
      %632 = arith.cmpf ugt, %in, %cst_271 : f32
      %633 = arith.select %632, %in, %cst_271 : f32
      linalg.yield %633 : f32
    } -> tensor<1x352x4x4xf32>
    %116 = linalg.conv_2d_nchw_fchw {dilations = dense<1> : vector<2xi64>, strides = dense<1> : vector<2xi64>} ins(%115, %cst_222 : tensor<1x352x4x4xf32>, tensor<128x352x1x1xf32>) outs(%59 : tensor<1x128x4x4xf32>) -> tensor<1x128x4x4xf32>
    cf.assert %3, "training is not supported for now"
    %117 = linalg.generic {indexing_maps = [#map, #map1, #map1, #map1, #map1, #map], iterator_types = ["parallel", "parallel", "parallel", "parallel"]} ins(%116, %cst_266, %cst_265, %cst_265, %cst_266 : tensor<1x128x4x4xf32>, tensor<128xf32>, tensor<128xf32>, tensor<128xf32>, tensor<128xf32>) outs(%116 : tensor<1x128x4x4xf32>) {
    ^bb0(%in: f32, %in_1594: f32, %in_1595: f32, %in_1596: f32, %in_1597: f32, %out: f32):
      %632 = arith.truncf %cst_273 : f64 to f32
      %633 = arith.addf %in_1597, %632 : f32
      %634 = math.rsqrt %633 : f32
      %635 = arith.subf %in, %in_1596 : f32
      %636 = arith.mulf %635, %634 : f32
      %637 = arith.mulf %636, %in_1594 : f32
      %638 = arith.addf %637, %in_1595 : f32
      linalg.yield %638 : f32
    } -> tensor<1x128x4x4xf32>
    %118 = linalg.generic {indexing_maps = [#map2, #map], iterator_types = ["parallel", "parallel", "parallel", "parallel"]} ins(%117 : tensor<1x128x4x4xf32>) outs(%58 : tensor<1x128x4x4xf32>) {
    ^bb0(%in: f32, %out: f32):
      %632 = arith.cmpf ugt, %in, %cst_271 : f32
      %633 = arith.select %632, %in, %cst_271 : f32
      linalg.yield %633 : f32
    } -> tensor<1x128x4x4xf32>
    %padded_350 = tensor.pad %118 low[0, 0, 1, 1] high[0, 0, 1, 1] {
    ^bb0(%arg1: index, %arg2: index, %arg3: index, %arg4: index):
      tensor.yield %cst_271 : f32
    } : tensor<1x128x4x4xf32> to tensor<1x128x6x6xf32>
    %119 = linalg.conv_2d_nchw_fchw {dilations = dense<1> : vector<2xi64>, strides = dense<1> : vector<2xi64>} ins(%padded_350, %cst_221 : tensor<1x128x6x6xf32>, tensor<32x128x3x3xf32>) outs(%69 : tensor<1x32x4x4xf32>) -> tensor<1x32x4x4xf32>
    %120 = tensor.empty() : tensor<1x384x4x4xf32>
    %inserted_slice_351 = tensor.insert_slice %62 into %120[0, 0, 0, 0] [1, 128, 4, 4] [1, 1, 1, 1] : tensor<1x128x4x4xf32> into tensor<1x384x4x4xf32>
    %inserted_slice_352 = tensor.insert_slice %70 into %inserted_slice_351[0, 128, 0, 0] [1, 32, 4, 4] [1, 1, 1, 1] : tensor<1x32x4x4xf32> into tensor<1x384x4x4xf32>
    %inserted_slice_353 = tensor.insert_slice %77 into %inserted_slice_352[0, 160, 0, 0] [1, 32, 4, 4] [1, 1, 1, 1] : tensor<1x32x4x4xf32> into tensor<1x384x4x4xf32>
    %inserted_slice_354 = tensor.insert_slice %84 into %inserted_slice_353[0, 192, 0, 0] [1, 32, 4, 4] [1, 1, 1, 1] : tensor<1x32x4x4xf32> into tensor<1x384x4x4xf32>
    %inserted_slice_355 = tensor.insert_slice %91 into %inserted_slice_354[0, 224, 0, 0] [1, 32, 4, 4] [1, 1, 1, 1] : tensor<1x32x4x4xf32> into tensor<1x384x4x4xf32>
    %inserted_slice_356 = tensor.insert_slice %98 into %inserted_slice_355[0, 256, 0, 0] [1, 32, 4, 4] [1, 1, 1, 1] : tensor<1x32x4x4xf32> into tensor<1x384x4x4xf32>
    %inserted_slice_357 = tensor.insert_slice %105 into %inserted_slice_356[0, 288, 0, 0] [1, 32, 4, 4] [1, 1, 1, 1] : tensor<1x32x4x4xf32> into tensor<1x384x4x4xf32>
    %inserted_slice_358 = tensor.insert_slice %112 into %inserted_slice_357[0, 320, 0, 0] [1, 32, 4, 4] [1, 1, 1, 1] : tensor<1x32x4x4xf32> into tensor<1x384x4x4xf32>
    %inserted_slice_359 = tensor.insert_slice %119 into %inserted_slice_358[0, 352, 0, 0] [1, 32, 4, 4] [1, 1, 1, 1] : tensor<1x32x4x4xf32> into tensor<1x384x4x4xf32>
    cf.assert %3, "training is not supported for now"
    %121 = linalg.generic {indexing_maps = [#map, #map1, #map1, #map1, #map1, #map], iterator_types = ["parallel", "parallel", "parallel", "parallel"]} ins(%inserted_slice_359, %cst_220, %cst_219, %cst_219, %cst_220 : tensor<1x384x4x4xf32>, tensor<384xf32>, tensor<384xf32>, tensor<384xf32>, tensor<384xf32>) outs(%inserted_slice_359 : tensor<1x384x4x4xf32>) {
    ^bb0(%in: f32, %in_1594: f32, %in_1595: f32, %in_1596: f32, %in_1597: f32, %out: f32):
      %632 = arith.truncf %cst_273 : f64 to f32
      %633 = arith.addf %in_1597, %632 : f32
      %634 = math.rsqrt %633 : f32
      %635 = arith.subf %in, %in_1596 : f32
      %636 = arith.mulf %635, %634 : f32
      %637 = arith.mulf %636, %in_1594 : f32
      %638 = arith.addf %637, %in_1595 : f32
      linalg.yield %638 : f32
    } -> tensor<1x384x4x4xf32>
    %122 = linalg.generic {indexing_maps = [#map2, #map], iterator_types = ["parallel", "parallel", "parallel", "parallel"]} ins(%121 : tensor<1x384x4x4xf32>) outs(%120 : tensor<1x384x4x4xf32>) {
    ^bb0(%in: f32, %out: f32):
      %632 = arith.cmpf ugt, %in, %cst_271 : f32
      %633 = arith.select %632, %in, %cst_271 : f32
      linalg.yield %633 : f32
    } -> tensor<1x384x4x4xf32>
    %123 = linalg.conv_2d_nchw_fchw {dilations = dense<1> : vector<2xi64>, strides = dense<1> : vector<2xi64>} ins(%122, %cst_218 : tensor<1x384x4x4xf32>, tensor<128x384x1x1xf32>) outs(%59 : tensor<1x128x4x4xf32>) -> tensor<1x128x4x4xf32>
    cf.assert %3, "training is not supported for now"
    %124 = linalg.generic {indexing_maps = [#map, #map1, #map1, #map1, #map1, #map], iterator_types = ["parallel", "parallel", "parallel", "parallel"]} ins(%123, %cst_266, %cst_265, %cst_265, %cst_266 : tensor<1x128x4x4xf32>, tensor<128xf32>, tensor<128xf32>, tensor<128xf32>, tensor<128xf32>) outs(%123 : tensor<1x128x4x4xf32>) {
    ^bb0(%in: f32, %in_1594: f32, %in_1595: f32, %in_1596: f32, %in_1597: f32, %out: f32):
      %632 = arith.truncf %cst_273 : f64 to f32
      %633 = arith.addf %in_1597, %632 : f32
      %634 = math.rsqrt %633 : f32
      %635 = arith.subf %in, %in_1596 : f32
      %636 = arith.mulf %635, %634 : f32
      %637 = arith.mulf %636, %in_1594 : f32
      %638 = arith.addf %637, %in_1595 : f32
      linalg.yield %638 : f32
    } -> tensor<1x128x4x4xf32>
    %125 = linalg.generic {indexing_maps = [#map2, #map], iterator_types = ["parallel", "parallel", "parallel", "parallel"]} ins(%124 : tensor<1x128x4x4xf32>) outs(%58 : tensor<1x128x4x4xf32>) {
    ^bb0(%in: f32, %out: f32):
      %632 = arith.cmpf ugt, %in, %cst_271 : f32
      %633 = arith.select %632, %in, %cst_271 : f32
      linalg.yield %633 : f32
    } -> tensor<1x128x4x4xf32>
    %padded_360 = tensor.pad %125 low[0, 0, 1, 1] high[0, 0, 1, 1] {
    ^bb0(%arg1: index, %arg2: index, %arg3: index, %arg4: index):
      tensor.yield %cst_271 : f32
    } : tensor<1x128x4x4xf32> to tensor<1x128x6x6xf32>
    %126 = linalg.conv_2d_nchw_fchw {dilations = dense<1> : vector<2xi64>, strides = dense<1> : vector<2xi64>} ins(%padded_360, %cst_217 : tensor<1x128x6x6xf32>, tensor<32x128x3x3xf32>) outs(%69 : tensor<1x32x4x4xf32>) -> tensor<1x32x4x4xf32>
    %127 = tensor.empty() : tensor<1x416x4x4xf32>
    %inserted_slice_361 = tensor.insert_slice %62 into %127[0, 0, 0, 0] [1, 128, 4, 4] [1, 1, 1, 1] : tensor<1x128x4x4xf32> into tensor<1x416x4x4xf32>
    %inserted_slice_362 = tensor.insert_slice %70 into %inserted_slice_361[0, 128, 0, 0] [1, 32, 4, 4] [1, 1, 1, 1] : tensor<1x32x4x4xf32> into tensor<1x416x4x4xf32>
    %inserted_slice_363 = tensor.insert_slice %77 into %inserted_slice_362[0, 160, 0, 0] [1, 32, 4, 4] [1, 1, 1, 1] : tensor<1x32x4x4xf32> into tensor<1x416x4x4xf32>
    %inserted_slice_364 = tensor.insert_slice %84 into %inserted_slice_363[0, 192, 0, 0] [1, 32, 4, 4] [1, 1, 1, 1] : tensor<1x32x4x4xf32> into tensor<1x416x4x4xf32>
    %inserted_slice_365 = tensor.insert_slice %91 into %inserted_slice_364[0, 224, 0, 0] [1, 32, 4, 4] [1, 1, 1, 1] : tensor<1x32x4x4xf32> into tensor<1x416x4x4xf32>
    %inserted_slice_366 = tensor.insert_slice %98 into %inserted_slice_365[0, 256, 0, 0] [1, 32, 4, 4] [1, 1, 1, 1] : tensor<1x32x4x4xf32> into tensor<1x416x4x4xf32>
    %inserted_slice_367 = tensor.insert_slice %105 into %inserted_slice_366[0, 288, 0, 0] [1, 32, 4, 4] [1, 1, 1, 1] : tensor<1x32x4x4xf32> into tensor<1x416x4x4xf32>
    %inserted_slice_368 = tensor.insert_slice %112 into %inserted_slice_367[0, 320, 0, 0] [1, 32, 4, 4] [1, 1, 1, 1] : tensor<1x32x4x4xf32> into tensor<1x416x4x4xf32>
    %inserted_slice_369 = tensor.insert_slice %119 into %inserted_slice_368[0, 352, 0, 0] [1, 32, 4, 4] [1, 1, 1, 1] : tensor<1x32x4x4xf32> into tensor<1x416x4x4xf32>
    %inserted_slice_370 = tensor.insert_slice %126 into %inserted_slice_369[0, 384, 0, 0] [1, 32, 4, 4] [1, 1, 1, 1] : tensor<1x32x4x4xf32> into tensor<1x416x4x4xf32>
    cf.assert %3, "training is not supported for now"
    %128 = linalg.generic {indexing_maps = [#map, #map1, #map1, #map1, #map1, #map], iterator_types = ["parallel", "parallel", "parallel", "parallel"]} ins(%inserted_slice_370, %cst_216, %cst_215, %cst_215, %cst_216 : tensor<1x416x4x4xf32>, tensor<416xf32>, tensor<416xf32>, tensor<416xf32>, tensor<416xf32>) outs(%inserted_slice_370 : tensor<1x416x4x4xf32>) {
    ^bb0(%in: f32, %in_1594: f32, %in_1595: f32, %in_1596: f32, %in_1597: f32, %out: f32):
      %632 = arith.truncf %cst_273 : f64 to f32
      %633 = arith.addf %in_1597, %632 : f32
      %634 = math.rsqrt %633 : f32
      %635 = arith.subf %in, %in_1596 : f32
      %636 = arith.mulf %635, %634 : f32
      %637 = arith.mulf %636, %in_1594 : f32
      %638 = arith.addf %637, %in_1595 : f32
      linalg.yield %638 : f32
    } -> tensor<1x416x4x4xf32>
    %129 = linalg.generic {indexing_maps = [#map2, #map], iterator_types = ["parallel", "parallel", "parallel", "parallel"]} ins(%128 : tensor<1x416x4x4xf32>) outs(%127 : tensor<1x416x4x4xf32>) {
    ^bb0(%in: f32, %out: f32):
      %632 = arith.cmpf ugt, %in, %cst_271 : f32
      %633 = arith.select %632, %in, %cst_271 : f32
      linalg.yield %633 : f32
    } -> tensor<1x416x4x4xf32>
    %130 = linalg.conv_2d_nchw_fchw {dilations = dense<1> : vector<2xi64>, strides = dense<1> : vector<2xi64>} ins(%129, %cst_214 : tensor<1x416x4x4xf32>, tensor<128x416x1x1xf32>) outs(%59 : tensor<1x128x4x4xf32>) -> tensor<1x128x4x4xf32>
    cf.assert %3, "training is not supported for now"
    %131 = linalg.generic {indexing_maps = [#map, #map1, #map1, #map1, #map1, #map], iterator_types = ["parallel", "parallel", "parallel", "parallel"]} ins(%130, %cst_266, %cst_265, %cst_265, %cst_266 : tensor<1x128x4x4xf32>, tensor<128xf32>, tensor<128xf32>, tensor<128xf32>, tensor<128xf32>) outs(%130 : tensor<1x128x4x4xf32>) {
    ^bb0(%in: f32, %in_1594: f32, %in_1595: f32, %in_1596: f32, %in_1597: f32, %out: f32):
      %632 = arith.truncf %cst_273 : f64 to f32
      %633 = arith.addf %in_1597, %632 : f32
      %634 = math.rsqrt %633 : f32
      %635 = arith.subf %in, %in_1596 : f32
      %636 = arith.mulf %635, %634 : f32
      %637 = arith.mulf %636, %in_1594 : f32
      %638 = arith.addf %637, %in_1595 : f32
      linalg.yield %638 : f32
    } -> tensor<1x128x4x4xf32>
    %132 = linalg.generic {indexing_maps = [#map2, #map], iterator_types = ["parallel", "parallel", "parallel", "parallel"]} ins(%131 : tensor<1x128x4x4xf32>) outs(%58 : tensor<1x128x4x4xf32>) {
    ^bb0(%in: f32, %out: f32):
      %632 = arith.cmpf ugt, %in, %cst_271 : f32
      %633 = arith.select %632, %in, %cst_271 : f32
      linalg.yield %633 : f32
    } -> tensor<1x128x4x4xf32>
    %padded_371 = tensor.pad %132 low[0, 0, 1, 1] high[0, 0, 1, 1] {
    ^bb0(%arg1: index, %arg2: index, %arg3: index, %arg4: index):
      tensor.yield %cst_271 : f32
    } : tensor<1x128x4x4xf32> to tensor<1x128x6x6xf32>
    %133 = linalg.conv_2d_nchw_fchw {dilations = dense<1> : vector<2xi64>, strides = dense<1> : vector<2xi64>} ins(%padded_371, %cst_213 : tensor<1x128x6x6xf32>, tensor<32x128x3x3xf32>) outs(%69 : tensor<1x32x4x4xf32>) -> tensor<1x32x4x4xf32>
    %134 = tensor.empty() : tensor<1x448x4x4xf32>
    %inserted_slice_372 = tensor.insert_slice %62 into %134[0, 0, 0, 0] [1, 128, 4, 4] [1, 1, 1, 1] : tensor<1x128x4x4xf32> into tensor<1x448x4x4xf32>
    %inserted_slice_373 = tensor.insert_slice %70 into %inserted_slice_372[0, 128, 0, 0] [1, 32, 4, 4] [1, 1, 1, 1] : tensor<1x32x4x4xf32> into tensor<1x448x4x4xf32>
    %inserted_slice_374 = tensor.insert_slice %77 into %inserted_slice_373[0, 160, 0, 0] [1, 32, 4, 4] [1, 1, 1, 1] : tensor<1x32x4x4xf32> into tensor<1x448x4x4xf32>
    %inserted_slice_375 = tensor.insert_slice %84 into %inserted_slice_374[0, 192, 0, 0] [1, 32, 4, 4] [1, 1, 1, 1] : tensor<1x32x4x4xf32> into tensor<1x448x4x4xf32>
    %inserted_slice_376 = tensor.insert_slice %91 into %inserted_slice_375[0, 224, 0, 0] [1, 32, 4, 4] [1, 1, 1, 1] : tensor<1x32x4x4xf32> into tensor<1x448x4x4xf32>
    %inserted_slice_377 = tensor.insert_slice %98 into %inserted_slice_376[0, 256, 0, 0] [1, 32, 4, 4] [1, 1, 1, 1] : tensor<1x32x4x4xf32> into tensor<1x448x4x4xf32>
    %inserted_slice_378 = tensor.insert_slice %105 into %inserted_slice_377[0, 288, 0, 0] [1, 32, 4, 4] [1, 1, 1, 1] : tensor<1x32x4x4xf32> into tensor<1x448x4x4xf32>
    %inserted_slice_379 = tensor.insert_slice %112 into %inserted_slice_378[0, 320, 0, 0] [1, 32, 4, 4] [1, 1, 1, 1] : tensor<1x32x4x4xf32> into tensor<1x448x4x4xf32>
    %inserted_slice_380 = tensor.insert_slice %119 into %inserted_slice_379[0, 352, 0, 0] [1, 32, 4, 4] [1, 1, 1, 1] : tensor<1x32x4x4xf32> into tensor<1x448x4x4xf32>
    %inserted_slice_381 = tensor.insert_slice %126 into %inserted_slice_380[0, 384, 0, 0] [1, 32, 4, 4] [1, 1, 1, 1] : tensor<1x32x4x4xf32> into tensor<1x448x4x4xf32>
    %inserted_slice_382 = tensor.insert_slice %133 into %inserted_slice_381[0, 416, 0, 0] [1, 32, 4, 4] [1, 1, 1, 1] : tensor<1x32x4x4xf32> into tensor<1x448x4x4xf32>
    cf.assert %3, "training is not supported for now"
    %135 = linalg.generic {indexing_maps = [#map, #map1, #map1, #map1, #map1, #map], iterator_types = ["parallel", "parallel", "parallel", "parallel"]} ins(%inserted_slice_382, %cst_212, %cst_211, %cst_211, %cst_212 : tensor<1x448x4x4xf32>, tensor<448xf32>, tensor<448xf32>, tensor<448xf32>, tensor<448xf32>) outs(%inserted_slice_382 : tensor<1x448x4x4xf32>) {
    ^bb0(%in: f32, %in_1594: f32, %in_1595: f32, %in_1596: f32, %in_1597: f32, %out: f32):
      %632 = arith.truncf %cst_273 : f64 to f32
      %633 = arith.addf %in_1597, %632 : f32
      %634 = math.rsqrt %633 : f32
      %635 = arith.subf %in, %in_1596 : f32
      %636 = arith.mulf %635, %634 : f32
      %637 = arith.mulf %636, %in_1594 : f32
      %638 = arith.addf %637, %in_1595 : f32
      linalg.yield %638 : f32
    } -> tensor<1x448x4x4xf32>
    %136 = linalg.generic {indexing_maps = [#map2, #map], iterator_types = ["parallel", "parallel", "parallel", "parallel"]} ins(%135 : tensor<1x448x4x4xf32>) outs(%134 : tensor<1x448x4x4xf32>) {
    ^bb0(%in: f32, %out: f32):
      %632 = arith.cmpf ugt, %in, %cst_271 : f32
      %633 = arith.select %632, %in, %cst_271 : f32
      linalg.yield %633 : f32
    } -> tensor<1x448x4x4xf32>
    %137 = linalg.conv_2d_nchw_fchw {dilations = dense<1> : vector<2xi64>, strides = dense<1> : vector<2xi64>} ins(%136, %cst_210 : tensor<1x448x4x4xf32>, tensor<128x448x1x1xf32>) outs(%59 : tensor<1x128x4x4xf32>) -> tensor<1x128x4x4xf32>
    cf.assert %3, "training is not supported for now"
    %138 = linalg.generic {indexing_maps = [#map, #map1, #map1, #map1, #map1, #map], iterator_types = ["parallel", "parallel", "parallel", "parallel"]} ins(%137, %cst_266, %cst_265, %cst_265, %cst_266 : tensor<1x128x4x4xf32>, tensor<128xf32>, tensor<128xf32>, tensor<128xf32>, tensor<128xf32>) outs(%137 : tensor<1x128x4x4xf32>) {
    ^bb0(%in: f32, %in_1594: f32, %in_1595: f32, %in_1596: f32, %in_1597: f32, %out: f32):
      %632 = arith.truncf %cst_273 : f64 to f32
      %633 = arith.addf %in_1597, %632 : f32
      %634 = math.rsqrt %633 : f32
      %635 = arith.subf %in, %in_1596 : f32
      %636 = arith.mulf %635, %634 : f32
      %637 = arith.mulf %636, %in_1594 : f32
      %638 = arith.addf %637, %in_1595 : f32
      linalg.yield %638 : f32
    } -> tensor<1x128x4x4xf32>
    %139 = linalg.generic {indexing_maps = [#map2, #map], iterator_types = ["parallel", "parallel", "parallel", "parallel"]} ins(%138 : tensor<1x128x4x4xf32>) outs(%58 : tensor<1x128x4x4xf32>) {
    ^bb0(%in: f32, %out: f32):
      %632 = arith.cmpf ugt, %in, %cst_271 : f32
      %633 = arith.select %632, %in, %cst_271 : f32
      linalg.yield %633 : f32
    } -> tensor<1x128x4x4xf32>
    %padded_383 = tensor.pad %139 low[0, 0, 1, 1] high[0, 0, 1, 1] {
    ^bb0(%arg1: index, %arg2: index, %arg3: index, %arg4: index):
      tensor.yield %cst_271 : f32
    } : tensor<1x128x4x4xf32> to tensor<1x128x6x6xf32>
    %140 = linalg.conv_2d_nchw_fchw {dilations = dense<1> : vector<2xi64>, strides = dense<1> : vector<2xi64>} ins(%padded_383, %cst_209 : tensor<1x128x6x6xf32>, tensor<32x128x3x3xf32>) outs(%69 : tensor<1x32x4x4xf32>) -> tensor<1x32x4x4xf32>
    %141 = tensor.empty() : tensor<1x480x4x4xf32>
    %inserted_slice_384 = tensor.insert_slice %62 into %141[0, 0, 0, 0] [1, 128, 4, 4] [1, 1, 1, 1] : tensor<1x128x4x4xf32> into tensor<1x480x4x4xf32>
    %inserted_slice_385 = tensor.insert_slice %70 into %inserted_slice_384[0, 128, 0, 0] [1, 32, 4, 4] [1, 1, 1, 1] : tensor<1x32x4x4xf32> into tensor<1x480x4x4xf32>
    %inserted_slice_386 = tensor.insert_slice %77 into %inserted_slice_385[0, 160, 0, 0] [1, 32, 4, 4] [1, 1, 1, 1] : tensor<1x32x4x4xf32> into tensor<1x480x4x4xf32>
    %inserted_slice_387 = tensor.insert_slice %84 into %inserted_slice_386[0, 192, 0, 0] [1, 32, 4, 4] [1, 1, 1, 1] : tensor<1x32x4x4xf32> into tensor<1x480x4x4xf32>
    %inserted_slice_388 = tensor.insert_slice %91 into %inserted_slice_387[0, 224, 0, 0] [1, 32, 4, 4] [1, 1, 1, 1] : tensor<1x32x4x4xf32> into tensor<1x480x4x4xf32>
    %inserted_slice_389 = tensor.insert_slice %98 into %inserted_slice_388[0, 256, 0, 0] [1, 32, 4, 4] [1, 1, 1, 1] : tensor<1x32x4x4xf32> into tensor<1x480x4x4xf32>
    %inserted_slice_390 = tensor.insert_slice %105 into %inserted_slice_389[0, 288, 0, 0] [1, 32, 4, 4] [1, 1, 1, 1] : tensor<1x32x4x4xf32> into tensor<1x480x4x4xf32>
    %inserted_slice_391 = tensor.insert_slice %112 into %inserted_slice_390[0, 320, 0, 0] [1, 32, 4, 4] [1, 1, 1, 1] : tensor<1x32x4x4xf32> into tensor<1x480x4x4xf32>
    %inserted_slice_392 = tensor.insert_slice %119 into %inserted_slice_391[0, 352, 0, 0] [1, 32, 4, 4] [1, 1, 1, 1] : tensor<1x32x4x4xf32> into tensor<1x480x4x4xf32>
    %inserted_slice_393 = tensor.insert_slice %126 into %inserted_slice_392[0, 384, 0, 0] [1, 32, 4, 4] [1, 1, 1, 1] : tensor<1x32x4x4xf32> into tensor<1x480x4x4xf32>
    %inserted_slice_394 = tensor.insert_slice %133 into %inserted_slice_393[0, 416, 0, 0] [1, 32, 4, 4] [1, 1, 1, 1] : tensor<1x32x4x4xf32> into tensor<1x480x4x4xf32>
    %inserted_slice_395 = tensor.insert_slice %140 into %inserted_slice_394[0, 448, 0, 0] [1, 32, 4, 4] [1, 1, 1, 1] : tensor<1x32x4x4xf32> into tensor<1x480x4x4xf32>
    cf.assert %3, "training is not supported for now"
    %142 = linalg.generic {indexing_maps = [#map, #map1, #map1, #map1, #map1, #map], iterator_types = ["parallel", "parallel", "parallel", "parallel"]} ins(%inserted_slice_395, %cst_208, %cst_207, %cst_207, %cst_208 : tensor<1x480x4x4xf32>, tensor<480xf32>, tensor<480xf32>, tensor<480xf32>, tensor<480xf32>) outs(%inserted_slice_395 : tensor<1x480x4x4xf32>) {
    ^bb0(%in: f32, %in_1594: f32, %in_1595: f32, %in_1596: f32, %in_1597: f32, %out: f32):
      %632 = arith.truncf %cst_273 : f64 to f32
      %633 = arith.addf %in_1597, %632 : f32
      %634 = math.rsqrt %633 : f32
      %635 = arith.subf %in, %in_1596 : f32
      %636 = arith.mulf %635, %634 : f32
      %637 = arith.mulf %636, %in_1594 : f32
      %638 = arith.addf %637, %in_1595 : f32
      linalg.yield %638 : f32
    } -> tensor<1x480x4x4xf32>
    %143 = linalg.generic {indexing_maps = [#map2, #map], iterator_types = ["parallel", "parallel", "parallel", "parallel"]} ins(%142 : tensor<1x480x4x4xf32>) outs(%141 : tensor<1x480x4x4xf32>) {
    ^bb0(%in: f32, %out: f32):
      %632 = arith.cmpf ugt, %in, %cst_271 : f32
      %633 = arith.select %632, %in, %cst_271 : f32
      linalg.yield %633 : f32
    } -> tensor<1x480x4x4xf32>
    %144 = linalg.conv_2d_nchw_fchw {dilations = dense<1> : vector<2xi64>, strides = dense<1> : vector<2xi64>} ins(%143, %cst_206 : tensor<1x480x4x4xf32>, tensor<128x480x1x1xf32>) outs(%59 : tensor<1x128x4x4xf32>) -> tensor<1x128x4x4xf32>
    cf.assert %3, "training is not supported for now"
    %145 = linalg.generic {indexing_maps = [#map, #map1, #map1, #map1, #map1, #map], iterator_types = ["parallel", "parallel", "parallel", "parallel"]} ins(%144, %cst_266, %cst_265, %cst_265, %cst_266 : tensor<1x128x4x4xf32>, tensor<128xf32>, tensor<128xf32>, tensor<128xf32>, tensor<128xf32>) outs(%144 : tensor<1x128x4x4xf32>) {
    ^bb0(%in: f32, %in_1594: f32, %in_1595: f32, %in_1596: f32, %in_1597: f32, %out: f32):
      %632 = arith.truncf %cst_273 : f64 to f32
      %633 = arith.addf %in_1597, %632 : f32
      %634 = math.rsqrt %633 : f32
      %635 = arith.subf %in, %in_1596 : f32
      %636 = arith.mulf %635, %634 : f32
      %637 = arith.mulf %636, %in_1594 : f32
      %638 = arith.addf %637, %in_1595 : f32
      linalg.yield %638 : f32
    } -> tensor<1x128x4x4xf32>
    %146 = linalg.generic {indexing_maps = [#map2, #map], iterator_types = ["parallel", "parallel", "parallel", "parallel"]} ins(%145 : tensor<1x128x4x4xf32>) outs(%58 : tensor<1x128x4x4xf32>) {
    ^bb0(%in: f32, %out: f32):
      %632 = arith.cmpf ugt, %in, %cst_271 : f32
      %633 = arith.select %632, %in, %cst_271 : f32
      linalg.yield %633 : f32
    } -> tensor<1x128x4x4xf32>
    %padded_396 = tensor.pad %146 low[0, 0, 1, 1] high[0, 0, 1, 1] {
    ^bb0(%arg1: index, %arg2: index, %arg3: index, %arg4: index):
      tensor.yield %cst_271 : f32
    } : tensor<1x128x4x4xf32> to tensor<1x128x6x6xf32>
    %147 = linalg.conv_2d_nchw_fchw {dilations = dense<1> : vector<2xi64>, strides = dense<1> : vector<2xi64>} ins(%padded_396, %cst_205 : tensor<1x128x6x6xf32>, tensor<32x128x3x3xf32>) outs(%69 : tensor<1x32x4x4xf32>) -> tensor<1x32x4x4xf32>
    %148 = tensor.empty() : tensor<1x512x4x4xf32>
    %inserted_slice_397 = tensor.insert_slice %62 into %148[0, 0, 0, 0] [1, 128, 4, 4] [1, 1, 1, 1] : tensor<1x128x4x4xf32> into tensor<1x512x4x4xf32>
    %inserted_slice_398 = tensor.insert_slice %70 into %inserted_slice_397[0, 128, 0, 0] [1, 32, 4, 4] [1, 1, 1, 1] : tensor<1x32x4x4xf32> into tensor<1x512x4x4xf32>
    %inserted_slice_399 = tensor.insert_slice %77 into %inserted_slice_398[0, 160, 0, 0] [1, 32, 4, 4] [1, 1, 1, 1] : tensor<1x32x4x4xf32> into tensor<1x512x4x4xf32>
    %inserted_slice_400 = tensor.insert_slice %84 into %inserted_slice_399[0, 192, 0, 0] [1, 32, 4, 4] [1, 1, 1, 1] : tensor<1x32x4x4xf32> into tensor<1x512x4x4xf32>
    %inserted_slice_401 = tensor.insert_slice %91 into %inserted_slice_400[0, 224, 0, 0] [1, 32, 4, 4] [1, 1, 1, 1] : tensor<1x32x4x4xf32> into tensor<1x512x4x4xf32>
    %inserted_slice_402 = tensor.insert_slice %98 into %inserted_slice_401[0, 256, 0, 0] [1, 32, 4, 4] [1, 1, 1, 1] : tensor<1x32x4x4xf32> into tensor<1x512x4x4xf32>
    %inserted_slice_403 = tensor.insert_slice %105 into %inserted_slice_402[0, 288, 0, 0] [1, 32, 4, 4] [1, 1, 1, 1] : tensor<1x32x4x4xf32> into tensor<1x512x4x4xf32>
    %inserted_slice_404 = tensor.insert_slice %112 into %inserted_slice_403[0, 320, 0, 0] [1, 32, 4, 4] [1, 1, 1, 1] : tensor<1x32x4x4xf32> into tensor<1x512x4x4xf32>
    %inserted_slice_405 = tensor.insert_slice %119 into %inserted_slice_404[0, 352, 0, 0] [1, 32, 4, 4] [1, 1, 1, 1] : tensor<1x32x4x4xf32> into tensor<1x512x4x4xf32>
    %inserted_slice_406 = tensor.insert_slice %126 into %inserted_slice_405[0, 384, 0, 0] [1, 32, 4, 4] [1, 1, 1, 1] : tensor<1x32x4x4xf32> into tensor<1x512x4x4xf32>
    %inserted_slice_407 = tensor.insert_slice %133 into %inserted_slice_406[0, 416, 0, 0] [1, 32, 4, 4] [1, 1, 1, 1] : tensor<1x32x4x4xf32> into tensor<1x512x4x4xf32>
    %inserted_slice_408 = tensor.insert_slice %140 into %inserted_slice_407[0, 448, 0, 0] [1, 32, 4, 4] [1, 1, 1, 1] : tensor<1x32x4x4xf32> into tensor<1x512x4x4xf32>
    %inserted_slice_409 = tensor.insert_slice %147 into %inserted_slice_408[0, 480, 0, 0] [1, 32, 4, 4] [1, 1, 1, 1] : tensor<1x32x4x4xf32> into tensor<1x512x4x4xf32>
    cf.assert %3, "training is not supported for now"
    %149 = linalg.generic {indexing_maps = [#map, #map1, #map1, #map1, #map1, #map], iterator_types = ["parallel", "parallel", "parallel", "parallel"]} ins(%inserted_slice_409, %cst_204, %cst_203, %cst_203, %cst_204 : tensor<1x512x4x4xf32>, tensor<512xf32>, tensor<512xf32>, tensor<512xf32>, tensor<512xf32>) outs(%inserted_slice_409 : tensor<1x512x4x4xf32>) {
    ^bb0(%in: f32, %in_1594: f32, %in_1595: f32, %in_1596: f32, %in_1597: f32, %out: f32):
      %632 = arith.truncf %cst_273 : f64 to f32
      %633 = arith.addf %in_1597, %632 : f32
      %634 = math.rsqrt %633 : f32
      %635 = arith.subf %in, %in_1596 : f32
      %636 = arith.mulf %635, %634 : f32
      %637 = arith.mulf %636, %in_1594 : f32
      %638 = arith.addf %637, %in_1595 : f32
      linalg.yield %638 : f32
    } -> tensor<1x512x4x4xf32>
    %150 = linalg.generic {indexing_maps = [#map2, #map], iterator_types = ["parallel", "parallel", "parallel", "parallel"]} ins(%149 : tensor<1x512x4x4xf32>) outs(%148 : tensor<1x512x4x4xf32>) {
    ^bb0(%in: f32, %out: f32):
      %632 = arith.cmpf ugt, %in, %cst_271 : f32
      %633 = arith.select %632, %in, %cst_271 : f32
      linalg.yield %633 : f32
    } -> tensor<1x512x4x4xf32>
    %151 = linalg.fill ins(%cst_271 : f32) outs(%92 : tensor<1x256x4x4xf32>) -> tensor<1x256x4x4xf32>
    %152 = linalg.conv_2d_nchw_fchw {dilations = dense<1> : vector<2xi64>, strides = dense<1> : vector<2xi64>} ins(%150, %cst_202 : tensor<1x512x4x4xf32>, tensor<256x512x1x1xf32>) outs(%151 : tensor<1x256x4x4xf32>) -> tensor<1x256x4x4xf32>
    %153 = tensor.empty() : tensor<1x256x2x2xf32>
    %154 = linalg.fill ins(%cst_271 : f32) outs(%153 : tensor<1x256x2x2xf32>) -> tensor<1x256x2x2xf32>
    %155 = linalg.pooling_nchw_sum {dilations = dense<1> : vector<2xi64>, strides = dense<2> : vector<2xi64>} ins(%152, %60 : tensor<1x256x4x4xf32>, tensor<2x2xf32>) outs(%154 : tensor<1x256x2x2xf32>) -> tensor<1x256x2x2xf32>
    %156 = linalg.generic {indexing_maps = [#map, #map], iterator_types = ["parallel", "parallel", "parallel", "parallel"]} ins(%155 : tensor<1x256x2x2xf32>) outs(%153 : tensor<1x256x2x2xf32>) {
    ^bb0(%in: f32, %out: f32):
      %632 = arith.divf %in, %cst_274 : f32
      linalg.yield %632 : f32
    } -> tensor<1x256x2x2xf32>
    cf.assert %3, "training is not supported for now"
    %157 = linalg.generic {indexing_maps = [#map, #map1, #map1, #map1, #map1, #map], iterator_types = ["parallel", "parallel", "parallel", "parallel"]} ins(%156, %cst_245, %cst_244, %cst_244, %cst_245 : tensor<1x256x2x2xf32>, tensor<256xf32>, tensor<256xf32>, tensor<256xf32>, tensor<256xf32>) outs(%156 : tensor<1x256x2x2xf32>) {
    ^bb0(%in: f32, %in_1594: f32, %in_1595: f32, %in_1596: f32, %in_1597: f32, %out: f32):
      %632 = arith.truncf %cst_273 : f64 to f32
      %633 = arith.addf %in_1597, %632 : f32
      %634 = math.rsqrt %633 : f32
      %635 = arith.subf %in, %in_1596 : f32
      %636 = arith.mulf %635, %634 : f32
      %637 = arith.mulf %636, %in_1594 : f32
      %638 = arith.addf %637, %in_1595 : f32
      linalg.yield %638 : f32
    } -> tensor<1x256x2x2xf32>
    %158 = linalg.generic {indexing_maps = [#map2, #map], iterator_types = ["parallel", "parallel", "parallel", "parallel"]} ins(%157 : tensor<1x256x2x2xf32>) outs(%153 : tensor<1x256x2x2xf32>) {
    ^bb0(%in: f32, %out: f32):
      %632 = arith.cmpf ugt, %in, %cst_271 : f32
      %633 = arith.select %632, %in, %cst_271 : f32
      linalg.yield %633 : f32
    } -> tensor<1x256x2x2xf32>
    %159 = tensor.empty() : tensor<1x128x2x2xf32>
    %160 = linalg.fill ins(%cst_271 : f32) outs(%159 : tensor<1x128x2x2xf32>) -> tensor<1x128x2x2xf32>
    %161 = linalg.conv_2d_nchw_fchw {dilations = dense<1> : vector<2xi64>, strides = dense<1> : vector<2xi64>} ins(%158, %cst_201 : tensor<1x256x2x2xf32>, tensor<128x256x1x1xf32>) outs(%160 : tensor<1x128x2x2xf32>) -> tensor<1x128x2x2xf32>
    cf.assert %3, "training is not supported for now"
    %162 = linalg.generic {indexing_maps = [#map, #map1, #map1, #map1, #map1, #map], iterator_types = ["parallel", "parallel", "parallel", "parallel"]} ins(%161, %cst_266, %cst_265, %cst_265, %cst_266 : tensor<1x128x2x2xf32>, tensor<128xf32>, tensor<128xf32>, tensor<128xf32>, tensor<128xf32>) outs(%161 : tensor<1x128x2x2xf32>) {
    ^bb0(%in: f32, %in_1594: f32, %in_1595: f32, %in_1596: f32, %in_1597: f32, %out: f32):
      %632 = arith.truncf %cst_273 : f64 to f32
      %633 = arith.addf %in_1597, %632 : f32
      %634 = math.rsqrt %633 : f32
      %635 = arith.subf %in, %in_1596 : f32
      %636 = arith.mulf %635, %634 : f32
      %637 = arith.mulf %636, %in_1594 : f32
      %638 = arith.addf %637, %in_1595 : f32
      linalg.yield %638 : f32
    } -> tensor<1x128x2x2xf32>
    %163 = linalg.generic {indexing_maps = [#map2, #map], iterator_types = ["parallel", "parallel", "parallel", "parallel"]} ins(%162 : tensor<1x128x2x2xf32>) outs(%159 : tensor<1x128x2x2xf32>) {
    ^bb0(%in: f32, %out: f32):
      %632 = arith.cmpf ugt, %in, %cst_271 : f32
      %633 = arith.select %632, %in, %cst_271 : f32
      linalg.yield %633 : f32
    } -> tensor<1x128x2x2xf32>
    %padded_410 = tensor.pad %163 low[0, 0, 1, 1] high[0, 0, 1, 1] {
    ^bb0(%arg1: index, %arg2: index, %arg3: index, %arg4: index):
      tensor.yield %cst_271 : f32
    } : tensor<1x128x2x2xf32> to tensor<1x128x4x4xf32>
    %164 = tensor.empty() : tensor<1x32x2x2xf32>
    %165 = linalg.fill ins(%cst_271 : f32) outs(%164 : tensor<1x32x2x2xf32>) -> tensor<1x32x2x2xf32>
    %166 = linalg.conv_2d_nchw_fchw {dilations = dense<1> : vector<2xi64>, strides = dense<1> : vector<2xi64>} ins(%padded_410, %cst_200 : tensor<1x128x4x4xf32>, tensor<32x128x3x3xf32>) outs(%165 : tensor<1x32x2x2xf32>) -> tensor<1x32x2x2xf32>
    %167 = tensor.empty() : tensor<1x288x2x2xf32>
    %inserted_slice_411 = tensor.insert_slice %156 into %167[0, 0, 0, 0] [1, 256, 2, 2] [1, 1, 1, 1] : tensor<1x256x2x2xf32> into tensor<1x288x2x2xf32>
    %inserted_slice_412 = tensor.insert_slice %166 into %inserted_slice_411[0, 256, 0, 0] [1, 32, 2, 2] [1, 1, 1, 1] : tensor<1x32x2x2xf32> into tensor<1x288x2x2xf32>
    cf.assert %3, "training is not supported for now"
    %168 = linalg.generic {indexing_maps = [#map, #map1, #map1, #map1, #map1, #map], iterator_types = ["parallel", "parallel", "parallel", "parallel"]} ins(%inserted_slice_412, %cst_232, %cst_231, %cst_231, %cst_232 : tensor<1x288x2x2xf32>, tensor<288xf32>, tensor<288xf32>, tensor<288xf32>, tensor<288xf32>) outs(%inserted_slice_412 : tensor<1x288x2x2xf32>) {
    ^bb0(%in: f32, %in_1594: f32, %in_1595: f32, %in_1596: f32, %in_1597: f32, %out: f32):
      %632 = arith.truncf %cst_273 : f64 to f32
      %633 = arith.addf %in_1597, %632 : f32
      %634 = math.rsqrt %633 : f32
      %635 = arith.subf %in, %in_1596 : f32
      %636 = arith.mulf %635, %634 : f32
      %637 = arith.mulf %636, %in_1594 : f32
      %638 = arith.addf %637, %in_1595 : f32
      linalg.yield %638 : f32
    } -> tensor<1x288x2x2xf32>
    %169 = linalg.generic {indexing_maps = [#map2, #map], iterator_types = ["parallel", "parallel", "parallel", "parallel"]} ins(%168 : tensor<1x288x2x2xf32>) outs(%167 : tensor<1x288x2x2xf32>) {
    ^bb0(%in: f32, %out: f32):
      %632 = arith.cmpf ugt, %in, %cst_271 : f32
      %633 = arith.select %632, %in, %cst_271 : f32
      linalg.yield %633 : f32
    } -> tensor<1x288x2x2xf32>
    %170 = linalg.conv_2d_nchw_fchw {dilations = dense<1> : vector<2xi64>, strides = dense<1> : vector<2xi64>} ins(%169, %cst_199 : tensor<1x288x2x2xf32>, tensor<128x288x1x1xf32>) outs(%160 : tensor<1x128x2x2xf32>) -> tensor<1x128x2x2xf32>
    cf.assert %3, "training is not supported for now"
    %171 = linalg.generic {indexing_maps = [#map, #map1, #map1, #map1, #map1, #map], iterator_types = ["parallel", "parallel", "parallel", "parallel"]} ins(%170, %cst_266, %cst_265, %cst_265, %cst_266 : tensor<1x128x2x2xf32>, tensor<128xf32>, tensor<128xf32>, tensor<128xf32>, tensor<128xf32>) outs(%170 : tensor<1x128x2x2xf32>) {
    ^bb0(%in: f32, %in_1594: f32, %in_1595: f32, %in_1596: f32, %in_1597: f32, %out: f32):
      %632 = arith.truncf %cst_273 : f64 to f32
      %633 = arith.addf %in_1597, %632 : f32
      %634 = math.rsqrt %633 : f32
      %635 = arith.subf %in, %in_1596 : f32
      %636 = arith.mulf %635, %634 : f32
      %637 = arith.mulf %636, %in_1594 : f32
      %638 = arith.addf %637, %in_1595 : f32
      linalg.yield %638 : f32
    } -> tensor<1x128x2x2xf32>
    %172 = linalg.generic {indexing_maps = [#map2, #map], iterator_types = ["parallel", "parallel", "parallel", "parallel"]} ins(%171 : tensor<1x128x2x2xf32>) outs(%159 : tensor<1x128x2x2xf32>) {
    ^bb0(%in: f32, %out: f32):
      %632 = arith.cmpf ugt, %in, %cst_271 : f32
      %633 = arith.select %632, %in, %cst_271 : f32
      linalg.yield %633 : f32
    } -> tensor<1x128x2x2xf32>
    %padded_413 = tensor.pad %172 low[0, 0, 1, 1] high[0, 0, 1, 1] {
    ^bb0(%arg1: index, %arg2: index, %arg3: index, %arg4: index):
      tensor.yield %cst_271 : f32
    } : tensor<1x128x2x2xf32> to tensor<1x128x4x4xf32>
    %173 = linalg.conv_2d_nchw_fchw {dilations = dense<1> : vector<2xi64>, strides = dense<1> : vector<2xi64>} ins(%padded_413, %cst_198 : tensor<1x128x4x4xf32>, tensor<32x128x3x3xf32>) outs(%165 : tensor<1x32x2x2xf32>) -> tensor<1x32x2x2xf32>
    %174 = tensor.empty() : tensor<1x320x2x2xf32>
    %inserted_slice_414 = tensor.insert_slice %156 into %174[0, 0, 0, 0] [1, 256, 2, 2] [1, 1, 1, 1] : tensor<1x256x2x2xf32> into tensor<1x320x2x2xf32>
    %inserted_slice_415 = tensor.insert_slice %166 into %inserted_slice_414[0, 256, 0, 0] [1, 32, 2, 2] [1, 1, 1, 1] : tensor<1x32x2x2xf32> into tensor<1x320x2x2xf32>
    %inserted_slice_416 = tensor.insert_slice %173 into %inserted_slice_415[0, 288, 0, 0] [1, 32, 2, 2] [1, 1, 1, 1] : tensor<1x32x2x2xf32> into tensor<1x320x2x2xf32>
    cf.assert %3, "training is not supported for now"
    %175 = linalg.generic {indexing_maps = [#map, #map1, #map1, #map1, #map1, #map], iterator_types = ["parallel", "parallel", "parallel", "parallel"]} ins(%inserted_slice_416, %cst_228, %cst_227, %cst_227, %cst_228 : tensor<1x320x2x2xf32>, tensor<320xf32>, tensor<320xf32>, tensor<320xf32>, tensor<320xf32>) outs(%inserted_slice_416 : tensor<1x320x2x2xf32>) {
    ^bb0(%in: f32, %in_1594: f32, %in_1595: f32, %in_1596: f32, %in_1597: f32, %out: f32):
      %632 = arith.truncf %cst_273 : f64 to f32
      %633 = arith.addf %in_1597, %632 : f32
      %634 = math.rsqrt %633 : f32
      %635 = arith.subf %in, %in_1596 : f32
      %636 = arith.mulf %635, %634 : f32
      %637 = arith.mulf %636, %in_1594 : f32
      %638 = arith.addf %637, %in_1595 : f32
      linalg.yield %638 : f32
    } -> tensor<1x320x2x2xf32>
    %176 = linalg.generic {indexing_maps = [#map2, #map], iterator_types = ["parallel", "parallel", "parallel", "parallel"]} ins(%175 : tensor<1x320x2x2xf32>) outs(%174 : tensor<1x320x2x2xf32>) {
    ^bb0(%in: f32, %out: f32):
      %632 = arith.cmpf ugt, %in, %cst_271 : f32
      %633 = arith.select %632, %in, %cst_271 : f32
      linalg.yield %633 : f32
    } -> tensor<1x320x2x2xf32>
    %177 = linalg.conv_2d_nchw_fchw {dilations = dense<1> : vector<2xi64>, strides = dense<1> : vector<2xi64>} ins(%176, %cst_197 : tensor<1x320x2x2xf32>, tensor<128x320x1x1xf32>) outs(%160 : tensor<1x128x2x2xf32>) -> tensor<1x128x2x2xf32>
    cf.assert %3, "training is not supported for now"
    %178 = linalg.generic {indexing_maps = [#map, #map1, #map1, #map1, #map1, #map], iterator_types = ["parallel", "parallel", "parallel", "parallel"]} ins(%177, %cst_266, %cst_265, %cst_265, %cst_266 : tensor<1x128x2x2xf32>, tensor<128xf32>, tensor<128xf32>, tensor<128xf32>, tensor<128xf32>) outs(%177 : tensor<1x128x2x2xf32>) {
    ^bb0(%in: f32, %in_1594: f32, %in_1595: f32, %in_1596: f32, %in_1597: f32, %out: f32):
      %632 = arith.truncf %cst_273 : f64 to f32
      %633 = arith.addf %in_1597, %632 : f32
      %634 = math.rsqrt %633 : f32
      %635 = arith.subf %in, %in_1596 : f32
      %636 = arith.mulf %635, %634 : f32
      %637 = arith.mulf %636, %in_1594 : f32
      %638 = arith.addf %637, %in_1595 : f32
      linalg.yield %638 : f32
    } -> tensor<1x128x2x2xf32>
    %179 = linalg.generic {indexing_maps = [#map2, #map], iterator_types = ["parallel", "parallel", "parallel", "parallel"]} ins(%178 : tensor<1x128x2x2xf32>) outs(%159 : tensor<1x128x2x2xf32>) {
    ^bb0(%in: f32, %out: f32):
      %632 = arith.cmpf ugt, %in, %cst_271 : f32
      %633 = arith.select %632, %in, %cst_271 : f32
      linalg.yield %633 : f32
    } -> tensor<1x128x2x2xf32>
    %padded_417 = tensor.pad %179 low[0, 0, 1, 1] high[0, 0, 1, 1] {
    ^bb0(%arg1: index, %arg2: index, %arg3: index, %arg4: index):
      tensor.yield %cst_271 : f32
    } : tensor<1x128x2x2xf32> to tensor<1x128x4x4xf32>
    %180 = linalg.conv_2d_nchw_fchw {dilations = dense<1> : vector<2xi64>, strides = dense<1> : vector<2xi64>} ins(%padded_417, %cst_196 : tensor<1x128x4x4xf32>, tensor<32x128x3x3xf32>) outs(%165 : tensor<1x32x2x2xf32>) -> tensor<1x32x2x2xf32>
    %181 = tensor.empty() : tensor<1x352x2x2xf32>
    %inserted_slice_418 = tensor.insert_slice %156 into %181[0, 0, 0, 0] [1, 256, 2, 2] [1, 1, 1, 1] : tensor<1x256x2x2xf32> into tensor<1x352x2x2xf32>
    %inserted_slice_419 = tensor.insert_slice %166 into %inserted_slice_418[0, 256, 0, 0] [1, 32, 2, 2] [1, 1, 1, 1] : tensor<1x32x2x2xf32> into tensor<1x352x2x2xf32>
    %inserted_slice_420 = tensor.insert_slice %173 into %inserted_slice_419[0, 288, 0, 0] [1, 32, 2, 2] [1, 1, 1, 1] : tensor<1x32x2x2xf32> into tensor<1x352x2x2xf32>
    %inserted_slice_421 = tensor.insert_slice %180 into %inserted_slice_420[0, 320, 0, 0] [1, 32, 2, 2] [1, 1, 1, 1] : tensor<1x32x2x2xf32> into tensor<1x352x2x2xf32>
    cf.assert %3, "training is not supported for now"
    %182 = linalg.generic {indexing_maps = [#map, #map1, #map1, #map1, #map1, #map], iterator_types = ["parallel", "parallel", "parallel", "parallel"]} ins(%inserted_slice_421, %cst_224, %cst_223, %cst_223, %cst_224 : tensor<1x352x2x2xf32>, tensor<352xf32>, tensor<352xf32>, tensor<352xf32>, tensor<352xf32>) outs(%inserted_slice_421 : tensor<1x352x2x2xf32>) {
    ^bb0(%in: f32, %in_1594: f32, %in_1595: f32, %in_1596: f32, %in_1597: f32, %out: f32):
      %632 = arith.truncf %cst_273 : f64 to f32
      %633 = arith.addf %in_1597, %632 : f32
      %634 = math.rsqrt %633 : f32
      %635 = arith.subf %in, %in_1596 : f32
      %636 = arith.mulf %635, %634 : f32
      %637 = arith.mulf %636, %in_1594 : f32
      %638 = arith.addf %637, %in_1595 : f32
      linalg.yield %638 : f32
    } -> tensor<1x352x2x2xf32>
    %183 = linalg.generic {indexing_maps = [#map2, #map], iterator_types = ["parallel", "parallel", "parallel", "parallel"]} ins(%182 : tensor<1x352x2x2xf32>) outs(%181 : tensor<1x352x2x2xf32>) {
    ^bb0(%in: f32, %out: f32):
      %632 = arith.cmpf ugt, %in, %cst_271 : f32
      %633 = arith.select %632, %in, %cst_271 : f32
      linalg.yield %633 : f32
    } -> tensor<1x352x2x2xf32>
    %184 = linalg.conv_2d_nchw_fchw {dilations = dense<1> : vector<2xi64>, strides = dense<1> : vector<2xi64>} ins(%183, %cst_195 : tensor<1x352x2x2xf32>, tensor<128x352x1x1xf32>) outs(%160 : tensor<1x128x2x2xf32>) -> tensor<1x128x2x2xf32>
    cf.assert %3, "training is not supported for now"
    %185 = linalg.generic {indexing_maps = [#map, #map1, #map1, #map1, #map1, #map], iterator_types = ["parallel", "parallel", "parallel", "parallel"]} ins(%184, %cst_266, %cst_265, %cst_265, %cst_266 : tensor<1x128x2x2xf32>, tensor<128xf32>, tensor<128xf32>, tensor<128xf32>, tensor<128xf32>) outs(%184 : tensor<1x128x2x2xf32>) {
    ^bb0(%in: f32, %in_1594: f32, %in_1595: f32, %in_1596: f32, %in_1597: f32, %out: f32):
      %632 = arith.truncf %cst_273 : f64 to f32
      %633 = arith.addf %in_1597, %632 : f32
      %634 = math.rsqrt %633 : f32
      %635 = arith.subf %in, %in_1596 : f32
      %636 = arith.mulf %635, %634 : f32
      %637 = arith.mulf %636, %in_1594 : f32
      %638 = arith.addf %637, %in_1595 : f32
      linalg.yield %638 : f32
    } -> tensor<1x128x2x2xf32>
    %186 = linalg.generic {indexing_maps = [#map2, #map], iterator_types = ["parallel", "parallel", "parallel", "parallel"]} ins(%185 : tensor<1x128x2x2xf32>) outs(%159 : tensor<1x128x2x2xf32>) {
    ^bb0(%in: f32, %out: f32):
      %632 = arith.cmpf ugt, %in, %cst_271 : f32
      %633 = arith.select %632, %in, %cst_271 : f32
      linalg.yield %633 : f32
    } -> tensor<1x128x2x2xf32>
    %padded_422 = tensor.pad %186 low[0, 0, 1, 1] high[0, 0, 1, 1] {
    ^bb0(%arg1: index, %arg2: index, %arg3: index, %arg4: index):
      tensor.yield %cst_271 : f32
    } : tensor<1x128x2x2xf32> to tensor<1x128x4x4xf32>
    %187 = linalg.conv_2d_nchw_fchw {dilations = dense<1> : vector<2xi64>, strides = dense<1> : vector<2xi64>} ins(%padded_422, %cst_194 : tensor<1x128x4x4xf32>, tensor<32x128x3x3xf32>) outs(%165 : tensor<1x32x2x2xf32>) -> tensor<1x32x2x2xf32>
    %188 = tensor.empty() : tensor<1x384x2x2xf32>
    %inserted_slice_423 = tensor.insert_slice %156 into %188[0, 0, 0, 0] [1, 256, 2, 2] [1, 1, 1, 1] : tensor<1x256x2x2xf32> into tensor<1x384x2x2xf32>
    %inserted_slice_424 = tensor.insert_slice %166 into %inserted_slice_423[0, 256, 0, 0] [1, 32, 2, 2] [1, 1, 1, 1] : tensor<1x32x2x2xf32> into tensor<1x384x2x2xf32>
    %inserted_slice_425 = tensor.insert_slice %173 into %inserted_slice_424[0, 288, 0, 0] [1, 32, 2, 2] [1, 1, 1, 1] : tensor<1x32x2x2xf32> into tensor<1x384x2x2xf32>
    %inserted_slice_426 = tensor.insert_slice %180 into %inserted_slice_425[0, 320, 0, 0] [1, 32, 2, 2] [1, 1, 1, 1] : tensor<1x32x2x2xf32> into tensor<1x384x2x2xf32>
    %inserted_slice_427 = tensor.insert_slice %187 into %inserted_slice_426[0, 352, 0, 0] [1, 32, 2, 2] [1, 1, 1, 1] : tensor<1x32x2x2xf32> into tensor<1x384x2x2xf32>
    cf.assert %3, "training is not supported for now"
    %189 = linalg.generic {indexing_maps = [#map, #map1, #map1, #map1, #map1, #map], iterator_types = ["parallel", "parallel", "parallel", "parallel"]} ins(%inserted_slice_427, %cst_220, %cst_219, %cst_219, %cst_220 : tensor<1x384x2x2xf32>, tensor<384xf32>, tensor<384xf32>, tensor<384xf32>, tensor<384xf32>) outs(%inserted_slice_427 : tensor<1x384x2x2xf32>) {
    ^bb0(%in: f32, %in_1594: f32, %in_1595: f32, %in_1596: f32, %in_1597: f32, %out: f32):
      %632 = arith.truncf %cst_273 : f64 to f32
      %633 = arith.addf %in_1597, %632 : f32
      %634 = math.rsqrt %633 : f32
      %635 = arith.subf %in, %in_1596 : f32
      %636 = arith.mulf %635, %634 : f32
      %637 = arith.mulf %636, %in_1594 : f32
      %638 = arith.addf %637, %in_1595 : f32
      linalg.yield %638 : f32
    } -> tensor<1x384x2x2xf32>
    %190 = linalg.generic {indexing_maps = [#map2, #map], iterator_types = ["parallel", "parallel", "parallel", "parallel"]} ins(%189 : tensor<1x384x2x2xf32>) outs(%188 : tensor<1x384x2x2xf32>) {
    ^bb0(%in: f32, %out: f32):
      %632 = arith.cmpf ugt, %in, %cst_271 : f32
      %633 = arith.select %632, %in, %cst_271 : f32
      linalg.yield %633 : f32
    } -> tensor<1x384x2x2xf32>
    %191 = linalg.conv_2d_nchw_fchw {dilations = dense<1> : vector<2xi64>, strides = dense<1> : vector<2xi64>} ins(%190, %cst_193 : tensor<1x384x2x2xf32>, tensor<128x384x1x1xf32>) outs(%160 : tensor<1x128x2x2xf32>) -> tensor<1x128x2x2xf32>
    cf.assert %3, "training is not supported for now"
    %192 = linalg.generic {indexing_maps = [#map, #map1, #map1, #map1, #map1, #map], iterator_types = ["parallel", "parallel", "parallel", "parallel"]} ins(%191, %cst_266, %cst_265, %cst_265, %cst_266 : tensor<1x128x2x2xf32>, tensor<128xf32>, tensor<128xf32>, tensor<128xf32>, tensor<128xf32>) outs(%191 : tensor<1x128x2x2xf32>) {
    ^bb0(%in: f32, %in_1594: f32, %in_1595: f32, %in_1596: f32, %in_1597: f32, %out: f32):
      %632 = arith.truncf %cst_273 : f64 to f32
      %633 = arith.addf %in_1597, %632 : f32
      %634 = math.rsqrt %633 : f32
      %635 = arith.subf %in, %in_1596 : f32
      %636 = arith.mulf %635, %634 : f32
      %637 = arith.mulf %636, %in_1594 : f32
      %638 = arith.addf %637, %in_1595 : f32
      linalg.yield %638 : f32
    } -> tensor<1x128x2x2xf32>
    %193 = linalg.generic {indexing_maps = [#map2, #map], iterator_types = ["parallel", "parallel", "parallel", "parallel"]} ins(%192 : tensor<1x128x2x2xf32>) outs(%159 : tensor<1x128x2x2xf32>) {
    ^bb0(%in: f32, %out: f32):
      %632 = arith.cmpf ugt, %in, %cst_271 : f32
      %633 = arith.select %632, %in, %cst_271 : f32
      linalg.yield %633 : f32
    } -> tensor<1x128x2x2xf32>
    %padded_428 = tensor.pad %193 low[0, 0, 1, 1] high[0, 0, 1, 1] {
    ^bb0(%arg1: index, %arg2: index, %arg3: index, %arg4: index):
      tensor.yield %cst_271 : f32
    } : tensor<1x128x2x2xf32> to tensor<1x128x4x4xf32>
    %194 = linalg.conv_2d_nchw_fchw {dilations = dense<1> : vector<2xi64>, strides = dense<1> : vector<2xi64>} ins(%padded_428, %cst_192 : tensor<1x128x4x4xf32>, tensor<32x128x3x3xf32>) outs(%165 : tensor<1x32x2x2xf32>) -> tensor<1x32x2x2xf32>
    %195 = tensor.empty() : tensor<1x416x2x2xf32>
    %inserted_slice_429 = tensor.insert_slice %156 into %195[0, 0, 0, 0] [1, 256, 2, 2] [1, 1, 1, 1] : tensor<1x256x2x2xf32> into tensor<1x416x2x2xf32>
    %inserted_slice_430 = tensor.insert_slice %166 into %inserted_slice_429[0, 256, 0, 0] [1, 32, 2, 2] [1, 1, 1, 1] : tensor<1x32x2x2xf32> into tensor<1x416x2x2xf32>
    %inserted_slice_431 = tensor.insert_slice %173 into %inserted_slice_430[0, 288, 0, 0] [1, 32, 2, 2] [1, 1, 1, 1] : tensor<1x32x2x2xf32> into tensor<1x416x2x2xf32>
    %inserted_slice_432 = tensor.insert_slice %180 into %inserted_slice_431[0, 320, 0, 0] [1, 32, 2, 2] [1, 1, 1, 1] : tensor<1x32x2x2xf32> into tensor<1x416x2x2xf32>
    %inserted_slice_433 = tensor.insert_slice %187 into %inserted_slice_432[0, 352, 0, 0] [1, 32, 2, 2] [1, 1, 1, 1] : tensor<1x32x2x2xf32> into tensor<1x416x2x2xf32>
    %inserted_slice_434 = tensor.insert_slice %194 into %inserted_slice_433[0, 384, 0, 0] [1, 32, 2, 2] [1, 1, 1, 1] : tensor<1x32x2x2xf32> into tensor<1x416x2x2xf32>
    cf.assert %3, "training is not supported for now"
    %196 = linalg.generic {indexing_maps = [#map, #map1, #map1, #map1, #map1, #map], iterator_types = ["parallel", "parallel", "parallel", "parallel"]} ins(%inserted_slice_434, %cst_216, %cst_215, %cst_215, %cst_216 : tensor<1x416x2x2xf32>, tensor<416xf32>, tensor<416xf32>, tensor<416xf32>, tensor<416xf32>) outs(%inserted_slice_434 : tensor<1x416x2x2xf32>) {
    ^bb0(%in: f32, %in_1594: f32, %in_1595: f32, %in_1596: f32, %in_1597: f32, %out: f32):
      %632 = arith.truncf %cst_273 : f64 to f32
      %633 = arith.addf %in_1597, %632 : f32
      %634 = math.rsqrt %633 : f32
      %635 = arith.subf %in, %in_1596 : f32
      %636 = arith.mulf %635, %634 : f32
      %637 = arith.mulf %636, %in_1594 : f32
      %638 = arith.addf %637, %in_1595 : f32
      linalg.yield %638 : f32
    } -> tensor<1x416x2x2xf32>
    %197 = linalg.generic {indexing_maps = [#map2, #map], iterator_types = ["parallel", "parallel", "parallel", "parallel"]} ins(%196 : tensor<1x416x2x2xf32>) outs(%195 : tensor<1x416x2x2xf32>) {
    ^bb0(%in: f32, %out: f32):
      %632 = arith.cmpf ugt, %in, %cst_271 : f32
      %633 = arith.select %632, %in, %cst_271 : f32
      linalg.yield %633 : f32
    } -> tensor<1x416x2x2xf32>
    %198 = linalg.conv_2d_nchw_fchw {dilations = dense<1> : vector<2xi64>, strides = dense<1> : vector<2xi64>} ins(%197, %cst_191 : tensor<1x416x2x2xf32>, tensor<128x416x1x1xf32>) outs(%160 : tensor<1x128x2x2xf32>) -> tensor<1x128x2x2xf32>
    cf.assert %3, "training is not supported for now"
    %199 = linalg.generic {indexing_maps = [#map, #map1, #map1, #map1, #map1, #map], iterator_types = ["parallel", "parallel", "parallel", "parallel"]} ins(%198, %cst_266, %cst_265, %cst_265, %cst_266 : tensor<1x128x2x2xf32>, tensor<128xf32>, tensor<128xf32>, tensor<128xf32>, tensor<128xf32>) outs(%198 : tensor<1x128x2x2xf32>) {
    ^bb0(%in: f32, %in_1594: f32, %in_1595: f32, %in_1596: f32, %in_1597: f32, %out: f32):
      %632 = arith.truncf %cst_273 : f64 to f32
      %633 = arith.addf %in_1597, %632 : f32
      %634 = math.rsqrt %633 : f32
      %635 = arith.subf %in, %in_1596 : f32
      %636 = arith.mulf %635, %634 : f32
      %637 = arith.mulf %636, %in_1594 : f32
      %638 = arith.addf %637, %in_1595 : f32
      linalg.yield %638 : f32
    } -> tensor<1x128x2x2xf32>
    %200 = linalg.generic {indexing_maps = [#map2, #map], iterator_types = ["parallel", "parallel", "parallel", "parallel"]} ins(%199 : tensor<1x128x2x2xf32>) outs(%159 : tensor<1x128x2x2xf32>) {
    ^bb0(%in: f32, %out: f32):
      %632 = arith.cmpf ugt, %in, %cst_271 : f32
      %633 = arith.select %632, %in, %cst_271 : f32
      linalg.yield %633 : f32
    } -> tensor<1x128x2x2xf32>
    %padded_435 = tensor.pad %200 low[0, 0, 1, 1] high[0, 0, 1, 1] {
    ^bb0(%arg1: index, %arg2: index, %arg3: index, %arg4: index):
      tensor.yield %cst_271 : f32
    } : tensor<1x128x2x2xf32> to tensor<1x128x4x4xf32>
    %201 = linalg.conv_2d_nchw_fchw {dilations = dense<1> : vector<2xi64>, strides = dense<1> : vector<2xi64>} ins(%padded_435, %cst_190 : tensor<1x128x4x4xf32>, tensor<32x128x3x3xf32>) outs(%165 : tensor<1x32x2x2xf32>) -> tensor<1x32x2x2xf32>
    %202 = tensor.empty() : tensor<1x448x2x2xf32>
    %inserted_slice_436 = tensor.insert_slice %156 into %202[0, 0, 0, 0] [1, 256, 2, 2] [1, 1, 1, 1] : tensor<1x256x2x2xf32> into tensor<1x448x2x2xf32>
    %inserted_slice_437 = tensor.insert_slice %166 into %inserted_slice_436[0, 256, 0, 0] [1, 32, 2, 2] [1, 1, 1, 1] : tensor<1x32x2x2xf32> into tensor<1x448x2x2xf32>
    %inserted_slice_438 = tensor.insert_slice %173 into %inserted_slice_437[0, 288, 0, 0] [1, 32, 2, 2] [1, 1, 1, 1] : tensor<1x32x2x2xf32> into tensor<1x448x2x2xf32>
    %inserted_slice_439 = tensor.insert_slice %180 into %inserted_slice_438[0, 320, 0, 0] [1, 32, 2, 2] [1, 1, 1, 1] : tensor<1x32x2x2xf32> into tensor<1x448x2x2xf32>
    %inserted_slice_440 = tensor.insert_slice %187 into %inserted_slice_439[0, 352, 0, 0] [1, 32, 2, 2] [1, 1, 1, 1] : tensor<1x32x2x2xf32> into tensor<1x448x2x2xf32>
    %inserted_slice_441 = tensor.insert_slice %194 into %inserted_slice_440[0, 384, 0, 0] [1, 32, 2, 2] [1, 1, 1, 1] : tensor<1x32x2x2xf32> into tensor<1x448x2x2xf32>
    %inserted_slice_442 = tensor.insert_slice %201 into %inserted_slice_441[0, 416, 0, 0] [1, 32, 2, 2] [1, 1, 1, 1] : tensor<1x32x2x2xf32> into tensor<1x448x2x2xf32>
    cf.assert %3, "training is not supported for now"
    %203 = linalg.generic {indexing_maps = [#map, #map1, #map1, #map1, #map1, #map], iterator_types = ["parallel", "parallel", "parallel", "parallel"]} ins(%inserted_slice_442, %cst_212, %cst_211, %cst_211, %cst_212 : tensor<1x448x2x2xf32>, tensor<448xf32>, tensor<448xf32>, tensor<448xf32>, tensor<448xf32>) outs(%inserted_slice_442 : tensor<1x448x2x2xf32>) {
    ^bb0(%in: f32, %in_1594: f32, %in_1595: f32, %in_1596: f32, %in_1597: f32, %out: f32):
      %632 = arith.truncf %cst_273 : f64 to f32
      %633 = arith.addf %in_1597, %632 : f32
      %634 = math.rsqrt %633 : f32
      %635 = arith.subf %in, %in_1596 : f32
      %636 = arith.mulf %635, %634 : f32
      %637 = arith.mulf %636, %in_1594 : f32
      %638 = arith.addf %637, %in_1595 : f32
      linalg.yield %638 : f32
    } -> tensor<1x448x2x2xf32>
    %204 = linalg.generic {indexing_maps = [#map2, #map], iterator_types = ["parallel", "parallel", "parallel", "parallel"]} ins(%203 : tensor<1x448x2x2xf32>) outs(%202 : tensor<1x448x2x2xf32>) {
    ^bb0(%in: f32, %out: f32):
      %632 = arith.cmpf ugt, %in, %cst_271 : f32
      %633 = arith.select %632, %in, %cst_271 : f32
      linalg.yield %633 : f32
    } -> tensor<1x448x2x2xf32>
    %205 = linalg.conv_2d_nchw_fchw {dilations = dense<1> : vector<2xi64>, strides = dense<1> : vector<2xi64>} ins(%204, %cst_189 : tensor<1x448x2x2xf32>, tensor<128x448x1x1xf32>) outs(%160 : tensor<1x128x2x2xf32>) -> tensor<1x128x2x2xf32>
    cf.assert %3, "training is not supported for now"
    %206 = linalg.generic {indexing_maps = [#map, #map1, #map1, #map1, #map1, #map], iterator_types = ["parallel", "parallel", "parallel", "parallel"]} ins(%205, %cst_266, %cst_265, %cst_265, %cst_266 : tensor<1x128x2x2xf32>, tensor<128xf32>, tensor<128xf32>, tensor<128xf32>, tensor<128xf32>) outs(%205 : tensor<1x128x2x2xf32>) {
    ^bb0(%in: f32, %in_1594: f32, %in_1595: f32, %in_1596: f32, %in_1597: f32, %out: f32):
      %632 = arith.truncf %cst_273 : f64 to f32
      %633 = arith.addf %in_1597, %632 : f32
      %634 = math.rsqrt %633 : f32
      %635 = arith.subf %in, %in_1596 : f32
      %636 = arith.mulf %635, %634 : f32
      %637 = arith.mulf %636, %in_1594 : f32
      %638 = arith.addf %637, %in_1595 : f32
      linalg.yield %638 : f32
    } -> tensor<1x128x2x2xf32>
    %207 = linalg.generic {indexing_maps = [#map2, #map], iterator_types = ["parallel", "parallel", "parallel", "parallel"]} ins(%206 : tensor<1x128x2x2xf32>) outs(%159 : tensor<1x128x2x2xf32>) {
    ^bb0(%in: f32, %out: f32):
      %632 = arith.cmpf ugt, %in, %cst_271 : f32
      %633 = arith.select %632, %in, %cst_271 : f32
      linalg.yield %633 : f32
    } -> tensor<1x128x2x2xf32>
    %padded_443 = tensor.pad %207 low[0, 0, 1, 1] high[0, 0, 1, 1] {
    ^bb0(%arg1: index, %arg2: index, %arg3: index, %arg4: index):
      tensor.yield %cst_271 : f32
    } : tensor<1x128x2x2xf32> to tensor<1x128x4x4xf32>
    %208 = linalg.conv_2d_nchw_fchw {dilations = dense<1> : vector<2xi64>, strides = dense<1> : vector<2xi64>} ins(%padded_443, %cst_188 : tensor<1x128x4x4xf32>, tensor<32x128x3x3xf32>) outs(%165 : tensor<1x32x2x2xf32>) -> tensor<1x32x2x2xf32>
    %209 = tensor.empty() : tensor<1x480x2x2xf32>
    %inserted_slice_444 = tensor.insert_slice %156 into %209[0, 0, 0, 0] [1, 256, 2, 2] [1, 1, 1, 1] : tensor<1x256x2x2xf32> into tensor<1x480x2x2xf32>
    %inserted_slice_445 = tensor.insert_slice %166 into %inserted_slice_444[0, 256, 0, 0] [1, 32, 2, 2] [1, 1, 1, 1] : tensor<1x32x2x2xf32> into tensor<1x480x2x2xf32>
    %inserted_slice_446 = tensor.insert_slice %173 into %inserted_slice_445[0, 288, 0, 0] [1, 32, 2, 2] [1, 1, 1, 1] : tensor<1x32x2x2xf32> into tensor<1x480x2x2xf32>
    %inserted_slice_447 = tensor.insert_slice %180 into %inserted_slice_446[0, 320, 0, 0] [1, 32, 2, 2] [1, 1, 1, 1] : tensor<1x32x2x2xf32> into tensor<1x480x2x2xf32>
    %inserted_slice_448 = tensor.insert_slice %187 into %inserted_slice_447[0, 352, 0, 0] [1, 32, 2, 2] [1, 1, 1, 1] : tensor<1x32x2x2xf32> into tensor<1x480x2x2xf32>
    %inserted_slice_449 = tensor.insert_slice %194 into %inserted_slice_448[0, 384, 0, 0] [1, 32, 2, 2] [1, 1, 1, 1] : tensor<1x32x2x2xf32> into tensor<1x480x2x2xf32>
    %inserted_slice_450 = tensor.insert_slice %201 into %inserted_slice_449[0, 416, 0, 0] [1, 32, 2, 2] [1, 1, 1, 1] : tensor<1x32x2x2xf32> into tensor<1x480x2x2xf32>
    %inserted_slice_451 = tensor.insert_slice %208 into %inserted_slice_450[0, 448, 0, 0] [1, 32, 2, 2] [1, 1, 1, 1] : tensor<1x32x2x2xf32> into tensor<1x480x2x2xf32>
    cf.assert %3, "training is not supported for now"
    %210 = linalg.generic {indexing_maps = [#map, #map1, #map1, #map1, #map1, #map], iterator_types = ["parallel", "parallel", "parallel", "parallel"]} ins(%inserted_slice_451, %cst_208, %cst_207, %cst_207, %cst_208 : tensor<1x480x2x2xf32>, tensor<480xf32>, tensor<480xf32>, tensor<480xf32>, tensor<480xf32>) outs(%inserted_slice_451 : tensor<1x480x2x2xf32>) {
    ^bb0(%in: f32, %in_1594: f32, %in_1595: f32, %in_1596: f32, %in_1597: f32, %out: f32):
      %632 = arith.truncf %cst_273 : f64 to f32
      %633 = arith.addf %in_1597, %632 : f32
      %634 = math.rsqrt %633 : f32
      %635 = arith.subf %in, %in_1596 : f32
      %636 = arith.mulf %635, %634 : f32
      %637 = arith.mulf %636, %in_1594 : f32
      %638 = arith.addf %637, %in_1595 : f32
      linalg.yield %638 : f32
    } -> tensor<1x480x2x2xf32>
    %211 = linalg.generic {indexing_maps = [#map2, #map], iterator_types = ["parallel", "parallel", "parallel", "parallel"]} ins(%210 : tensor<1x480x2x2xf32>) outs(%209 : tensor<1x480x2x2xf32>) {
    ^bb0(%in: f32, %out: f32):
      %632 = arith.cmpf ugt, %in, %cst_271 : f32
      %633 = arith.select %632, %in, %cst_271 : f32
      linalg.yield %633 : f32
    } -> tensor<1x480x2x2xf32>
    %212 = linalg.conv_2d_nchw_fchw {dilations = dense<1> : vector<2xi64>, strides = dense<1> : vector<2xi64>} ins(%211, %cst_187 : tensor<1x480x2x2xf32>, tensor<128x480x1x1xf32>) outs(%160 : tensor<1x128x2x2xf32>) -> tensor<1x128x2x2xf32>
    cf.assert %3, "training is not supported for now"
    %213 = linalg.generic {indexing_maps = [#map, #map1, #map1, #map1, #map1, #map], iterator_types = ["parallel", "parallel", "parallel", "parallel"]} ins(%212, %cst_266, %cst_265, %cst_265, %cst_266 : tensor<1x128x2x2xf32>, tensor<128xf32>, tensor<128xf32>, tensor<128xf32>, tensor<128xf32>) outs(%212 : tensor<1x128x2x2xf32>) {
    ^bb0(%in: f32, %in_1594: f32, %in_1595: f32, %in_1596: f32, %in_1597: f32, %out: f32):
      %632 = arith.truncf %cst_273 : f64 to f32
      %633 = arith.addf %in_1597, %632 : f32
      %634 = math.rsqrt %633 : f32
      %635 = arith.subf %in, %in_1596 : f32
      %636 = arith.mulf %635, %634 : f32
      %637 = arith.mulf %636, %in_1594 : f32
      %638 = arith.addf %637, %in_1595 : f32
      linalg.yield %638 : f32
    } -> tensor<1x128x2x2xf32>
    %214 = linalg.generic {indexing_maps = [#map2, #map], iterator_types = ["parallel", "parallel", "parallel", "parallel"]} ins(%213 : tensor<1x128x2x2xf32>) outs(%159 : tensor<1x128x2x2xf32>) {
    ^bb0(%in: f32, %out: f32):
      %632 = arith.cmpf ugt, %in, %cst_271 : f32
      %633 = arith.select %632, %in, %cst_271 : f32
      linalg.yield %633 : f32
    } -> tensor<1x128x2x2xf32>
    %padded_452 = tensor.pad %214 low[0, 0, 1, 1] high[0, 0, 1, 1] {
    ^bb0(%arg1: index, %arg2: index, %arg3: index, %arg4: index):
      tensor.yield %cst_271 : f32
    } : tensor<1x128x2x2xf32> to tensor<1x128x4x4xf32>
    %215 = linalg.conv_2d_nchw_fchw {dilations = dense<1> : vector<2xi64>, strides = dense<1> : vector<2xi64>} ins(%padded_452, %cst_186 : tensor<1x128x4x4xf32>, tensor<32x128x3x3xf32>) outs(%165 : tensor<1x32x2x2xf32>) -> tensor<1x32x2x2xf32>
    %216 = tensor.empty() : tensor<1x512x2x2xf32>
    %inserted_slice_453 = tensor.insert_slice %156 into %216[0, 0, 0, 0] [1, 256, 2, 2] [1, 1, 1, 1] : tensor<1x256x2x2xf32> into tensor<1x512x2x2xf32>
    %inserted_slice_454 = tensor.insert_slice %166 into %inserted_slice_453[0, 256, 0, 0] [1, 32, 2, 2] [1, 1, 1, 1] : tensor<1x32x2x2xf32> into tensor<1x512x2x2xf32>
    %inserted_slice_455 = tensor.insert_slice %173 into %inserted_slice_454[0, 288, 0, 0] [1, 32, 2, 2] [1, 1, 1, 1] : tensor<1x32x2x2xf32> into tensor<1x512x2x2xf32>
    %inserted_slice_456 = tensor.insert_slice %180 into %inserted_slice_455[0, 320, 0, 0] [1, 32, 2, 2] [1, 1, 1, 1] : tensor<1x32x2x2xf32> into tensor<1x512x2x2xf32>
    %inserted_slice_457 = tensor.insert_slice %187 into %inserted_slice_456[0, 352, 0, 0] [1, 32, 2, 2] [1, 1, 1, 1] : tensor<1x32x2x2xf32> into tensor<1x512x2x2xf32>
    %inserted_slice_458 = tensor.insert_slice %194 into %inserted_slice_457[0, 384, 0, 0] [1, 32, 2, 2] [1, 1, 1, 1] : tensor<1x32x2x2xf32> into tensor<1x512x2x2xf32>
    %inserted_slice_459 = tensor.insert_slice %201 into %inserted_slice_458[0, 416, 0, 0] [1, 32, 2, 2] [1, 1, 1, 1] : tensor<1x32x2x2xf32> into tensor<1x512x2x2xf32>
    %inserted_slice_460 = tensor.insert_slice %208 into %inserted_slice_459[0, 448, 0, 0] [1, 32, 2, 2] [1, 1, 1, 1] : tensor<1x32x2x2xf32> into tensor<1x512x2x2xf32>
    %inserted_slice_461 = tensor.insert_slice %215 into %inserted_slice_460[0, 480, 0, 0] [1, 32, 2, 2] [1, 1, 1, 1] : tensor<1x32x2x2xf32> into tensor<1x512x2x2xf32>
    cf.assert %3, "training is not supported for now"
    %217 = linalg.generic {indexing_maps = [#map, #map1, #map1, #map1, #map1, #map], iterator_types = ["parallel", "parallel", "parallel", "parallel"]} ins(%inserted_slice_461, %cst_204, %cst_203, %cst_203, %cst_204 : tensor<1x512x2x2xf32>, tensor<512xf32>, tensor<512xf32>, tensor<512xf32>, tensor<512xf32>) outs(%inserted_slice_461 : tensor<1x512x2x2xf32>) {
    ^bb0(%in: f32, %in_1594: f32, %in_1595: f32, %in_1596: f32, %in_1597: f32, %out: f32):
      %632 = arith.truncf %cst_273 : f64 to f32
      %633 = arith.addf %in_1597, %632 : f32
      %634 = math.rsqrt %633 : f32
      %635 = arith.subf %in, %in_1596 : f32
      %636 = arith.mulf %635, %634 : f32
      %637 = arith.mulf %636, %in_1594 : f32
      %638 = arith.addf %637, %in_1595 : f32
      linalg.yield %638 : f32
    } -> tensor<1x512x2x2xf32>
    %218 = linalg.generic {indexing_maps = [#map2, #map], iterator_types = ["parallel", "parallel", "parallel", "parallel"]} ins(%217 : tensor<1x512x2x2xf32>) outs(%216 : tensor<1x512x2x2xf32>) {
    ^bb0(%in: f32, %out: f32):
      %632 = arith.cmpf ugt, %in, %cst_271 : f32
      %633 = arith.select %632, %in, %cst_271 : f32
      linalg.yield %633 : f32
    } -> tensor<1x512x2x2xf32>
    %219 = linalg.conv_2d_nchw_fchw {dilations = dense<1> : vector<2xi64>, strides = dense<1> : vector<2xi64>} ins(%218, %cst_185 : tensor<1x512x2x2xf32>, tensor<128x512x1x1xf32>) outs(%160 : tensor<1x128x2x2xf32>) -> tensor<1x128x2x2xf32>
    cf.assert %3, "training is not supported for now"
    %220 = linalg.generic {indexing_maps = [#map, #map1, #map1, #map1, #map1, #map], iterator_types = ["parallel", "parallel", "parallel", "parallel"]} ins(%219, %cst_266, %cst_265, %cst_265, %cst_266 : tensor<1x128x2x2xf32>, tensor<128xf32>, tensor<128xf32>, tensor<128xf32>, tensor<128xf32>) outs(%219 : tensor<1x128x2x2xf32>) {
    ^bb0(%in: f32, %in_1594: f32, %in_1595: f32, %in_1596: f32, %in_1597: f32, %out: f32):
      %632 = arith.truncf %cst_273 : f64 to f32
      %633 = arith.addf %in_1597, %632 : f32
      %634 = math.rsqrt %633 : f32
      %635 = arith.subf %in, %in_1596 : f32
      %636 = arith.mulf %635, %634 : f32
      %637 = arith.mulf %636, %in_1594 : f32
      %638 = arith.addf %637, %in_1595 : f32
      linalg.yield %638 : f32
    } -> tensor<1x128x2x2xf32>
    %221 = linalg.generic {indexing_maps = [#map2, #map], iterator_types = ["parallel", "parallel", "parallel", "parallel"]} ins(%220 : tensor<1x128x2x2xf32>) outs(%159 : tensor<1x128x2x2xf32>) {
    ^bb0(%in: f32, %out: f32):
      %632 = arith.cmpf ugt, %in, %cst_271 : f32
      %633 = arith.select %632, %in, %cst_271 : f32
      linalg.yield %633 : f32
    } -> tensor<1x128x2x2xf32>
    %padded_462 = tensor.pad %221 low[0, 0, 1, 1] high[0, 0, 1, 1] {
    ^bb0(%arg1: index, %arg2: index, %arg3: index, %arg4: index):
      tensor.yield %cst_271 : f32
    } : tensor<1x128x2x2xf32> to tensor<1x128x4x4xf32>
    %222 = linalg.conv_2d_nchw_fchw {dilations = dense<1> : vector<2xi64>, strides = dense<1> : vector<2xi64>} ins(%padded_462, %cst_184 : tensor<1x128x4x4xf32>, tensor<32x128x3x3xf32>) outs(%165 : tensor<1x32x2x2xf32>) -> tensor<1x32x2x2xf32>
    %223 = tensor.empty() : tensor<1x544x2x2xf32>
    %inserted_slice_463 = tensor.insert_slice %156 into %223[0, 0, 0, 0] [1, 256, 2, 2] [1, 1, 1, 1] : tensor<1x256x2x2xf32> into tensor<1x544x2x2xf32>
    %inserted_slice_464 = tensor.insert_slice %166 into %inserted_slice_463[0, 256, 0, 0] [1, 32, 2, 2] [1, 1, 1, 1] : tensor<1x32x2x2xf32> into tensor<1x544x2x2xf32>
    %inserted_slice_465 = tensor.insert_slice %173 into %inserted_slice_464[0, 288, 0, 0] [1, 32, 2, 2] [1, 1, 1, 1] : tensor<1x32x2x2xf32> into tensor<1x544x2x2xf32>
    %inserted_slice_466 = tensor.insert_slice %180 into %inserted_slice_465[0, 320, 0, 0] [1, 32, 2, 2] [1, 1, 1, 1] : tensor<1x32x2x2xf32> into tensor<1x544x2x2xf32>
    %inserted_slice_467 = tensor.insert_slice %187 into %inserted_slice_466[0, 352, 0, 0] [1, 32, 2, 2] [1, 1, 1, 1] : tensor<1x32x2x2xf32> into tensor<1x544x2x2xf32>
    %inserted_slice_468 = tensor.insert_slice %194 into %inserted_slice_467[0, 384, 0, 0] [1, 32, 2, 2] [1, 1, 1, 1] : tensor<1x32x2x2xf32> into tensor<1x544x2x2xf32>
    %inserted_slice_469 = tensor.insert_slice %201 into %inserted_slice_468[0, 416, 0, 0] [1, 32, 2, 2] [1, 1, 1, 1] : tensor<1x32x2x2xf32> into tensor<1x544x2x2xf32>
    %inserted_slice_470 = tensor.insert_slice %208 into %inserted_slice_469[0, 448, 0, 0] [1, 32, 2, 2] [1, 1, 1, 1] : tensor<1x32x2x2xf32> into tensor<1x544x2x2xf32>
    %inserted_slice_471 = tensor.insert_slice %215 into %inserted_slice_470[0, 480, 0, 0] [1, 32, 2, 2] [1, 1, 1, 1] : tensor<1x32x2x2xf32> into tensor<1x544x2x2xf32>
    %inserted_slice_472 = tensor.insert_slice %222 into %inserted_slice_471[0, 512, 0, 0] [1, 32, 2, 2] [1, 1, 1, 1] : tensor<1x32x2x2xf32> into tensor<1x544x2x2xf32>
    cf.assert %3, "training is not supported for now"
    %224 = linalg.generic {indexing_maps = [#map, #map1, #map1, #map1, #map1, #map], iterator_types = ["parallel", "parallel", "parallel", "parallel"]} ins(%inserted_slice_472, %cst_183, %cst_182, %cst_182, %cst_183 : tensor<1x544x2x2xf32>, tensor<544xf32>, tensor<544xf32>, tensor<544xf32>, tensor<544xf32>) outs(%inserted_slice_472 : tensor<1x544x2x2xf32>) {
    ^bb0(%in: f32, %in_1594: f32, %in_1595: f32, %in_1596: f32, %in_1597: f32, %out: f32):
      %632 = arith.truncf %cst_273 : f64 to f32
      %633 = arith.addf %in_1597, %632 : f32
      %634 = math.rsqrt %633 : f32
      %635 = arith.subf %in, %in_1596 : f32
      %636 = arith.mulf %635, %634 : f32
      %637 = arith.mulf %636, %in_1594 : f32
      %638 = arith.addf %637, %in_1595 : f32
      linalg.yield %638 : f32
    } -> tensor<1x544x2x2xf32>
    %225 = linalg.generic {indexing_maps = [#map2, #map], iterator_types = ["parallel", "parallel", "parallel", "parallel"]} ins(%224 : tensor<1x544x2x2xf32>) outs(%223 : tensor<1x544x2x2xf32>) {
    ^bb0(%in: f32, %out: f32):
      %632 = arith.cmpf ugt, %in, %cst_271 : f32
      %633 = arith.select %632, %in, %cst_271 : f32
      linalg.yield %633 : f32
    } -> tensor<1x544x2x2xf32>
    %226 = linalg.conv_2d_nchw_fchw {dilations = dense<1> : vector<2xi64>, strides = dense<1> : vector<2xi64>} ins(%225, %cst_181 : tensor<1x544x2x2xf32>, tensor<128x544x1x1xf32>) outs(%160 : tensor<1x128x2x2xf32>) -> tensor<1x128x2x2xf32>
    cf.assert %3, "training is not supported for now"
    %227 = linalg.generic {indexing_maps = [#map, #map1, #map1, #map1, #map1, #map], iterator_types = ["parallel", "parallel", "parallel", "parallel"]} ins(%226, %cst_266, %cst_265, %cst_265, %cst_266 : tensor<1x128x2x2xf32>, tensor<128xf32>, tensor<128xf32>, tensor<128xf32>, tensor<128xf32>) outs(%226 : tensor<1x128x2x2xf32>) {
    ^bb0(%in: f32, %in_1594: f32, %in_1595: f32, %in_1596: f32, %in_1597: f32, %out: f32):
      %632 = arith.truncf %cst_273 : f64 to f32
      %633 = arith.addf %in_1597, %632 : f32
      %634 = math.rsqrt %633 : f32
      %635 = arith.subf %in, %in_1596 : f32
      %636 = arith.mulf %635, %634 : f32
      %637 = arith.mulf %636, %in_1594 : f32
      %638 = arith.addf %637, %in_1595 : f32
      linalg.yield %638 : f32
    } -> tensor<1x128x2x2xf32>
    %228 = linalg.generic {indexing_maps = [#map2, #map], iterator_types = ["parallel", "parallel", "parallel", "parallel"]} ins(%227 : tensor<1x128x2x2xf32>) outs(%159 : tensor<1x128x2x2xf32>) {
    ^bb0(%in: f32, %out: f32):
      %632 = arith.cmpf ugt, %in, %cst_271 : f32
      %633 = arith.select %632, %in, %cst_271 : f32
      linalg.yield %633 : f32
    } -> tensor<1x128x2x2xf32>
    %padded_473 = tensor.pad %228 low[0, 0, 1, 1] high[0, 0, 1, 1] {
    ^bb0(%arg1: index, %arg2: index, %arg3: index, %arg4: index):
      tensor.yield %cst_271 : f32
    } : tensor<1x128x2x2xf32> to tensor<1x128x4x4xf32>
    %229 = linalg.conv_2d_nchw_fchw {dilations = dense<1> : vector<2xi64>, strides = dense<1> : vector<2xi64>} ins(%padded_473, %cst_180 : tensor<1x128x4x4xf32>, tensor<32x128x3x3xf32>) outs(%165 : tensor<1x32x2x2xf32>) -> tensor<1x32x2x2xf32>
    %230 = tensor.empty() : tensor<1x576x2x2xf32>
    %inserted_slice_474 = tensor.insert_slice %156 into %230[0, 0, 0, 0] [1, 256, 2, 2] [1, 1, 1, 1] : tensor<1x256x2x2xf32> into tensor<1x576x2x2xf32>
    %inserted_slice_475 = tensor.insert_slice %166 into %inserted_slice_474[0, 256, 0, 0] [1, 32, 2, 2] [1, 1, 1, 1] : tensor<1x32x2x2xf32> into tensor<1x576x2x2xf32>
    %inserted_slice_476 = tensor.insert_slice %173 into %inserted_slice_475[0, 288, 0, 0] [1, 32, 2, 2] [1, 1, 1, 1] : tensor<1x32x2x2xf32> into tensor<1x576x2x2xf32>
    %inserted_slice_477 = tensor.insert_slice %180 into %inserted_slice_476[0, 320, 0, 0] [1, 32, 2, 2] [1, 1, 1, 1] : tensor<1x32x2x2xf32> into tensor<1x576x2x2xf32>
    %inserted_slice_478 = tensor.insert_slice %187 into %inserted_slice_477[0, 352, 0, 0] [1, 32, 2, 2] [1, 1, 1, 1] : tensor<1x32x2x2xf32> into tensor<1x576x2x2xf32>
    %inserted_slice_479 = tensor.insert_slice %194 into %inserted_slice_478[0, 384, 0, 0] [1, 32, 2, 2] [1, 1, 1, 1] : tensor<1x32x2x2xf32> into tensor<1x576x2x2xf32>
    %inserted_slice_480 = tensor.insert_slice %201 into %inserted_slice_479[0, 416, 0, 0] [1, 32, 2, 2] [1, 1, 1, 1] : tensor<1x32x2x2xf32> into tensor<1x576x2x2xf32>
    %inserted_slice_481 = tensor.insert_slice %208 into %inserted_slice_480[0, 448, 0, 0] [1, 32, 2, 2] [1, 1, 1, 1] : tensor<1x32x2x2xf32> into tensor<1x576x2x2xf32>
    %inserted_slice_482 = tensor.insert_slice %215 into %inserted_slice_481[0, 480, 0, 0] [1, 32, 2, 2] [1, 1, 1, 1] : tensor<1x32x2x2xf32> into tensor<1x576x2x2xf32>
    %inserted_slice_483 = tensor.insert_slice %222 into %inserted_slice_482[0, 512, 0, 0] [1, 32, 2, 2] [1, 1, 1, 1] : tensor<1x32x2x2xf32> into tensor<1x576x2x2xf32>
    %inserted_slice_484 = tensor.insert_slice %229 into %inserted_slice_483[0, 544, 0, 0] [1, 32, 2, 2] [1, 1, 1, 1] : tensor<1x32x2x2xf32> into tensor<1x576x2x2xf32>
    cf.assert %3, "training is not supported for now"
    %231 = linalg.generic {indexing_maps = [#map, #map1, #map1, #map1, #map1, #map], iterator_types = ["parallel", "parallel", "parallel", "parallel"]} ins(%inserted_slice_484, %cst_179, %cst_178, %cst_178, %cst_179 : tensor<1x576x2x2xf32>, tensor<576xf32>, tensor<576xf32>, tensor<576xf32>, tensor<576xf32>) outs(%inserted_slice_484 : tensor<1x576x2x2xf32>) {
    ^bb0(%in: f32, %in_1594: f32, %in_1595: f32, %in_1596: f32, %in_1597: f32, %out: f32):
      %632 = arith.truncf %cst_273 : f64 to f32
      %633 = arith.addf %in_1597, %632 : f32
      %634 = math.rsqrt %633 : f32
      %635 = arith.subf %in, %in_1596 : f32
      %636 = arith.mulf %635, %634 : f32
      %637 = arith.mulf %636, %in_1594 : f32
      %638 = arith.addf %637, %in_1595 : f32
      linalg.yield %638 : f32
    } -> tensor<1x576x2x2xf32>
    %232 = linalg.generic {indexing_maps = [#map2, #map], iterator_types = ["parallel", "parallel", "parallel", "parallel"]} ins(%231 : tensor<1x576x2x2xf32>) outs(%230 : tensor<1x576x2x2xf32>) {
    ^bb0(%in: f32, %out: f32):
      %632 = arith.cmpf ugt, %in, %cst_271 : f32
…
    %inserted_slice_1406 = tensor.insert_slice %392 into %585[0, 0, 0, 0] [1, 640, 1, 1] [1, 1, 1, 1] : tensor<1x640x1x1xf32> into tensor<1x1504x1x1xf32>
    %inserted_slice_1407 = tensor.insert_slice %402 into %inserted_slice_1406[0, 640, 0, 0] [1, 32, 1, 1] [1, 1, 1, 1] : tensor<1x32x1x1xf32> into tensor<1x1504x1x1xf32>
    %inserted_slice_1408 = tensor.insert_slice %409 into %inserted_slice_1407[0, 672, 0, 0] [1, 32, 1, 1] [1, 1, 1, 1] : tensor<1x32x1x1xf32> into tensor<1x1504x1x1xf32>
    %inserted_slice_1409 = tensor.insert_slice %416 into %inserted_slice_1408[0, 704, 0, 0] [1, 32, 1, 1] [1, 1, 1, 1] : tensor<1x32x1x1xf32> into tensor<1x1504x1x1xf32>
    %inserted_slice_1410 = tensor.insert_slice %423 into %inserted_slice_1409[0, 736, 0, 0] [1, 32, 1, 1] [1, 1, 1, 1] : tensor<1x32x1x1xf32> into tensor<1x1504x1x1xf32>
    %inserted_slice_1411 = tensor.insert_slice %430 into %inserted_slice_1410[0, 768, 0, 0] [1, 32, 1, 1] [1, 1, 1, 1] : tensor<1x32x1x1xf32> into tensor<1x1504x1x1xf32>
    %inserted_slice_1412 = tensor.insert_slice %437 into %inserted_slice_1411[0, 800, 0, 0] [1, 32, 1, 1] [1, 1, 1, 1] : tensor<1x32x1x1xf32> into tensor<1x1504x1x1xf32>
    %inserted_slice_1413 = tensor.insert_slice %444 into %inserted_slice_1412[0, 832, 0, 0] [1, 32, 1, 1] [1, 1, 1, 1] : tensor<1x32x1x1xf32> into tensor<1x1504x1x1xf32>
    %inserted_slice_1414 = tensor.insert_slice %451 into %inserted_slice_1413[0, 864, 0, 0] [1, 32, 1, 1] [1, 1, 1, 1] : tensor<1x32x1x1xf32> into tensor<1x1504x1x1xf32>
    %inserted_slice_1415 = tensor.insert_slice %458 into %inserted_slice_1414[0, 896, 0, 0] [1, 32, 1, 1] [1, 1, 1, 1] : tensor<1x32x1x1xf32> into tensor<1x1504x1x1xf32>
    %inserted_slice_1416 = tensor.insert_slice %465 into %inserted_slice_1415[0, 928, 0, 0] [1, 32, 1, 1] [1, 1, 1, 1] : tensor<1x32x1x1xf32> into tensor<1x1504x1x1xf32>
    %inserted_slice_1417 = tensor.insert_slice %472 into %inserted_slice_1416[0, 960, 0, 0] [1, 32, 1, 1] [1, 1, 1, 1] : tensor<1x32x1x1xf32> into tensor<1x1504x1x1xf32>
    %inserted_slice_1418 = tensor.insert_slice %479 into %inserted_slice_1417[0, 992, 0, 0] [1, 32, 1, 1] [1, 1, 1, 1] : tensor<1x32x1x1xf32> into tensor<1x1504x1x1xf32>
    %inserted_slice_1419 = tensor.insert_slice %486 into %inserted_slice_1418[0, 1024, 0, 0] [1, 32, 1, 1] [1, 1, 1, 1] : tensor<1x32x1x1xf32> into tensor<1x1504x1x1xf32>
    %inserted_slice_1420 = tensor.insert_slice %493 into %inserted_slice_1419[0, 1056, 0, 0] [1, 32, 1, 1] [1, 1, 1, 1] : tensor<1x32x1x1xf32> into tensor<1x1504x1x1xf32>
    %inserted_slice_1421 = tensor.insert_slice %500 into %inserted_slice_1420[0, 1088, 0, 0] [1, 32, 1, 1] [1, 1, 1, 1] : tensor<1x32x1x1xf32> into tensor<1x1504x1x1xf32>
    %inserted_slice_1422 = tensor.insert_slice %507 into %inserted_slice_1421[0, 1120, 0, 0] [1, 32, 1, 1] [1, 1, 1, 1] : tensor<1x32x1x1xf32> into tensor<1x1504x1x1xf32>
    %inserted_slice_1423 = tensor.insert_slice %514 into %inserted_slice_1422[0, 1152, 0, 0] [1, 32, 1, 1] [1, 1, 1, 1] : tensor<1x32x1x1xf32> into tensor<1x1504x1x1xf32>
    %inserted_slice_1424 = tensor.insert_slice %521 into %inserted_slice_1423[0, 1184, 0, 0] [1, 32, 1, 1] [1, 1, 1, 1] : tensor<1x32x1x1xf32> into tensor<1x1504x1x1xf32>
    %inserted_slice_1425 = tensor.insert_slice %528 into %inserted_slice_1424[0, 1216, 0, 0] [1, 32, 1, 1] [1, 1, 1, 1] : tensor<1x32x1x1xf32> into tensor<1x1504x1x1xf32>
    %inserted_slice_1426 = tensor.insert_slice %535 into %inserted_slice_1425[0, 1248, 0, 0] [1, 32, 1, 1] [1, 1, 1, 1] : tensor<1x32x1x1xf32> into tensor<1x1504x1x1xf32>
    %inserted_slice_1427 = tensor.insert_slice %542 into %inserted_slice_1426[0, 1280, 0, 0] [1, 32, 1, 1] [1, 1, 1, 1] : tensor<1x32x1x1xf32> into tensor<1x1504x1x1xf32>
    %inserted_slice_1428 = tensor.insert_slice %549 into %inserted_slice_1427[0, 1312, 0, 0] [1, 32, 1, 1] [1, 1, 1, 1] : tensor<1x32x1x1xf32> into tensor<1x1504x1x1xf32>
    %inserted_slice_1429 = tensor.insert_slice %556 into %inserted_slice_1428[0, 1344, 0, 0] [1, 32, 1, 1] [1, 1, 1, 1] : tensor<1x32x1x1xf32> into tensor<1x1504x1x1xf32>
    %inserted_slice_1430 = tensor.insert_slice %563 into %inserted_slice_1429[0, 1376, 0, 0] [1, 32, 1, 1] [1, 1, 1, 1] : tensor<1x32x1x1xf32> into tensor<1x1504x1x1xf32>
    %inserted_slice_1431 = tensor.insert_slice %570 into %inserted_slice_1430[0, 1408, 0, 0] [1, 32, 1, 1] [1, 1, 1, 1] : tensor<1x32x1x1xf32> into tensor<1x1504x1x1xf32>
    %inserted_slice_1432 = tensor.insert_slice %577 into %inserted_slice_1431[0, 1440, 0, 0] [1, 32, 1, 1] [1, 1, 1, 1] : tensor<1x32x1x1xf32> into tensor<1x1504x1x1xf32>
    %inserted_slice_1433 = tensor.insert_slice %584 into %inserted_slice_1432[0, 1472, 0, 0] [1, 32, 1, 1] [1, 1, 1, 1] : tensor<1x32x1x1xf32> into tensor<1x1504x1x1xf32>
    cf.assert %3, "training is not supported for now"
    %586 = linalg.generic {indexing_maps = [#map, #map1, #map1, #map1, #map1, #map], iterator_types = ["parallel", "parallel", "parallel", "parallel"]} ins(%inserted_slice_1433, %cst_22, %cst_21, %cst_21, %cst_22 : tensor<1x1504x1x1xf32>, tensor<1504xf32>, tensor<1504xf32>, tensor<1504xf32>, tensor<1504xf32>) outs(%inserted_slice_1433 : tensor<1x1504x1x1xf32>) {
    ^bb0(%in: f32, %in_1594: f32, %in_1595: f32, %in_1596: f32, %in_1597: f32, %out: f32):
      %632 = arith.truncf %cst_273 : f64 to f32
      %633 = arith.addf %in_1597, %632 : f32
      %634 = math.rsqrt %633 : f32
      %635 = arith.subf %in, %in_1596 : f32
      %636 = arith.mulf %635, %634 : f32
      %637 = arith.mulf %636, %in_1594 : f32
      %638 = arith.addf %637, %in_1595 : f32
      linalg.yield %638 : f32
    } -> tensor<1x1504x1x1xf32>
    %587 = linalg.generic {indexing_maps = [#map3, #map], iterator_types = ["parallel", "parallel", "parallel", "parallel"]} ins(%586 : tensor<1x1504x1x1xf32>) outs(%585 : tensor<1x1504x1x1xf32>) {
    ^bb0(%in: f32, %out: f32):
      %632 = arith.cmpf ugt, %in, %cst_271 : f32
      %633 = arith.select %632, %in, %cst_271 : f32
      linalg.yield %633 : f32
    } -> tensor<1x1504x1x1xf32>
    %588 = linalg.conv_2d_nchw_fchw {dilations = dense<1> : vector<2xi64>, strides = dense<1> : vector<2xi64>} ins(%587, %cst_20 : tensor<1x1504x1x1xf32>, tensor<128x1504x1x1xf32>) outs(%396 : tensor<1x128x1x1xf32>) -> tensor<1x128x1x1xf32>
    cf.assert %3, "training is not supported for now"
    %589 = linalg.generic {indexing_maps = [#map, #map1, #map1, #map1, #map1, #map], iterator_types = ["parallel", "parallel", "parallel", "parallel"]} ins(%588, %cst_266, %cst_265, %cst_265, %cst_266 : tensor<1x128x1x1xf32>, tensor<128xf32>, tensor<128xf32>, tensor<128xf32>, tensor<128xf32>) outs(%588 : tensor<1x128x1x1xf32>) {
    ^bb0(%in: f32, %in_1594: f32, %in_1595: f32, %in_1596: f32, %in_1597: f32, %out: f32):
      %632 = arith.truncf %cst_273 : f64 to f32
      %633 = arith.addf %in_1597, %632 : f32
      %634 = math.rsqrt %633 : f32
      %635 = arith.subf %in, %in_1596 : f32
      %636 = arith.mulf %635, %634 : f32
      %637 = arith.mulf %636, %in_1594 : f32
      %638 = arith.addf %637, %in_1595 : f32
      linalg.yield %638 : f32
    } -> tensor<1x128x1x1xf32>
    %590 = linalg.generic {indexing_maps = [#map3, #map], iterator_types = ["parallel", "parallel", "parallel", "parallel"]} ins(%589 : tensor<1x128x1x1xf32>) outs(%395 : tensor<1x128x1x1xf32>) {
    ^bb0(%in: f32, %out: f32):
      %632 = arith.cmpf ugt, %in, %cst_271 : f32
      %633 = arith.select %632, %in, %cst_271 : f32
      linalg.yield %633 : f32
    } -> tensor<1x128x1x1xf32>
    %padded_1434 = tensor.pad %590 low[0, 0, 1, 1] high[0, 0, 1, 1] {
    ^bb0(%arg1: index, %arg2: index, %arg3: index, %arg4: index):
      tensor.yield %cst_271 : f32
    } : tensor<1x128x1x1xf32> to tensor<1x128x3x3xf32>
    %591 = linalg.conv_2d_nchw_fchw {dilations = dense<1> : vector<2xi64>, strides = dense<1> : vector<2xi64>} ins(%padded_1434, %cst_19 : tensor<1x128x3x3xf32>, tensor<32x128x3x3xf32>) outs(%401 : tensor<1x32x1x1xf32>) -> tensor<1x32x1x1xf32>
    %592 = tensor.empty() : tensor<1x1536x1x1xf32>
    %inserted_slice_1435 = tensor.insert_slice %392 into %592[0, 0, 0, 0] [1, 640, 1, 1] [1, 1, 1, 1] : tensor<1x640x1x1xf32> into tensor<1x1536x1x1xf32>
    %inserted_slice_1436 = tensor.insert_slice %402 into %inserted_slice_1435[0, 640, 0, 0] [1, 32, 1, 1] [1, 1, 1, 1] : tensor<1x32x1x1xf32> into tensor<1x1536x1x1xf32>
    %inserted_slice_1437 = tensor.insert_slice %409 into %inserted_slice_1436[0, 672, 0, 0] [1, 32, 1, 1] [1, 1, 1, 1] : tensor<1x32x1x1xf32> into tensor<1x1536x1x1xf32>
    %inserted_slice_1438 = tensor.insert_slice %416 into %inserted_slice_1437[0, 704, 0, 0] [1, 32, 1, 1] [1, 1, 1, 1] : tensor<1x32x1x1xf32> into tensor<1x1536x1x1xf32>
    %inserted_slice_1439 = tensor.insert_slice %423 into %inserted_slice_1438[0, 736, 0, 0] [1, 32, 1, 1] [1, 1, 1, 1] : tensor<1x32x1x1xf32> into tensor<1x1536x1x1xf32>
    %inserted_slice_1440 = tensor.insert_slice %430 into %inserted_slice_1439[0, 768, 0, 0] [1, 32, 1, 1] [1, 1, 1, 1] : tensor<1x32x1x1xf32> into tensor<1x1536x1x1xf32>
    %inserted_slice_1441 = tensor.insert_slice %437 into %inserted_slice_1440[0, 800, 0, 0] [1, 32, 1, 1] [1, 1, 1, 1] : tensor<1x32x1x1xf32> into tensor<1x1536x1x1xf32>
    %inserted_slice_1442 = tensor.insert_slice %444 into %inserted_slice_1441[0, 832, 0, 0] [1, 32, 1, 1] [1, 1, 1, 1] : tensor<1x32x1x1xf32> into tensor<1x1536x1x1xf32>
    %inserted_slice_1443 = tensor.insert_slice %451 into %inserted_slice_1442[0, 864, 0, 0] [1, 32, 1, 1] [1, 1, 1, 1] : tensor<1x32x1x1xf32> into tensor<1x1536x1x1xf32>
    %inserted_slice_1444 = tensor.insert_slice %458 into %inserted_slice_1443[0, 896, 0, 0] [1, 32, 1, 1] [1, 1, 1, 1] : tensor<1x32x1x1xf32> into tensor<1x1536x1x1xf32>
    %inserted_slice_1445 = tensor.insert_slice %465 into %inserted_slice_1444[0, 928, 0, 0] [1, 32, 1, 1] [1, 1, 1, 1] : tensor<1x32x1x1xf32> into tensor<1x1536x1x1xf32>
    %inserted_slice_1446 = tensor.insert_slice %472 into %inserted_slice_1445[0, 960, 0, 0] [1, 32, 1, 1] [1, 1, 1, 1] : tensor<1x32x1x1xf32> into tensor<1x1536x1x1xf32>
    %inserted_slice_1447 = tensor.insert_slice %479 into %inserted_slice_1446[0, 992, 0, 0] [1, 32, 1, 1] [1, 1, 1, 1] : tensor<1x32x1x1xf32> into tensor<1x1536x1x1xf32>
    %inserted_slice_1448 = tensor.insert_slice %486 into %inserted_slice_1447[0, 1024, 0, 0] [1, 32, 1, 1] [1, 1, 1, 1] : tensor<1x32x1x1xf32> into tensor<1x1536x1x1xf32>
    %inserted_slice_1449 = tensor.insert_slice %493 into %inserted_slice_1448[0, 1056, 0, 0] [1, 32, 1, 1] [1, 1, 1, 1] : tensor<1x32x1x1xf32> into tensor<1x1536x1x1xf32>
    %inserted_slice_1450 = tensor.insert_slice %500 into %inserted_slice_1449[0, 1088, 0, 0] [1, 32, 1, 1] [1, 1, 1, 1] : tensor<1x32x1x1xf32> into tensor<1x1536x1x1xf32>
    %inserted_slice_1451 = tensor.insert_slice %507 into %inserted_slice_1450[0, 1120, 0, 0] [1, 32, 1, 1] [1, 1, 1, 1] : tensor<1x32x1x1xf32> into tensor<1x1536x1x1xf32>
    %inserted_slice_1452 = tensor.insert_slice %514 into %inserted_slice_1451[0, 1152, 0, 0] [1, 32, 1, 1] [1, 1, 1, 1] : tensor<1x32x1x1xf32> into tensor<1x1536x1x1xf32>
    %inserted_slice_1453 = tensor.insert_slice %521 into %inserted_slice_1452[0, 1184, 0, 0] [1, 32, 1, 1] [1, 1, 1, 1] : tensor<1x32x1x1xf32> into tensor<1x1536x1x1xf32>
    %inserted_slice_1454 = tensor.insert_slice %528 into %inserted_slice_1453[0, 1216, 0, 0] [1, 32, 1, 1] [1, 1, 1, 1] : tensor<1x32x1x1xf32> into tensor<1x1536x1x1xf32>
    %inserted_slice_1455 = tensor.insert_slice %535 into %inserted_slice_1454[0, 1248, 0, 0] [1, 32, 1, 1] [1, 1, 1, 1] : tensor<1x32x1x1xf32> into tensor<1x1536x1x1xf32>
    %inserted_slice_1456 = tensor.insert_slice %542 into %inserted_slice_1455[0, 1280, 0, 0] [1, 32, 1, 1] [1, 1, 1, 1] : tensor<1x32x1x1xf32> into tensor<1x1536x1x1xf32>
    %inserted_slice_1457 = tensor.insert_slice %549 into %inserted_slice_1456[0, 1312, 0, 0] [1, 32, 1, 1] [1, 1, 1, 1] : tensor<1x32x1x1xf32> into tensor<1x1536x1x1xf32>
    %inserted_slice_1458 = tensor.insert_slice %556 into %inserted_slice_1457[0, 1344, 0, 0] [1, 32, 1, 1] [1, 1, 1, 1] : tensor<1x32x1x1xf32> into tensor<1x1536x1x1xf32>
    %inserted_slice_1459 = tensor.insert_slice %563 into %inserted_slice_1458[0, 1376, 0, 0] [1, 32, 1, 1] [1, 1, 1, 1] : tensor<1x32x1x1xf32> into tensor<1x1536x1x1xf32>
    %inserted_slice_1460 = tensor.insert_slice %570 into %inserted_slice_1459[0, 1408, 0, 0] [1, 32, 1, 1] [1, 1, 1, 1] : tensor<1x32x1x1xf32> into tensor<1x1536x1x1xf32>
    %inserted_slice_1461 = tensor.insert_slice %577 into %inserted_slice_1460[0, 1440, 0, 0] [1, 32, 1, 1] [1, 1, 1, 1] : tensor<1x32x1x1xf32> into tensor<1x1536x1x1xf32>
    %inserted_slice_1462 = tensor.insert_slice %584 into %inserted_slice_1461[0, 1472, 0, 0] [1, 32, 1, 1] [1, 1, 1, 1] : tensor<1x32x1x1xf32> into tensor<1x1536x1x1xf32>
    %inserted_slice_1463 = tensor.insert_slice %591 into %inserted_slice_1462[0, 1504, 0, 0] [1, 32, 1, 1] [1, 1, 1, 1] : tensor<1x32x1x1xf32> into tensor<1x1536x1x1xf32>
    cf.assert %3, "training is not supported for now"
    %593 = linalg.generic {indexing_maps = [#map, #map1, #map1, #map1, #map1, #map], iterator_types = ["parallel", "parallel", "parallel", "parallel"]} ins(%inserted_slice_1463, %cst_18, %cst_17, %cst_17, %cst_18 : tensor<1x1536x1x1xf32>, tensor<1536xf32>, tensor<1536xf32>, tensor<1536xf32>, tensor<1536xf32>) outs(%inserted_slice_1463 : tensor<1x1536x1x1xf32>) {
    ^bb0(%in: f32, %in_1594: f32, %in_1595: f32, %in_1596: f32, %in_1597: f32, %out: f32):
      %632 = arith.truncf %cst_273 : f64 to f32
      %633 = arith.addf %in_1597, %632 : f32
      %634 = math.rsqrt %633 : f32
      %635 = arith.subf %in, %in_1596 : f32
      %636 = arith.mulf %635, %634 : f32
      %637 = arith.mulf %636, %in_1594 : f32
      %638 = arith.addf %637, %in_1595 : f32
      linalg.yield %638 : f32
    } -> tensor<1x1536x1x1xf32>
    %594 = linalg.generic {indexing_maps = [#map3, #map], iterator_types = ["parallel", "parallel", "parallel", "parallel"]} ins(%593 : tensor<1x1536x1x1xf32>) outs(%592 : tensor<1x1536x1x1xf32>) {
    ^bb0(%in: f32, %out: f32):
      %632 = arith.cmpf ugt, %in, %cst_271 : f32
      %633 = arith.select %632, %in, %cst_271 : f32
      linalg.yield %633 : f32
    } -> tensor<1x1536x1x1xf32>
    %595 = linalg.conv_2d_nchw_fchw {dilations = dense<1> : vector<2xi64>, strides = dense<1> : vector<2xi64>} ins(%594, %cst_16 : tensor<1x1536x1x1xf32>, tensor<128x1536x1x1xf32>) outs(%396 : tensor<1x128x1x1xf32>) -> tensor<1x128x1x1xf32>
    cf.assert %3, "training is not supported for now"
    %596 = linalg.generic {indexing_maps = [#map, #map1, #map1, #map1, #map1, #map], iterator_types = ["parallel", "parallel", "parallel", "parallel"]} ins(%595, %cst_266, %cst_265, %cst_265, %cst_266 : tensor<1x128x1x1xf32>, tensor<128xf32>, tensor<128xf32>, tensor<128xf32>, tensor<128xf32>) outs(%595 : tensor<1x128x1x1xf32>) {
    ^bb0(%in: f32, %in_1594: f32, %in_1595: f32, %in_1596: f32, %in_1597: f32, %out: f32):
      %632 = arith.truncf %cst_273 : f64 to f32
      %633 = arith.addf %in_1597, %632 : f32
      %634 = math.rsqrt %633 : f32
      %635 = arith.subf %in, %in_1596 : f32
      %636 = arith.mulf %635, %634 : f32
      %637 = arith.mulf %636, %in_1594 : f32
      %638 = arith.addf %637, %in_1595 : f32
      linalg.yield %638 : f32
    } -> tensor<1x128x1x1xf32>
    %597 = linalg.generic {indexing_maps = [#map3, #map], iterator_types = ["parallel", "parallel", "parallel", "parallel"]} ins(%596 : tensor<1x128x1x1xf32>) outs(%395 : tensor<1x128x1x1xf32>) {
    ^bb0(%in: f32, %out: f32):
      %632 = arith.cmpf ugt, %in, %cst_271 : f32
      %633 = arith.select %632, %in, %cst_271 : f32
      linalg.yield %633 : f32
    } -> tensor<1x128x1x1xf32>
    %padded_1464 = tensor.pad %597 low[0, 0, 1, 1] high[0, 0, 1, 1] {
    ^bb0(%arg1: index, %arg2: index, %arg3: index, %arg4: index):
      tensor.yield %cst_271 : f32
    } : tensor<1x128x1x1xf32> to tensor<1x128x3x3xf32>
    %598 = linalg.conv_2d_nchw_fchw {dilations = dense<1> : vector<2xi64>, strides = dense<1> : vector<2xi64>} ins(%padded_1464, %cst_15 : tensor<1x128x3x3xf32>, tensor<32x128x3x3xf32>) outs(%401 : tensor<1x32x1x1xf32>) -> tensor<1x32x1x1xf32>
    %599 = tensor.empty() : tensor<1x1568x1x1xf32>
    %inserted_slice_1465 = tensor.insert_slice %392 into %599[0, 0, 0, 0] [1, 640, 1, 1] [1, 1, 1, 1] : tensor<1x640x1x1xf32> into tensor<1x1568x1x1xf32>
    %inserted_slice_1466 = tensor.insert_slice %402 into %inserted_slice_1465[0, 640, 0, 0] [1, 32, 1, 1] [1, 1, 1, 1] : tensor<1x32x1x1xf32> into tensor<1x1568x1x1xf32>
    %inserted_slice_1467 = tensor.insert_slice %409 into %inserted_slice_1466[0, 672, 0, 0] [1, 32, 1, 1] [1, 1, 1, 1] : tensor<1x32x1x1xf32> into tensor<1x1568x1x1xf32>
    %inserted_slice_1468 = tensor.insert_slice %416 into %inserted_slice_1467[0, 704, 0, 0] [1, 32, 1, 1] [1, 1, 1, 1] : tensor<1x32x1x1xf32> into tensor<1x1568x1x1xf32>
    %inserted_slice_1469 = tensor.insert_slice %423 into %inserted_slice_1468[0, 736, 0, 0] [1, 32, 1, 1] [1, 1, 1, 1] : tensor<1x32x1x1xf32> into tensor<1x1568x1x1xf32>
    %inserted_slice_1470 = tensor.insert_slice %430 into %inserted_slice_1469[0, 768, 0, 0] [1, 32, 1, 1] [1, 1, 1, 1] : tensor<1x32x1x1xf32> into tensor<1x1568x1x1xf32>
    %inserted_slice_1471 = tensor.insert_slice %437 into %inserted_slice_1470[0, 800, 0, 0] [1, 32, 1, 1] [1, 1, 1, 1] : tensor<1x32x1x1xf32> into tensor<1x1568x1x1xf32>
    %inserted_slice_1472 = tensor.insert_slice %444 into %inserted_slice_1471[0, 832, 0, 0] [1, 32, 1, 1] [1, 1, 1, 1] : tensor<1x32x1x1xf32> into tensor<1x1568x1x1xf32>
    %inserted_slice_1473 = tensor.insert_slice %451 into %inserted_slice_1472[0, 864, 0, 0] [1, 32, 1, 1] [1, 1, 1, 1] : tensor<1x32x1x1xf32> into tensor<1x1568x1x1xf32>
    %inserted_slice_1474 = tensor.insert_slice %458 into %inserted_slice_1473[0, 896, 0, 0] [1, 32, 1, 1] [1, 1, 1, 1] : tensor<1x32x1x1xf32> into tensor<1x1568x1x1xf32>
    %inserted_slice_1475 = tensor.insert_slice %465 into %inserted_slice_1474[0, 928, 0, 0] [1, 32, 1, 1] [1, 1, 1, 1] : tensor<1x32x1x1xf32> into tensor<1x1568x1x1xf32>
    %inserted_slice_1476 = tensor.insert_slice %472 into %inserted_slice_1475[0, 960, 0, 0] [1, 32, 1, 1] [1, 1, 1, 1] : tensor<1x32x1x1xf32> into tensor<1x1568x1x1xf32>
    %inserted_slice_1477 = tensor.insert_slice %479 into %inserted_slice_1476[0, 992, 0, 0] [1, 32, 1, 1] [1, 1, 1, 1] : tensor<1x32x1x1xf32> into tensor<1x1568x1x1xf32>
    %inserted_slice_1478 = tensor.insert_slice %486 into %inserted_slice_1477[0, 1024, 0, 0] [1, 32, 1, 1] [1, 1, 1, 1] : tensor<1x32x1x1xf32> into tensor<1x1568x1x1xf32>
    %inserted_slice_1479 = tensor.insert_slice %493 into %inserted_slice_1478[0, 1056, 0, 0] [1, 32, 1, 1] [1, 1, 1, 1] : tensor<1x32x1x1xf32> into tensor<1x1568x1x1xf32>
    %inserted_slice_1480 = tensor.insert_slice %500 into %inserted_slice_1479[0, 1088, 0, 0] [1, 32, 1, 1] [1, 1, 1, 1] : tensor<1x32x1x1xf32> into tensor<1x1568x1x1xf32>
    %inserted_slice_1481 = tensor.insert_slice %507 into %inserted_slice_1480[0, 1120, 0, 0] [1, 32, 1, 1] [1, 1, 1, 1] : tensor<1x32x1x1xf32> into tensor<1x1568x1x1xf32>
    %inserted_slice_1482 = tensor.insert_slice %514 into %inserted_slice_1481[0, 1152, 0, 0] [1, 32, 1, 1] [1, 1, 1, 1] : tensor<1x32x1x1xf32> into tensor<1x1568x1x1xf32>
    %inserted_slice_1483 = tensor.insert_slice %521 into %inserted_slice_1482[0, 1184, 0, 0] [1, 32, 1, 1] [1, 1, 1, 1] : tensor<1x32x1x1xf32> into tensor<1x1568x1x1xf32>
    %inserted_slice_1484 = tensor.insert_slice %528 into %inserted_slice_1483[0, 1216, 0, 0] [1, 32, 1, 1] [1, 1, 1, 1] : tensor<1x32x1x1xf32> into tensor<1x1568x1x1xf32>
    %inserted_slice_1485 = tensor.insert_slice %535 into %inserted_slice_1484[0, 1248, 0, 0] [1, 32, 1, 1] [1, 1, 1, 1] : tensor<1x32x1x1xf32> into tensor<1x1568x1x1xf32>
    %inserted_slice_1486 = tensor.insert_slice %542 into %inserted_slice_1485[0, 1280, 0, 0] [1, 32, 1, 1] [1, 1, 1, 1] : tensor<1x32x1x1xf32> into tensor<1x1568x1x1xf32>
    %inserted_slice_1487 = tensor.insert_slice %549 into %inserted_slice_1486[0, 1312, 0, 0] [1, 32, 1, 1] [1, 1, 1, 1] : tensor<1x32x1x1xf32> into tensor<1x1568x1x1xf32>
    %inserted_slice_1488 = tensor.insert_slice %556 into %inserted_slice_1487[0, 1344, 0, 0] [1, 32, 1, 1] [1, 1, 1, 1] : tensor<1x32x1x1xf32> into tensor<1x1568x1x1xf32>
    %inserted_slice_1489 = tensor.insert_slice %563 into %inserted_slice_1488[0, 1376, 0, 0] [1, 32, 1, 1] [1, 1, 1, 1] : tensor<1x32x1x1xf32> into tensor<1x1568x1x1xf32>
    %inserted_slice_1490 = tensor.insert_slice %570 into %inserted_slice_1489[0, 1408, 0, 0] [1, 32, 1, 1] [1, 1, 1, 1] : tensor<1x32x1x1xf32> into tensor<1x1568x1x1xf32>
    %inserted_slice_1491 = tensor.insert_slice %577 into %inserted_slice_1490[0, 1440, 0, 0] [1, 32, 1, 1] [1, 1, 1, 1] : tensor<1x32x1x1xf32> into tensor<1x1568x1x1xf32>
    %inserted_slice_1492 = tensor.insert_slice %584 into %inserted_slice_1491[0, 1472, 0, 0] [1, 32, 1, 1] [1, 1, 1, 1] : tensor<1x32x1x1xf32> into tensor<1x1568x1x1xf32>
    %inserted_slice_1493 = tensor.insert_slice %591 into %inserted_slice_1492[0, 1504, 0, 0] [1, 32, 1, 1] [1, 1, 1, 1] : tensor<1x32x1x1xf32> into tensor<1x1568x1x1xf32>
    %inserted_slice_1494 = tensor.insert_slice %598 into %inserted_slice_1493[0, 1536, 0, 0] [1, 32, 1, 1] [1, 1, 1, 1] : tensor<1x32x1x1xf32> into tensor<1x1568x1x1xf32>
    cf.assert %3, "training is not supported for now"
    %600 = linalg.generic {indexing_maps = [#map, #map1, #map1, #map1, #map1, #map], iterator_types = ["parallel", "parallel", "parallel", "parallel"]} ins(%inserted_slice_1494, %cst_14, %cst_13, %cst_13, %cst_14 : tensor<1x1568x1x1xf32>, tensor<1568xf32>, tensor<1568xf32>, tensor<1568xf32>, tensor<1568xf32>) outs(%inserted_slice_1494 : tensor<1x1568x1x1xf32>) {
    ^bb0(%in: f32, %in_1594: f32, %in_1595: f32, %in_1596: f32, %in_1597: f32, %out: f32):
      %632 = arith.truncf %cst_273 : f64 to f32
      %633 = arith.addf %in_1597, %632 : f32
      %634 = math.rsqrt %633 : f32
      %635 = arith.subf %in, %in_1596 : f32
      %636 = arith.mulf %635, %634 : f32
      %637 = arith.mulf %636, %in_1594 : f32
      %638 = arith.addf %637, %in_1595 : f32
      linalg.yield %638 : f32
    } -> tensor<1x1568x1x1xf32>
    %601 = linalg.generic {indexing_maps = [#map3, #map], iterator_types = ["parallel", "parallel", "parallel", "parallel"]} ins(%600 : tensor<1x1568x1x1xf32>) outs(%599 : tensor<1x1568x1x1xf32>) {
    ^bb0(%in: f32, %out: f32):
      %632 = arith.cmpf ugt, %in, %cst_271 : f32
      %633 = arith.select %632, %in, %cst_271 : f32
      linalg.yield %633 : f32
    } -> tensor<1x1568x1x1xf32>
    %602 = linalg.conv_2d_nchw_fchw {dilations = dense<1> : vector<2xi64>, strides = dense<1> : vector<2xi64>} ins(%601, %cst_12 : tensor<1x1568x1x1xf32>, tensor<128x1568x1x1xf32>) outs(%396 : tensor<1x128x1x1xf32>) -> tensor<1x128x1x1xf32>
    cf.assert %3, "training is not supported for now"
    %603 = linalg.generic {indexing_maps = [#map, #map1, #map1, #map1, #map1, #map], iterator_types = ["parallel", "parallel", "parallel", "parallel"]} ins(%602, %cst_266, %cst_265, %cst_265, %cst_266 : tensor<1x128x1x1xf32>, tensor<128xf32>, tensor<128xf32>, tensor<128xf32>, tensor<128xf32>) outs(%602 : tensor<1x128x1x1xf32>) {
    ^bb0(%in: f32, %in_1594: f32, %in_1595: f32, %in_1596: f32, %in_1597: f32, %out: f32):
      %632 = arith.truncf %cst_273 : f64 to f32
      %633 = arith.addf %in_1597, %632 : f32
      %634 = math.rsqrt %633 : f32
      %635 = arith.subf %in, %in_1596 : f32
      %636 = arith.mulf %635, %634 : f32
      %637 = arith.mulf %636, %in_1594 : f32
      %638 = arith.addf %637, %in_1595 : f32
      linalg.yield %638 : f32
    } -> tensor<1x128x1x1xf32>
    %604 = linalg.generic {indexing_maps = [#map3, #map], iterator_types = ["parallel", "parallel", "parallel", "parallel"]} ins(%603 : tensor<1x128x1x1xf32>) outs(%395 : tensor<1x128x1x1xf32>) {
    ^bb0(%in: f32, %out: f32):
      %632 = arith.cmpf ugt, %in, %cst_271 : f32
      %633 = arith.select %632, %in, %cst_271 : f32
      linalg.yield %633 : f32
    } -> tensor<1x128x1x1xf32>
    %padded_1495 = tensor.pad %604 low[0, 0, 1, 1] high[0, 0, 1, 1] {
    ^bb0(%arg1: index, %arg2: index, %arg3: index, %arg4: index):
      tensor.yield %cst_271 : f32
    } : tensor<1x128x1x1xf32> to tensor<1x128x3x3xf32>
    %605 = linalg.conv_2d_nchw_fchw {dilations = dense<1> : vector<2xi64>, strides = dense<1> : vector<2xi64>} ins(%padded_1495, %cst_11 : tensor<1x128x3x3xf32>, tensor<32x128x3x3xf32>) outs(%401 : tensor<1x32x1x1xf32>) -> tensor<1x32x1x1xf32>
    %606 = tensor.empty() : tensor<1x1600x1x1xf32>
    %inserted_slice_1496 = tensor.insert_slice %392 into %606[0, 0, 0, 0] [1, 640, 1, 1] [1, 1, 1, 1] : tensor<1x640x1x1xf32> into tensor<1x1600x1x1xf32>
    %inserted_slice_1497 = tensor.insert_slice %402 into %inserted_slice_1496[0, 640, 0, 0] [1, 32, 1, 1] [1, 1, 1, 1] : tensor<1x32x1x1xf32> into tensor<1x1600x1x1xf32>
    %inserted_slice_1498 = tensor.insert_slice %409 into %inserted_slice_1497[0, 672, 0, 0] [1, 32, 1, 1] [1, 1, 1, 1] : tensor<1x32x1x1xf32> into tensor<1x1600x1x1xf32>
    %inserted_slice_1499 = tensor.insert_slice %416 into %inserted_slice_1498[0, 704, 0, 0] [1, 32, 1, 1] [1, 1, 1, 1] : tensor<1x32x1x1xf32> into tensor<1x1600x1x1xf32>
    %inserted_slice_1500 = tensor.insert_slice %423 into %inserted_slice_1499[0, 736, 0, 0] [1, 32, 1, 1] [1, 1, 1, 1] : tensor<1x32x1x1xf32> into tensor<1x1600x1x1xf32>
    %inserted_slice_1501 = tensor.insert_slice %430 into %inserted_slice_1500[0, 768, 0, 0] [1, 32, 1, 1] [1, 1, 1, 1] : tensor<1x32x1x1xf32> into tensor<1x1600x1x1xf32>
    %inserted_slice_1502 = tensor.insert_slice %437 into %inserted_slice_1501[0, 800, 0, 0] [1, 32, 1, 1] [1, 1, 1, 1] : tensor<1x32x1x1xf32> into tensor<1x1600x1x1xf32>
    %inserted_slice_1503 = tensor.insert_slice %444 into %inserted_slice_1502[0, 832, 0, 0] [1, 32, 1, 1] [1, 1, 1, 1] : tensor<1x32x1x1xf32> into tensor<1x1600x1x1xf32>
    %inserted_slice_1504 = tensor.insert_slice %451 into %inserted_slice_1503[0, 864, 0, 0] [1, 32, 1, 1] [1, 1, 1, 1] : tensor<1x32x1x1xf32> into tensor<1x1600x1x1xf32>
    %inserted_slice_1505 = tensor.insert_slice %458 into %inserted_slice_1504[0, 896, 0, 0] [1, 32, 1, 1] [1, 1, 1, 1] : tensor<1x32x1x1xf32> into tensor<1x1600x1x1xf32>
    %inserted_slice_1506 = tensor.insert_slice %465 into %inserted_slice_1505[0, 928, 0, 0] [1, 32, 1, 1] [1, 1, 1, 1] : tensor<1x32x1x1xf32> into tensor<1x1600x1x1xf32>
    %inserted_slice_1507 = tensor.insert_slice %472 into %inserted_slice_1506[0, 960, 0, 0] [1, 32, 1, 1] [1, 1, 1, 1] : tensor<1x32x1x1xf32> into tensor<1x1600x1x1xf32>
    %inserted_slice_1508 = tensor.insert_slice %479 into %inserted_slice_1507[0, 992, 0, 0] [1, 32, 1, 1] [1, 1, 1, 1] : tensor<1x32x1x1xf32> into tensor<1x1600x1x1xf32>
    %inserted_slice_1509 = tensor.insert_slice %486 into %inserted_slice_1508[0, 1024, 0, 0] [1, 32, 1, 1] [1, 1, 1, 1] : tensor<1x32x1x1xf32> into tensor<1x1600x1x1xf32>
    %inserted_slice_1510 = tensor.insert_slice %493 into %inserted_slice_1509[0, 1056, 0, 0] [1, 32, 1, 1] [1, 1, 1, 1] : tensor<1x32x1x1xf32> into tensor<1x1600x1x1xf32>
    %inserted_slice_1511 = tensor.insert_slice %500 into %inserted_slice_1510[0, 1088, 0, 0] [1, 32, 1, 1] [1, 1, 1, 1] : tensor<1x32x1x1xf32> into tensor<1x1600x1x1xf32>
    %inserted_slice_1512 = tensor.insert_slice %507 into %inserted_slice_1511[0, 1120, 0, 0] [1, 32, 1, 1] [1, 1, 1, 1] : tensor<1x32x1x1xf32> into tensor<1x1600x1x1xf32>
    %inserted_slice_1513 = tensor.insert_slice %514 into %inserted_slice_1512[0, 1152, 0, 0] [1, 32, 1, 1] [1, 1, 1, 1] : tensor<1x32x1x1xf32> into tensor<1x1600x1x1xf32>
    %inserted_slice_1514 = tensor.insert_slice %521 into %inserted_slice_1513[0, 1184, 0, 0] [1, 32, 1, 1] [1, 1, 1, 1] : tensor<1x32x1x1xf32> into tensor<1x1600x1x1xf32>
    %inserted_slice_1515 = tensor.insert_slice %528 into %inserted_slice_1514[0, 1216, 0, 0] [1, 32, 1, 1] [1, 1, 1, 1] : tensor<1x32x1x1xf32> into tensor<1x1600x1x1xf32>
    %inserted_slice_1516 = tensor.insert_slice %535 into %inserted_slice_1515[0, 1248, 0, 0] [1, 32, 1, 1] [1, 1, 1, 1] : tensor<1x32x1x1xf32> into tensor<1x1600x1x1xf32>
    %inserted_slice_1517 = tensor.insert_slice %542 into %inserted_slice_1516[0, 1280, 0, 0] [1, 32, 1, 1] [1, 1, 1, 1] : tensor<1x32x1x1xf32> into tensor<1x1600x1x1xf32>
    %inserted_slice_1518 = tensor.insert_slice %549 into %inserted_slice_1517[0, 1312, 0, 0] [1, 32, 1, 1] [1, 1, 1, 1] : tensor<1x32x1x1xf32> into tensor<1x1600x1x1xf32>
    %inserted_slice_1519 = tensor.insert_slice %556 into %inserted_slice_1518[0, 1344, 0, 0] [1, 32, 1, 1] [1, 1, 1, 1] : tensor<1x32x1x1xf32> into tensor<1x1600x1x1xf32>
    %inserted_slice_1520 = tensor.insert_slice %563 into %inserted_slice_1519[0, 1376, 0, 0] [1, 32, 1, 1] [1, 1, 1, 1] : tensor<1x32x1x1xf32> into tensor<1x1600x1x1xf32>
    %inserted_slice_1521 = tensor.insert_slice %570 into %inserted_slice_1520[0, 1408, 0, 0] [1, 32, 1, 1] [1, 1, 1, 1] : tensor<1x32x1x1xf32> into tensor<1x1600x1x1xf32>
    %inserted_slice_1522 = tensor.insert_slice %577 into %inserted_slice_1521[0, 1440, 0, 0] [1, 32, 1, 1] [1, 1, 1, 1] : tensor<1x32x1x1xf32> into tensor<1x1600x1x1xf32>
    %inserted_slice_1523 = tensor.insert_slice %584 into %inserted_slice_1522[0, 1472, 0, 0] [1, 32, 1, 1] [1, 1, 1, 1] : tensor<1x32x1x1xf32> into tensor<1x1600x1x1xf32>
    %inserted_slice_1524 = tensor.insert_slice %591 into %inserted_slice_1523[0, 1504, 0, 0] [1, 32, 1, 1] [1, 1, 1, 1] : tensor<1x32x1x1xf32> into tensor<1x1600x1x1xf32>
    %inserted_slice_1525 = tensor.insert_slice %598 into %inserted_slice_1524[0, 1536, 0, 0] [1, 32, 1, 1] [1, 1, 1, 1] : tensor<1x32x1x1xf32> into tensor<1x1600x1x1xf32>
    %inserted_slice_1526 = tensor.insert_slice %605 into %inserted_slice_1525[0, 1568, 0, 0] [1, 32, 1, 1] [1, 1, 1, 1] : tensor<1x32x1x1xf32> into tensor<1x1600x1x1xf32>
    cf.assert %3, "training is not supported for now"
    %607 = linalg.generic {indexing_maps = [#map, #map1, #map1, #map1, #map1, #map], iterator_types = ["parallel", "parallel", "parallel", "parallel"]} ins(%inserted_slice_1526, %cst_10, %cst_9, %cst_9, %cst_10 : tensor<1x1600x1x1xf32>, tensor<1600xf32>, tensor<1600xf32>, tensor<1600xf32>, tensor<1600xf32>) outs(%inserted_slice_1526 : tensor<1x1600x1x1xf32>) {
    ^bb0(%in: f32, %in_1594: f32, %in_1595: f32, %in_1596: f32, %in_1597: f32, %out: f32):
      %632 = arith.truncf %cst_273 : f64 to f32
      %633 = arith.addf %in_1597, %632 : f32
      %634 = math.rsqrt %633 : f32
      %635 = arith.subf %in, %in_1596 : f32
      %636 = arith.mulf %635, %634 : f32
      %637 = arith.mulf %636, %in_1594 : f32
      %638 = arith.addf %637, %in_1595 : f32
      linalg.yield %638 : f32
    } -> tensor<1x1600x1x1xf32>
    %608 = linalg.generic {indexing_maps = [#map3, #map], iterator_types = ["parallel", "parallel", "parallel", "parallel"]} ins(%607 : tensor<1x1600x1x1xf32>) outs(%606 : tensor<1x1600x1x1xf32>) {
    ^bb0(%in: f32, %out: f32):
      %632 = arith.cmpf ugt, %in, %cst_271 : f32
      %633 = arith.select %632, %in, %cst_271 : f32
      linalg.yield %633 : f32
    } -> tensor<1x1600x1x1xf32>
    %609 = linalg.conv_2d_nchw_fchw {dilations = dense<1> : vector<2xi64>, strides = dense<1> : vector<2xi64>} ins(%608, %cst_8 : tensor<1x1600x1x1xf32>, tensor<128x1600x1x1xf32>) outs(%396 : tensor<1x128x1x1xf32>) -> tensor<1x128x1x1xf32>
    cf.assert %3, "training is not supported for now"
    %610 = linalg.generic {indexing_maps = [#map, #map1, #map1, #map1, #map1, #map], iterator_types = ["parallel", "parallel", "parallel", "parallel"]} ins(%609, %cst_266, %cst_265, %cst_265, %cst_266 : tensor<1x128x1x1xf32>, tensor<128xf32>, tensor<128xf32>, tensor<128xf32>, tensor<128xf32>) outs(%609 : tensor<1x128x1x1xf32>) {
    ^bb0(%in: f32, %in_1594: f32, %in_1595: f32, %in_1596: f32, %in_1597: f32, %out: f32):
      %632 = arith.truncf %cst_273 : f64 to f32
      %633 = arith.addf %in_1597, %632 : f32
      %634 = math.rsqrt %633 : f32
      %635 = arith.subf %in, %in_1596 : f32
      %636 = arith.mulf %635, %634 : f32
      %637 = arith.mulf %636, %in_1594 : f32
      %638 = arith.addf %637, %in_1595 : f32
      linalg.yield %638 : f32
    } -> tensor<1x128x1x1xf32>
    %611 = linalg.generic {indexing_maps = [#map3, #map], iterator_types = ["parallel", "parallel", "parallel", "parallel"]} ins(%610 : tensor<1x128x1x1xf32>) outs(%395 : tensor<1x128x1x1xf32>) {
    ^bb0(%in: f32, %out: f32):
      %632 = arith.cmpf ugt, %in, %cst_271 : f32
      %633 = arith.select %632, %in, %cst_271 : f32
      linalg.yield %633 : f32
    } -> tensor<1x128x1x1xf32>
    %padded_1527 = tensor.pad %611 low[0, 0, 1, 1] high[0, 0, 1, 1] {
    ^bb0(%arg1: index, %arg2: index, %arg3: index, %arg4: index):
      tensor.yield %cst_271 : f32
    } : tensor<1x128x1x1xf32> to tensor<1x128x3x3xf32>
    %612 = linalg.conv_2d_nchw_fchw {dilations = dense<1> : vector<2xi64>, strides = dense<1> : vector<2xi64>} ins(%padded_1527, %cst_7 : tensor<1x128x3x3xf32>, tensor<32x128x3x3xf32>) outs(%401 : tensor<1x32x1x1xf32>) -> tensor<1x32x1x1xf32>
    %613 = tensor.empty() : tensor<1x1632x1x1xf32>
    %inserted_slice_1528 = tensor.insert_slice %392 into %613[0, 0, 0, 0] [1, 640, 1, 1] [1, 1, 1, 1] : tensor<1x640x1x1xf32> into tensor<1x1632x1x1xf32>
    %inserted_slice_1529 = tensor.insert_slice %402 into %inserted_slice_1528[0, 640, 0, 0] [1, 32, 1, 1] [1, 1, 1, 1] : tensor<1x32x1x1xf32> into tensor<1x1632x1x1xf32>
    %inserted_slice_1530 = tensor.insert_slice %409 into %inserted_slice_1529[0, 672, 0, 0] [1, 32, 1, 1] [1, 1, 1, 1] : tensor<1x32x1x1xf32> into tensor<1x1632x1x1xf32>
    %inserted_slice_1531 = tensor.insert_slice %416 into %inserted_slice_1530[0, 704, 0, 0] [1, 32, 1, 1] [1, 1, 1, 1] : tensor<1x32x1x1xf32> into tensor<1x1632x1x1xf32>
    %inserted_slice_1532 = tensor.insert_slice %423 into %inserted_slice_1531[0, 736, 0, 0] [1, 32, 1, 1] [1, 1, 1, 1] : tensor<1x32x1x1xf32> into tensor<1x1632x1x1xf32>
    %inserted_slice_1533 = tensor.insert_slice %430 into %inserted_slice_1532[0, 768, 0, 0] [1, 32, 1, 1] [1, 1, 1, 1] : tensor<1x32x1x1xf32> into tensor<1x1632x1x1xf32>
    %inserted_slice_1534 = tensor.insert_slice %437 into %inserted_slice_1533[0, 800, 0, 0] [1, 32, 1, 1] [1, 1, 1, 1] : tensor<1x32x1x1xf32> into tensor<1x1632x1x1xf32>
    %inserted_slice_1535 = tensor.insert_slice %444 into %inserted_slice_1534[0, 832, 0, 0] [1, 32, 1, 1] [1, 1, 1, 1] : tensor<1x32x1x1xf32> into tensor<1x1632x1x1xf32>
    %inserted_slice_1536 = tensor.insert_slice %451 into %inserted_slice_1535[0, 864, 0, 0] [1, 32, 1, 1] [1, 1, 1, 1] : tensor<1x32x1x1xf32> into tensor<1x1632x1x1xf32>
    %inserted_slice_1537 = tensor.insert_slice %458 into %inserted_slice_1536[0, 896, 0, 0] [1, 32, 1, 1] [1, 1, 1, 1] : tensor<1x32x1x1xf32> into tensor<1x1632x1x1xf32>
    %inserted_slice_1538 = tensor.insert_slice %465 into %inserted_slice_1537[0, 928, 0, 0] [1, 32, 1, 1] [1, 1, 1, 1] : tensor<1x32x1x1xf32> into tensor<1x1632x1x1xf32>
    %inserted_slice_1539 = tensor.insert_slice %472 into %inserted_slice_1538[0, 960, 0, 0] [1, 32, 1, 1] [1, 1, 1, 1] : tensor<1x32x1x1xf32> into tensor<1x1632x1x1xf32>
    %inserted_slice_1540 = tensor.insert_slice %479 into %inserted_slice_1539[0, 992, 0, 0] [1, 32, 1, 1] [1, 1, 1, 1] : tensor<1x32x1x1xf32> into tensor<1x1632x1x1xf32>
    %inserted_slice_1541 = tensor.insert_slice %486 into %inserted_slice_1540[0, 1024, 0, 0] [1, 32, 1, 1] [1, 1, 1, 1] : tensor<1x32x1x1xf32> into tensor<1x1632x1x1xf32>
    %inserted_slice_1542 = tensor.insert_slice %493 into %inserted_slice_1541[0, 1056, 0, 0] [1, 32, 1, 1] [1, 1, 1, 1] : tensor<1x32x1x1xf32> into tensor<1x1632x1x1xf32>
    %inserted_slice_1543 = tensor.insert_slice %500 into %inserted_slice_1542[0, 1088, 0, 0] [1, 32, 1, 1] [1, 1, 1, 1] : tensor<1x32x1x1xf32> into tensor<1x1632x1x1xf32>
    %inserted_slice_1544 = tensor.insert_slice %507 into %inserted_slice_1543[0, 1120, 0, 0] [1, 32, 1, 1] [1, 1, 1, 1] : tensor<1x32x1x1xf32> into tensor<1x1632x1x1xf32>
    %inserted_slice_1545 = tensor.insert_slice %514 into %inserted_slice_1544[0, 1152, 0, 0] [1, 32, 1, 1] [1, 1, 1, 1] : tensor<1x32x1x1xf32> into tensor<1x1632x1x1xf32>
    %inserted_slice_1546 = tensor.insert_slice %521 into %inserted_slice_1545[0, 1184, 0, 0] [1, 32, 1, 1] [1, 1, 1, 1] : tensor<1x32x1x1xf32> into tensor<1x1632x1x1xf32>
    %inserted_slice_1547 = tensor.insert_slice %528 into %inserted_slice_1546[0, 1216, 0, 0] [1, 32, 1, 1] [1, 1, 1, 1] : tensor<1x32x1x1xf32> into tensor<1x1632x1x1xf32>
    %inserted_slice_1548 = tensor.insert_slice %535 into %inserted_slice_1547[0, 1248, 0, 0] [1, 32, 1, 1] [1, 1, 1, 1] : tensor<1x32x1x1xf32> into tensor<1x1632x1x1xf32>
    %inserted_slice_1549 = tensor.insert_slice %542 into %inserted_slice_1548[0, 1280, 0, 0] [1, 32, 1, 1] [1, 1, 1, 1] : tensor<1x32x1x1xf32> into tensor<1x1632x1x1xf32>
    %inserted_slice_1550 = tensor.insert_slice %549 into %inserted_slice_1549[0, 1312, 0, 0] [1, 32, 1, 1] [1, 1, 1, 1] : tensor<1x32x1x1xf32> into tensor<1x1632x1x1xf32>
    %inserted_slice_1551 = tensor.insert_slice %556 into %inserted_slice_1550[0, 1344, 0, 0] [1, 32, 1, 1] [1, 1, 1, 1] : tensor<1x32x1x1xf32> into tensor<1x1632x1x1xf32>
    %inserted_slice_1552 = tensor.insert_slice %563 into %inserted_slice_1551[0, 1376, 0, 0] [1, 32, 1, 1] [1, 1, 1, 1] : tensor<1x32x1x1xf32> into tensor<1x1632x1x1xf32>
    %inserted_slice_1553 = tensor.insert_slice %570 into %inserted_slice_1552[0, 1408, 0, 0] [1, 32, 1, 1] [1, 1, 1, 1] : tensor<1x32x1x1xf32> into tensor<1x1632x1x1xf32>
    %inserted_slice_1554 = tensor.insert_slice %577 into %inserted_slice_1553[0, 1440, 0, 0] [1, 32, 1, 1] [1, 1, 1, 1] : tensor<1x32x1x1xf32> into tensor<1x1632x1x1xf32>
    %inserted_slice_1555 = tensor.insert_slice %584 into %inserted_slice_1554[0, 1472, 0, 0] [1, 32, 1, 1] [1, 1, 1, 1] : tensor<1x32x1x1xf32> into tensor<1x1632x1x1xf32>
    %inserted_slice_1556 = tensor.insert_slice %591 into %inserted_slice_1555[0, 1504, 0, 0] [1, 32, 1, 1] [1, 1, 1, 1] : tensor<1x32x1x1xf32> into tensor<1x1632x1x1xf32>
    %inserted_slice_1557 = tensor.insert_slice %598 into %inserted_slice_1556[0, 1536, 0, 0] [1, 32, 1, 1] [1, 1, 1, 1] : tensor<1x32x1x1xf32> into tensor<1x1632x1x1xf32>
    %inserted_slice_1558 = tensor.insert_slice %605 into %inserted_slice_1557[0, 1568, 0, 0] [1, 32, 1, 1] [1, 1, 1, 1] : tensor<1x32x1x1xf32> into tensor<1x1632x1x1xf32>
    %inserted_slice_1559 = tensor.insert_slice %612 into %inserted_slice_1558[0, 1600, 0, 0] [1, 32, 1, 1] [1, 1, 1, 1] : tensor<1x32x1x1xf32> into tensor<1x1632x1x1xf32>
    cf.assert %3, "training is not supported for now"
    %614 = linalg.generic {indexing_maps = [#map, #map1, #map1, #map1, #map1, #map], iterator_types = ["parallel", "parallel", "parallel", "parallel"]} ins(%inserted_slice_1559, %cst_6, %cst_5, %cst_5, %cst_6 : tensor<1x1632x1x1xf32>, tensor<1632xf32>, tensor<1632xf32>, tensor<1632xf32>, tensor<1632xf32>) outs(%inserted_slice_1559 : tensor<1x1632x1x1xf32>) {
    ^bb0(%in: f32, %in_1594: f32, %in_1595: f32, %in_1596: f32, %in_1597: f32, %out: f32):
      %632 = arith.truncf %cst_273 : f64 to f32
      %633 = arith.addf %in_1597, %632 : f32
      %634 = math.rsqrt %633 : f32
      %635 = arith.subf %in, %in_1596 : f32
      %636 = arith.mulf %635, %634 : f32
      %637 = arith.mulf %636, %in_1594 : f32
      %638 = arith.addf %637, %in_1595 : f32
      linalg.yield %638 : f32
    } -> tensor<1x1632x1x1xf32>
    %615 = linalg.generic {indexing_maps = [#map3, #map], iterator_types = ["parallel", "parallel", "parallel", "parallel"]} ins(%614 : tensor<1x1632x1x1xf32>) outs(%613 : tensor<1x1632x1x1xf32>) {
    ^bb0(%in: f32, %out: f32):
      %632 = arith.cmpf ugt, %in, %cst_271 : f32
      %633 = arith.select %632, %in, %cst_271 : f32
      linalg.yield %633 : f32
    } -> tensor<1x1632x1x1xf32>
    %616 = linalg.conv_2d_nchw_fchw {dilations = dense<1> : vector<2xi64>, strides = dense<1> : vector<2xi64>} ins(%615, %cst_4 : tensor<1x1632x1x1xf32>, tensor<128x1632x1x1xf32>) outs(%396 : tensor<1x128x1x1xf32>) -> tensor<1x128x1x1xf32>
    cf.assert %3, "training is not supported for now"
    %617 = linalg.generic {indexing_maps = [#map, #map1, #map1, #map1, #map1, #map], iterator_types = ["parallel", "parallel", "parallel", "parallel"]} ins(%616, %cst_266, %cst_265, %cst_265, %cst_266 : tensor<1x128x1x1xf32>, tensor<128xf32>, tensor<128xf32>, tensor<128xf32>, tensor<128xf32>) outs(%616 : tensor<1x128x1x1xf32>) {
    ^bb0(%in: f32, %in_1594: f32, %in_1595: f32, %in_1596: f32, %in_1597: f32, %out: f32):
      %632 = arith.truncf %cst_273 : f64 to f32
      %633 = arith.addf %in_1597, %632 : f32
      %634 = math.rsqrt %633 : f32
      %635 = arith.subf %in, %in_1596 : f32
      %636 = arith.mulf %635, %634 : f32
      %637 = arith.mulf %636, %in_1594 : f32
      %638 = arith.addf %637, %in_1595 : f32
      linalg.yield %638 : f32
    } -> tensor<1x128x1x1xf32>
    %618 = linalg.generic {indexing_maps = [#map3, #map], iterator_types = ["parallel", "parallel", "parallel", "parallel"]} ins(%617 : tensor<1x128x1x1xf32>) outs(%395 : tensor<1x128x1x1xf32>) {
    ^bb0(%in: f32, %out: f32):
      %632 = arith.cmpf ugt, %in, %cst_271 : f32
      %633 = arith.select %632, %in, %cst_271 : f32
      linalg.yield %633 : f32
    } -> tensor<1x128x1x1xf32>
    %padded_1560 = tensor.pad %618 low[0, 0, 1, 1] high[0, 0, 1, 1] {
    ^bb0(%arg1: index, %arg2: index, %arg3: index, %arg4: index):
      tensor.yield %cst_271 : f32
    } : tensor<1x128x1x1xf32> to tensor<1x128x3x3xf32>
    %619 = linalg.conv_2d_nchw_fchw {dilations = dense<1> : vector<2xi64>, strides = dense<1> : vector<2xi64>} ins(%padded_1560, %cst_3 : tensor<1x128x3x3xf32>, tensor<32x128x3x3xf32>) outs(%401 : tensor<1x32x1x1xf32>) -> tensor<1x32x1x1xf32>
    %620 = tensor.empty() : tensor<1x1664x1x1xf32>
    %inserted_slice_1561 = tensor.insert_slice %392 into %620[0, 0, 0, 0] [1, 640, 1, 1] [1, 1, 1, 1] : tensor<1x640x1x1xf32> into tensor<1x1664x1x1xf32>
    %inserted_slice_1562 = tensor.insert_slice %402 into %inserted_slice_1561[0, 640, 0, 0] [1, 32, 1, 1] [1, 1, 1, 1] : tensor<1x32x1x1xf32> into tensor<1x1664x1x1xf32>
    %inserted_slice_1563 = tensor.insert_slice %409 into %inserted_slice_1562[0, 672, 0, 0] [1, 32, 1, 1] [1, 1, 1, 1] : tensor<1x32x1x1xf32> into tensor<1x1664x1x1xf32>
    %inserted_slice_1564 = tensor.insert_slice %416 into %inserted_slice_1563[0, 704, 0, 0] [1, 32, 1, 1] [1, 1, 1, 1] : tensor<1x32x1x1xf32> into tensor<1x1664x1x1xf32>
    %inserted_slice_1565 = tensor.insert_slice %423 into %inserted_slice_1564[0, 736, 0, 0] [1, 32, 1, 1] [1, 1, 1, 1] : tensor<1x32x1x1xf32> into tensor<1x1664x1x1xf32>
    %inserted_slice_1566 = tensor.insert_slice %430 into %inserted_slice_1565[0, 768, 0, 0] [1, 32, 1, 1] [1, 1, 1, 1] : tensor<1x32x1x1xf32> into tensor<1x1664x1x1xf32>
    %inserted_slice_1567 = tensor.insert_slice %437 into %inserted_slice_1566[0, 800, 0, 0] [1, 32, 1, 1] [1, 1, 1, 1] : tensor<1x32x1x1xf32> into tensor<1x1664x1x1xf32>
    %inserted_slice_1568 = tensor.insert_slice %444 into %inserted_slice_1567[0, 832, 0, 0] [1, 32, 1, 1] [1, 1, 1, 1] : tensor<1x32x1x1xf32> into tensor<1x1664x1x1xf32>
    %inserted_slice_1569 = tensor.insert_slice %451 into %inserted_slice_1568[0, 864, 0, 0] [1, 32, 1, 1] [1, 1, 1, 1] : tensor<1x32x1x1xf32> into tensor<1x1664x1x1xf32>
    %inserted_slice_1570 = tensor.insert_slice %458 into %inserted_slice_1569[0, 896, 0, 0] [1, 32, 1, 1] [1, 1, 1, 1] : tensor<1x32x1x1xf32> into tensor<1x1664x1x1xf32>
    %inserted_slice_1571 = tensor.insert_slice %465 into %inserted_slice_1570[0, 928, 0, 0] [1, 32, 1, 1] [1, 1, 1, 1] : tensor<1x32x1x1xf32> into tensor<1x1664x1x1xf32>
    %inserted_slice_1572 = tensor.insert_slice %472 into %inserted_slice_1571[0, 960, 0, 0] [1, 32, 1, 1] [1, 1, 1, 1] : tensor<1x32x1x1xf32> into tensor<1x1664x1x1xf32>
    %inserted_slice_1573 = tensor.insert_slice %479 into %inserted_slice_1572[0, 992, 0, 0] [1, 32, 1, 1] [1, 1, 1, 1] : tensor<1x32x1x1xf32> into tensor<1x1664x1x1xf32>
    %inserted_slice_1574 = tensor.insert_slice %486 into %inserted_slice_1573[0, 1024, 0, 0] [1, 32, 1, 1] [1, 1, 1, 1] : tensor<1x32x1x1xf32> into tensor<1x1664x1x1xf32>
    %inserted_slice_1575 = tensor.insert_slice %493 into %inserted_slice_1574[0, 1056, 0, 0] [1, 32, 1, 1] [1, 1, 1, 1] : tensor<1x32x1x1xf32> into tensor<1x1664x1x1xf32>
    %inserted_slice_1576 = tensor.insert_slice %500 into %inserted_slice_1575[0, 1088, 0, 0] [1, 32, 1, 1] [1, 1, 1, 1] : tensor<1x32x1x1xf32> into tensor<1x1664x1x1xf32>
    %inserted_slice_1577 = tensor.insert_slice %507 into %inserted_slice_1576[0, 1120, 0, 0] [1, 32, 1, 1] [1, 1, 1, 1] : tensor<1x32x1x1xf32> into tensor<1x1664x1x1xf32>
    %inserted_slice_1578 = tensor.insert_slice %514 into %inserted_slice_1577[0, 1152, 0, 0] [1, 32, 1, 1] [1, 1, 1, 1] : tensor<1x32x1x1xf32> into tensor<1x1664x1x1xf32>
    %inserted_slice_1579 = tensor.insert_slice %521 into %inserted_slice_1578[0, 1184, 0, 0] [1, 32, 1, 1] [1, 1, 1, 1] : tensor<1x32x1x1xf32> into tensor<1x1664x1x1xf32>
    %inserted_slice_1580 = tensor.insert_slice %528 into %inserted_slice_1579[0, 1216, 0, 0] [1, 32, 1, 1] [1, 1, 1, 1] : tensor<1x32x1x1xf32> into tensor<1x1664x1x1xf32>
    %inserted_slice_1581 = tensor.insert_slice %535 into %inserted_slice_1580[0, 1248, 0, 0] [1, 32, 1, 1] [1, 1, 1, 1] : tensor<1x32x1x1xf32> into tensor<1x1664x1x1xf32>
    %inserted_slice_1582 = tensor.insert_slice %542 into %inserted_slice_1581[0, 1280, 0, 0] [1, 32, 1, 1] [1, 1, 1, 1] : tensor<1x32x1x1xf32> into tensor<1x1664x1x1xf32>
    %inserted_slice_1583 = tensor.insert_slice %549 into %inserted_slice_1582[0, 1312, 0, 0] [1, 32, 1, 1] [1, 1, 1, 1] : tensor<1x32x1x1xf32> into tensor<1x1664x1x1xf32>
    %inserted_slice_1584 = tensor.insert_slice %556 into %inserted_slice_1583[0, 1344, 0, 0] [1, 32, 1, 1] [1, 1, 1, 1] : tensor<1x32x1x1xf32> into tensor<1x1664x1x1xf32>
    %inserted_slice_1585 = tensor.insert_slice %563 into %inserted_slice_1584[0, 1376, 0, 0] [1, 32, 1, 1] [1, 1, 1, 1] : tensor<1x32x1x1xf32> into tensor<1x1664x1x1xf32>
    %inserted_slice_1586 = tensor.insert_slice %570 into %inserted_slice_1585[0, 1408, 0, 0] [1, 32, 1, 1] [1, 1, 1, 1] : tensor<1x32x1x1xf32> into tensor<1x1664x1x1xf32>
    %inserted_slice_1587 = tensor.insert_slice %577 into %inserted_slice_1586[0, 1440, 0, 0] [1, 32, 1, 1] [1, 1, 1, 1] : tensor<1x32x1x1xf32> into tensor<1x1664x1x1xf32>
    %inserted_slice_1588 = tensor.insert_slice %584 into %inserted_slice_1587[0, 1472, 0, 0] [1, 32, 1, 1] [1, 1, 1, 1] : tensor<1x32x1x1xf32> into tensor<1x1664x1x1xf32>
    %inserted_slice_1589 = tensor.insert_slice %591 into %inserted_slice_1588[0, 1504, 0, 0] [1, 32, 1, 1] [1, 1, 1, 1] : tensor<1x32x1x1xf32> into tensor<1x1664x1x1xf32>
    %inserted_slice_1590 = tensor.insert_slice %598 into %inserted_slice_1589[0, 1536, 0, 0] [1, 32, 1, 1] [1, 1, 1, 1] : tensor<1x32x1x1xf32> into tensor<1x1664x1x1xf32>
    %inserted_slice_1591 = tensor.insert_slice %605 into %inserted_slice_1590[0, 1568, 0, 0] [1, 32, 1, 1] [1, 1, 1, 1] : tensor<1x32x1x1xf32> into tensor<1x1664x1x1xf32>
    %inserted_slice_1592 = tensor.insert_slice %612 into %inserted_slice_1591[0, 1600, 0, 0] [1, 32, 1, 1] [1, 1, 1, 1] : tensor<1x32x1x1xf32> into tensor<1x1664x1x1xf32>
    %inserted_slice_1593 = tensor.insert_slice %619 into %inserted_slice_1592[0, 1632, 0, 0] [1, 32, 1, 1] [1, 1, 1, 1] : tensor<1x32x1x1xf32> into tensor<1x1664x1x1xf32>
    cf.assert %3, "training is not supported for now"
    %621 = linalg.generic {indexing_maps = [#map, #map1, #map1, #map1, #map1, #map], iterator_types = ["parallel", "parallel", "parallel", "parallel"]} ins(%inserted_slice_1593, %cst_2, %cst_1, %cst_1, %cst_2 : tensor<1x1664x1x1xf32>, tensor<1664xf32>, tensor<1664xf32>, tensor<1664xf32>, tensor<1664xf32>) outs(%inserted_slice_1593 : tensor<1x1664x1x1xf32>) {
    ^bb0(%in: f32, %in_1594: f32, %in_1595: f32, %in_1596: f32, %in_1597: f32, %out: f32):
      %632 = arith.truncf %cst_273 : f64 to f32
      %633 = arith.addf %in_1597, %632 : f32
      %634 = math.rsqrt %633 : f32
      %635 = arith.subf %in, %in_1596 : f32
      %636 = arith.mulf %635, %634 : f32
      %637 = arith.mulf %636, %in_1594 : f32
      %638 = arith.addf %637, %in_1595 : f32
      linalg.yield %638 : f32
    } -> tensor<1x1664x1x1xf32>
    %622 = linalg.generic {indexing_maps = [#map3, #map], iterator_types = ["parallel", "parallel", "parallel", "parallel"]} ins(%621 : tensor<1x1664x1x1xf32>) outs(%620 : tensor<1x1664x1x1xf32>) {
    ^bb0(%in: f32, %out: f32):
      %632 = arith.cmpf ugt, %in, %cst_271 : f32
      %633 = arith.select %632, %in, %cst_271 : f32
      linalg.yield %633 : f32
    } -> tensor<1x1664x1x1xf32>
    %623 = linalg.fill ins(%cst_271 : f32) outs(%620 : tensor<1x1664x1x1xf32>) -> tensor<1x1664x1x1xf32>
    %624 = tensor.empty() : tensor<1x1xf32>
    %625 = linalg.pooling_nchw_sum {dilations = dense<1> : vector<2xi64>, strides = dense<1> : vector<2xi64>} ins(%622, %624 : tensor<1x1664x1x1xf32>, tensor<1x1xf32>) outs(%623 : tensor<1x1664x1x1xf32>) -> tensor<1x1664x1x1xf32>
    %collapsed = tensor.collapse_shape %625 [[0], [1, 2, 3]] : tensor<1x1664x1x1xf32> into tensor<1x1664xf32>
    %626 = tensor.empty() : tensor<1664x1000xf32>
    %627 = linalg.generic {indexing_maps = [#map4, #map5], iterator_types = ["parallel", "parallel"]} ins(%cst : tensor<1000x1664xf32>) outs(%626 : tensor<1664x1000xf32>) {
    ^bb0(%in: f32, %out: f32):
      linalg.yield %in : f32
    } -> tensor<1664x1000xf32>
    %628 = tensor.empty() : tensor<1x1000xf32>
    %629 = linalg.fill ins(%cst_271 : f32) outs(%628 : tensor<1x1000xf32>) -> tensor<1x1000xf32>
    %630 = linalg.matmul ins(%collapsed, %627 : tensor<1x1664xf32>, tensor<1664x1000xf32>) outs(%629 : tensor<1x1000xf32>) -> tensor<1x1000xf32>
    %631 = linalg.generic {indexing_maps = [#map6, #map7, #map4], iterator_types = ["parallel", "parallel"]} ins(%630, %cst_0 : tensor<1x1000xf32>, tensor<1000xf32>) outs(%628 : tensor<1x1000xf32>) {
    ^bb0(%in: f32, %in_1594: f32, %out: f32):
      %632 = arith.addf %in, %in_1594 : f32
      linalg.yield %632 : f32
    } -> tensor<1x1000xf32>
    return %631 : tensor<1x1000xf32>
  }
}
