#map = affine_map<(d0, d1, d2, d3) -> (d0, d1, d2, d3)>
#map1 = affine_map<(d0, d1, d2, d3) -> (d1)>
#map2 = affine_map<(d0, d1, d2, d3) -> (0, d1, d2, d3)>
#map3 = affine_map<(d0, d1, d2, d3) -> (0, d1, 0, 0)>
#map4 = affine_map<(d0, d1) -> (d0, d1)>
#map5 = affine_map<(d0, d1) -> (d1, d0)>
#map6 = affine_map<(d0, d1) -> (0, d1)>
#map7 = affine_map<(d0, d1) -> (d1)>
module attributes {torch.debug_module_name = "EfficientNet"} {
    func.func @forward(%arg0: tensor<1x3x32x32xf32>) -> tensor<1x1000xf32> {
    %false = arith.constant false
    %cst = arith.constant dense<-0.015911e+00> : tensor<1000x1280xf32>
    %cst_0 = arith.constant dense<0.000000e+00> : tensor<1000xf32>
    %cst_1 = arith.constant dense<0.000000e+00> : tensor<1280xf32>
    %cst_2 = arith.constant dense<1.000000e+00> : tensor<1280xf32>
    %cst_3 = arith.constant dense<0.003148e+00> : tensor<1280x640x1x1xf32>
    %cst_4 = arith.constant dense<-0.005047e+00> : tensor<640x3840x1x1xf32>
    %cst_5 = arith.constant dense<0.008276e+00> : tensor<3840x160x1x1xf32>
    %cst_6 = arith.constant dense<0.001953e+00> : tensor<160x3840x1x1xf32>
    %cst_7 = arith.constant dense<-0.002075e+00> : tensor<3840x1x3x3xf32>
    %cst_8 = arith.constant dense<0.010440e+00> : tensor<3840x640x1x1xf32>
    %cst_9 = arith.constant dense<0.002916e+00> : tensor<640x3840x1x1xf32>
    %cst_10 = arith.constant dense<-0.008248e+00> : tensor<3840x160x1x1xf32>
    %cst_11 = arith.constant dense<0.001310e+00> : tensor<160x3840x1x1xf32>
    %cst_12 = arith.constant dense<-0.014245e+00> : tensor<3840x1x3x3xf32>
    %cst_13 = arith.constant dense<0.005089e+00> : tensor<3840x640x1x1xf32>
    %cst_14 = arith.constant dense<-0.013018e+00> : tensor<640x3840x1x1xf32>
    %cst_15 = arith.constant dense<0.006203e+00> : tensor<3840x160x1x1xf32>
    %cst_16 = arith.constant dense<0.001839e+00> : tensor<160x3840x1x1xf32>
    %cst_17 = arith.constant dense<0.006296e+00> : tensor<3840x1x3x3xf32>
    %cst_18 = arith.constant dense<-0.008566e+00> : tensor<3840x640x1x1xf32>
    %cst_19 = arith.constant dense<-0.010594e+00> : tensor<640x3840x1x1xf32>
    %cst_20 = arith.constant dense<-0.007177e+00> : tensor<3840x160x1x1xf32>
    %cst_21 = arith.constant dense<-0.013576e+00> : tensor<160x3840x1x1xf32>
    %cst_22 = arith.constant dense<-0.004993e+00> : tensor<3840x1x3x3xf32>
    %cst_23 = arith.constant dense<0.018777e+00> : tensor<3840x640x1x1xf32>
    %cst_24 = arith.constant dense<-0.012871e+00> : tensor<640x3840x1x1xf32>
    %cst_25 = arith.constant dense<-0.002350e+00> : tensor<3840x160x1x1xf32>
    %cst_26 = arith.constant dense<-0.009398e+00> : tensor<160x3840x1x1xf32>
    %cst_27 = arith.constant dense<0.005425e+00> : tensor<3840x1x3x3xf32>
    %cst_28 = arith.constant dense<0.006892e+00> : tensor<3840x640x1x1xf32>
    %cst_29 = arith.constant dense<0.008794e+00> : tensor<640x3840x1x1xf32>
    %cst_30 = arith.constant dense<0.000574e+00> : tensor<3840x160x1x1xf32>
    %cst_31 = arith.constant dense<0.007880e+00> : tensor<160x3840x1x1xf32>
    %cst_32 = arith.constant dense<0.000000e+00> : tensor<160xf32>
    %cst_33 = arith.constant dense<0.007343e+00> : tensor<3840x1x3x3xf32>
    %cst_34 = arith.constant dense<0.000000e+00> : tensor<3840xf32>
    %cst_35 = arith.constant dense<1.000000e+00> : tensor<3840xf32>
    %cst_36 = arith.constant dense<0.004072e+00> : tensor<3840x640x1x1xf32>
    %cst_37 = arith.constant dense<0.000000e+00> : tensor<640xf32>
    %cst_38 = arith.constant dense<1.000000e+00> : tensor<640xf32>
    %cst_39 = arith.constant dense<-0.000403e+00> : tensor<640x2304x1x1xf32>
    %cst_40 = arith.constant dense<-0.015279e+00> : tensor<2304x96x1x1xf32>
    %cst_41 = arith.constant dense<0.012533e+00> : tensor<96x2304x1x1xf32>
    %cst_42 = arith.constant dense<-0.009109e+00> : tensor<2304x1x3x3xf32>
    %cst_43 = arith.constant dense<0.001108e+00> : tensor<2304x384x1x1xf32>
    %cst_44 = arith.constant dense<0.018632e+00> : tensor<384x2304x1x1xf32>
    %cst_45 = arith.constant dense<0.004159e+00> : tensor<2304x96x1x1xf32>
    %cst_46 = arith.constant dense<-0.004079e+00> : tensor<96x2304x1x1xf32>
    %cst_47 = arith.constant dense<0.006642e+00> : tensor<2304x1x3x3xf32>
    %cst_48 = arith.constant dense<-0.000921e+00> : tensor<2304x384x1x1xf32>
    %cst_49 = arith.constant dense<-0.013670e+00> : tensor<384x2304x1x1xf32>
    %cst_50 = arith.constant dense<-0.008906e+00> : tensor<2304x96x1x1xf32>
    %cst_51 = arith.constant dense<0.007187e+00> : tensor<96x2304x1x1xf32>
    %cst_52 = arith.constant dense<-0.010487e+00> : tensor<2304x1x3x3xf32>
    %cst_53 = arith.constant dense<-0.002136e+00> : tensor<2304x384x1x1xf32>
    %cst_54 = arith.constant dense<0.000317e+00> : tensor<384x2304x1x1xf32>
    %cst_55 = arith.constant dense<-0.006738e+00> : tensor<2304x96x1x1xf32>
    %cst_56 = arith.constant dense<0.005319e+00> : tensor<96x2304x1x1xf32>
    %cst_57 = arith.constant dense<0.001114e+00> : tensor<2304x1x3x3xf32>
    %cst_58 = arith.constant dense<-0.003977e+00> : tensor<2304x384x1x1xf32>
    %cst_59 = arith.constant dense<0.003690e+00> : tensor<384x2304x1x1xf32>
    %cst_60 = arith.constant dense<-0.005542e+00> : tensor<2304x96x1x1xf32>
    %cst_61 = arith.constant dense<0.008692e+00> : tensor<96x2304x1x1xf32>
    %cst_62 = arith.constant dense<0.002330e+00> : tensor<2304x1x3x3xf32>
    %cst_63 = arith.constant dense<0.011474e+00> : tensor<2304x384x1x1xf32>
    %cst_64 = arith.constant dense<-0.011347e+00> : tensor<384x2304x1x1xf32>
    %cst_65 = arith.constant dense<0.002687e+00> : tensor<2304x96x1x1xf32>
    %cst_66 = arith.constant dense<0.003653e+00> : tensor<96x2304x1x1xf32>
    %cst_67 = arith.constant dense<0.011598e+00> : tensor<2304x1x3x3xf32>
    %cst_68 = arith.constant dense<0.016677e+00> : tensor<2304x384x1x1xf32>
    %cst_69 = arith.constant dense<-0.011421e+00> : tensor<384x2304x1x1xf32>
    %cst_70 = arith.constant dense<-0.015882e+00> : tensor<2304x96x1x1xf32>
    %cst_71 = arith.constant dense<0.014244e+00> : tensor<96x2304x1x1xf32>
    %cst_72 = arith.constant dense<0.013185e+00> : tensor<2304x1x3x3xf32>
    %cst_73 = arith.constant dense<0.006926e+00> : tensor<2304x384x1x1xf32>
    %cst_74 = arith.constant dense<0.006906e+00> : tensor<384x2304x1x1xf32>
    %cst_75 = arith.constant dense<0.000395e+00> : tensor<2304x96x1x1xf32>
    %cst_76 = arith.constant dense<-0.003833e+00> : tensor<96x2304x1x1xf32>
    %cst_77 = arith.constant dense<0.012983e+00> : tensor<2304x1x3x3xf32>
    %cst_78 = arith.constant dense<-0.010005e+00> : tensor<2304x384x1x1xf32>
    %cst_79 = arith.constant dense<0.001257e+00> : tensor<384x2304x1x1xf32>
    %cst_80 = arith.constant dense<0.009571e+00> : tensor<2304x96x1x1xf32>
    %cst_81 = arith.constant dense<0.003815e+00> : tensor<96x2304x1x1xf32>
    %cst_82 = arith.constant dense<-0.009860e+00> : tensor<2304x1x3x3xf32>
    %cst_83 = arith.constant dense<0.003202e+00> : tensor<2304x384x1x1xf32>
    %cst_84 = arith.constant dense<-0.000083e+00> : tensor<384x2304x1x1xf32>
    %cst_85 = arith.constant dense<0.004464e+00> : tensor<2304x96x1x1xf32>
    %cst_86 = arith.constant dense<0.014473e+00> : tensor<96x2304x1x1xf32>
    %cst_87 = arith.constant dense<0.006333e+00> : tensor<2304x1x3x3xf32>
    %cst_88 = arith.constant dense<-0.018240e+00> : tensor<2304x384x1x1xf32>
    %cst_89 = arith.constant dense<-0.000829e+00> : tensor<384x2304x1x1xf32>
    %cst_90 = arith.constant dense<-0.013125e+00> : tensor<2304x96x1x1xf32>
    %cst_91 = arith.constant dense<-0.008576e+00> : tensor<96x2304x1x1xf32>
    %cst_92 = arith.constant dense<-0.003764e+00> : tensor<2304x1x3x3xf32>
    %cst_93 = arith.constant dense<0.001687e+00> : tensor<2304x384x1x1xf32>
    %cst_94 = arith.constant dense<-0.001080e+00> : tensor<384x2304x1x1xf32>
    %cst_95 = arith.constant dense<0.003401e+00> : tensor<2304x96x1x1xf32>
    %cst_96 = arith.constant dense<0.011405e+00> : tensor<96x2304x1x1xf32>
    %cst_97 = arith.constant dense<-0.001230e+00> : tensor<2304x1x3x3xf32>
    %cst_98 = arith.constant dense<0.015523e+00> : tensor<2304x384x1x1xf32>
    %cst_99 = arith.constant dense<0.012931e+00> : tensor<384x2304x1x1xf32>
    %cst_100 = arith.constant dense<-0.017542e+00> : tensor<2304x96x1x1xf32>
    %cst_101 = arith.constant dense<-0.005784e+00> : tensor<96x2304x1x1xf32>
    %cst_102 = arith.constant dense<-0.006904e+00> : tensor<2304x1x3x3xf32>
    %cst_103 = arith.constant dense<0.006955e+00> : tensor<2304x384x1x1xf32>
    %cst_104 = arith.constant dense<0.002883e+00> : tensor<384x2304x1x1xf32>
    %cst_105 = arith.constant dense<0.002068e+00> : tensor<2304x96x1x1xf32>
    %cst_106 = arith.constant dense<-0.001076e+00> : tensor<96x2304x1x1xf32>
    %cst_107 = arith.constant dense<-0.002607e+00> : tensor<2304x1x3x3xf32>
    %cst_108 = arith.constant dense<-0.001855e+00> : tensor<2304x384x1x1xf32>
    %cst_109 = arith.constant dense<0.001493e+00> : tensor<384x2304x1x1xf32>
    %cst_110 = arith.constant dense<0.000010e+00> : tensor<2304x96x1x1xf32>
    %cst_111 = arith.constant dense<0.007502e+00> : tensor<96x2304x1x1xf32>
    %cst_112 = arith.constant dense<0.017489e+00> : tensor<2304x1x3x3xf32>
    %cst_113 = arith.constant dense<-0.015727e+00> : tensor<2304x384x1x1xf32>
    %cst_114 = arith.constant dense<0.014362e+00> : tensor<384x2304x1x1xf32>
    %cst_115 = arith.constant dense<-0.003060e+00> : tensor<2304x96x1x1xf32>
    %cst_116 = arith.constant dense<0.015881e+00> : tensor<96x2304x1x1xf32>
    %cst_117 = arith.constant dense<-0.004266e+00> : tensor<2304x1x3x3xf32>
    %cst_118 = arith.constant dense<-0.005232e+00> : tensor<2304x384x1x1xf32>
    %cst_119 = arith.constant dense<-0.011518e+00> : tensor<384x2304x1x1xf32>
    %cst_120 = arith.constant dense<0.003803e+00> : tensor<2304x96x1x1xf32>
    %cst_121 = arith.constant dense<0.006196e+00> : tensor<96x2304x1x1xf32>
    %cst_122 = arith.constant dense<0.003495e+00> : tensor<2304x1x3x3xf32>
    %cst_123 = arith.constant dense<-0.004717e+00> : tensor<2304x384x1x1xf32>
    %cst_124 = arith.constant dense<0.028196e+00> : tensor<384x2304x1x1xf32>
    %cst_125 = arith.constant dense<0.000418e+00> : tensor<2304x96x1x1xf32>
    %cst_126 = arith.constant dense<0.006302e+00> : tensor<96x2304x1x1xf32>
    %cst_127 = arith.constant dense<0.010481e+00> : tensor<2304x1x3x3xf32>
    %cst_128 = arith.constant dense<-0.009596e+00> : tensor<2304x384x1x1xf32>
    %cst_129 = arith.constant dense<0.007566e+00> : tensor<384x2304x1x1xf32>
    %cst_130 = arith.constant dense<0.005078e+00> : tensor<2304x96x1x1xf32>
    %cst_131 = arith.constant dense<0.018549e+00> : tensor<96x2304x1x1xf32>
    %cst_132 = arith.constant dense<0.004478e+00> : tensor<2304x1x3x3xf32>
    %cst_133 = arith.constant dense<-0.007667e+00> : tensor<2304x384x1x1xf32>
    %cst_134 = arith.constant dense<0.007815e+00> : tensor<384x2304x1x1xf32>
    %cst_135 = arith.constant dense<0.004624e+00> : tensor<2304x96x1x1xf32>
    %cst_136 = arith.constant dense<-0.013159e+00> : tensor<96x2304x1x1xf32>
    %cst_137 = arith.constant dense<0.004957e+00> : tensor<2304x1x3x3xf32>
    %cst_138 = arith.constant dense<-0.017907e+00> : tensor<2304x384x1x1xf32>
    %cst_139 = arith.constant dense<0.009582e+00> : tensor<384x2304x1x1xf32>
    %cst_140 = arith.constant dense<0.015427e+00> : tensor<2304x96x1x1xf32>
    %cst_141 = arith.constant dense<-0.009183e+00> : tensor<96x2304x1x1xf32>
    %cst_142 = arith.constant dense<0.006374e+00> : tensor<2304x1x3x3xf32>
    %cst_143 = arith.constant dense<-0.009923e+00> : tensor<2304x384x1x1xf32>
    %cst_144 = arith.constant dense<0.004602e+00> : tensor<384x2304x1x1xf32>
    %cst_145 = arith.constant dense<0.017725e+00> : tensor<2304x96x1x1xf32>
    %cst_146 = arith.constant dense<0.003011e+00> : tensor<96x2304x1x1xf32>
    %cst_147 = arith.constant dense<-0.004396e+00> : tensor<2304x1x3x3xf32>
    %cst_148 = arith.constant dense<0.000948e+00> : tensor<2304x384x1x1xf32>
    %cst_149 = arith.constant dense<0.024738e+00> : tensor<384x2304x1x1xf32>
    %cst_150 = arith.constant dense<0.003329e+00> : tensor<2304x96x1x1xf32>
    %cst_151 = arith.constant dense<-0.005193e+00> : tensor<96x2304x1x1xf32>
    %cst_152 = arith.constant dense<0.005030e+00> : tensor<2304x1x3x3xf32>
    %cst_153 = arith.constant dense<-0.002464e+00> : tensor<2304x384x1x1xf32>
    %cst_154 = arith.constant dense<0.011521e+00> : tensor<384x2304x1x1xf32>
    %cst_155 = arith.constant dense<-0.003686e+00> : tensor<2304x96x1x1xf32>
    %cst_156 = arith.constant dense<0.015972e+00> : tensor<96x2304x1x1xf32>
    %cst_157 = arith.constant dense<-0.013489e+00> : tensor<2304x1x3x3xf32>
    %cst_158 = arith.constant dense<-0.009579e+00> : tensor<2304x384x1x1xf32>
    %cst_159 = arith.constant dense<-0.000634e+00> : tensor<384x2304x1x1xf32>
    %cst_160 = arith.constant dense<-0.011783e+00> : tensor<2304x96x1x1xf32>
    %cst_161 = arith.constant dense<-0.007115e+00> : tensor<96x2304x1x1xf32>
    %cst_162 = arith.constant dense<0.010939e+00> : tensor<2304x1x3x3xf32>
    %cst_163 = arith.constant dense<0.000000e+00> : tensor<2304xf32>
    %cst_164 = arith.constant dense<1.000000e+00> : tensor<2304xf32>
    %cst_165 = arith.constant dense<-0.003519e+00> : tensor<2304x384x1x1xf32>
    %cst_166 = arith.constant dense<-0.006405e+00> : tensor<384x1344x1x1xf32>
    %cst_167 = arith.constant dense<0.019177e+00> : tensor<1344x56x1x1xf32>
    %cst_168 = arith.constant dense<-0.014519e+00> : tensor<56x1344x1x1xf32>
    %cst_169 = arith.constant dense<-0.003597e+00> : tensor<1344x1x3x3xf32>
    %cst_170 = arith.constant dense<0.001751e+00> : tensor<1344x224x1x1xf32>
    %cst_171 = arith.constant dense<-0.007672e+00> : tensor<224x1344x1x1xf32>
    %cst_172 = arith.constant dense<0.006771e+00> : tensor<1344x56x1x1xf32>
    %cst_173 = arith.constant dense<0.013881e+00> : tensor<56x1344x1x1xf32>
    %cst_174 = arith.constant dense<-0.004069e+00> : tensor<1344x1x3x3xf32>
    %cst_175 = arith.constant dense<0.006765e+00> : tensor<1344x224x1x1xf32>
    %cst_176 = arith.constant dense<0.012880e+00> : tensor<224x1344x1x1xf32>
    %cst_177 = arith.constant dense<-0.009149e+00> : tensor<1344x56x1x1xf32>
    %cst_178 = arith.constant dense<0.005643e+00> : tensor<56x1344x1x1xf32>
    %cst_179 = arith.constant dense<0.016699e+00> : tensor<1344x1x3x3xf32>
    %cst_180 = arith.constant dense<-0.003265e+00> : tensor<1344x224x1x1xf32>
    %cst_181 = arith.constant dense<0.017016e+00> : tensor<224x1344x1x1xf32>
    %cst_182 = arith.constant dense<0.003933e+00> : tensor<1344x56x1x1xf32>
    %cst_183 = arith.constant dense<0.023164e+00> : tensor<56x1344x1x1xf32>
    %cst_184 = arith.constant dense<0.000047e+00> : tensor<1344x1x3x3xf32>
    %cst_185 = arith.constant dense<-0.001245e+00> : tensor<1344x224x1x1xf32>
    %cst_186 = arith.constant dense<0.011444e+00> : tensor<224x1344x1x1xf32>
    %cst_187 = arith.constant dense<-0.009816e+00> : tensor<1344x56x1x1xf32>
    %cst_188 = arith.constant dense<0.010029e+00> : tensor<56x1344x1x1xf32>
    %cst_189 = arith.constant dense<0.012471e+00> : tensor<1344x1x3x3xf32>
    %cst_190 = arith.constant dense<-0.003213e+00> : tensor<1344x224x1x1xf32>
    %cst_191 = arith.constant dense<-0.000422e+00> : tensor<224x1344x1x1xf32>
    %cst_192 = arith.constant dense<0.005980e+00> : tensor<1344x56x1x1xf32>
    %cst_193 = arith.constant dense<0.001864e+00> : tensor<56x1344x1x1xf32>
    %cst_194 = arith.constant dense<-0.003313e+00> : tensor<1344x1x3x3xf32>
    %cst_195 = arith.constant dense<0.005357e+00> : tensor<1344x224x1x1xf32>
    %cst_196 = arith.constant dense<-0.004524e+00> : tensor<224x1344x1x1xf32>
    %cst_197 = arith.constant dense<-0.005548e+00> : tensor<1344x56x1x1xf32>
    %cst_198 = arith.constant dense<-0.008936e+00> : tensor<56x1344x1x1xf32>
    %cst_199 = arith.constant dense<0.013720e+00> : tensor<1344x1x3x3xf32>
    %cst_200 = arith.constant dense<0.011936e+00> : tensor<1344x224x1x1xf32>
    %cst_201 = arith.constant dense<-0.017690e+00> : tensor<224x1344x1x1xf32>
    %cst_202 = arith.constant dense<0.005562e+00> : tensor<1344x56x1x1xf32>
    %cst_203 = arith.constant dense<0.000078e+00> : tensor<56x1344x1x1xf32>
    %cst_204 = arith.constant dense<-0.000591e+00> : tensor<1344x1x3x3xf32>
    %cst_205 = arith.constant dense<0.000075e+00> : tensor<1344x224x1x1xf32>
    %cst_206 = arith.constant dense<0.004479e+00> : tensor<224x1344x1x1xf32>
    %cst_207 = arith.constant dense<-0.003566e+00> : tensor<1344x56x1x1xf32>
    %cst_208 = arith.constant dense<-0.001212e+00> : tensor<56x1344x1x1xf32>
    %cst_209 = arith.constant dense<-0.000197e+00> : tensor<1344x1x3x3xf32>
    %cst_210 = arith.constant dense<-0.004331e+00> : tensor<1344x224x1x1xf32>
    %cst_211 = arith.constant dense<0.004035e+00> : tensor<224x1344x1x1xf32>
    %cst_212 = arith.constant dense<-0.005629e+00> : tensor<1344x56x1x1xf32>
    %cst_213 = arith.constant dense<-0.007363e+00> : tensor<56x1344x1x1xf32>
    %cst_214 = arith.constant dense<0.007772e+00> : tensor<1344x1x3x3xf32>
    %cst_215 = arith.constant dense<0.003777e+00> : tensor<1344x224x1x1xf32>
    %cst_216 = arith.constant dense<-0.013804e+00> : tensor<224x1344x1x1xf32>
    %cst_217 = arith.constant dense<-0.017313e+00> : tensor<1344x56x1x1xf32>
    %cst_218 = arith.constant dense<-0.004299e+00> : tensor<56x1344x1x1xf32>
    %cst_219 = arith.constant dense<-0.004661e+00> : tensor<1344x1x3x3xf32>
    %cst_220 = arith.constant dense<0.007323e+00> : tensor<1344x224x1x1xf32>
    %cst_221 = arith.constant dense<-0.002868e+00> : tensor<224x1344x1x1xf32>
    %cst_222 = arith.constant dense<-0.011786e+00> : tensor<1344x56x1x1xf32>
    %cst_223 = arith.constant dense<0.008404e+00> : tensor<56x1344x1x1xf32>
    %cst_224 = arith.constant dense<-0.005955e+00> : tensor<1344x1x3x3xf32>
    %cst_225 = arith.constant dense<0.002456e+00> : tensor<1344x224x1x1xf32>
    %cst_226 = arith.constant dense<0.000388e+00> : tensor<224x1344x1x1xf32>
    %cst_227 = arith.constant dense<0.000508e+00> : tensor<1344x56x1x1xf32>
    %cst_228 = arith.constant dense<-0.013323e+00> : tensor<56x1344x1x1xf32>
    %cst_229 = arith.constant dense<0.027269e+00> : tensor<1344x1x3x3xf32>
    %cst_230 = arith.constant dense<-0.001792e+00> : tensor<1344x224x1x1xf32>
    %cst_231 = arith.constant dense<0.006648e+00> : tensor<224x1344x1x1xf32>
    %cst_232 = arith.constant dense<0.000158e+00> : tensor<1344x56x1x1xf32>
    %cst_233 = arith.constant dense<0.015388e+00> : tensor<56x1344x1x1xf32>
    %cst_234 = arith.constant dense<-0.006012e+00> : tensor<1344x1x3x3xf32>
    %cst_235 = arith.constant dense<-0.011679e+00> : tensor<1344x224x1x1xf32>
    %cst_236 = arith.constant dense<0.018580e+00> : tensor<224x1344x1x1xf32>
    %cst_237 = arith.constant dense<0.014525e+00> : tensor<1344x56x1x1xf32>
    %cst_238 = arith.constant dense<0.008456e+00> : tensor<56x1344x1x1xf32>
    %cst_239 = arith.constant dense<-0.005870e+00> : tensor<1344x1x3x3xf32>
    %cst_240 = arith.constant dense<0.005864e+00> : tensor<1344x224x1x1xf32>
    %cst_241 = arith.constant dense<-0.010891e+00> : tensor<224x1344x1x1xf32>
    %cst_242 = arith.constant dense<0.012902e+00> : tensor<1344x56x1x1xf32>
    %cst_243 = arith.constant dense<0.018316e+00> : tensor<56x1344x1x1xf32>
    %cst_244 = arith.constant dense<-0.004279e+00> : tensor<1344x1x3x3xf32>
    %cst_245 = arith.constant dense<-0.020742e+00> : tensor<1344x224x1x1xf32>
    %cst_246 = arith.constant dense<-0.002197e+00> : tensor<224x1344x1x1xf32>
    %cst_247 = arith.constant dense<0.001767e+00> : tensor<1344x56x1x1xf32>
    %cst_248 = arith.constant dense<0.003031e+00> : tensor<56x1344x1x1xf32>
    %cst_249 = arith.constant dense<-0.011351e+00> : tensor<1344x1x3x3xf32>
    %cst_250 = arith.constant dense<-0.001605e+00> : tensor<1344x224x1x1xf32>
    %cst_251 = arith.constant dense<-0.007698e+00> : tensor<224x1344x1x1xf32>
    %cst_252 = arith.constant dense<-0.014957e+00> : tensor<1344x56x1x1xf32>
    %cst_253 = arith.constant dense<0.015438e+00> : tensor<56x1344x1x1xf32>
    %cst_254 = arith.constant dense<0.006161e+00> : tensor<1344x1x3x3xf32>
    %cst_255 = arith.constant dense<0.005610e+00> : tensor<1344x224x1x1xf32>
    %cst_256 = arith.constant dense<-0.015816e+00> : tensor<224x1344x1x1xf32>
    %cst_257 = arith.constant dense<-0.010591e+00> : tensor<1344x56x1x1xf32>
    %cst_258 = arith.constant dense<-0.003489e+00> : tensor<56x1344x1x1xf32>
    %cst_259 = arith.constant dense<0.000000e+00> : tensor<56xf32>
    %cst_260 = arith.constant dense<-0.003194e+00> : tensor<1344x1x3x3xf32>
    %cst_261 = arith.constant dense<0.000000e+00> : tensor<1344xf32>
    %cst_262 = arith.constant dense<1.000000e+00> : tensor<1344xf32>
    %cst_263 = arith.constant dense<-0.000924e+00> : tensor<1344x224x1x1xf32>
    %cst_264 = arith.constant dense<0.000000e+00> : tensor<224xf32>
    %cst_265 = arith.constant dense<1.000000e+00> : tensor<224xf32>
    %cst_266 = arith.constant dense<-0.004924e+00> : tensor<224x1152x1x1xf32>
    %cst_267 = arith.constant dense<0.000042e+00> : tensor<1152x48x1x1xf32>
    %cst_268 = arith.constant dense<-0.005094e+00> : tensor<48x1152x1x1xf32>
    %cst_269 = arith.constant dense<-0.016219e+00> : tensor<1152x1x3x3xf32>
    %cst_270 = arith.constant dense<0.000000e+00> : tensor<1152xf32>
    %cst_271 = arith.constant dense<1.000000e+00> : tensor<1152xf32>
    %cst_272 = arith.constant dense<0.000893e+00> : tensor<1152x192x1x1xf32>
    %cst_273 = arith.constant dense<0.008559e+00> : tensor<192x768x1x1xf32>
    %cst_274 = arith.constant dense<-0.001986e+00> : tensor<768x48x1x1xf32>
    %cst_275 = arith.constant dense<-0.006081e+00> : tensor<48x768x1x1xf32>
    %cst_276 = arith.constant dense<-0.006203e+00> : tensor<768x1x3x3xf32>
    %cst_277 = arith.constant dense<-0.003998e+00> : tensor<768x192x1x1xf32>
    %cst_278 = arith.constant dense<0.016012e+00> : tensor<192x768x1x1xf32>
    %cst_279 = arith.constant dense<0.010483e+00> : tensor<768x48x1x1xf32>
    %cst_280 = arith.constant dense<-0.004700e+00> : tensor<48x768x1x1xf32>
    %cst_281 = arith.constant dense<-0.014295e+00> : tensor<768x1x3x3xf32>
    %cst_282 = arith.constant dense<0.006520e+00> : tensor<768x192x1x1xf32>
    %cst_283 = arith.constant dense<-0.001423e+00> : tensor<192x768x1x1xf32>
    %cst_284 = arith.constant dense<-0.024217e+00> : tensor<768x48x1x1xf32>
    %cst_285 = arith.constant dense<-0.006129e+00> : tensor<48x768x1x1xf32>
    %cst_286 = arith.constant dense<-0.000682e+00> : tensor<768x1x3x3xf32>
    %cst_287 = arith.constant dense<-0.010545e+00> : tensor<768x192x1x1xf32>
    %cst_288 = arith.constant dense<0.013889e+00> : tensor<192x768x1x1xf32>
    %cst_289 = arith.constant dense<0.005532e+00> : tensor<768x48x1x1xf32>
    %cst_290 = arith.constant dense<-0.006022e+00> : tensor<48x768x1x1xf32>
    %cst_291 = arith.constant dense<-0.010438e+00> : tensor<768x1x3x3xf32>
    %cst_292 = arith.constant dense<-0.009557e+00> : tensor<768x192x1x1xf32>
    %cst_293 = arith.constant dense<0.002098e+00> : tensor<192x768x1x1xf32>
    %cst_294 = arith.constant dense<-0.002821e+00> : tensor<768x48x1x1xf32>
    %cst_295 = arith.constant dense<-0.000098e+00> : tensor<48x768x1x1xf32>
    %cst_296 = arith.constant dense<0.004625e+00> : tensor<768x1x3x3xf32>
    %cst_297 = arith.constant dense<-0.010473e+00> : tensor<768x192x1x1xf32>
    %cst_298 = arith.constant dense<0.000397e+00> : tensor<192x768x1x1xf32>
    %cst_299 = arith.constant dense<0.004768e+00> : tensor<768x48x1x1xf32>
    %cst_300 = arith.constant dense<0.002682e+00> : tensor<48x768x1x1xf32>
    %cst_301 = arith.constant dense<-0.010173e+00> : tensor<768x1x3x3xf32>
    %cst_302 = arith.constant dense<-0.003419e+00> : tensor<768x192x1x1xf32>
    %cst_303 = arith.constant dense<-0.001518e+00> : tensor<192x768x1x1xf32>
    %cst_304 = arith.constant dense<-0.000745e+00> : tensor<768x48x1x1xf32>
    %cst_305 = arith.constant dense<-0.006894e+00> : tensor<48x768x1x1xf32>
    %cst_306 = arith.constant dense<0.000838e+00> : tensor<768x1x3x3xf32>
    %cst_307 = arith.constant dense<0.005953e+00> : tensor<768x192x1x1xf32>
    %cst_308 = arith.constant dense<0.003694e+00> : tensor<192x768x1x1xf32>
    %cst_309 = arith.constant dense<-0.004966e+00> : tensor<768x48x1x1xf32>
    %cst_310 = arith.constant dense<-0.002955e+00> : tensor<48x768x1x1xf32>
    %cst_311 = arith.constant dense<0.004659e+00> : tensor<768x1x3x3xf32>
    %cst_312 = arith.constant dense<-0.002067e+00> : tensor<768x192x1x1xf32>
    %cst_313 = arith.constant dense<0.004865e+00> : tensor<192x768x1x1xf32>
    %cst_314 = arith.constant dense<-0.010972e+00> : tensor<768x48x1x1xf32>
    %cst_315 = arith.constant dense<0.011431e+00> : tensor<48x768x1x1xf32>
    %cst_316 = arith.constant dense<0.000000e+00> : tensor<48xf32>
    %cst_317 = arith.constant dense<0.011304e+00> : tensor<768x1x3x3xf32>
    %cst_318 = arith.constant dense<0.000000e+00> : tensor<768xf32>
    %cst_319 = arith.constant dense<1.000000e+00> : tensor<768xf32>
    %cst_320 = arith.constant dense<0.007113e+00> : tensor<768x192x1x1xf32>
    %cst_321 = arith.constant dense<0.000000e+00> : tensor<192xf32>
    %cst_322 = arith.constant dense<1.000000e+00> : tensor<192xf32>
    %cst_323 = arith.constant dense<0.002977e+00> : tensor<192x384x1x1xf32>
    %cst_324 = arith.constant dense<0.008649e+00> : tensor<384x24x1x1xf32>
    %cst_325 = arith.constant dense<-0.005406e+00> : tensor<24x384x1x1xf32>
    %cst_326 = arith.constant dense<0.000000e+00> : tensor<24xf32>
    %cst_327 = arith.constant dense<0.007271e+00> : tensor<384x1x3x3xf32>
    %cst_328 = arith.constant dense<0.008201e+00> : tensor<384x96x1x1xf32>
    %cst_329 = arith.constant dense<-0.011910e+00> : tensor<96x384x1x1xf32>
    %cst_330 = arith.constant dense<0.014042e+00> : tensor<384x96x3x3xf32>
    %cst_331 = arith.constant dense<0.004027e+00> : tensor<96x384x1x1xf32>
    %cst_332 = arith.constant dense<0.003027e+00> : tensor<384x96x3x3xf32>
    %cst_333 = arith.constant dense<0.019777e+00> : tensor<96x384x1x1xf32>
    %cst_334 = arith.constant dense<-0.008305e+00> : tensor<384x96x3x3xf32>
    %cst_335 = arith.constant dense<0.001187e+00> : tensor<96x384x1x1xf32>
    %cst_336 = arith.constant dense<0.000709e+00> : tensor<384x96x3x3xf32>
    %cst_337 = arith.constant dense<0.014178e+00> : tensor<96x384x1x1xf32>
    %cst_338 = arith.constant dense<0.008950e+00> : tensor<384x96x3x3xf32>
    %cst_339 = arith.constant dense<-0.005134e+00> : tensor<96x384x1x1xf32>
    %cst_340 = arith.constant dense<0.000000e+00> : tensor<384xf32>
    %cst_341 = arith.constant dense<1.000000e+00> : tensor<384xf32>
    %cst_342 = arith.constant dense<0.002881e+00> : tensor<384x96x3x3xf32>
    %cst_343 = arith.constant dense<0.000000e+00> : tensor<96xf32>
    %cst_344 = arith.constant dense<1.000000e+00> : tensor<96xf32>
    %cst_345 = arith.constant dense<-0.004160e+00> : tensor<96x256x1x1xf32>
    %cst_346 = arith.constant dense<-0.011223e+00> : tensor<256x64x3x3xf32>
    %cst_347 = arith.constant dense<0.000802e+00> : tensor<64x256x1x1xf32>
    %cst_348 = arith.constant dense<-0.013746e+00> : tensor<256x64x3x3xf32>
    %cst_349 = arith.constant dense<0.007647e+00> : tensor<64x256x1x1xf32>
    %cst_350 = arith.constant dense<0.001467e+00> : tensor<256x64x3x3xf32>
    %cst_351 = arith.constant dense<-0.007420e+00> : tensor<64x256x1x1xf32>
    %cst_352 = arith.constant dense<-0.011487e+00> : tensor<256x64x3x3xf32>
    %cst_353 = arith.constant dense<-0.001726e+00> : tensor<64x256x1x1xf32>
    %cst_354 = arith.constant dense<0.006443e+00> : tensor<256x64x3x3xf32>
    %cst_355 = arith.constant dense<0.020785e+00> : tensor<64x256x1x1xf32>
    %cst_356 = arith.constant dense<-0.018471e+00> : tensor<256x64x3x3xf32>
    %cst_357 = arith.constant dense<0.001729e+00> : tensor<64x256x1x1xf32>
    %cst_358 = arith.constant dense<0.000000e+00> : tensor<256xf32>
    %cst_359 = arith.constant dense<1.000000e+00> : tensor<256xf32>
    %cst_360 = arith.constant dense<0.008772e+00> : tensor<256x64x3x3xf32>
    %cst_361 = arith.constant dense<0.000000e+00> : tensor<64xf32>
    %cst_362 = arith.constant dense<1.000000e+00> : tensor<64xf32>
    %cst_363 = arith.constant dense<-0.014330e+00> : tensor<64x128x1x1xf32>
    %cst_364 = arith.constant dense<0.000000e+00> : tensor<128xf32>
    %cst_365 = arith.constant dense<1.000000e+00> : tensor<128xf32>
    %cst_366 = arith.constant dense<0.001705e+00> : tensor<128x32x3x3xf32>
    %cst_367 = arith.constant dense<0.015113e+00> : tensor<32x32x3x3xf32>
    %cst_368 = arith.constant dense<0.007555e+00> : tensor<32x32x3x3xf32>
    %cst_369 = arith.constant dense<-0.005002e+00> : tensor<32x32x3x3xf32>
    %cst_370 = arith.constant dense<0.011387e+00> : tensor<32x32x3x3xf32>
    %cst_371 = arith.constant dense<0.000000e+00> : tensor<32xf32>
    %cst_372 = arith.constant dense<1.000000e+00> : tensor<32xf32>
    %cst_373 = arith.constant dense<0.004057e+00> : tensor<32x3x3x3xf32>
    %cst_374 = arith.constant 0.000000e+00 : f32
    %cst_375 = arith.constant 1.000000e-03 : f64
    %cst_376 = arith.constant 4.000000e+00 : f32
    %c0 = arith.constant 0 : index
    %c1 = arith.constant 1 : index
    %cst_377 = arith.constant 1.000000e+00 : f32
    %padded = tensor.pad %arg0 low[0, 0, 1, 1] high[0, 0, 1, 1] {
    ^bb0(%arg1: index, %arg2: index, %arg3: index, %arg4: index):
      tensor.yield %cst_374 : f32
    } : tensor<1x3x32x32xf32> to tensor<1x3x34x34xf32>
    %0 = tensor.empty() : tensor<1x32x16x16xf32>
    %1 = linalg.fill ins(%cst_374 : f32) outs(%0 : tensor<1x32x16x16xf32>) -> tensor<1x32x16x16xf32>
    %2 = linalg.conv_2d_nchw_fchw {dilations = dense<1> : vector<2xi64>, strides = dense<2> : vector<2xi64>} ins(%padded, %cst_373 : tensor<1x3x34x34xf32>, tensor<32x3x3x3xf32>) outs(%1 : tensor<1x32x16x16xf32>) -> tensor<1x32x16x16xf32>
    %3 = arith.cmpi eq, %false, %false : i1
    cf.assert %3, "training is not supported for now"
    %4 = linalg.generic {indexing_maps = [#map, #map1, #map1, #map1, #map1, #map], iterator_types = ["parallel", "parallel", "parallel", "parallel"]} ins(%2, %cst_372, %cst_371, %cst_371, %cst_372 : tensor<1x32x16x16xf32>, tensor<32xf32>, tensor<32xf32>, tensor<32xf32>, tensor<32xf32>) outs(%2 : tensor<1x32x16x16xf32>) {
    ^bb0(%in: f32, %in_518: f32, %in_519: f32, %in_520: f32, %in_521: f32, %out: f32):
      %1315 = arith.truncf %cst_375 : f64 to f32
      %1316 = arith.addf %in_521, %1315 : f32
      %1317 = math.rsqrt %1316 : f32
      %1318 = arith.subf %in, %in_520 : f32
      %1319 = arith.mulf %1318, %1317 : f32
      %1320 = arith.mulf %1319, %in_518 : f32
      %1321 = arith.addf %1320, %in_519 : f32
      linalg.yield %1321 : f32
    } -> tensor<1x32x16x16xf32>
    %5 = linalg.generic {indexing_maps = [#map2, #map], iterator_types = ["parallel", "parallel", "parallel", "parallel"]} ins(%4 : tensor<1x32x16x16xf32>) outs(%0 : tensor<1x32x16x16xf32>) {
    ^bb0(%in: f32, %out: f32):
      %1315 = arith.negf %in : f32
      %1316 = math.exp %1315 : f32
      %1317 = arith.addf %1316, %cst_377 : f32
      %1318 = arith.divf %cst_377, %1317 : f32
      linalg.yield %1318 : f32
    } -> tensor<1x32x16x16xf32>
    %6 = linalg.generic {indexing_maps = [#map2, #map2, #map], iterator_types = ["parallel", "parallel", "parallel", "parallel"]} ins(%5, %4 : tensor<1x32x16x16xf32>, tensor<1x32x16x16xf32>) outs(%0 : tensor<1x32x16x16xf32>) {
    ^bb0(%in: f32, %in_518: f32, %out: f32):
      %1315 = arith.mulf %in, %in_518 : f32
      linalg.yield %1315 : f32
    } -> tensor<1x32x16x16xf32>
    %padded_378 = tensor.pad %6 low[0, 0, 1, 1] high[0, 0, 1, 1] {
    ^bb0(%arg1: index, %arg2: index, %arg3: index, %arg4: index):
      tensor.yield %cst_374 : f32
    } : tensor<1x32x16x16xf32> to tensor<1x32x18x18xf32>
    %7 = linalg.conv_2d_nchw_fchw {dilations = dense<1> : vector<2xi64>, strides = dense<1> : vector<2xi64>} ins(%padded_378, %cst_370 : tensor<1x32x18x18xf32>, tensor<32x32x3x3xf32>) outs(%1 : tensor<1x32x16x16xf32>) -> tensor<1x32x16x16xf32>
    cf.assert %3, "training is not supported for now"
    %8 = linalg.generic {indexing_maps = [#map, #map1, #map1, #map1, #map1, #map], iterator_types = ["parallel", "parallel", "parallel", "parallel"]} ins(%7, %cst_372, %cst_371, %cst_371, %cst_372 : tensor<1x32x16x16xf32>, tensor<32xf32>, tensor<32xf32>, tensor<32xf32>, tensor<32xf32>) outs(%7 : tensor<1x32x16x16xf32>) {
    ^bb0(%in: f32, %in_518: f32, %in_519: f32, %in_520: f32, %in_521: f32, %out: f32):
      %1315 = arith.truncf %cst_375 : f64 to f32
      %1316 = arith.addf %in_521, %1315 : f32
      %1317 = math.rsqrt %1316 : f32
      %1318 = arith.subf %in, %in_520 : f32
      %1319 = arith.mulf %1318, %1317 : f32
      %1320 = arith.mulf %1319, %in_518 : f32
      %1321 = arith.addf %1320, %in_519 : f32
      linalg.yield %1321 : f32
    } -> tensor<1x32x16x16xf32>
    %9 = linalg.generic {indexing_maps = [#map2, #map], iterator_types = ["parallel", "parallel", "parallel", "parallel"]} ins(%8 : tensor<1x32x16x16xf32>) outs(%0 : tensor<1x32x16x16xf32>) {
    ^bb0(%in: f32, %out: f32):
      %1315 = arith.negf %in : f32
      %1316 = math.exp %1315 : f32
      %1317 = arith.addf %1316, %cst_377 : f32
      %1318 = arith.divf %cst_377, %1317 : f32
      linalg.yield %1318 : f32
    } -> tensor<1x32x16x16xf32>
    %10 = linalg.generic {indexing_maps = [#map2, #map2, #map], iterator_types = ["parallel", "parallel", "parallel", "parallel"]} ins(%9, %8 : tensor<1x32x16x16xf32>, tensor<1x32x16x16xf32>) outs(%0 : tensor<1x32x16x16xf32>) {
    ^bb0(%in: f32, %in_518: f32, %out: f32):
      %1315 = arith.mulf %in, %in_518 : f32
      linalg.yield %1315 : f32
    } -> tensor<1x32x16x16xf32>
    %11 = linalg.generic {indexing_maps = [#map2, #map2, #map], iterator_types = ["parallel", "parallel", "parallel", "parallel"]} ins(%10, %6 : tensor<1x32x16x16xf32>, tensor<1x32x16x16xf32>) outs(%0 : tensor<1x32x16x16xf32>) {
    ^bb0(%in: f32, %in_518: f32, %out: f32):
      %1315 = arith.addf %in, %in_518 : f32
      linalg.yield %1315 : f32
    } -> tensor<1x32x16x16xf32>
    %padded_379 = tensor.pad %11 low[0, 0, 1, 1] high[0, 0, 1, 1] {
    ^bb0(%arg1: index, %arg2: index, %arg3: index, %arg4: index):
      tensor.yield %cst_374 : f32
    } : tensor<1x32x16x16xf32> to tensor<1x32x18x18xf32>
    %12 = linalg.conv_2d_nchw_fchw {dilations = dense<1> : vector<2xi64>, strides = dense<1> : vector<2xi64>} ins(%padded_379, %cst_369 : tensor<1x32x18x18xf32>, tensor<32x32x3x3xf32>) outs(%1 : tensor<1x32x16x16xf32>) -> tensor<1x32x16x16xf32>
    cf.assert %3, "training is not supported for now"
    %13 = linalg.generic {indexing_maps = [#map, #map1, #map1, #map1, #map1, #map], iterator_types = ["parallel", "parallel", "parallel", "parallel"]} ins(%12, %cst_372, %cst_371, %cst_371, %cst_372 : tensor<1x32x16x16xf32>, tensor<32xf32>, tensor<32xf32>, tensor<32xf32>, tensor<32xf32>) outs(%12 : tensor<1x32x16x16xf32>) {
    ^bb0(%in: f32, %in_518: f32, %in_519: f32, %in_520: f32, %in_521: f32, %out: f32):
      %1315 = arith.truncf %cst_375 : f64 to f32
      %1316 = arith.addf %in_521, %1315 : f32
      %1317 = math.rsqrt %1316 : f32
      %1318 = arith.subf %in, %in_520 : f32
      %1319 = arith.mulf %1318, %1317 : f32
      %1320 = arith.mulf %1319, %in_518 : f32
      %1321 = arith.addf %1320, %in_519 : f32
      linalg.yield %1321 : f32
    } -> tensor<1x32x16x16xf32>
    %14 = linalg.generic {indexing_maps = [#map2, #map], iterator_types = ["parallel", "parallel", "parallel", "parallel"]} ins(%13 : tensor<1x32x16x16xf32>) outs(%0 : tensor<1x32x16x16xf32>) {
    ^bb0(%in: f32, %out: f32):
      %1315 = arith.negf %in : f32
      %1316 = math.exp %1315 : f32
      %1317 = arith.addf %1316, %cst_377 : f32
      %1318 = arith.divf %cst_377, %1317 : f32
      linalg.yield %1318 : f32
    } -> tensor<1x32x16x16xf32>
    %15 = linalg.generic {indexing_maps = [#map2, #map2, #map], iterator_types = ["parallel", "parallel", "parallel", "parallel"]} ins(%14, %13 : tensor<1x32x16x16xf32>, tensor<1x32x16x16xf32>) outs(%0 : tensor<1x32x16x16xf32>) {
    ^bb0(%in: f32, %in_518: f32, %out: f32):
      %1315 = arith.mulf %in, %in_518 : f32
      linalg.yield %1315 : f32
    } -> tensor<1x32x16x16xf32>
    %16 = linalg.generic {indexing_maps = [#map2, #map2, #map], iterator_types = ["parallel", "parallel", "parallel", "parallel"]} ins(%15, %11 : tensor<1x32x16x16xf32>, tensor<1x32x16x16xf32>) outs(%0 : tensor<1x32x16x16xf32>) {
    ^bb0(%in: f32, %in_518: f32, %out: f32):
      %1315 = arith.addf %in, %in_518 : f32
      linalg.yield %1315 : f32
    } -> tensor<1x32x16x16xf32>
    %padded_380 = tensor.pad %16 low[0, 0, 1, 1] high[0, 0, 1, 1] {
    ^bb0(%arg1: index, %arg2: index, %arg3: index, %arg4: index):
      tensor.yield %cst_374 : f32
    } : tensor<1x32x16x16xf32> to tensor<1x32x18x18xf32>
    %17 = linalg.conv_2d_nchw_fchw {dilations = dense<1> : vector<2xi64>, strides = dense<1> : vector<2xi64>} ins(%padded_380, %cst_368 : tensor<1x32x18x18xf32>, tensor<32x32x3x3xf32>) outs(%1 : tensor<1x32x16x16xf32>) -> tensor<1x32x16x16xf32>
    cf.assert %3, "training is not supported for now"
    %18 = linalg.generic {indexing_maps = [#map, #map1, #map1, #map1, #map1, #map], iterator_types = ["parallel", "parallel", "parallel", "parallel"]} ins(%17, %cst_372, %cst_371, %cst_371, %cst_372 : tensor<1x32x16x16xf32>, tensor<32xf32>, tensor<32xf32>, tensor<32xf32>, tensor<32xf32>) outs(%17 : tensor<1x32x16x16xf32>) {
    ^bb0(%in: f32, %in_518: f32, %in_519: f32, %in_520: f32, %in_521: f32, %out: f32):
      %1315 = arith.truncf %cst_375 : f64 to f32
      %1316 = arith.addf %in_521, %1315 : f32
      %1317 = math.rsqrt %1316 : f32
      %1318 = arith.subf %in, %in_520 : f32
      %1319 = arith.mulf %1318, %1317 : f32
      %1320 = arith.mulf %1319, %in_518 : f32
      %1321 = arith.addf %1320, %in_519 : f32
      linalg.yield %1321 : f32
    } -> tensor<1x32x16x16xf32>
    %19 = linalg.generic {indexing_maps = [#map2, #map], iterator_types = ["parallel", "parallel", "parallel", "parallel"]} ins(%18 : tensor<1x32x16x16xf32>) outs(%0 : tensor<1x32x16x16xf32>) {
    ^bb0(%in: f32, %out: f32):
      %1315 = arith.negf %in : f32
      %1316 = math.exp %1315 : f32
      %1317 = arith.addf %1316, %cst_377 : f32
      %1318 = arith.divf %cst_377, %1317 : f32
      linalg.yield %1318 : f32
    } -> tensor<1x32x16x16xf32>
    %20 = linalg.generic {indexing_maps = [#map2, #map2, #map], iterator_types = ["parallel", "parallel", "parallel", "parallel"]} ins(%19, %18 : tensor<1x32x16x16xf32>, tensor<1x32x16x16xf32>) outs(%0 : tensor<1x32x16x16xf32>) {
    ^bb0(%in: f32, %in_518: f32, %out: f32):
      %1315 = arith.mulf %in, %in_518 : f32
      linalg.yield %1315 : f32
    } -> tensor<1x32x16x16xf32>
    %21 = linalg.generic {indexing_maps = [#map2, #map2, #map], iterator_types = ["parallel", "parallel", "parallel", "parallel"]} ins(%20, %16 : tensor<1x32x16x16xf32>, tensor<1x32x16x16xf32>) outs(%0 : tensor<1x32x16x16xf32>) {
    ^bb0(%in: f32, %in_518: f32, %out: f32):
      %1315 = arith.addf %in, %in_518 : f32
      linalg.yield %1315 : f32
    } -> tensor<1x32x16x16xf32>
    %padded_381 = tensor.pad %21 low[0, 0, 1, 1] high[0, 0, 1, 1] {
    ^bb0(%arg1: index, %arg2: index, %arg3: index, %arg4: index):
      tensor.yield %cst_374 : f32
    } : tensor<1x32x16x16xf32> to tensor<1x32x18x18xf32>
    %22 = linalg.conv_2d_nchw_fchw {dilations = dense<1> : vector<2xi64>, strides = dense<1> : vector<2xi64>} ins(%padded_381, %cst_367 : tensor<1x32x18x18xf32>, tensor<32x32x3x3xf32>) outs(%1 : tensor<1x32x16x16xf32>) -> tensor<1x32x16x16xf32>
    cf.assert %3, "training is not supported for now"
    %23 = linalg.generic {indexing_maps = [#map, #map1, #map1, #map1, #map1, #map], iterator_types = ["parallel", "parallel", "parallel", "parallel"]} ins(%22, %cst_372, %cst_371, %cst_371, %cst_372 : tensor<1x32x16x16xf32>, tensor<32xf32>, tensor<32xf32>, tensor<32xf32>, tensor<32xf32>) outs(%22 : tensor<1x32x16x16xf32>) {
    ^bb0(%in: f32, %in_518: f32, %in_519: f32, %in_520: f32, %in_521: f32, %out: f32):
      %1315 = arith.truncf %cst_375 : f64 to f32
      %1316 = arith.addf %in_521, %1315 : f32
      %1317 = math.rsqrt %1316 : f32
      %1318 = arith.subf %in, %in_520 : f32
      %1319 = arith.mulf %1318, %1317 : f32
      %1320 = arith.mulf %1319, %in_518 : f32
      %1321 = arith.addf %1320, %in_519 : f32
      linalg.yield %1321 : f32
    } -> tensor<1x32x16x16xf32>
    %24 = linalg.generic {indexing_maps = [#map2, #map], iterator_types = ["parallel", "parallel", "parallel", "parallel"]} ins(%23 : tensor<1x32x16x16xf32>) outs(%0 : tensor<1x32x16x16xf32>) {
    ^bb0(%in: f32, %out: f32):
      %1315 = arith.negf %in : f32
      %1316 = math.exp %1315 : f32
      %1317 = arith.addf %1316, %cst_377 : f32
      %1318 = arith.divf %cst_377, %1317 : f32
      linalg.yield %1318 : f32
    } -> tensor<1x32x16x16xf32>
    %25 = linalg.generic {indexing_maps = [#map2, #map2, #map], iterator_types = ["parallel", "parallel", "parallel", "parallel"]} ins(%24, %23 : tensor<1x32x16x16xf32>, tensor<1x32x16x16xf32>) outs(%0 : tensor<1x32x16x16xf32>) {
    ^bb0(%in: f32, %in_518: f32, %out: f32):
      %1315 = arith.mulf %in, %in_518 : f32
      linalg.yield %1315 : f32
    } -> tensor<1x32x16x16xf32>
    %26 = linalg.generic {indexing_maps = [#map2, #map2, #map], iterator_types = ["parallel", "parallel", "parallel", "parallel"]} ins(%25, %21 : tensor<1x32x16x16xf32>, tensor<1x32x16x16xf32>) outs(%0 : tensor<1x32x16x16xf32>) {
    ^bb0(%in: f32, %in_518: f32, %out: f32):
      %1315 = arith.addf %in, %in_518 : f32
      linalg.yield %1315 : f32
    } -> tensor<1x32x16x16xf32>
    %padded_382 = tensor.pad %26 low[0, 0, 1, 1] high[0, 0, 1, 1] {
    ^bb0(%arg1: index, %arg2: index, %arg3: index, %arg4: index):
      tensor.yield %cst_374 : f32
    } : tensor<1x32x16x16xf32> to tensor<1x32x18x18xf32>
    %27 = tensor.empty() : tensor<1x128x8x8xf32>
    %28 = linalg.fill ins(%cst_374 : f32) outs(%27 : tensor<1x128x8x8xf32>) -> tensor<1x128x8x8xf32>
    %29 = linalg.conv_2d_nchw_fchw {dilations = dense<1> : vector<2xi64>, strides = dense<2> : vector<2xi64>} ins(%padded_382, %cst_366 : tensor<1x32x18x18xf32>, tensor<128x32x3x3xf32>) outs(%28 : tensor<1x128x8x8xf32>) -> tensor<1x128x8x8xf32>
    cf.assert %3, "training is not supported for now"
    %30 = linalg.generic {indexing_maps = [#map, #map1, #map1, #map1, #map1, #map], iterator_types = ["parallel", "parallel", "parallel", "parallel"]} ins(%29, %cst_365, %cst_364, %cst_364, %cst_365 : tensor<1x128x8x8xf32>, tensor<128xf32>, tensor<128xf32>, tensor<128xf32>, tensor<128xf32>) outs(%29 : tensor<1x128x8x8xf32>) {
    ^bb0(%in: f32, %in_518: f32, %in_519: f32, %in_520: f32, %in_521: f32, %out: f32):
      %1315 = arith.truncf %cst_375 : f64 to f32
      %1316 = arith.addf %in_521, %1315 : f32
      %1317 = math.rsqrt %1316 : f32
      %1318 = arith.subf %in, %in_520 : f32
      %1319 = arith.mulf %1318, %1317 : f32
      %1320 = arith.mulf %1319, %in_518 : f32
      %1321 = arith.addf %1320, %in_519 : f32
      linalg.yield %1321 : f32
    } -> tensor<1x128x8x8xf32>
    %31 = linalg.generic {indexing_maps = [#map2, #map], iterator_types = ["parallel", "parallel", "parallel", "parallel"]} ins(%30 : tensor<1x128x8x8xf32>) outs(%27 : tensor<1x128x8x8xf32>) {
    ^bb0(%in: f32, %out: f32):
      %1315 = arith.negf %in : f32
      %1316 = math.exp %1315 : f32
      %1317 = arith.addf %1316, %cst_377 : f32
      %1318 = arith.divf %cst_377, %1317 : f32
      linalg.yield %1318 : f32
    } -> tensor<1x128x8x8xf32>
    %32 = linalg.generic {indexing_maps = [#map2, #map2, #map], iterator_types = ["parallel", "parallel", "parallel", "parallel"]} ins(%31, %30 : tensor<1x128x8x8xf32>, tensor<1x128x8x8xf32>) outs(%27 : tensor<1x128x8x8xf32>) {
    ^bb0(%in: f32, %in_518: f32, %out: f32):
      %1315 = arith.mulf %in, %in_518 : f32
      linalg.yield %1315 : f32
    } -> tensor<1x128x8x8xf32>
    %33 = tensor.empty() : tensor<1x64x8x8xf32>
    %34 = linalg.fill ins(%cst_374 : f32) outs(%33 : tensor<1x64x8x8xf32>) -> tensor<1x64x8x8xf32>
    %35 = linalg.conv_2d_nchw_fchw {dilations = dense<1> : vector<2xi64>, strides = dense<1> : vector<2xi64>} ins(%32, %cst_363 : tensor<1x128x8x8xf32>, tensor<64x128x1x1xf32>) outs(%34 : tensor<1x64x8x8xf32>) -> tensor<1x64x8x8xf32>
    cf.assert %3, "training is not supported for now"
    %36 = linalg.generic {indexing_maps = [#map, #map1, #map1, #map1, #map1, #map], iterator_types = ["parallel", "parallel", "parallel", "parallel"]} ins(%35, %cst_362, %cst_361, %cst_361, %cst_362 : tensor<1x64x8x8xf32>, tensor<64xf32>, tensor<64xf32>, tensor<64xf32>, tensor<64xf32>) outs(%35 : tensor<1x64x8x8xf32>) {
    ^bb0(%in: f32, %in_518: f32, %in_519: f32, %in_520: f32, %in_521: f32, %out: f32):
      %1315 = arith.truncf %cst_375 : f64 to f32
      %1316 = arith.addf %in_521, %1315 : f32
      %1317 = math.rsqrt %1316 : f32
      %1318 = arith.subf %in, %in_520 : f32
      %1319 = arith.mulf %1318, %1317 : f32
      %1320 = arith.mulf %1319, %in_518 : f32
      %1321 = arith.addf %1320, %in_519 : f32
      linalg.yield %1321 : f32
    } -> tensor<1x64x8x8xf32>
    %padded_383 = tensor.pad %36 low[0, 0, 1, 1] high[0, 0, 1, 1] {
    ^bb0(%arg1: index, %arg2: index, %arg3: index, %arg4: index):
      tensor.yield %cst_374 : f32
    } : tensor<1x64x8x8xf32> to tensor<1x64x10x10xf32>
    %37 = tensor.empty() : tensor<1x256x8x8xf32>
    %38 = linalg.fill ins(%cst_374 : f32) outs(%37 : tensor<1x256x8x8xf32>) -> tensor<1x256x8x8xf32>
    %39 = linalg.conv_2d_nchw_fchw {dilations = dense<1> : vector<2xi64>, strides = dense<1> : vector<2xi64>} ins(%padded_383, %cst_360 : tensor<1x64x10x10xf32>, tensor<256x64x3x3xf32>) outs(%38 : tensor<1x256x8x8xf32>) -> tensor<1x256x8x8xf32>
    cf.assert %3, "training is not supported for now"
    %40 = linalg.generic {indexing_maps = [#map, #map1, #map1, #map1, #map1, #map], iterator_types = ["parallel", "parallel", "parallel", "parallel"]} ins(%39, %cst_359, %cst_358, %cst_358, %cst_359 : tensor<1x256x8x8xf32>, tensor<256xf32>, tensor<256xf32>, tensor<256xf32>, tensor<256xf32>) outs(%39 : tensor<1x256x8x8xf32>) {
    ^bb0(%in: f32, %in_518: f32, %in_519: f32, %in_520: f32, %in_521: f32, %out: f32):
      %1315 = arith.truncf %cst_375 : f64 to f32
      %1316 = arith.addf %in_521, %1315 : f32
      %1317 = math.rsqrt %1316 : f32
      %1318 = arith.subf %in, %in_520 : f32
      %1319 = arith.mulf %1318, %1317 : f32
      %1320 = arith.mulf %1319, %in_518 : f32
      %1321 = arith.addf %1320, %in_519 : f32
      linalg.yield %1321 : f32
    } -> tensor<1x256x8x8xf32>
    %41 = linalg.generic {indexing_maps = [#map2, #map], iterator_types = ["parallel", "parallel", "parallel", "parallel"]} ins(%40 : tensor<1x256x8x8xf32>) outs(%37 : tensor<1x256x8x8xf32>) {
    ^bb0(%in: f32, %out: f32):
      %1315 = arith.negf %in : f32
      %1316 = math.exp %1315 : f32
      %1317 = arith.addf %1316, %cst_377 : f32
      %1318 = arith.divf %cst_377, %1317 : f32
      linalg.yield %1318 : f32
    } -> tensor<1x256x8x8xf32>
    %42 = linalg.generic {indexing_maps = [#map2, #map2, #map], iterator_types = ["parallel", "parallel", "parallel", "parallel"]} ins(%41, %40 : tensor<1x256x8x8xf32>, tensor<1x256x8x8xf32>) outs(%37 : tensor<1x256x8x8xf32>) {
    ^bb0(%in: f32, %in_518: f32, %out: f32):
      %1315 = arith.mulf %in, %in_518 : f32
      linalg.yield %1315 : f32
    } -> tensor<1x256x8x8xf32>
    %43 = linalg.conv_2d_nchw_fchw {dilations = dense<1> : vector<2xi64>, strides = dense<1> : vector<2xi64>} ins(%42, %cst_357 : tensor<1x256x8x8xf32>, tensor<64x256x1x1xf32>) outs(%34 : tensor<1x64x8x8xf32>) -> tensor<1x64x8x8xf32>
    cf.assert %3, "training is not supported for now"
    %44 = linalg.generic {indexing_maps = [#map, #map1, #map1, #map1, #map1, #map], iterator_types = ["parallel", "parallel", "parallel", "parallel"]} ins(%43, %cst_362, %cst_361, %cst_361, %cst_362 : tensor<1x64x8x8xf32>, tensor<64xf32>, tensor<64xf32>, tensor<64xf32>, tensor<64xf32>) outs(%43 : tensor<1x64x8x8xf32>) {
    ^bb0(%in: f32, %in_518: f32, %in_519: f32, %in_520: f32, %in_521: f32, %out: f32):
      %1315 = arith.truncf %cst_375 : f64 to f32
      %1316 = arith.addf %in_521, %1315 : f32
      %1317 = math.rsqrt %1316 : f32
      %1318 = arith.subf %in, %in_520 : f32
      %1319 = arith.mulf %1318, %1317 : f32
      %1320 = arith.mulf %1319, %in_518 : f32
      %1321 = arith.addf %1320, %in_519 : f32
      linalg.yield %1321 : f32
    } -> tensor<1x64x8x8xf32>
    %45 = linalg.generic {indexing_maps = [#map2, #map2, #map], iterator_types = ["parallel", "parallel", "parallel", "parallel"]} ins(%44, %36 : tensor<1x64x8x8xf32>, tensor<1x64x8x8xf32>) outs(%33 : tensor<1x64x8x8xf32>) {
    ^bb0(%in: f32, %in_518: f32, %out: f32):
      %1315 = arith.addf %in, %in_518 : f32
      linalg.yield %1315 : f32
    } -> tensor<1x64x8x8xf32>
    %padded_384 = tensor.pad %45 low[0, 0, 1, 1] high[0, 0, 1, 1] {
    ^bb0(%arg1: index, %arg2: index, %arg3: index, %arg4: index):
      tensor.yield %cst_374 : f32
    } : tensor<1x64x8x8xf32> to tensor<1x64x10x10xf32>
    %46 = linalg.conv_2d_nchw_fchw {dilations = dense<1> : vector<2xi64>, strides = dense<1> : vector<2xi64>} ins(%padded_384, %cst_356 : tensor<1x64x10x10xf32>, tensor<256x64x3x3xf32>) outs(%38 : tensor<1x256x8x8xf32>) -> tensor<1x256x8x8xf32>
    cf.assert %3, "training is not supported for now"
    %47 = linalg.generic {indexing_maps = [#map, #map1, #map1, #map1, #map1, #map], iterator_types = ["parallel", "parallel", "parallel", "parallel"]} ins(%46, %cst_359, %cst_358, %cst_358, %cst_359 : tensor<1x256x8x8xf32>, tensor<256xf32>, tensor<256xf32>, tensor<256xf32>, tensor<256xf32>) outs(%46 : tensor<1x256x8x8xf32>) {
    ^bb0(%in: f32, %in_518: f32, %in_519: f32, %in_520: f32, %in_521: f32, %out: f32):
      %1315 = arith.truncf %cst_375 : f64 to f32
      %1316 = arith.addf %in_521, %1315 : f32
      %1317 = math.rsqrt %1316 : f32
      %1318 = arith.subf %in, %in_520 : f32
      %1319 = arith.mulf %1318, %1317 : f32
      %1320 = arith.mulf %1319, %in_518 : f32
      %1321 = arith.addf %1320, %in_519 : f32
      linalg.yield %1321 : f32
    } -> tensor<1x256x8x8xf32>
    %48 = linalg.generic {indexing_maps = [#map2, #map], iterator_types = ["parallel", "parallel", "parallel", "parallel"]} ins(%47 : tensor<1x256x8x8xf32>) outs(%37 : tensor<1x256x8x8xf32>) {
    ^bb0(%in: f32, %out: f32):
      %1315 = arith.negf %in : f32
      %1316 = math.exp %1315 : f32
      %1317 = arith.addf %1316, %cst_377 : f32
      %1318 = arith.divf %cst_377, %1317 : f32
      linalg.yield %1318 : f32
    } -> tensor<1x256x8x8xf32>
    %49 = linalg.generic {indexing_maps = [#map2, #map2, #map], iterator_types = ["parallel", "parallel", "parallel", "parallel"]} ins(%48, %47 : tensor<1x256x8x8xf32>, tensor<1x256x8x8xf32>) outs(%37 : tensor<1x256x8x8xf32>) {
    ^bb0(%in: f32, %in_518: f32, %out: f32):
      %1315 = arith.mulf %in, %in_518 : f32
      linalg.yield %1315 : f32
    } -> tensor<1x256x8x8xf32>
    %50 = linalg.conv_2d_nchw_fchw {dilations = dense<1> : vector<2xi64>, strides = dense<1> : vector<2xi64>} ins(%49, %cst_355 : tensor<1x256x8x8xf32>, tensor<64x256x1x1xf32>) outs(%34 : tensor<1x64x8x8xf32>) -> tensor<1x64x8x8xf32>
    cf.assert %3, "training is not supported for now"
    %51 = linalg.generic {indexing_maps = [#map, #map1, #map1, #map1, #map1, #map], iterator_types = ["parallel", "parallel", "parallel", "parallel"]} ins(%50, %cst_362, %cst_361, %cst_361, %cst_362 : tensor<1x64x8x8xf32>, tensor<64xf32>, tensor<64xf32>, tensor<64xf32>, tensor<64xf32>) outs(%50 : tensor<1x64x8x8xf32>) {
    ^bb0(%in: f32, %in_518: f32, %in_519: f32, %in_520: f32, %in_521: f32, %out: f32):
      %1315 = arith.truncf %cst_375 : f64 to f32
      %1316 = arith.addf %in_521, %1315 : f32
      %1317 = math.rsqrt %1316 : f32
      %1318 = arith.subf %in, %in_520 : f32
      %1319 = arith.mulf %1318, %1317 : f32
      %1320 = arith.mulf %1319, %in_518 : f32
      %1321 = arith.addf %1320, %in_519 : f32
      linalg.yield %1321 : f32
    } -> tensor<1x64x8x8xf32>
    %52 = linalg.generic {indexing_maps = [#map2, #map2, #map], iterator_types = ["parallel", "parallel", "parallel", "parallel"]} ins(%51, %45 : tensor<1x64x8x8xf32>, tensor<1x64x8x8xf32>) outs(%33 : tensor<1x64x8x8xf32>) {
    ^bb0(%in: f32, %in_518: f32, %out: f32):
      %1315 = arith.addf %in, %in_518 : f32
      linalg.yield %1315 : f32
    } -> tensor<1x64x8x8xf32>
    %padded_385 = tensor.pad %52 low[0, 0, 1, 1] high[0, 0, 1, 1] {
    ^bb0(%arg1: index, %arg2: index, %arg3: index, %arg4: index):
      tensor.yield %cst_374 : f32
    } : tensor<1x64x8x8xf32> to tensor<1x64x10x10xf32>
    %53 = linalg.conv_2d_nchw_fchw {dilations = dense<1> : vector<2xi64>, strides = dense<1> : vector<2xi64>} ins(%padded_385, %cst_354 : tensor<1x64x10x10xf32>, tensor<256x64x3x3xf32>) outs(%38 : tensor<1x256x8x8xf32>) -> tensor<1x256x8x8xf32>
    cf.assert %3, "training is not supported for now"
    %54 = linalg.generic {indexing_maps = [#map, #map1, #map1, #map1, #map1, #map], iterator_types = ["parallel", "parallel", "parallel", "parallel"]} ins(%53, %cst_359, %cst_358, %cst_358, %cst_359 : tensor<1x256x8x8xf32>, tensor<256xf32>, tensor<256xf32>, tensor<256xf32>, tensor<256xf32>) outs(%53 : tensor<1x256x8x8xf32>) {
    ^bb0(%in: f32, %in_518: f32, %in_519: f32, %in_520: f32, %in_521: f32, %out: f32):
      %1315 = arith.truncf %cst_375 : f64 to f32
      %1316 = arith.addf %in_521, %1315 : f32
      %1317 = math.rsqrt %1316 : f32
      %1318 = arith.subf %in, %in_520 : f32
      %1319 = arith.mulf %1318, %1317 : f32
      %1320 = arith.mulf %1319, %in_518 : f32
      %1321 = arith.addf %1320, %in_519 : f32
      linalg.yield %1321 : f32
    } -> tensor<1x256x8x8xf32>
    %55 = linalg.generic {indexing_maps = [#map2, #map], iterator_types = ["parallel", "parallel", "parallel", "parallel"]} ins(%54 : tensor<1x256x8x8xf32>) outs(%37 : tensor<1x256x8x8xf32>) {
    ^bb0(%in: f32, %out: f32):
      %1315 = arith.negf %in : f32
      %1316 = math.exp %1315 : f32
      %1317 = arith.addf %1316, %cst_377 : f32
      %1318 = arith.divf %cst_377, %1317 : f32
      linalg.yield %1318 : f32
    } -> tensor<1x256x8x8xf32>
    %56 = linalg.generic {indexing_maps = [#map2, #map2, #map], iterator_types = ["parallel", "parallel", "parallel", "parallel"]} ins(%55, %54 : tensor<1x256x8x8xf32>, tensor<1x256x8x8xf32>) outs(%37 : tensor<1x256x8x8xf32>) {
    ^bb0(%in: f32, %in_518: f32, %out: f32):
      %1315 = arith.mulf %in, %in_518 : f32
      linalg.yield %1315 : f32
    } -> tensor<1x256x8x8xf32>
    %57 = linalg.conv_2d_nchw_fchw {dilations = dense<1> : vector<2xi64>, strides = dense<1> : vector<2xi64>} ins(%56, %cst_353 : tensor<1x256x8x8xf32>, tensor<64x256x1x1xf32>) outs(%34 : tensor<1x64x8x8xf32>) -> tensor<1x64x8x8xf32>
    cf.assert %3, "training is not supported for now"
    %58 = linalg.generic {indexing_maps = [#map, #map1, #map1, #map1, #map1, #map], iterator_types = ["parallel", "parallel", "parallel", "parallel"]} ins(%57, %cst_362, %cst_361, %cst_361, %cst_362 : tensor<1x64x8x8xf32>, tensor<64xf32>, tensor<64xf32>, tensor<64xf32>, tensor<64xf32>) outs(%57 : tensor<1x64x8x8xf32>) {
    ^bb0(%in: f32, %in_518: f32, %in_519: f32, %in_520: f32, %in_521: f32, %out: f32):
      %1315 = arith.truncf %cst_375 : f64 to f32
      %1316 = arith.addf %in_521, %1315 : f32
      %1317 = math.rsqrt %1316 : f32
      %1318 = arith.subf %in, %in_520 : f32
      %1319 = arith.mulf %1318, %1317 : f32
      %1320 = arith.mulf %1319, %in_518 : f32
      %1321 = arith.addf %1320, %in_519 : f32
      linalg.yield %1321 : f32
    } -> tensor<1x64x8x8xf32>
    %59 = linalg.generic {indexing_maps = [#map2, #map2, #map], iterator_types = ["parallel", "parallel", "parallel", "parallel"]} ins(%58, %52 : tensor<1x64x8x8xf32>, tensor<1x64x8x8xf32>) outs(%33 : tensor<1x64x8x8xf32>) {
    ^bb0(%in: f32, %in_518: f32, %out: f32):
      %1315 = arith.addf %in, %in_518 : f32
      linalg.yield %1315 : f32
    } -> tensor<1x64x8x8xf32>
    %padded_386 = tensor.pad %59 low[0, 0, 1, 1] high[0, 0, 1, 1] {
    ^bb0(%arg1: index, %arg2: index, %arg3: index, %arg4: index):
      tensor.yield %cst_374 : f32
    } : tensor<1x64x8x8xf32> to tensor<1x64x10x10xf32>
    %60 = linalg.conv_2d_nchw_fchw {dilations = dense<1> : vector<2xi64>, strides = dense<1> : vector<2xi64>} ins(%padded_386, %cst_352 : tensor<1x64x10x10xf32>, tensor<256x64x3x3xf32>) outs(%38 : tensor<1x256x8x8xf32>) -> tensor<1x256x8x8xf32>
    cf.assert %3, "training is not supported for now"
    %61 = linalg.generic {indexing_maps = [#map, #map1, #map1, #map1, #map1, #map], iterator_types = ["parallel", "parallel", "parallel", "parallel"]} ins(%60, %cst_359, %cst_358, %cst_358, %cst_359 : tensor<1x256x8x8xf32>, tensor<256xf32>, tensor<256xf32>, tensor<256xf32>, tensor<256xf32>) outs(%60 : tensor<1x256x8x8xf32>) {
    ^bb0(%in: f32, %in_518: f32, %in_519: f32, %in_520: f32, %in_521: f32, %out: f32):
      %1315 = arith.truncf %cst_375 : f64 to f32
      %1316 = arith.addf %in_521, %1315 : f32
      %1317 = math.rsqrt %1316 : f32
      %1318 = arith.subf %in, %in_520 : f32
      %1319 = arith.mulf %1318, %1317 : f32
      %1320 = arith.mulf %1319, %in_518 : f32
      %1321 = arith.addf %1320, %in_519 : f32
      linalg.yield %1321 : f32
    } -> tensor<1x256x8x8xf32>
    %62 = linalg.generic {indexing_maps = [#map2, #map], iterator_types = ["parallel", "parallel", "parallel", "parallel"]} ins(%61 : tensor<1x256x8x8xf32>) outs(%37 : tensor<1x256x8x8xf32>) {
    ^bb0(%in: f32, %out: f32):
      %1315 = arith.negf %in : f32
      %1316 = math.exp %1315 : f32
      %1317 = arith.addf %1316, %cst_377 : f32
      %1318 = arith.divf %cst_377, %1317 : f32
      linalg.yield %1318 : f32
    } -> tensor<1x256x8x8xf32>
    %63 = linalg.generic {indexing_maps = [#map2, #map2, #map], iterator_types = ["parallel", "parallel", "parallel", "parallel"]} ins(%62, %61 : tensor<1x256x8x8xf32>, tensor<1x256x8x8xf32>) outs(%37 : tensor<1x256x8x8xf32>) {
    ^bb0(%in: f32, %in_518: f32, %out: f32):
      %1315 = arith.mulf %in, %in_518 : f32
      linalg.yield %1315 : f32
    } -> tensor<1x256x8x8xf32>
    %64 = linalg.conv_2d_nchw_fchw {dilations = dense<1> : vector<2xi64>, strides = dense<1> : vector<2xi64>} ins(%63, %cst_351 : tensor<1x256x8x8xf32>, tensor<64x256x1x1xf32>) outs(%34 : tensor<1x64x8x8xf32>) -> tensor<1x64x8x8xf32>
    cf.assert %3, "training is not supported for now"
    %65 = linalg.generic {indexing_maps = [#map, #map1, #map1, #map1, #map1, #map], iterator_types = ["parallel", "parallel", "parallel", "parallel"]} ins(%64, %cst_362, %cst_361, %cst_361, %cst_362 : tensor<1x64x8x8xf32>, tensor<64xf32>, tensor<64xf32>, tensor<64xf32>, tensor<64xf32>) outs(%64 : tensor<1x64x8x8xf32>) {
    ^bb0(%in: f32, %in_518: f32, %in_519: f32, %in_520: f32, %in_521: f32, %out: f32):
      %1315 = arith.truncf %cst_375 : f64 to f32
      %1316 = arith.addf %in_521, %1315 : f32
      %1317 = math.rsqrt %1316 : f32
      %1318 = arith.subf %in, %in_520 : f32
      %1319 = arith.mulf %1318, %1317 : f32
      %1320 = arith.mulf %1319, %in_518 : f32
      %1321 = arith.addf %1320, %in_519 : f32
      linalg.yield %1321 : f32
    } -> tensor<1x64x8x8xf32>
    %66 = linalg.generic {indexing_maps = [#map2, #map2, #map], iterator_types = ["parallel", "parallel", "parallel", "parallel"]} ins(%65, %59 : tensor<1x64x8x8xf32>, tensor<1x64x8x8xf32>) outs(%33 : tensor<1x64x8x8xf32>) {
    ^bb0(%in: f32, %in_518: f32, %out: f32):
      %1315 = arith.addf %in, %in_518 : f32
      linalg.yield %1315 : f32
    } -> tensor<1x64x8x8xf32>
    %padded_387 = tensor.pad %66 low[0, 0, 1, 1] high[0, 0, 1, 1] {
    ^bb0(%arg1: index, %arg2: index, %arg3: index, %arg4: index):
      tensor.yield %cst_374 : f32
    } : tensor<1x64x8x8xf32> to tensor<1x64x10x10xf32>
    %67 = linalg.conv_2d_nchw_fchw {dilations = dense<1> : vector<2xi64>, strides = dense<1> : vector<2xi64>} ins(%padded_387, %cst_350 : tensor<1x64x10x10xf32>, tensor<256x64x3x3xf32>) outs(%38 : tensor<1x256x8x8xf32>) -> tensor<1x256x8x8xf32>
    cf.assert %3, "training is not supported for now"
    %68 = linalg.generic {indexing_maps = [#map, #map1, #map1, #map1, #map1, #map], iterator_types = ["parallel", "parallel", "parallel", "parallel"]} ins(%67, %cst_359, %cst_358, %cst_358, %cst_359 : tensor<1x256x8x8xf32>, tensor<256xf32>, tensor<256xf32>, tensor<256xf32>, tensor<256xf32>) outs(%67 : tensor<1x256x8x8xf32>) {
    ^bb0(%in: f32, %in_518: f32, %in_519: f32, %in_520: f32, %in_521: f32, %out: f32):
      %1315 = arith.truncf %cst_375 : f64 to f32
      %1316 = arith.addf %in_521, %1315 : f32
      %1317 = math.rsqrt %1316 : f32
      %1318 = arith.subf %in, %in_520 : f32
      %1319 = arith.mulf %1318, %1317 : f32
      %1320 = arith.mulf %1319, %in_518 : f32
      %1321 = arith.addf %1320, %in_519 : f32
      linalg.yield %1321 : f32
    } -> tensor<1x256x8x8xf32>
    %69 = linalg.generic {indexing_maps = [#map2, #map], iterator_types = ["parallel", "parallel", "parallel", "parallel"]} ins(%68 : tensor<1x256x8x8xf32>) outs(%37 : tensor<1x256x8x8xf32>) {
    ^bb0(%in: f32, %out: f32):
      %1315 = arith.negf %in : f32
      %1316 = math.exp %1315 : f32
      %1317 = arith.addf %1316, %cst_377 : f32
      %1318 = arith.divf %cst_377, %1317 : f32
      linalg.yield %1318 : f32
    } -> tensor<1x256x8x8xf32>
    %70 = linalg.generic {indexing_maps = [#map2, #map2, #map], iterator_types = ["parallel", "parallel", "parallel", "parallel"]} ins(%69, %68 : tensor<1x256x8x8xf32>, tensor<1x256x8x8xf32>) outs(%37 : tensor<1x256x8x8xf32>) {
    ^bb0(%in: f32, %in_518: f32, %out: f32):
      %1315 = arith.mulf %in, %in_518 : f32
      linalg.yield %1315 : f32
    } -> tensor<1x256x8x8xf32>
    %71 = linalg.conv_2d_nchw_fchw {dilations = dense<1> : vector<2xi64>, strides = dense<1> : vector<2xi64>} ins(%70, %cst_349 : tensor<1x256x8x8xf32>, tensor<64x256x1x1xf32>) outs(%34 : tensor<1x64x8x8xf32>) -> tensor<1x64x8x8xf32>
    cf.assert %3, "training is not supported for now"
    %72 = linalg.generic {indexing_maps = [#map, #map1, #map1, #map1, #map1, #map], iterator_types = ["parallel", "parallel", "parallel", "parallel"]} ins(%71, %cst_362, %cst_361, %cst_361, %cst_362 : tensor<1x64x8x8xf32>, tensor<64xf32>, tensor<64xf32>, tensor<64xf32>, tensor<64xf32>) outs(%71 : tensor<1x64x8x8xf32>) {
    ^bb0(%in: f32, %in_518: f32, %in_519: f32, %in_520: f32, %in_521: f32, %out: f32):
      %1315 = arith.truncf %cst_375 : f64 to f32
      %1316 = arith.addf %in_521, %1315 : f32
      %1317 = math.rsqrt %1316 : f32
      %1318 = arith.subf %in, %in_520 : f32
      %1319 = arith.mulf %1318, %1317 : f32
      %1320 = arith.mulf %1319, %in_518 : f32
      %1321 = arith.addf %1320, %in_519 : f32
      linalg.yield %1321 : f32
    } -> tensor<1x64x8x8xf32>
    %73 = linalg.generic {indexing_maps = [#map2, #map2, #map], iterator_types = ["parallel", "parallel", "parallel", "parallel"]} ins(%72, %66 : tensor<1x64x8x8xf32>, tensor<1x64x8x8xf32>) outs(%33 : tensor<1x64x8x8xf32>) {
    ^bb0(%in: f32, %in_518: f32, %out: f32):
      %1315 = arith.addf %in, %in_518 : f32
      linalg.yield %1315 : f32
    } -> tensor<1x64x8x8xf32>
    %padded_388 = tensor.pad %73 low[0, 0, 1, 1] high[0, 0, 1, 1] {
    ^bb0(%arg1: index, %arg2: index, %arg3: index, %arg4: index):
      tensor.yield %cst_374 : f32
    } : tensor<1x64x8x8xf32> to tensor<1x64x10x10xf32>
    %74 = linalg.conv_2d_nchw_fchw {dilations = dense<1> : vector<2xi64>, strides = dense<1> : vector<2xi64>} ins(%padded_388, %cst_348 : tensor<1x64x10x10xf32>, tensor<256x64x3x3xf32>) outs(%38 : tensor<1x256x8x8xf32>) -> tensor<1x256x8x8xf32>
    cf.assert %3, "training is not supported for now"
    %75 = linalg.generic {indexing_maps = [#map, #map1, #map1, #map1, #map1, #map], iterator_types = ["parallel", "parallel", "parallel", "parallel"]} ins(%74, %cst_359, %cst_358, %cst_358, %cst_359 : tensor<1x256x8x8xf32>, tensor<256xf32>, tensor<256xf32>, tensor<256xf32>, tensor<256xf32>) outs(%74 : tensor<1x256x8x8xf32>) {
    ^bb0(%in: f32, %in_518: f32, %in_519: f32, %in_520: f32, %in_521: f32, %out: f32):
      %1315 = arith.truncf %cst_375 : f64 to f32
      %1316 = arith.addf %in_521, %1315 : f32
      %1317 = math.rsqrt %1316 : f32
      %1318 = arith.subf %in, %in_520 : f32
      %1319 = arith.mulf %1318, %1317 : f32
      %1320 = arith.mulf %1319, %in_518 : f32
      %1321 = arith.addf %1320, %in_519 : f32
      linalg.yield %1321 : f32
    } -> tensor<1x256x8x8xf32>
    %76 = linalg.generic {indexing_maps = [#map2, #map], iterator_types = ["parallel", "parallel", "parallel", "parallel"]} ins(%75 : tensor<1x256x8x8xf32>) outs(%37 : tensor<1x256x8x8xf32>) {
    ^bb0(%in: f32, %out: f32):
      %1315 = arith.negf %in : f32
      %1316 = math.exp %1315 : f32
      %1317 = arith.addf %1316, %cst_377 : f32
      %1318 = arith.divf %cst_377, %1317 : f32
      linalg.yield %1318 : f32
    } -> tensor<1x256x8x8xf32>
    %77 = linalg.generic {indexing_maps = [#map2, #map2, #map], iterator_types = ["parallel", "parallel", "parallel", "parallel"]} ins(%76, %75 : tensor<1x256x8x8xf32>, tensor<1x256x8x8xf32>) outs(%37 : tensor<1x256x8x8xf32>) {
    ^bb0(%in: f32, %in_518: f32, %out: f32):
      %1315 = arith.mulf %in, %in_518 : f32
      linalg.yield %1315 : f32
    } -> tensor<1x256x8x8xf32>
    %78 = linalg.conv_2d_nchw_fchw {dilations = dense<1> : vector<2xi64>, strides = dense<1> : vector<2xi64>} ins(%77, %cst_347 : tensor<1x256x8x8xf32>, tensor<64x256x1x1xf32>) outs(%34 : tensor<1x64x8x8xf32>) -> tensor<1x64x8x8xf32>
    cf.assert %3, "training is not supported for now"
    %79 = linalg.generic {indexing_maps = [#map, #map1, #map1, #map1, #map1, #map], iterator_types = ["parallel", "parallel", "parallel", "parallel"]} ins(%78, %cst_362, %cst_361, %cst_361, %cst_362 : tensor<1x64x8x8xf32>, tensor<64xf32>, tensor<64xf32>, tensor<64xf32>, tensor<64xf32>) outs(%78 : tensor<1x64x8x8xf32>) {
    ^bb0(%in: f32, %in_518: f32, %in_519: f32, %in_520: f32, %in_521: f32, %out: f32):
      %1315 = arith.truncf %cst_375 : f64 to f32
      %1316 = arith.addf %in_521, %1315 : f32
      %1317 = math.rsqrt %1316 : f32
      %1318 = arith.subf %in, %in_520 : f32
      %1319 = arith.mulf %1318, %1317 : f32
      %1320 = arith.mulf %1319, %in_518 : f32
      %1321 = arith.addf %1320, %in_519 : f32
      linalg.yield %1321 : f32
    } -> tensor<1x64x8x8xf32>
    %80 = linalg.generic {indexing_maps = [#map2, #map2, #map], iterator_types = ["parallel", "parallel", "parallel", "parallel"]} ins(%79, %73 : tensor<1x64x8x8xf32>, tensor<1x64x8x8xf32>) outs(%33 : tensor<1x64x8x8xf32>) {
    ^bb0(%in: f32, %in_518: f32, %out: f32):
      %1315 = arith.addf %in, %in_518 : f32
      linalg.yield %1315 : f32
    } -> tensor<1x64x8x8xf32>
    %padded_389 = tensor.pad %80 low[0, 0, 1, 1] high[0, 0, 1, 1] {
    ^bb0(%arg1: index, %arg2: index, %arg3: index, %arg4: index):
      tensor.yield %cst_374 : f32
    } : tensor<1x64x8x8xf32> to tensor<1x64x10x10xf32>
    %81 = tensor.empty() : tensor<1x256x4x4xf32>
    %82 = linalg.fill ins(%cst_374 : f32) outs(%81 : tensor<1x256x4x4xf32>) -> tensor<1x256x4x4xf32>
    %83 = linalg.conv_2d_nchw_fchw {dilations = dense<1> : vector<2xi64>, strides = dense<2> : vector<2xi64>} ins(%padded_389, %cst_346 : tensor<1x64x10x10xf32>, tensor<256x64x3x3xf32>) outs(%82 : tensor<1x256x4x4xf32>) -> tensor<1x256x4x4xf32>
    cf.assert %3, "training is not supported for now"
    %84 = linalg.generic {indexing_maps = [#map, #map1, #map1, #map1, #map1, #map], iterator_types = ["parallel", "parallel", "parallel", "parallel"]} ins(%83, %cst_359, %cst_358, %cst_358, %cst_359 : tensor<1x256x4x4xf32>, tensor<256xf32>, tensor<256xf32>, tensor<256xf32>, tensor<256xf32>) outs(%83 : tensor<1x256x4x4xf32>) {
    ^bb0(%in: f32, %in_518: f32, %in_519: f32, %in_520: f32, %in_521: f32, %out: f32):
      %1315 = arith.truncf %cst_375 : f64 to f32
      %1316 = arith.addf %in_521, %1315 : f32
      %1317 = math.rsqrt %1316 : f32
      %1318 = arith.subf %in, %in_520 : f32
      %1319 = arith.mulf %1318, %1317 : f32
      %1320 = arith.mulf %1319, %in_518 : f32
      %1321 = arith.addf %1320, %in_519 : f32
      linalg.yield %1321 : f32
    } -> tensor<1x256x4x4xf32>
    %85 = linalg.generic {indexing_maps = [#map2, #map], iterator_types = ["parallel", "parallel", "parallel", "parallel"]} ins(%84 : tensor<1x256x4x4xf32>) outs(%81 : tensor<1x256x4x4xf32>) {
    ^bb0(%in: f32, %out: f32):
      %1315 = arith.negf %in : f32
      %1316 = math.exp %1315 : f32
      %1317 = arith.addf %1316, %cst_377 : f32
      %1318 = arith.divf %cst_377, %1317 : f32
      linalg.yield %1318 : f32
    } -> tensor<1x256x4x4xf32>
    %86 = linalg.generic {indexing_maps = [#map2, #map2, #map], iterator_types = ["parallel", "parallel", "parallel", "parallel"]} ins(%85, %84 : tensor<1x256x4x4xf32>, tensor<1x256x4x4xf32>) outs(%81 : tensor<1x256x4x4xf32>) {
    ^bb0(%in: f32, %in_518: f32, %out: f32):
      %1315 = arith.mulf %in, %in_518 : f32
      linalg.yield %1315 : f32
    } -> tensor<1x256x4x4xf32>
    %87 = tensor.empty() : tensor<1x96x4x4xf32>
    %88 = linalg.fill ins(%cst_374 : f32) outs(%87 : tensor<1x96x4x4xf32>) -> tensor<1x96x4x4xf32>
    %89 = linalg.conv_2d_nchw_fchw {dilations = dense<1> : vector<2xi64>, strides = dense<1> : vector<2xi64>} ins(%86, %cst_345 : tensor<1x256x4x4xf32>, tensor<96x256x1x1xf32>) outs(%88 : tensor<1x96x4x4xf32>) -> tensor<1x96x4x4xf32>
    cf.assert %3, "training is not supported for now"
    %90 = linalg.generic {indexing_maps = [#map, #map1, #map1, #map1, #map1, #map], iterator_types = ["parallel", "parallel", "parallel", "parallel"]} ins(%89, %cst_344, %cst_343, %cst_343, %cst_344 : tensor<1x96x4x4xf32>, tensor<96xf32>, tensor<96xf32>, tensor<96xf32>, tensor<96xf32>) outs(%89 : tensor<1x96x4x4xf32>) {
    ^bb0(%in: f32, %in_518: f32, %in_519: f32, %in_520: f32, %in_521: f32, %out: f32):
      %1315 = arith.truncf %cst_375 : f64 to f32
      %1316 = arith.addf %in_521, %1315 : f32
      %1317 = math.rsqrt %1316 : f32
      %1318 = arith.subf %in, %in_520 : f32
      %1319 = arith.mulf %1318, %1317 : f32
      %1320 = arith.mulf %1319, %in_518 : f32
      %1321 = arith.addf %1320, %in_519 : f32
      linalg.yield %1321 : f32
    } -> tensor<1x96x4x4xf32>
    %padded_390 = tensor.pad %90 low[0, 0, 1, 1] high[0, 0, 1, 1] {
    ^bb0(%arg1: index, %arg2: index, %arg3: index, %arg4: index):
      tensor.yield %cst_374 : f32
    } : tensor<1x96x4x4xf32> to tensor<1x96x6x6xf32>
    %91 = tensor.empty() : tensor<1x384x4x4xf32>
    %92 = linalg.fill ins(%cst_374 : f32) outs(%91 : tensor<1x384x4x4xf32>) -> tensor<1x384x4x4xf32>
    %93 = linalg.conv_2d_nchw_fchw {dilations = dense<1> : vector<2xi64>, strides = dense<1> : vector<2xi64>} ins(%padded_390, %cst_342 : tensor<1x96x6x6xf32>, tensor<384x96x3x3xf32>) outs(%92 : tensor<1x384x4x4xf32>) -> tensor<1x384x4x4xf32>
    cf.assert %3, "training is not supported for now"
    %94 = linalg.generic {indexing_maps = [#map, #map1, #map1, #map1, #map1, #map], iterator_types = ["parallel", "parallel", "parallel", "parallel"]} ins(%93, %cst_341, %cst_340, %cst_340, %cst_341 : tensor<1x384x4x4xf32>, tensor<384xf32>, tensor<384xf32>, tensor<384xf32>, tensor<384xf32>) outs(%93 : tensor<1x384x4x4xf32>) {
    ^bb0(%in: f32, %in_518: f32, %in_519: f32, %in_520: f32, %in_521: f32, %out: f32):
      %1315 = arith.truncf %cst_375 : f64 to f32
      %1316 = arith.addf %in_521, %1315 : f32
      %1317 = math.rsqrt %1316 : f32
      %1318 = arith.subf %in, %in_520 : f32
      %1319 = arith.mulf %1318, %1317 : f32
      %1320 = arith.mulf %1319, %in_518 : f32
      %1321 = arith.addf %1320, %in_519 : f32
      linalg.yield %1321 : f32
    } -> tensor<1x384x4x4xf32>
    %95 = linalg.generic {indexing_maps = [#map2, #map], iterator_types = ["parallel", "parallel", "parallel", "parallel"]} ins(%94 : tensor<1x384x4x4xf32>) outs(%91 : tensor<1x384x4x4xf32>) {
    ^bb0(%in: f32, %out: f32):
      %1315 = arith.negf %in : f32
      %1316 = math.exp %1315 : f32
      %1317 = arith.addf %1316, %cst_377 : f32
      %1318 = arith.divf %cst_377, %1317 : f32
      linalg.yield %1318 : f32
    } -> tensor<1x384x4x4xf32>
    %96 = linalg.generic {indexing_maps = [#map2, #map2, #map], iterator_types = ["parallel", "parallel", "parallel", "parallel"]} ins(%95, %94 : tensor<1x384x4x4xf32>, tensor<1x384x4x4xf32>) outs(%91 : tensor<1x384x4x4xf32>) {
    ^bb0(%in: f32, %in_518: f32, %out: f32):
      %1315 = arith.mulf %in, %in_518 : f32
      linalg.yield %1315 : f32
    } -> tensor<1x384x4x4xf32>
    %97 = linalg.conv_2d_nchw_fchw {dilations = dense<1> : vector<2xi64>, strides = dense<1> : vector<2xi64>} ins(%96, %cst_339 : tensor<1x384x4x4xf32>, tensor<96x384x1x1xf32>) outs(%88 : tensor<1x96x4x4xf32>) -> tensor<1x96x4x4xf32>
    cf.assert %3, "training is not supported for now"
    %98 = linalg.generic {indexing_maps = [#map, #map1, #map1, #map1, #map1, #map], iterator_types = ["parallel", "parallel", "parallel", "parallel"]} ins(%97, %cst_344, %cst_343, %cst_343, %cst_344 : tensor<1x96x4x4xf32>, tensor<96xf32>, tensor<96xf32>, tensor<96xf32>, tensor<96xf32>) outs(%97 : tensor<1x96x4x4xf32>) {
    ^bb0(%in: f32, %in_518: f32, %in_519: f32, %in_520: f32, %in_521: f32, %out: f32):
      %1315 = arith.truncf %cst_375 : f64 to f32
      %1316 = arith.addf %in_521, %1315 : f32
      %1317 = math.rsqrt %1316 : f32
      %1318 = arith.subf %in, %in_520 : f32
      %1319 = arith.mulf %1318, %1317 : f32
      %1320 = arith.mulf %1319, %in_518 : f32
      %1321 = arith.addf %1320, %in_519 : f32
      linalg.yield %1321 : f32
    } -> tensor<1x96x4x4xf32>
    %99 = linalg.generic {indexing_maps = [#map2, #map2, #map], iterator_types = ["parallel", "parallel", "parallel", "parallel"]} ins(%98, %90 : tensor<1x96x4x4xf32>, tensor<1x96x4x4xf32>) outs(%87 : tensor<1x96x4x4xf32>) {
    ^bb0(%in: f32, %in_518: f32, %out: f32):
      %1315 = arith.addf %in, %in_518 : f32
      linalg.yield %1315 : f32
    } -> tensor<1x96x4x4xf32>
    %padded_391 = tensor.pad %99 low[0, 0, 1, 1] high[0, 0, 1, 1] {
    ^bb0(%arg1: index, %arg2: index, %arg3: index, %arg4: index):
      tensor.yield %cst_374 : f32
    } : tensor<1x96x4x4xf32> to tensor<1x96x6x6xf32>
    %100 = linalg.conv_2d_nchw_fchw {dilations = dense<1> : vector<2xi64>, strides = dense<1> : vector<2xi64>} ins(%padded_391, %cst_338 : tensor<1x96x6x6xf32>, tensor<384x96x3x3xf32>) outs(%92 : tensor<1x384x4x4xf32>) -> tensor<1x384x4x4xf32>
    cf.assert %3, "training is not supported for now"
    %101 = linalg.generic {indexing_maps = [#map, #map1, #map1, #map1, #map1, #map], iterator_types = ["parallel", "parallel", "parallel", "parallel"]} ins(%100, %cst_341, %cst_340, %cst_340, %cst_341 : tensor<1x384x4x4xf32>, tensor<384xf32>, tensor<384xf32>, tensor<384xf32>, tensor<384xf32>) outs(%100 : tensor<1x384x4x4xf32>) {
    ^bb0(%in: f32, %in_518: f32, %in_519: f32, %in_520: f32, %in_521: f32, %out: f32):
      %1315 = arith.truncf %cst_375 : f64 to f32
      %1316 = arith.addf %in_521, %1315 : f32
      %1317 = math.rsqrt %1316 : f32
      %1318 = arith.subf %in, %in_520 : f32
      %1319 = arith.mulf %1318, %1317 : f32
      %1320 = arith.mulf %1319, %in_518 : f32
      %1321 = arith.addf %1320, %in_519 : f32
      linalg.yield %1321 : f32
    } -> tensor<1x384x4x4xf32>
    %102 = linalg.generic {indexing_maps = [#map2, #map], iterator_types = ["parallel", "parallel", "parallel", "parallel"]} ins(%101 : tensor<1x384x4x4xf32>) outs(%91 : tensor<1x384x4x4xf32>) {
    ^bb0(%in: f32, %out: f32):
      %1315 = arith.negf %in : f32
      %1316 = math.exp %1315 : f32
      %1317 = arith.addf %1316, %cst_377 : f32
      %1318 = arith.divf %cst_377, %1317 : f32
      linalg.yield %1318 : f32
    } -> tensor<1x384x4x4xf32>
    %103 = linalg.generic {indexing_maps = [#map2, #map2, #map], iterator_types = ["parallel", "parallel", "parallel", "parallel"]} ins(%102, %101 : tensor<1x384x4x4xf32>, tensor<1x384x4x4xf32>) outs(%91 : tensor<1x384x4x4xf32>) {
    ^bb0(%in: f32, %in_518: f32, %out: f32):
      %1315 = arith.mulf %in, %in_518 : f32
      linalg.yield %1315 : f32
    } -> tensor<1x384x4x4xf32>
    %104 = linalg.conv_2d_nchw_fchw {dilations = dense<1> : vector<2xi64>, strides = dense<1> : vector<2xi64>} ins(%103, %cst_337 : tensor<1x384x4x4xf32>, tensor<96x384x1x1xf32>) outs(%88 : tensor<1x96x4x4xf32>) -> tensor<1x96x4x4xf32>
    cf.assert %3, "training is not supported for now"
    %105 = linalg.generic {indexing_maps = [#map, #map1, #map1, #map1, #map1, #map], iterator_types = ["parallel", "parallel", "parallel", "parallel"]} ins(%104, %cst_344, %cst_343, %cst_343, %cst_344 : tensor<1x96x4x4xf32>, tensor<96xf32>, tensor<96xf32>, tensor<96xf32>, tensor<96xf32>) outs(%104 : tensor<1x96x4x4xf32>) {
    ^bb0(%in: f32, %in_518: f32, %in_519: f32, %in_520: f32, %in_521: f32, %out: f32):
      %1315 = arith.truncf %cst_375 : f64 to f32
      %1316 = arith.addf %in_521, %1315 : f32
      %1317 = math.rsqrt %1316 : f32
      %1318 = arith.subf %in, %in_520 : f32
      %1319 = arith.mulf %1318, %1317 : f32
      %1320 = arith.mulf %1319, %in_518 : f32
      %1321 = arith.addf %1320, %in_519 : f32
      linalg.yield %1321 : f32
    } -> tensor<1x96x4x4xf32>
    %106 = linalg.generic {indexing_maps = [#map2, #map2, #map], iterator_types = ["parallel", "parallel", "parallel", "parallel"]} ins(%105, %99 : tensor<1x96x4x4xf32>, tensor<1x96x4x4xf32>) outs(%87 : tensor<1x96x4x4xf32>) {
    ^bb0(%in: f32, %in_518: f32, %out: f32):
      %1315 = arith.addf %in, %in_518 : f32
      linalg.yield %1315 : f32
    } -> tensor<1x96x4x4xf32>
    %padded_392 = tensor.pad %106 low[0, 0, 1, 1] high[0, 0, 1, 1] {
    ^bb0(%arg1: index, %arg2: index, %arg3: index, %arg4: index):
      tensor.yield %cst_374 : f32
    } : tensor<1x96x4x4xf32> to tensor<1x96x6x6xf32>
    %107 = linalg.conv_2d_nchw_fchw {dilations = dense<1> : vector<2xi64>, strides = dense<1> : vector<2xi64>} ins(%padded_392, %cst_336 : tensor<1x96x6x6xf32>, tensor<384x96x3x3xf32>) outs(%92 : tensor<1x384x4x4xf32>) -> tensor<1x384x4x4xf32>
    cf.assert %3, "training is not supported for now"
    %108 = linalg.generic {indexing_maps = [#map, #map1, #map1, #map1, #map1, #map], iterator_types = ["parallel", "parallel", "parallel", "parallel"]} ins(%107, %cst_341, %cst_340, %cst_340, %cst_341 : tensor<1x384x4x4xf32>, tensor<384xf32>, tensor<384xf32>, tensor<384xf32>, tensor<384xf32>) outs(%107 : tensor<1x384x4x4xf32>) {
    ^bb0(%in: f32, %in_518: f32, %in_519: f32, %in_520: f32, %in_521: f32, %out: f32):
      %1315 = arith.truncf %cst_375 : f64 to f32
      %1316 = arith.addf %in_521, %1315 : f32
      %1317 = math.rsqrt %1316 : f32
      %1318 = arith.subf %in, %in_520 : f32
      %1319 = arith.mulf %1318, %1317 : f32
      %1320 = arith.mulf %1319, %in_518 : f32
      %1321 = arith.addf %1320, %in_519 : f32
      linalg.yield %1321 : f32
    } -> tensor<1x384x4x4xf32>
    %109 = linalg.generic {indexing_maps = [#map2, #map], iterator_types = ["parallel", "parallel", "parallel", "parallel"]} ins(%108 : tensor<1x384x4x4xf32>) outs(%91 : tensor<1x384x4x4xf32>) {
    ^bb0(%in: f32, %out: f32):
      %1315 = arith.negf %in : f32
      %1316 = math.exp %1315 : f32
      %1317 = arith.addf %1316, %cst_377 : f32
      %1318 = arith.divf %cst_377, %1317 : f32
      linalg.yield %1318 : f32
    } -> tensor<1x384x4x4xf32>
    %110 = linalg.generic {indexing_maps = [#map2, #map2, #map], iterator_types = ["parallel", "parallel", "parallel", "parallel"]} ins(%109, %108 : tensor<1x384x4x4xf32>, tensor<1x384x4x4xf32>) outs(%91 : tensor<1x384x4x4xf32>) {
    ^bb0(%in: f32, %in_518: f32, %out: f32):
      %1315 = arith.mulf %in, %in_518 : f32
      linalg.yield %1315 : f32
    } -> tensor<1x384x4x4xf32>
    %111 = linalg.conv_2d_nchw_fchw {dilations = dense<1> : vector<2xi64>, strides = dense<1> : vector<2xi64>} ins(%110, %cst_335 : tensor<1x384x4x4xf32>, tensor<96x384x1x1xf32>) outs(%88 : tensor<1x96x4x4xf32>) -> tensor<1x96x4x4xf32>
    cf.assert %3, "training is not supported for now"
    %112 = linalg.generic {indexing_maps = [#map, #map1, #map1, #map1, #map1, #map], iterator_types = ["parallel", "parallel", "parallel", "parallel"]} ins(%111, %cst_344, %cst_343, %cst_343, %cst_344 : tensor<1x96x4x4xf32>, tensor<96xf32>, tensor<96xf32>, tensor<96xf32>, tensor<96xf32>) outs(%111 : tensor<1x96x4x4xf32>) {
    ^bb0(%in: f32, %in_518: f32, %in_519: f32, %in_520: f32, %in_521: f32, %out: f32):
      %1315 = arith.truncf %cst_375 : f64 to f32
      %1316 = arith.addf %in_521, %1315 : f32
      %1317 = math.rsqrt %1316 : f32
      %1318 = arith.subf %in, %in_520 : f32
      %1319 = arith.mulf %1318, %1317 : f32
      %1320 = arith.mulf %1319, %in_518 : f32
      %1321 = arith.addf %1320, %in_519 : f32
      linalg.yield %1321 : f32
    } -> tensor<1x96x4x4xf32>
    %113 = linalg.generic {indexing_maps = [#map2, #map2, #map], iterator_types = ["parallel", "parallel", "parallel", "parallel"]} ins(%112, %106 : tensor<1x96x4x4xf32>, tensor<1x96x4x4xf32>) outs(%87 : tensor<1x96x4x4xf32>) {
    ^bb0(%in: f32, %in_518: f32, %out: f32):
      %1315 = arith.addf %in, %in_518 : f32
      linalg.yield %1315 : f32
    } -> tensor<1x96x4x4xf32>
    %padded_393 = tensor.pad %113 low[0, 0, 1, 1] high[0, 0, 1, 1] {
    ^bb0(%arg1: index, %arg2: index, %arg3: index, %arg4: index):
      tensor.yield %cst_374 : f32
    } : tensor<1x96x4x4xf32> to tensor<1x96x6x6xf32>
    %114 = linalg.conv_2d_nchw_fchw {dilations = dense<1> : vector<2xi64>, strides = dense<1> : vector<2xi64>} ins(%padded_393, %cst_334 : tensor<1x96x6x6xf32>, tensor<384x96x3x3xf32>) outs(%92 : tensor<1x384x4x4xf32>) -> tensor<1x384x4x4xf32>
    cf.assert %3, "training is not supported for now"
    %115 = linalg.generic {indexing_maps = [#map, #map1, #map1, #map1, #map1, #map], iterator_types = ["parallel", "parallel", "parallel", "parallel"]} ins(%114, %cst_341, %cst_340, %cst_340, %cst_341 : tensor<1x384x4x4xf32>, tensor<384xf32>, tensor<384xf32>, tensor<384xf32>, tensor<384xf32>) outs(%114 : tensor<1x384x4x4xf32>) {
    ^bb0(%in: f32, %in_518: f32, %in_519: f32, %in_520: f32, %in_521: f32, %out: f32):
      %1315 = arith.truncf %cst_375 : f64 to f32
      %1316 = arith.addf %in_521, %1315 : f32
      %1317 = math.rsqrt %1316 : f32
      %1318 = arith.subf %in, %in_520 : f32
      %1319 = arith.mulf %1318, %1317 : f32
      %1320 = arith.mulf %1319, %in_518 : f32
      %1321 = arith.addf %1320, %in_519 : f32
      linalg.yield %1321 : f32
    } -> tensor<1x384x4x4xf32>
    %116 = linalg.generic {indexing_maps = [#map2, #map], iterator_types = ["parallel", "parallel", "parallel", "parallel"]} ins(%115 : tensor<1x384x4x4xf32>) outs(%91 : tensor<1x384x4x4xf32>) {
    ^bb0(%in: f32, %out: f32):
      %1315 = arith.negf %in : f32
      %1316 = math.exp %1315 : f32
      %1317 = arith.addf %1316, %cst_377 : f32
      %1318 = arith.divf %cst_377, %1317 : f32
      linalg.yield %1318 : f32
    } -> tensor<1x384x4x4xf32>
    %117 = linalg.generic {indexing_maps = [#map2, #map2, #map], iterator_types = ["parallel", "parallel", "parallel", "parallel"]} ins(%116, %115 : tensor<1x384x4x4xf32>, tensor<1x384x4x4xf32>) outs(%91 : tensor<1x384x4x4xf32>) {
    ^bb0(%in: f32, %in_518: f32, %out: f32):
      %1315 = arith.mulf %in, %in_518 : f32
      linalg.yield %1315 : f32
    } -> tensor<1x384x4x4xf32>
    %118 = linalg.conv_2d_nchw_fchw {dilations = dense<1> : vector<2xi64>, strides = dense<1> : vector<2xi64>} ins(%117, %cst_333 : tensor<1x384x4x4xf32>, tensor<96x384x1x1xf32>) outs(%88 : tensor<1x96x4x4xf32>) -> tensor<1x96x4x4xf32>
    cf.assert %3, "training is not supported for now"
    %119 = linalg.generic {indexing_maps = [#map, #map1, #map1, #map1, #map1, #map], iterator_types = ["parallel", "parallel", "parallel", "parallel"]} ins(%118, %cst_344, %cst_343, %cst_343, %cst_344 : tensor<1x96x4x4xf32>, tensor<96xf32>, tensor<96xf32>, tensor<96xf32>, tensor<96xf32>) outs(%118 : tensor<1x96x4x4xf32>) {
    ^bb0(%in: f32, %in_518: f32, %in_519: f32, %in_520: f32, %in_521: f32, %out: f32):
      %1315 = arith.truncf %cst_375 : f64 to f32
      %1316 = arith.addf %in_521, %1315 : f32
      %1317 = math.rsqrt %1316 : f32
      %1318 = arith.subf %in, %in_520 : f32
      %1319 = arith.mulf %1318, %1317 : f32
      %1320 = arith.mulf %1319, %in_518 : f32
      %1321 = arith.addf %1320, %in_519 : f32
      linalg.yield %1321 : f32
    } -> tensor<1x96x4x4xf32>
    %120 = linalg.generic {indexing_maps = [#map2, #map2, #map], iterator_types = ["parallel", "parallel", "parallel", "parallel"]} ins(%119, %113 : tensor<1x96x4x4xf32>, tensor<1x96x4x4xf32>) outs(%87 : tensor<1x96x4x4xf32>) {
    ^bb0(%in: f32, %in_518: f32, %out: f32):
      %1315 = arith.addf %in, %in_518 : f32
      linalg.yield %1315 : f32
    } -> tensor<1x96x4x4xf32>
    %padded_394 = tensor.pad %120 low[0, 0, 1, 1] high[0, 0, 1, 1] {
    ^bb0(%arg1: index, %arg2: index, %arg3: index, %arg4: index):
      tensor.yield %cst_374 : f32
    } : tensor<1x96x4x4xf32> to tensor<1x96x6x6xf32>
    %121 = linalg.conv_2d_nchw_fchw {dilations = dense<1> : vector<2xi64>, strides = dense<1> : vector<2xi64>} ins(%padded_394, %cst_332 : tensor<1x96x6x6xf32>, tensor<384x96x3x3xf32>) outs(%92 : tensor<1x384x4x4xf32>) -> tensor<1x384x4x4xf32>
    cf.assert %3, "training is not supported for now"
    %122 = linalg.generic {indexing_maps = [#map, #map1, #map1, #map1, #map1, #map], iterator_types = ["parallel", "parallel", "parallel", "parallel"]} ins(%121, %cst_341, %cst_340, %cst_340, %cst_341 : tensor<1x384x4x4xf32>, tensor<384xf32>, tensor<384xf32>, tensor<384xf32>, tensor<384xf32>) outs(%121 : tensor<1x384x4x4xf32>) {
    ^bb0(%in: f32, %in_518: f32, %in_519: f32, %in_520: f32, %in_521: f32, %out: f32):
      %1315 = arith.truncf %cst_375 : f64 to f32
      %1316 = arith.addf %in_521, %1315 : f32
      %1317 = math.rsqrt %1316 : f32
      %1318 = arith.subf %in, %in_520 : f32
      %1319 = arith.mulf %1318, %1317 : f32
      %1320 = arith.mulf %1319, %in_518 : f32
      %1321 = arith.addf %1320, %in_519 : f32
      linalg.yield %1321 : f32
    } -> tensor<1x384x4x4xf32>
    %123 = linalg.generic {indexing_maps = [#map2, #map], iterator_types = ["parallel", "parallel", "parallel", "parallel"]} ins(%122 : tensor<1x384x4x4xf32>) outs(%91 : tensor<1x384x4x4xf32>) {
    ^bb0(%in: f32, %out: f32):
      %1315 = arith.negf %in : f32
      %1316 = math.exp %1315 : f32
      %1317 = arith.addf %1316, %cst_377 : f32
      %1318 = arith.divf %cst_377, %1317 : f32
      linalg.yield %1318 : f32
    } -> tensor<1x384x4x4xf32>
    %124 = linalg.generic {indexing_maps = [#map2, #map2, #map], iterator_types = ["parallel", "parallel", "parallel", "parallel"]} ins(%123, %122 : tensor<1x384x4x4xf32>, tensor<1x384x4x4xf32>) outs(%91 : tensor<1x384x4x4xf32>) {
    ^bb0(%in: f32, %in_518: f32, %out: f32):
      %1315 = arith.mulf %in, %in_518 : f32
      linalg.yield %1315 : f32
    } -> tensor<1x384x4x4xf32>
    %125 = linalg.conv_2d_nchw_fchw {dilations = dense<1> : vector<2xi64>, strides = dense<1> : vector<2xi64>} ins(%124, %cst_331 : tensor<1x384x4x4xf32>, tensor<96x384x1x1xf32>) outs(%88 : tensor<1x96x4x4xf32>) -> tensor<1x96x4x4xf32>
    cf.assert %3, "training is not supported for now"
    %126 = linalg.generic {indexing_maps = [#map, #map1, #map1, #map1, #map1, #map], iterator_types = ["parallel", "parallel", "parallel", "parallel"]} ins(%125, %cst_344, %cst_343, %cst_343, %cst_344 : tensor<1x96x4x4xf32>, tensor<96xf32>, tensor<96xf32>, tensor<96xf32>, tensor<96xf32>) outs(%125 : tensor<1x96x4x4xf32>) {
    ^bb0(%in: f32, %in_518: f32, %in_519: f32, %in_520: f32, %in_521: f32, %out: f32):
      %1315 = arith.truncf %cst_375 : f64 to f32
      %1316 = arith.addf %in_521, %1315 : f32
      %1317 = math.rsqrt %1316 : f32
      %1318 = arith.subf %in, %in_520 : f32
      %1319 = arith.mulf %1318, %1317 : f32
      %1320 = arith.mulf %1319, %in_518 : f32
      %1321 = arith.addf %1320, %in_519 : f32
      linalg.yield %1321 : f32
    } -> tensor<1x96x4x4xf32>
    %127 = linalg.generic {indexing_maps = [#map2, #map2, #map], iterator_types = ["parallel", "parallel", "parallel", "parallel"]} ins(%126, %120 : tensor<1x96x4x4xf32>, tensor<1x96x4x4xf32>) outs(%87 : tensor<1x96x4x4xf32>) {
    ^bb0(%in: f32, %in_518: f32, %out: f32):
      %1315 = arith.addf %in, %in_518 : f32
      linalg.yield %1315 : f32
    } -> tensor<1x96x4x4xf32>
    %padded_395 = tensor.pad %127 low[0, 0, 1, 1] high[0, 0, 1, 1] {
    ^bb0(%arg1: index, %arg2: index, %arg3: index, %arg4: index):
      tensor.yield %cst_374 : f32
    } : tensor<1x96x4x4xf32> to tensor<1x96x6x6xf32>
    %128 = linalg.conv_2d_nchw_fchw {dilations = dense<1> : vector<2xi64>, strides = dense<1> : vector<2xi64>} ins(%padded_395, %cst_330 : tensor<1x96x6x6xf32>, tensor<384x96x3x3xf32>) outs(%92 : tensor<1x384x4x4xf32>) -> tensor<1x384x4x4xf32>
    cf.assert %3, "training is not supported for now"
    %129 = linalg.generic {indexing_maps = [#map, #map1, #map1, #map1, #map1, #map], iterator_types = ["parallel", "parallel", "parallel", "parallel"]} ins(%128, %cst_341, %cst_340, %cst_340, %cst_341 : tensor<1x384x4x4xf32>, tensor<384xf32>, tensor<384xf32>, tensor<384xf32>, tensor<384xf32>) outs(%128 : tensor<1x384x4x4xf32>) {
    ^bb0(%in: f32, %in_518: f32, %in_519: f32, %in_520: f32, %in_521: f32, %out: f32):
      %1315 = arith.truncf %cst_375 : f64 to f32
      %1316 = arith.addf %in_521, %1315 : f32
      %1317 = math.rsqrt %1316 : f32
      %1318 = arith.subf %in, %in_520 : f32
      %1319 = arith.mulf %1318, %1317 : f32
      %1320 = arith.mulf %1319, %in_518 : f32
      %1321 = arith.addf %1320, %in_519 : f32
      linalg.yield %1321 : f32
    } -> tensor<1x384x4x4xf32>
    %130 = linalg.generic {indexing_maps = [#map2, #map], iterator_types = ["parallel", "parallel", "parallel", "parallel"]} ins(%129 : tensor<1x384x4x4xf32>) outs(%91 : tensor<1x384x4x4xf32>) {
    ^bb0(%in: f32, %out: f32):
      %1315 = arith.negf %in : f32
      %1316 = math.exp %1315 : f32
      %1317 = arith.addf %1316, %cst_377 : f32
      %1318 = arith.divf %cst_377, %1317 : f32
      linalg.yield %1318 : f32
    } -> tensor<1x384x4x4xf32>
    %131 = linalg.generic {indexing_maps = [#map2, #map2, #map], iterator_types = ["parallel", "parallel", "parallel", "parallel"]} ins(%130, %129 : tensor<1x384x4x4xf32>, tensor<1x384x4x4xf32>) outs(%91 : tensor<1x384x4x4xf32>) {
    ^bb0(%in: f32, %in_518: f32, %out: f32):
      %1315 = arith.mulf %in, %in_518 : f32
      linalg.yield %1315 : f32
    } -> tensor<1x384x4x4xf32>
    %132 = linalg.conv_2d_nchw_fchw {dilations = dense<1> : vector<2xi64>, strides = dense<1> : vector<2xi64>} ins(%131, %cst_329 : tensor<1x384x4x4xf32>, tensor<96x384x1x1xf32>) outs(%88 : tensor<1x96x4x4xf32>) -> tensor<1x96x4x4xf32>
    cf.assert %3, "training is not supported for now"
    %133 = linalg.generic {indexing_maps = [#map, #map1, #map1, #map1, #map1, #map], iterator_types = ["parallel", "parallel", "parallel", "parallel"]} ins(%132, %cst_344, %cst_343, %cst_343, %cst_344 : tensor<1x96x4x4xf32>, tensor<96xf32>, tensor<96xf32>, tensor<96xf32>, tensor<96xf32>) outs(%132 : tensor<1x96x4x4xf32>) {
    ^bb0(%in: f32, %in_518: f32, %in_519: f32, %in_520: f32, %in_521: f32, %out: f32):
      %1315 = arith.truncf %cst_375 : f64 to f32
      %1316 = arith.addf %in_521, %1315 : f32
      %1317 = math.rsqrt %1316 : f32
      %1318 = arith.subf %in, %in_520 : f32
      %1319 = arith.mulf %1318, %1317 : f32
      %1320 = arith.mulf %1319, %in_518 : f32
      %1321 = arith.addf %1320, %in_519 : f32
      linalg.yield %1321 : f32
    } -> tensor<1x96x4x4xf32>
    %134 = linalg.generic {indexing_maps = [#map2, #map2, #map], iterator_types = ["parallel", "parallel", "parallel", "parallel"]} ins(%133, %127 : tensor<1x96x4x4xf32>, tensor<1x96x4x4xf32>) outs(%87 : tensor<1x96x4x4xf32>) {
    ^bb0(%in: f32, %in_518: f32, %out: f32):
      %1315 = arith.addf %in, %in_518 : f32
      linalg.yield %1315 : f32
    } -> tensor<1x96x4x4xf32>
    %135 = linalg.conv_2d_nchw_fchw {dilations = dense<1> : vector<2xi64>, strides = dense<1> : vector<2xi64>} ins(%134, %cst_328 : tensor<1x96x4x4xf32>, tensor<384x96x1x1xf32>) outs(%92 : tensor<1x384x4x4xf32>) -> tensor<1x384x4x4xf32>
    cf.assert %3, "training is not supported for now"
    %136 = linalg.generic {indexing_maps = [#map, #map1, #map1, #map1, #map1, #map], iterator_types = ["parallel", "parallel", "parallel", "parallel"]} ins(%135, %cst_341, %cst_340, %cst_340, %cst_341 : tensor<1x384x4x4xf32>, tensor<384xf32>, tensor<384xf32>, tensor<384xf32>, tensor<384xf32>) outs(%135 : tensor<1x384x4x4xf32>) {
    ^bb0(%in: f32, %in_518: f32, %in_519: f32, %in_520: f32, %in_521: f32, %out: f32):
      %1315 = arith.truncf %cst_375 : f64 to f32
      %1316 = arith.addf %in_521, %1315 : f32
      %1317 = math.rsqrt %1316 : f32
      %1318 = arith.subf %in, %in_520 : f32
      %1319 = arith.mulf %1318, %1317 : f32
      %1320 = arith.mulf %1319, %in_518 : f32
      %1321 = arith.addf %1320, %in_519 : f32
      linalg.yield %1321 : f32
    } -> tensor<1x384x4x4xf32>
    %137 = linalg.generic {indexing_maps = [#map2, #map], iterator_types = ["parallel", "parallel", "parallel", "parallel"]} ins(%136 : tensor<1x384x4x4xf32>) outs(%91 : tensor<1x384x4x4xf32>) {
    ^bb0(%in: f32, %out: f32):
      %1315 = arith.negf %in : f32
      %1316 = math.exp %1315 : f32
      %1317 = arith.addf %1316, %cst_377 : f32
      %1318 = arith.divf %cst_377, %1317 : f32
      linalg.yield %1318 : f32
    } -> tensor<1x384x4x4xf32>
    %138 = linalg.generic {indexing_maps = [#map2, #map2, #map], iterator_types = ["parallel", "parallel", "parallel", "parallel"]} ins(%137, %136 : tensor<1x384x4x4xf32>, tensor<1x384x4x4xf32>) outs(%91 : tensor<1x384x4x4xf32>) {
    ^bb0(%in: f32, %in_518: f32, %out: f32):
      %1315 = arith.mulf %in, %in_518 : f32
      linalg.yield %1315 : f32
    } -> tensor<1x384x4x4xf32>
    %padded_396 = tensor.pad %138 low[0, 0, 1, 1] high[0, 0, 1, 1] {
    ^bb0(%arg1: index, %arg2: index, %arg3: index, %arg4: index):
      tensor.yield %cst_374 : f32
    } : tensor<1x384x4x4xf32> to tensor<1x384x6x6xf32>
    %139 = tensor.empty() : tensor<1x384x2x2xf32>
    %140 = linalg.fill ins(%cst_374 : f32) outs(%139 : tensor<1x384x2x2xf32>) -> tensor<1x384x2x2xf32>
    %collapsed = tensor.collapse_shape %cst_327 [[0, 1], [2], [3]] : tensor<384x1x3x3xf32> into tensor<384x3x3xf32>
    %141 = linalg.depthwise_conv_2d_nchw_chw {dilations = dense<1> : vector<2xi64>, strides = dense<2> : vector<2xi64>} ins(%padded_396, %collapsed : tensor<1x384x6x6xf32>, tensor<384x3x3xf32>) outs(%140 : tensor<1x384x2x2xf32>) -> tensor<1x384x2x2xf32>
    cf.assert %3, "training is not supported for now"
    %142 = linalg.generic {indexing_maps = [#map, #map1, #map1, #map1, #map1, #map], iterator_types = ["parallel", "parallel", "parallel", "parallel"]} ins(%141, %cst_341, %cst_340, %cst_340, %cst_341 : tensor<1x384x2x2xf32>, tensor<384xf32>, tensor<384xf32>, tensor<384xf32>, tensor<384xf32>) outs(%141 : tensor<1x384x2x2xf32>) {
    ^bb0(%in: f32, %in_518: f32, %in_519: f32, %in_520: f32, %in_521: f32, %out: f32):
      %1315 = arith.truncf %cst_375 : f64 to f32
      %1316 = arith.addf %in_521, %1315 : f32
      %1317 = math.rsqrt %1316 : f32
      %1318 = arith.subf %in, %in_520 : f32
      %1319 = arith.mulf %1318, %1317 : f32
      %1320 = arith.mulf %1319, %in_518 : f32
      %1321 = arith.addf %1320, %in_519 : f32
      linalg.yield %1321 : f32
    } -> tensor<1x384x2x2xf32>
    %143 = linalg.generic {indexing_maps = [#map2, #map], iterator_types = ["parallel", "parallel", "parallel", "parallel"]} ins(%142 : tensor<1x384x2x2xf32>) outs(%139 : tensor<1x384x2x2xf32>) {
    ^bb0(%in: f32, %out: f32):
      %1315 = arith.negf %in : f32
      %1316 = math.exp %1315 : f32
      %1317 = arith.addf %1316, %cst_377 : f32
      %1318 = arith.divf %cst_377, %1317 : f32
      linalg.yield %1318 : f32
    } -> tensor<1x384x2x2xf32>
    %144 = linalg.generic {indexing_maps = [#map2, #map2, #map], iterator_types = ["parallel", "parallel", "parallel", "parallel"]} ins(%143, %142 : tensor<1x384x2x2xf32>, tensor<1x384x2x2xf32>) outs(%139 : tensor<1x384x2x2xf32>) {
    ^bb0(%in: f32, %in_518: f32, %out: f32):
      %1315 = arith.mulf %in, %in_518 : f32
      linalg.yield %1315 : f32
    } -> tensor<1x384x2x2xf32>
    %145 = tensor.empty() : tensor<1x384x1x1xf32>
    %146 = linalg.fill ins(%cst_374 : f32) outs(%145 : tensor<1x384x1x1xf32>) -> tensor<1x384x1x1xf32>
    %147 = tensor.empty() : tensor<2x2xf32>
    %148 = linalg.pooling_nchw_sum {dilations = dense<1> : vector<2xi64>, strides = dense<1> : vector<2xi64>} ins(%144, %147 : tensor<1x384x2x2xf32>, tensor<2x2xf32>) outs(%146 : tensor<1x384x1x1xf32>) -> tensor<1x384x1x1xf32>
    %149 = linalg.generic {indexing_maps = [#map, #map], iterator_types = ["parallel", "parallel", "parallel", "parallel"]} ins(%148 : tensor<1x384x1x1xf32>) outs(%145 : tensor<1x384x1x1xf32>) {
    ^bb0(%in: f32, %out: f32):
      %1315 = arith.divf %in, %cst_376 : f32
      linalg.yield %1315 : f32
    } -> tensor<1x384x1x1xf32>
    %150 = tensor.empty() : tensor<1x24x1x1xf32>
    %151 = linalg.generic {indexing_maps = [#map1, #map], iterator_types = ["parallel", "parallel", "parallel", "parallel"]} ins(%cst_326 : tensor<24xf32>) outs(%150 : tensor<1x24x1x1xf32>) {
    ^bb0(%in: f32, %out: f32):
      linalg.yield %in : f32
    } -> tensor<1x24x1x1xf32>
    %152 = linalg.conv_2d_nchw_fchw {dilations = dense<1> : vector<2xi64>, strides = dense<1> : vector<2xi64>} ins(%149, %cst_325 : tensor<1x384x1x1xf32>, tensor<24x384x1x1xf32>) outs(%151 : tensor<1x24x1x1xf32>) -> tensor<1x24x1x1xf32>
    %153 = linalg.generic {indexing_maps = [#map3, #map], iterator_types = ["parallel", "parallel", "parallel", "parallel"]} ins(%152 : tensor<1x24x1x1xf32>) outs(%150 : tensor<1x24x1x1xf32>) {
    ^bb0(%in: f32, %out: f32):
      %1315 = arith.negf %in : f32
      %1316 = math.exp %1315 : f32
      %1317 = arith.addf %1316, %cst_377 : f32
      %1318 = arith.divf %cst_377, %1317 : f32
      linalg.yield %1318 : f32
    } -> tensor<1x24x1x1xf32>
    %154 = linalg.generic {indexing_maps = [#map3, #map3, #map], iterator_types = ["parallel", "parallel", "parallel", "parallel"]} ins(%153, %152 : tensor<1x24x1x1xf32>, tensor<1x24x1x1xf32>) outs(%150 : tensor<1x24x1x1xf32>) {
    ^bb0(%in: f32, %in_518: f32, %out: f32):
      %1315 = arith.mulf %in, %in_518 : f32
      linalg.yield %1315 : f32
    } -> tensor<1x24x1x1xf32>
    %155 = linalg.generic {indexing_maps = [#map1, #map], iterator_types = ["parallel", "parallel", "parallel", "parallel"]} ins(%cst_340 : tensor<384xf32>) outs(%145 : tensor<1x384x1x1xf32>) {
    ^bb0(%in: f32, %out: f32):
      linalg.yield %in : f32
    } -> tensor<1x384x1x1xf32>
    %156 = linalg.conv_2d_nchw_fchw {dilations = dense<1> : vector<2xi64>, strides = dense<1> : vector<2xi64>} ins(%154, %cst_324 : tensor<1x24x1x1xf32>, tensor<384x24x1x1xf32>) outs(%155 : tensor<1x384x1x1xf32>) -> tensor<1x384x1x1xf32>
    %157 = linalg.generic {indexing_maps = [#map3, #map], iterator_types = ["parallel", "parallel", "parallel", "parallel"]} ins(%156 : tensor<1x384x1x1xf32>) outs(%145 : tensor<1x384x1x1xf32>) {
    ^bb0(%in: f32, %out: f32):
      %1315 = arith.negf %in : f32
      %1316 = math.exp %1315 : f32
      %1317 = arith.addf %1316, %cst_377 : f32
      %1318 = arith.divf %cst_377, %1317 : f32
      linalg.yield %1318 : f32
    } -> tensor<1x384x1x1xf32>
    %158 = linalg.generic {indexing_maps = [#map3, #map2, #map], iterator_types = ["parallel", "parallel", "parallel", "parallel"]} ins(%157, %144 : tensor<1x384x1x1xf32>, tensor<1x384x2x2xf32>) outs(%139 : tensor<1x384x2x2xf32>) {
    ^bb0(%in: f32, %in_518: f32, %out: f32):
      %1315 = arith.mulf %in, %in_518 : f32
      linalg.yield %1315 : f32
    } -> tensor<1x384x2x2xf32>
    %159 = tensor.empty() : tensor<1x192x2x2xf32>
    %160 = linalg.fill ins(%cst_374 : f32) outs(%159 : tensor<1x192x2x2xf32>) -> tensor<1x192x2x2xf32>
    %161 = linalg.conv_2d_nchw_fchw {dilations = dense<1> : vector<2xi64>, strides = dense<1> : vector<2xi64>} ins(%158, %cst_323 : tensor<1x384x2x2xf32>, tensor<192x384x1x1xf32>) outs(%160 : tensor<1x192x2x2xf32>) -> tensor<1x192x2x2xf32>
    cf.assert %3, "training is not supported for now"
    %162 = linalg.generic {indexing_maps = [#map, #map1, #map1, #map1, #map1, #map], iterator_types = ["parallel", "parallel", "parallel", "parallel"]} ins(%161, %cst_322, %cst_321, %cst_321, %cst_322 : tensor<1x192x2x2xf32>, tensor<192xf32>, tensor<192xf32>, tensor<192xf32>, tensor<192xf32>) outs(%161 : tensor<1x192x2x2xf32>) {
    ^bb0(%in: f32, %in_518: f32, %in_519: f32, %in_520: f32, %in_521: f32, %out: f32):
      %1315 = arith.truncf %cst_375 : f64 to f32
      %1316 = arith.addf %in_521, %1315 : f32
      %1317 = math.rsqrt %1316 : f32
      %1318 = arith.subf %in, %in_520 : f32
      %1319 = arith.mulf %1318, %1317 : f32
      %1320 = arith.mulf %1319, %in_518 : f32
      %1321 = arith.addf %1320, %in_519 : f32
      linalg.yield %1321 : f32
    } -> tensor<1x192x2x2xf32>
    %163 = tensor.empty() : tensor<1x768x2x2xf32>
    %164 = linalg.fill ins(%cst_374 : f32) outs(%163 : tensor<1x768x2x2xf32>) -> tensor<1x768x2x2xf32>
    %165 = linalg.conv_2d_nchw_fchw {dilations = dense<1> : vector<2xi64>, strides = dense<1> : vector<2xi64>} ins(%162, %cst_320 : tensor<1x192x2x2xf32>, tensor<768x192x1x1xf32>) outs(%164 : tensor<1x768x2x2xf32>) -> tensor<1x768x2x2xf32>
    cf.assert %3, "training is not supported for now"
    %166 = linalg.generic {indexing_maps = [#map, #map1, #map1, #map1, #map1, #map], iterator_types = ["parallel", "parallel", "parallel", "parallel"]} ins(%165, %cst_319, %cst_318, %cst_318, %cst_319 : tensor<1x768x2x2xf32>, tensor<768xf32>, tensor<768xf32>, tensor<768xf32>, tensor<768xf32>) outs(%165 : tensor<1x768x2x2xf32>) {
    ^bb0(%in: f32, %in_518: f32, %in_519: f32, %in_520: f32, %in_521: f32, %out: f32):
      %1315 = arith.truncf %cst_375 : f64 to f32
      %1316 = arith.addf %in_521, %1315 : f32
      %1317 = math.rsqrt %1316 : f32
      %1318 = arith.subf %in, %in_520 : f32
      %1319 = arith.mulf %1318, %1317 : f32
      %1320 = arith.mulf %1319, %in_518 : f32
      %1321 = arith.addf %1320, %in_519 : f32
      linalg.yield %1321 : f32
    } -> tensor<1x768x2x2xf32>
    %167 = linalg.generic {indexing_maps = [#map2, #map], iterator_types = ["parallel", "parallel", "parallel", "parallel"]} ins(%166 : tensor<1x768x2x2xf32>) outs(%163 : tensor<1x768x2x2xf32>) {
    ^bb0(%in: f32, %out: f32):
      %1315 = arith.negf %in : f32
      %1316 = math.exp %1315 : f32
      %1317 = arith.addf %1316, %cst_377 : f32
      %1318 = arith.divf %cst_377, %1317 : f32
      linalg.yield %1318 : f32
    } -> tensor<1x768x2x2xf32>
    %168 = linalg.generic {indexing_maps = [#map2, #map2, #map], iterator_types = ["parallel", "parallel", "parallel", "parallel"]} ins(%167, %166 : tensor<1x768x2x2xf32>, tensor<1x768x2x2xf32>) outs(%163 : tensor<1x768x2x2xf32>) {
    ^bb0(%in: f32, %in_518: f32, %out: f32):
      %1315 = arith.mulf %in, %in_518 : f32
      linalg.yield %1315 : f32
    } -> tensor<1x768x2x2xf32>
    %padded_397 = tensor.pad %168 low[0, 0, 1, 1] high[0, 0, 1, 1] {
    ^bb0(%arg1: index, %arg2: index, %arg3: index, %arg4: index):
      tensor.yield %cst_374 : f32
    } : tensor<1x768x2x2xf32> to tensor<1x768x4x4xf32>
    %collapsed_398 = tensor.collapse_shape %cst_317 [[0, 1], [2], [3]] : tensor<768x1x3x3xf32> into tensor<768x3x3xf32>
    %169 = linalg.depthwise_conv_2d_nchw_chw {dilations = dense<1> : vector<2xi64>, strides = dense<1> : vector<2xi64>} ins(%padded_397, %collapsed_398 : tensor<1x768x4x4xf32>, tensor<768x3x3xf32>) outs(%164 : tensor<1x768x2x2xf32>) -> tensor<1x768x2x2xf32>
    cf.assert %3, "training is not supported for now"
    %170 = linalg.generic {indexing_maps = [#map, #map1, #map1, #map1, #map1, #map], iterator_types = ["parallel", "parallel", "parallel", "parallel"]} ins(%169, %cst_319, %cst_318, %cst_318, %cst_319 : tensor<1x768x2x2xf32>, tensor<768xf32>, tensor<768xf32>, tensor<768xf32>, tensor<768xf32>) outs(%169 : tensor<1x768x2x2xf32>) {
    ^bb0(%in: f32, %in_518: f32, %in_519: f32, %in_520: f32, %in_521: f32, %out: f32):
      %1315 = arith.truncf %cst_375 : f64 to f32
      %1316 = arith.addf %in_521, %1315 : f32
      %1317 = math.rsqrt %1316 : f32
      %1318 = arith.subf %in, %in_520 : f32
      %1319 = arith.mulf %1318, %1317 : f32
      %1320 = arith.mulf %1319, %in_518 : f32
      %1321 = arith.addf %1320, %in_519 : f32
      linalg.yield %1321 : f32
    } -> tensor<1x768x2x2xf32>
    %171 = linalg.generic {indexing_maps = [#map2, #map], iterator_types = ["parallel", "parallel", "parallel", "parallel"]} ins(%170 : tensor<1x768x2x2xf32>) outs(%163 : tensor<1x768x2x2xf32>) {
    ^bb0(%in: f32, %out: f32):
      %1315 = arith.negf %in : f32
      %1316 = math.exp %1315 : f32
      %1317 = arith.addf %1316, %cst_377 : f32
      %1318 = arith.divf %cst_377, %1317 : f32
      linalg.yield %1318 : f32
    } -> tensor<1x768x2x2xf32>
    %172 = linalg.generic {indexing_maps = [#map2, #map2, #map], iterator_types = ["parallel", "parallel", "parallel", "parallel"]} ins(%171, %170 : tensor<1x768x2x2xf32>, tensor<1x768x2x2xf32>) outs(%163 : tensor<1x768x2x2xf32>) {
    ^bb0(%in: f32, %in_518: f32, %out: f32):
      %1315 = arith.mulf %in, %in_518 : f32
      linalg.yield %1315 : f32
    } -> tensor<1x768x2x2xf32>
    %173 = tensor.empty() : tensor<1x768x1x1xf32>
    %174 = linalg.fill ins(%cst_374 : f32) outs(%173 : tensor<1x768x1x1xf32>) -> tensor<1x768x1x1xf32>
    %175 = linalg.pooling_nchw_sum {dilations = dense<1> : vector<2xi64>, strides = dense<1> : vector<2xi64>} ins(%172, %147 : tensor<1x768x2x2xf32>, tensor<2x2xf32>) outs(%174 : tensor<1x768x1x1xf32>) -> tensor<1x768x1x1xf32>
    %176 = linalg.generic {indexing_maps = [#map, #map], iterator_types = ["parallel", "parallel", "parallel", "parallel"]} ins(%175 : tensor<1x768x1x1xf32>) outs(%173 : tensor<1x768x1x1xf32>) {
    ^bb0(%in: f32, %out: f32):
      %1315 = arith.divf %in, %cst_376 : f32
      linalg.yield %1315 : f32
    } -> tensor<1x768x1x1xf32>
    %177 = tensor.empty() : tensor<1x48x1x1xf32>
    %178 = linalg.generic {indexing_maps = [#map1, #map], iterator_types = ["parallel", "parallel", "parallel", "parallel"]} ins(%cst_316 : tensor<48xf32>) outs(%177 : tensor<1x48x1x1xf32>) {
    ^bb0(%in: f32, %out: f32):
      linalg.yield %in : f32
    } -> tensor<1x48x1x1xf32>
    %179 = linalg.conv_2d_nchw_fchw {dilations = dense<1> : vector<2xi64>, strides = dense<1> : vector<2xi64>} ins(%176, %cst_315 : tensor<1x768x1x1xf32>, tensor<48x768x1x1xf32>) outs(%178 : tensor<1x48x1x1xf32>) -> tensor<1x48x1x1xf32>
    %180 = linalg.generic {indexing_maps = [#map3, #map], iterator_types = ["parallel", "parallel", "parallel", "parallel"]} ins(%179 : tensor<1x48x1x1xf32>) outs(%177 : tensor<1x48x1x1xf32>) {
    ^bb0(%in: f32, %out: f32):
      %1315 = arith.negf %in : f32
      %1316 = math.exp %1315 : f32
      %1317 = arith.addf %1316, %cst_377 : f32
      %1318 = arith.divf %cst_377, %1317 : f32
      linalg.yield %1318 : f32
    } -> tensor<1x48x1x1xf32>
    %181 = linalg.generic {indexing_maps = [#map3, #map3, #map], iterator_types = ["parallel", "parallel", "parallel", "parallel"]} ins(%180, %179 : tensor<1x48x1x1xf32>, tensor<1x48x1x1xf32>) outs(%177 : tensor<1x48x1x1xf32>) {
    ^bb0(%in: f32, %in_518: f32, %out: f32):
      %1315 = arith.mulf %in, %in_518 : f32
      linalg.yield %1315 : f32
    } -> tensor<1x48x1x1xf32>
    %182 = linalg.generic {indexing_maps = [#map1, #map], iterator_types = ["parallel", "parallel", "parallel", "parallel"]} ins(%cst_318 : tensor<768xf32>) outs(%173 : tensor<1x768x1x1xf32>) {
    ^bb0(%in: f32, %out: f32):
      linalg.yield %in : f32
    } -> tensor<1x768x1x1xf32>
    %183 = linalg.conv_2d_nchw_fchw {dilations = dense<1> : vector<2xi64>, strides = dense<1> : vector<2xi64>} ins(%181, %cst_314 : tensor<1x48x1x1xf32>, tensor<768x48x1x1xf32>) outs(%182 : tensor<1x768x1x1xf32>) -> tensor<1x768x1x1xf32>
    %184 = linalg.generic {indexing_maps = [#map3, #map], iterator_types = ["parallel", "parallel", "parallel", "parallel"]} ins(%183 : tensor<1x768x1x1xf32>) outs(%173 : tensor<1x768x1x1xf32>) {
    ^bb0(%in: f32, %out: f32):
      %1315 = arith.negf %in : f32
      %1316 = math.exp %1315 : f32
      %1317 = arith.addf %1316, %cst_377 : f32
      %1318 = arith.divf %cst_377, %1317 : f32
      linalg.yield %1318 : f32
    } -> tensor<1x768x1x1xf32>
    %185 = linalg.generic {indexing_maps = [#map3, #map2, #map], iterator_types = ["parallel", "parallel", "parallel", "parallel"]} ins(%184, %172 : tensor<1x768x1x1xf32>, tensor<1x768x2x2xf32>) outs(%163 : tensor<1x768x2x2xf32>) {
    ^bb0(%in: f32, %in_518: f32, %out: f32):
      %1315 = arith.mulf %in, %in_518 : f32
      linalg.yield %1315 : f32
    } -> tensor<1x768x2x2xf32>
    %186 = linalg.conv_2d_nchw_fchw {dilations = dense<1> : vector<2xi64>, strides = dense<1> : vector<2xi64>} ins(%185, %cst_313 : tensor<1x768x2x2xf32>, tensor<192x768x1x1xf32>) outs(%160 : tensor<1x192x2x2xf32>) -> tensor<1x192x2x2xf32>
    cf.assert %3, "training is not supported for now"
    %187 = linalg.generic {indexing_maps = [#map, #map1, #map1, #map1, #map1, #map], iterator_types = ["parallel", "parallel", "parallel", "parallel"]} ins(%186, %cst_322, %cst_321, %cst_321, %cst_322 : tensor<1x192x2x2xf32>, tensor<192xf32>, tensor<192xf32>, tensor<192xf32>, tensor<192xf32>) outs(%186 : tensor<1x192x2x2xf32>) {
    ^bb0(%in: f32, %in_518: f32, %in_519: f32, %in_520: f32, %in_521: f32, %out: f32):
      %1315 = arith.truncf %cst_375 : f64 to f32
      %1316 = arith.addf %in_521, %1315 : f32
      %1317 = math.rsqrt %1316 : f32
      %1318 = arith.subf %in, %in_520 : f32
      %1319 = arith.mulf %1318, %1317 : f32
      %1320 = arith.mulf %1319, %in_518 : f32
      %1321 = arith.addf %1320, %in_519 : f32
      linalg.yield %1321 : f32
    } -> tensor<1x192x2x2xf32>
    %188 = linalg.generic {indexing_maps = [#map2, #map2, #map], iterator_types = ["parallel", "parallel", "parallel", "parallel"]} ins(%187, %162 : tensor<1x192x2x2xf32>, tensor<1x192x2x2xf32>) outs(%159 : tensor<1x192x2x2xf32>) {
    ^bb0(%in: f32, %in_518: f32, %out: f32):
      %1315 = arith.addf %in, %in_518 : f32
      linalg.yield %1315 : f32
    } -> tensor<1x192x2x2xf32>
    %189 = linalg.conv_2d_nchw_fchw {dilations = dense<1> : vector<2xi64>, strides = dense<1> : vector<2xi64>} ins(%188, %cst_312 : tensor<1x192x2x2xf32>, tensor<768x192x1x1xf32>) outs(%164 : tensor<1x768x2x2xf32>) -> tensor<1x768x2x2xf32>
    cf.assert %3, "training is not supported for now"
    %190 = linalg.generic {indexing_maps = [#map, #map1, #map1, #map1, #map1, #map], iterator_types = ["parallel", "parallel", "parallel", "parallel"]} ins(%189, %cst_319, %cst_318, %cst_318, %cst_319 : tensor<1x768x2x2xf32>, tensor<768xf32>, tensor<768xf32>, tensor<768xf32>, tensor<768xf32>) outs(%189 : tensor<1x768x2x2xf32>) {
    ^bb0(%in: f32, %in_518: f32, %in_519: f32, %in_520: f32, %in_521: f32, %out: f32):
      %1315 = arith.truncf %cst_375 : f64 to f32
      %1316 = arith.addf %in_521, %1315 : f32
      %1317 = math.rsqrt %1316 : f32
      %1318 = arith.subf %in, %in_520 : f32
      %1319 = arith.mulf %1318, %1317 : f32
      %1320 = arith.mulf %1319, %in_518 : f32
      %1321 = arith.addf %1320, %in_519 : f32
      linalg.yield %1321 : f32
    } -> tensor<1x768x2x2xf32>
    %191 = linalg.generic {indexing_maps = [#map2, #map], iterator_types = ["parallel", "parallel", "parallel", "parallel"]} ins(%190 : tensor<1x768x2x2xf32>) outs(%163 : tensor<1x768x2x2xf32>) {
    ^bb0(%in: f32, %out: f32):
      %1315 = arith.negf %in : f32
      %1316 = math.exp %1315 : f32
      %1317 = arith.addf %1316, %cst_377 : f32
      %1318 = arith.divf %cst_377, %1317 : f32
      linalg.yield %1318 : f32
    } -> tensor<1x768x2x2xf32>
    %192 = linalg.generic {indexing_maps = [#map2, #map2, #map], iterator_types = ["parallel", "parallel", "parallel", "parallel"]} ins(%191, %190 : tensor<1x768x2x2xf32>, tensor<1x768x2x2xf32>) outs(%163 : tensor<1x768x2x2xf32>) {
    ^bb0(%in: f32, %in_518: f32, %out: f32):
      %1315 = arith.mulf %in, %in_518 : f32
      linalg.yield %1315 : f32
    } -> tensor<1x768x2x2xf32>
    %padded_399 = tensor.pad %192 low[0, 0, 1, 1] high[0, 0, 1, 1] {
    ^bb0(%arg1: index, %arg2: index, %arg3: index, %arg4: index):
      tensor.yield %cst_374 : f32
    } : tensor<1x768x2x2xf32> to tensor<1x768x4x4xf32>
    %collapsed_400 = tensor.collapse_shape %cst_311 [[0, 1], [2], [3]] : tensor<768x1x3x3xf32> into tensor<768x3x3xf32>
    %193 = linalg.depthwise_conv_2d_nchw_chw {dilations = dense<1> : vector<2xi64>, strides = dense<1> : vector<2xi64>} ins(%padded_399, %collapsed_400 : tensor<1x768x4x4xf32>, tensor<768x3x3xf32>) outs(%164 : tensor<1x768x2x2xf32>) -> tensor<1x768x2x2xf32>
    cf.assert %3, "training is not supported for now"
    %194 = linalg.generic {indexing_maps = [#map, #map1, #map1, #map1, #map1, #map], iterator_types = ["parallel", "parallel", "parallel", "parallel"]} ins(%193, %cst_319, %cst_318, %cst_318, %cst_319 : tensor<1x768x2x2xf32>, tensor<768xf32>, tensor<768xf32>, tensor<768xf32>, tensor<768xf32>) outs(%193 : tensor<1x768x2x2xf32>) {
    ^bb0(%in: f32, %in_518: f32, %in_519: f32, %in_520: f32, %in_521: f32, %out: f32):
      %1315 = arith.truncf %cst_375 : f64 to f32
      %1316 = arith.addf %in_521, %1315 : f32
      %1317 = math.rsqrt %1316 : f32
      %1318 = arith.subf %in, %in_520 : f32
      %1319 = arith.mulf %1318, %1317 : f32
      %1320 = arith.mulf %1319, %in_518 : f32
      %1321 = arith.addf %1320, %in_519 : f32
      linalg.yield %1321 : f32
    } -> tensor<1x768x2x2xf32>
    %195 = linalg.generic {indexing_maps = [#map2, #map], iterator_types = ["parallel", "parallel", "parallel", "parallel"]} ins(%194 : tensor<1x768x2x2xf32>) outs(%163 : tensor<1x768x2x2xf32>) {
    ^bb0(%in: f32, %out: f32):
      %1315 = arith.negf %in : f32
      %1316 = math.exp %1315 : f32
      %1317 = arith.addf %1316, %cst_377 : f32
      %1318 = arith.divf %cst_377, %1317 : f32
      linalg.yield %1318 : f32
    } -> tensor<1x768x2x2xf32>
    %196 = linalg.generic {indexing_maps = [#map2, #map2, #map], iterator_types = ["parallel", "parallel", "parallel", "parallel"]} ins(%195, %194 : tensor<1x768x2x2xf32>, tensor<1x768x2x2xf32>) outs(%163 : tensor<1x768x2x2xf32>) {
    ^bb0(%in: f32, %in_518: f32, %out: f32):
      %1315 = arith.mulf %in, %in_518 : f32
      linalg.yield %1315 : f32
    } -> tensor<1x768x2x2xf32>
    %197 = linalg.pooling_nchw_sum {dilations = dense<1> : vector<2xi64>, strides = dense<1> : vector<2xi64>} ins(%196, %147 : tensor<1x768x2x2xf32>, tensor<2x2xf32>) outs(%174 : tensor<1x768x1x1xf32>) -> tensor<1x768x1x1xf32>
    %198 = linalg.generic {indexing_maps = [#map, #map], iterator_types = ["parallel", "parallel", "parallel", "parallel"]} ins(%197 : tensor<1x768x1x1xf32>) outs(%173 : tensor<1x768x1x1xf32>) {
    ^bb0(%in: f32, %out: f32):
      %1315 = arith.divf %in, %cst_376 : f32
      linalg.yield %1315 : f32
    } -> tensor<1x768x1x1xf32>
    %199 = linalg.conv_2d_nchw_fchw {dilations = dense<1> : vector<2xi64>, strides = dense<1> : vector<2xi64>} ins(%198, %cst_310 : tensor<1x768x1x1xf32>, tensor<48x768x1x1xf32>) outs(%178 : tensor<1x48x1x1xf32>) -> tensor<1x48x1x1xf32>
    %200 = linalg.generic {indexing_maps = [#map3, #map], iterator_types = ["parallel", "parallel", "parallel", "parallel"]} ins(%199 : tensor<1x48x1x1xf32>) outs(%177 : tensor<1x48x1x1xf32>) {
    ^bb0(%in: f32, %out: f32):
      %1315 = arith.negf %in : f32
      %1316 = math.exp %1315 : f32
      %1317 = arith.addf %1316, %cst_377 : f32
      %1318 = arith.divf %cst_377, %1317 : f32
      linalg.yield %1318 : f32
    } -> tensor<1x48x1x1xf32>
    %201 = linalg.generic {indexing_maps = [#map3, #map3, #map], iterator_types = ["parallel", "parallel", "parallel", "parallel"]} ins(%200, %199 : tensor<1x48x1x1xf32>, tensor<1x48x1x1xf32>) outs(%177 : tensor<1x48x1x1xf32>) {
    ^bb0(%in: f32, %in_518: f32, %out: f32):
      %1315 = arith.mulf %in, %in_518 : f32
      linalg.yield %1315 : f32
    } -> tensor<1x48x1x1xf32>
    %202 = linalg.conv_2d_nchw_fchw {dilations = dense<1> : vector<2xi64>, strides = dense<1> : vector<2xi64>} ins(%201, %cst_309 : tensor<1x48x1x1xf32>, tensor<768x48x1x1xf32>) outs(%182 : tensor<1x768x1x1xf32>) -> tensor<1x768x1x1xf32>
    %203 = linalg.generic {indexing_maps = [#map3, #map], iterator_types = ["parallel", "parallel", "parallel", "parallel"]} ins(%202 : tensor<1x768x1x1xf32>) outs(%173 : tensor<1x768x1x1xf32>) {
    ^bb0(%in: f32, %out: f32):
      %1315 = arith.negf %in : f32
      %1316 = math.exp %1315 : f32
      %1317 = arith.addf %1316, %cst_377 : f32
      %1318 = arith.divf %cst_377, %1317 : f32
      linalg.yield %1318 : f32
    } -> tensor<1x768x1x1xf32>
    %204 = linalg.generic {indexing_maps = [#map3, #map2, #map], iterator_types = ["parallel", "parallel", "parallel", "parallel"]} ins(%203, %196 : tensor<1x768x1x1xf32>, tensor<1x768x2x2xf32>) outs(%163 : tensor<1x768x2x2xf32>) {
    ^bb0(%in: f32, %in_518: f32, %out: f32):
      %1315 = arith.mulf %in, %in_518 : f32
      linalg.yield %1315 : f32
    } -> tensor<1x768x2x2xf32>
    %205 = linalg.conv_2d_nchw_fchw {dilations = dense<1> : vector<2xi64>, strides = dense<1> : vector<2xi64>} ins(%204, %cst_308 : tensor<1x768x2x2xf32>, tensor<192x768x1x1xf32>) outs(%160 : tensor<1x192x2x2xf32>) -> tensor<1x192x2x2xf32>
    cf.assert %3, "training is not supported for now"
    %206 = linalg.generic {indexing_maps = [#map, #map1, #map1, #map1, #map1, #map], iterator_types = ["parallel", "parallel", "parallel", "parallel"]} ins(%205, %cst_322, %cst_321, %cst_321, %cst_322 : tensor<1x192x2x2xf32>, tensor<192xf32>, tensor<192xf32>, tensor<192xf32>, tensor<192xf32>) outs(%205 : tensor<1x192x2x2xf32>) {
    ^bb0(%in: f32, %in_518: f32, %in_519: f32, %in_520: f32, %in_521: f32, %out: f32):
      %1315 = arith.truncf %cst_375 : f64 to f32
      %1316 = arith.addf %in_521, %1315 : f32
      %1317 = math.rsqrt %1316 : f32
      %1318 = arith.subf %in, %in_520 : f32
      %1319 = arith.mulf %1318, %1317 : f32
      %1320 = arith.mulf %1319, %in_518 : f32
      %1321 = arith.addf %1320, %in_519 : f32
      linalg.yield %1321 : f32
    } -> tensor<1x192x2x2xf32>
    %207 = linalg.generic {indexing_maps = [#map2, #map2, #map], iterator_types = ["parallel", "parallel", "parallel", "parallel"]} ins(%206, %188 : tensor<1x192x2x2xf32>, tensor<1x192x2x2xf32>) outs(%159 : tensor<1x192x2x2xf32>) {
    ^bb0(%in: f32, %in_518: f32, %out: f32):
      %1315 = arith.addf %in, %in_518 : f32
      linalg.yield %1315 : f32
    } -> tensor<1x192x2x2xf32>
    %208 = linalg.conv_2d_nchw_fchw {dilations = dense<1> : vector<2xi64>, strides = dense<1> : vector<2xi64>} ins(%207, %cst_307 : tensor<1x192x2x2xf32>, tensor<768x192x1x1xf32>) outs(%164 : tensor<1x768x2x2xf32>) -> tensor<1x768x2x2xf32>
    cf.assert %3, "training is not supported for now"
    %209 = linalg.generic {indexing_maps = [#map, #map1, #map1, #map1, #map1, #map], iterator_types = ["parallel", "parallel", "parallel", "parallel"]} ins(%208, %cst_319, %cst_318, %cst_318, %cst_319 : tensor<1x768x2x2xf32>, tensor<768xf32>, tensor<768xf32>, tensor<768xf32>, tensor<768xf32>) outs(%208 : tensor<1x768x2x2xf32>) {
    ^bb0(%in: f32, %in_518: f32, %in_519: f32, %in_520: f32, %in_521: f32, %out: f32):
      %1315 = arith.truncf %cst_375 : f64 to f32
      %1316 = arith.addf %in_521, %1315 : f32
      %1317 = math.rsqrt %1316 : f32
      %1318 = arith.subf %in, %in_520 : f32
      %1319 = arith.mulf %1318, %1317 : f32
      %1320 = arith.mulf %1319, %in_518 : f32
      %1321 = arith.addf %1320, %in_519 : f32
      linalg.yield %1321 : f32
    } -> tensor<1x768x2x2xf32>
    %210 = linalg.generic {indexing_maps = [#map2, #map], iterator_types = ["parallel", "parallel", "parallel", "parallel"]} ins(%209 : tensor<1x768x2x2xf32>) outs(%163 : tensor<1x768x2x2xf32>) {
    ^bb0(%in: f32, %out: f32):
      %1315 = arith.negf %in : f32
      %1316 = math.exp %1315 : f32
      %1317 = arith.addf %1316, %cst_377 : f32
      %1318 = arith.divf %cst_377, %1317 : f32
      linalg.yield %1318 : f32
    } -> tensor<1x768x2x2xf32>
    %211 = linalg.generic {indexing_maps = [#map2, #map2, #map], iterator_types = ["parallel", "parallel", "parallel", "parallel"]} ins(%210, %209 : tensor<1x768x2x2xf32>, tensor<1x768x2x2xf32>) outs(%163 : tensor<1x768x2x2xf32>) {
    ^bb0(%in: f32, %in_518: f32, %out: f32):
      %1315 = arith.mulf %in, %in_518 : f32
      linalg.yield %1315 : f32
    } -> tensor<1x768x2x2xf32>
    %padded_401 = tensor.pad %211 low[0, 0, 1, 1] high[0, 0, 1, 1] {
    ^bb0(%arg1: index, %arg2: index, %arg3: index, %arg4: index):
      tensor.yield %cst_374 : f32
    } : tensor<1x768x2x2xf32> to tensor<1x768x4x4xf32>
    %collapsed_402 = tensor.collapse_shape %cst_306 [[0, 1], [2], [3]] : tensor<768x1x3x3xf32> into tensor<768x3x3xf32>
    %212 = linalg.depthwise_conv_2d_nchw_chw {dilations = dense<1> : vector<2xi64>, strides = dense<1> : vector<2xi64>} ins(%padded_401, %collapsed_402 : tensor<1x768x4x4xf32>, tensor<768x3x3xf32>) outs(%164 : tensor<1x768x2x2xf32>) -> tensor<1x768x2x2xf32>
    cf.assert %3, "training is not supported for now"
    %213 = linalg.generic {indexing_maps = [#map, #map1, #map1, #map1, #map1, #map], iterator_types = ["parallel", "parallel", "parallel", "parallel"]} ins(%212, %cst_319, %cst_318, %cst_318, %cst_319 : tensor<1x768x2x2xf32>, tensor<768xf32>, tensor<768xf32>, tensor<768xf32>, tensor<768xf32>) outs(%212 : tensor<1x768x2x2xf32>) {
    ^bb0(%in: f32, %in_518: f32, %in_519: f32, %in_520: f32, %in_521: f32, %out: f32):
      %1315 = arith.truncf %cst_375 : f64 to f32
      %1316 = arith.addf %in_521, %1315 : f32
      %1317 = math.rsqrt %1316 : f32
      %1318 = arith.subf %in, %in_520 : f32
      %1319 = arith.mulf %1318, %1317 : f32
      %1320 = arith.mulf %1319, %in_518 : f32
      %1321 = arith.addf %1320, %in_519 : f32
      linalg.yield %1321 : f32
    } -> tensor<1x768x2x2xf32>
    %214 = linalg.generic {indexing_maps = [#map2, #map], iterator_types = ["parallel", "parallel", "parallel", "parallel"]} ins(%213 : tensor<1x768x2x2xf32>) outs(%163 : tensor<1x768x2x2xf32>) {
    ^bb0(%in: f32, %out: f32):
      %1315 = arith.negf %in : f32
      %1316 = math.exp %1315 : f32
      %1317 = arith.addf %1316, %cst_377 : f32
      %1318 = arith.divf %cst_377, %1317 : f32
      linalg.yield %1318 : f32
    } -> tensor<1x768x2x2xf32>
    %215 = linalg.generic {indexing_maps = [#map2, #map2, #map], iterator_types = ["parallel", "parallel", "parallel", "parallel"]} ins(%214, %213 : tensor<1x768x2x2xf32>, tensor<1x768x2x2xf32>) outs(%163 : tensor<1x768x2x2xf32>) {
    ^bb0(%in: f32, %in_518: f32, %out: f32):
      %1315 = arith.mulf %in, %in_518 : f32
      linalg.yield %1315 : f32
    } -> tensor<1x768x2x2xf32>
    %216 = linalg.pooling_nchw_sum {dilations = dense<1> : vector<2xi64>, strides = dense<1> : vector<2xi64>} ins(%215, %147 : tensor<1x768x2x2xf32>, tensor<2x2xf32>) outs(%174 : tensor<1x768x1x1xf32>) -> tensor<1x768x1x1xf32>
    %217 = linalg.generic {indexing_maps = [#map, #map], iterator_types = ["parallel", "parallel", "parallel", "parallel"]} ins(%216 : tensor<1x768x1x1xf32>) outs(%173 : tensor<1x768x1x1xf32>) {
    ^bb0(%in: f32, %out: f32):
      %1315 = arith.divf %in, %cst_376 : f32
      linalg.yield %1315 : f32
    } -> tensor<1x768x1x1xf32>
    %218 = linalg.conv_2d_nchw_fchw {dilations = dense<1> : vector<2xi64>, strides = dense<1> : vector<2xi64>} ins(%217, %cst_305 : tensor<1x768x1x1xf32>, tensor<48x768x1x1xf32>) outs(%178 : tensor<1x48x1x1xf32>) -> tensor<1x48x1x1xf32>
    %219 = linalg.generic {indexing_maps = [#map3, #map], iterator_types = ["parallel", "parallel", "parallel", "parallel"]} ins(%218 : tensor<1x48x1x1xf32>) outs(%177 : tensor<1x48x1x1xf32>) {
    ^bb0(%in: f32, %out: f32):
      %1315 = arith.negf %in : f32
      %1316 = math.exp %1315 : f32
      %1317 = arith.addf %1316, %cst_377 : f32
      %1318 = arith.divf %cst_377, %1317 : f32
      linalg.yield %1318 : f32
    } -> tensor<1x48x1x1xf32>
    %220 = linalg.generic {indexing_maps = [#map3, #map3, #map], iterator_types = ["parallel", "parallel", "parallel", "parallel"]} ins(%219, %218 : tensor<1x48x1x1xf32>, tensor<1x48x1x1xf32>) outs(%177 : tensor<1x48x1x1xf32>) {
    ^bb0(%in: f32, %in_518: f32, %out: f32):
      %1315 = arith.mulf %in, %in_518 : f32
      linalg.yield %1315 : f32
    } -> tensor<1x48x1x1xf32>
    %221 = linalg.conv_2d_nchw_fchw {dilations = dense<1> : vector<2xi64>, strides = dense<1> : vector<2xi64>} ins(%220, %cst_304 : tensor<1x48x1x1xf32>, tensor<768x48x1x1xf32>) outs(%182 : tensor<1x768x1x1xf32>) -> tensor<1x768x1x1xf32>
    %222 = linalg.generic {indexing_maps = [#map3, #map], iterator_types = ["parallel", "parallel", "parallel", "parallel"]} ins(%221 : tensor<1x768x1x1xf32>) outs(%173 : tensor<1x768x1x1xf32>) {
    ^bb0(%in: f32, %out: f32):
      %1315 = arith.negf %in : f32
      %1316 = math.exp %1315 : f32
      %1317 = arith.addf %1316, %cst_377 : f32
      %1318 = arith.divf %cst_377, %1317 : f32
      linalg.yield %1318 : f32
    } -> tensor<1x768x1x1xf32>
    %223 = linalg.generic {indexing_maps = [#map3, #map2, #map], iterator_types = ["parallel", "parallel", "parallel", "parallel"]} ins(%222, %215 : tensor<1x768x1x1xf32>, tensor<1x768x2x2xf32>) outs(%163 : tensor<1x768x2x2xf32>) {
    ^bb0(%in: f32, %in_518: f32, %out: f32):
      %1315 = arith.mulf %in, %in_518 : f32
      linalg.yield %1315 : f32
    } -> tensor<1x768x2x2xf32>
    %224 = linalg.conv_2d_nchw_fchw {dilations = dense<1> : vector<2xi64>, strides = dense<1> : vector<2xi64>} ins(%223, %cst_303 : tensor<1x768x2x2xf32>, tensor<192x768x1x1xf32>) outs(%160 : tensor<1x192x2x2xf32>) -> tensor<1x192x2x2xf32>
    cf.assert %3, "training is not supported for now"
    %225 = linalg.generic {indexing_maps = [#map, #map1, #map1, #map1, #map1, #map], iterator_types = ["parallel", "parallel", "parallel", "parallel"]} ins(%224, %cst_322, %cst_321, %cst_321, %cst_322 : tensor<1x192x2x2xf32>, tensor<192xf32>, tensor<192xf32>, tensor<192xf32>, tensor<192xf32>) outs(%224 : tensor<1x192x2x2xf32>) {
    ^bb0(%in: f32, %in_518: f32, %in_519: f32, %in_520: f32, %in_521: f32, %out: f32):
      %1315 = arith.truncf %cst_375 : f64 to f32
      %1316 = arith.addf %in_521, %1315 : f32
      %1317 = math.rsqrt %1316 : f32
      %1318 = arith.subf %in, %in_520 : f32
      %1319 = arith.mulf %1318, %1317 : f32
      %1320 = arith.mulf %1319, %in_518 : f32
      %1321 = arith.addf %1320, %in_519 : f32
      linalg.yield %1321 : f32
    } -> tensor<1x192x2x2xf32>
    %226 = linalg.generic {indexing_maps = [#map2, #map2, #map], iterator_types = ["parallel", "parallel", "parallel", "parallel"]} ins(%225, %207 : tensor<1x192x2x2xf32>, tensor<1x192x2x2xf32>) outs(%159 : tensor<1x192x2x2xf32>) {
    ^bb0(%in: f32, %in_518: f32, %out: f32):
      %1315 = arith.addf %in, %in_518 : f32
      linalg.yield %1315 : f32
    } -> tensor<1x192x2x2xf32>
    %227 = linalg.conv_2d_nchw_fchw {dilations = dense<1> : vector<2xi64>, strides = dense<1> : vector<2xi64>} ins(%226, %cst_302 : tensor<1x192x2x2xf32>, tensor<768x192x1x1xf32>) outs(%164 : tensor<1x768x2x2xf32>) -> tensor<1x768x2x2xf32>
    cf.assert %3, "training is not supported for now"
    %228 = linalg.generic {indexing_maps = [#map, #map1, #map1, #map1, #map1, #map], iterator_types = ["parallel", "parallel", "parallel", "parallel"]} ins(%227, %cst_319, %cst_318, %cst_318, %cst_319 : tensor<1x768x2x2xf32>, tensor<768xf32>, tensor<768xf32>, tensor<768xf32>, tensor<768xf32>) outs(%227 : tensor<1x768x2x2xf32>) {
    ^bb0(%in: f32, %in_518: f32, %in_519: f32, %in_520: f32, %in_521: f32, %out: f32):
      %1315 = arith.truncf %cst_375 : f64 to f32
      %1316 = arith.addf %in_521, %1315 : f32
      %1317 = math.rsqrt %1316 : f32
      %1318 = arith.subf %in, %in_520 : f32
      %1319 = arith.mulf %1318, %1317 : f32
      %1320 = arith.mulf %1319, %in_518 : f32
      %1321 = arith.addf %1320, %in_519 : f32
      linalg.yield %1321 : f32
    } -> tensor<1x768x2x2xf32>
    %229 = linalg.generic {indexing_maps = [#map2, #map], iterator_types = ["parallel", "parallel", "parallel", "parallel"]} ins(%228 : tensor<1x768x2x2xf32>) outs(%163 : tensor<1x768x2x2xf32>) {
    ^bb0(%in: f32, %out: f32):
      %1315 = arith.negf %in : f32
      %1316 = math.exp %1315 : f32
      %1317 = arith.addf %1316, %cst_377 : f32
      %1318 = arith.divf %cst_377, %1317 : f32
      linalg.yield %1318 : f32
    } -> tensor<1x768x2x2xf32>
    %230 = linalg.generic {indexing_maps = [#map2, #map2, #map], iterator_types = ["parallel", "parallel", "parallel", "parallel"]} ins(%229, %228 : tensor<1x768x2x2xf32>, tensor<1x768x2x2xf32>) outs(%163 : tensor<1x768x2x2xf32>) {
    ^bb0(%in: f32, %in_518: f32, %out: f32):
      %1315 = arith.mulf %in, %in_518 : f32
      linalg.yield %1315 : f32
    } -> tensor<1x768x2x2xf32>
    %padded_403 = tensor.pad %230 low[0, 0, 1, 1] high[0, 0, 1, 1] {
    ^bb0(%arg1: index, %arg2: index, %arg3: index, %arg4: index):
      tensor.yield %cst_374 : f32
    } : tensor<1x768x2x2xf32> to tensor<1x768x4x4xf32>
    %collapsed_404 = tensor.collapse_shape %cst_301 [[0, 1], [2], [3]] : tensor<768x1x3x3xf32> into tensor<768x3x3xf32>
    %231 = linalg.depthwise_conv_2d_nchw_chw {dilations = dense<1> : vector<2xi64>, strides = dense<1> : vector<2xi64>} ins(%padded_403, %collapsed_404 : tensor<1x768x4x4xf32>, tensor<768x3x3xf32>) outs(%164 : tensor<1x768x2x2xf32>) -> tensor<1x768x2x2xf32>
    cf.assert %3, "training is not supported for now"
    %232 = linalg.generic {indexing_maps = [#map, #map1, #map1, #map1, #map1, #map], iterator_types = ["parallel", "parallel", "parallel", "parallel"]} ins(%231, %cst_319, %cst_318, %cst_318, %cst_319 : tensor<1x768x2x2xf32>, tensor<768xf32>, tensor<768xf32>, tensor<768xf32>, tensor<768xf32>) outs(%231 : tensor<1x768x2x2xf32>) {
    ^bb0(%in: f32, %in_518: f32, %in_519: f32, %in_520: f32, %in_521: f32, %out: f32):
      %1315 = arith.truncf %cst_375 : f64 to f32
      %1316 = arith.addf %in_521, %1315 : f32
      %1317 = math.rsqrt %1316 : f32
      %1318 = arith.subf %in, %in_520 : f32
      %1319 = arith.mulf %1318, %1317 : f32
      %1320 = arith.mulf %1319, %in_518 : f32
      %1321 = arith.addf %1320, %in_519 : f32
      linalg.yield %1321 : f32
    } -> tensor<1x768x2x2xf32>
    %233 = linalg.generic {indexing_maps = [#map2, #map], iterator_types = ["parallel", "parallel", "parallel", "parallel"]} ins(%232 : tensor<1x768x2x2xf32>) outs(%163 : tensor<1x768x2x2xf32>) {
    ^bb0(%in: f32, %out: f32):
      %1315 = arith.negf %in : f32
      %1316 = math.exp %1315 : f32
      %1317 = arith.addf %1316, %cst_377 : f32
      %1318 = arith.divf %cst_377, %1317 : f32
      linalg.yield %1318 : f32
    } -> tensor<1x768x2x2xf32>
    %234 = linalg.generic {indexing_maps = [#map2, #map2, #map], iterator_types = ["parallel", "parallel", "parallel", "parallel"]} ins(%233, %232 : tensor<1x768x2x2xf32>, tensor<1x768x2x2xf32>) outs(%163 : tensor<1x768x2x2xf32>) {
    ^bb0(%in: f32, %in_518: f32, %out: f32):
      %1315 = arith.mulf %in, %in_518 : f32
      linalg.yield %1315 : f32
    } -> tensor<1x768x2x2xf32>
    %235 = linalg.pooling_nchw_sum {dilations = dense<1> : vector<2xi64>, strides = dense<1> : vector<2xi64>} ins(%234, %147 : tensor<1x768x2x2xf32>, tensor<2x2xf32>) outs(%174 : tensor<1x768x1x1xf32>) -> tensor<1x768x1x1xf32>
    %236 = linalg.generic {indexing_maps = [#map, #map], iterator_types = ["parallel", "parallel", "parallel", "parallel"]} ins(%235 : tensor<1x768x1x1xf32>) outs(%173 : tensor<1x768x1x1xf32>) {
    ^bb0(%in: f32, %out: f32):
      %1315 = arith.divf %in, %cst_376 : f32
      linalg.yield %1315 : f32
    } -> tensor<1x768x1x1xf32>
    %237 = linalg.conv_2d_nchw_fchw {dilations = dense<1> : vector<2xi64>, strides = dense<1> : vector<2xi64>} ins(%236, %cst_300 : tensor<1x768x1x1xf32>, tensor<48x768x1x1xf32>) outs(%178 : tensor<1x48x1x1xf32>) -> tensor<1x48x1x1xf32>
    %238 = linalg.generic {indexing_maps = [#map3, #map], iterator_types = ["parallel", "parallel", "parallel", "parallel"]} ins(%237 : tensor<1x48x1x1xf32>) outs(%177 : tensor<1x48x1x1xf32>) {
    ^bb0(%in: f32, %out: f32):
      %1315 = arith.negf %in : f32
      %1316 = math.exp %1315 : f32
      %1317 = arith.addf %1316, %cst_377 : f32
      %1318 = arith.divf %cst_377, %1317 : f32
      linalg.yield %1318 : f32
    } -> tensor<1x48x1x1xf32>
    %239 = linalg.generic {indexing_maps = [#map3, #map3, #map], iterator_types = ["parallel", "parallel", "parallel", "parallel"]} ins(%238, %237 : tensor<1x48x1x1xf32>, tensor<1x48x1x1xf32>) outs(%177 : tensor<1x48x1x1xf32>) {
    ^bb0(%in: f32, %in_518: f32, %out: f32):
      %1315 = arith.mulf %in, %in_518 : f32
      linalg.yield %1315 : f32
    } -> tensor<1x48x1x1xf32>
    %240 = linalg.conv_2d_nchw_fchw {dilations = dense<1> : vector<2xi64>, strides = dense<1> : vector<2xi64>} ins(%239, %cst_299 : tensor<1x48x1x1xf32>, tensor<768x48x1x1xf32>) outs(%182 : tensor<1x768x1x1xf32>) -> tensor<1x768x1x1xf32>
    %241 = linalg.generic {indexing_maps = [#map3, #map], iterator_types = ["parallel", "parallel", "parallel", "parallel"]} ins(%240 : tensor<1x768x1x1xf32>) outs(%173 : tensor<1x768x1x1xf32>) {
    ^bb0(%in: f32, %out: f32):
      %1315 = arith.negf %in : f32
      %1316 = math.exp %1315 : f32
      %1317 = arith.addf %1316, %cst_377 : f32
      %1318 = arith.divf %cst_377, %1317 : f32
      linalg.yield %1318 : f32
    } -> tensor<1x768x1x1xf32>
    %242 = linalg.generic {indexing_maps = [#map3, #map2, #map], iterator_types = ["parallel", "parallel", "parallel", "parallel"]} ins(%241, %234 : tensor<1x768x1x1xf32>, tensor<1x768x2x2xf32>) outs(%163 : tensor<1x768x2x2xf32>) {
    ^bb0(%in: f32, %in_518: f32, %out: f32):
      %1315 = arith.mulf %in, %in_518 : f32
      linalg.yield %1315 : f32
    } -> tensor<1x768x2x2xf32>
    %243 = linalg.conv_2d_nchw_fchw {dilations = dense<1> : vector<2xi64>, strides = dense<1> : vector<2xi64>} ins(%242, %cst_298 : tensor<1x768x2x2xf32>, tensor<192x768x1x1xf32>) outs(%160 : tensor<1x192x2x2xf32>) -> tensor<1x192x2x2xf32>
    cf.assert %3, "training is not supported for now"
    %244 = linalg.generic {indexing_maps = [#map, #map1, #map1, #map1, #map1, #map], iterator_types = ["parallel", "parallel", "parallel", "parallel"]} ins(%243, %cst_322, %cst_321, %cst_321, %cst_322 : tensor<1x192x2x2xf32>, tensor<192xf32>, tensor<192xf32>, tensor<192xf32>, tensor<192xf32>) outs(%243 : tensor<1x192x2x2xf32>) {
    ^bb0(%in: f32, %in_518: f32, %in_519: f32, %in_520: f32, %in_521: f32, %out: f32):
      %1315 = arith.truncf %cst_375 : f64 to f32
      %1316 = arith.addf %in_521, %1315 : f32
      %1317 = math.rsqrt %1316 : f32
      %1318 = arith.subf %in, %in_520 : f32
      %1319 = arith.mulf %1318, %1317 : f32
      %1320 = arith.mulf %1319, %in_518 : f32
      %1321 = arith.addf %1320, %in_519 : f32
      linalg.yield %1321 : f32
    } -> tensor<1x192x2x2xf32>
    %245 = linalg.generic {indexing_maps = [#map2, #map2, #map], iterator_types = ["parallel", "parallel", "parallel", "parallel"]} ins(%244, %226 : tensor<1x192x2x2xf32>, tensor<1x192x2x2xf32>) outs(%159 : tensor<1x192x2x2xf32>) {
    ^bb0(%in: f32, %in_518: f32, %out: f32):
      %1315 = arith.addf %in, %in_518 : f32
      linalg.yield %1315 : f32
    } -> tensor<1x192x2x2xf32>
    %246 = linalg.conv_2d_nchw_fchw {dilations = dense<1> : vector<2xi64>, strides = dense<1> : vector<2xi64>} ins(%245, %cst_297 : tensor<1x192x2x2xf32>, tensor<768x192x1x1xf32>) outs(%164 : tensor<1x768x2x2xf32>) -> tensor<1x768x2x2xf32>
    cf.assert %3, "training is not supported for now"
    %247 = linalg.generic {indexing_maps = [#map, #map1, #map1, #map1, #map1, #map], iterator_types = ["parallel", "parallel", "parallel", "parallel"]} ins(%246, %cst_319, %cst_318, %cst_318, %cst_319 : tensor<1x768x2x2xf32>, tensor<768xf32>, tensor<768xf32>, tensor<768xf32>, tensor<768xf32>) outs(%246 : tensor<1x768x2x2xf32>) {
    ^bb0(%in: f32, %in_518: f32, %in_519: f32, %in_520: f32, %in_521: f32, %out: f32):
      %1315 = arith.truncf %cst_375 : f64 to f32
      %1316 = arith.addf %in_521, %1315 : f32
      %1317 = math.rsqrt %1316 : f32
      %1318 = arith.subf %in, %in_520 : f32
      %1319 = arith.mulf %1318, %1317 : f32
      %1320 = arith.mulf %1319, %in_518 : f32
      %1321 = arith.addf %1320, %in_519 : f32
      linalg.yield %1321 : f32
    } -> tensor<1x768x2x2xf32>
    %248 = linalg.generic {indexing_maps = [#map2, #map], iterator_types = ["parallel", "parallel", "parallel", "parallel"]} ins(%247 : tensor<1x768x2x2xf32>) outs(%163 : tensor<1x768x2x2xf32>) {
    ^bb0(%in: f32, %out: f32):
      %1315 = arith.negf %in : f32
      %1316 = math.exp %1315 : f32
      %1317 = arith.addf %1316, %cst_377 : f32
      %1318 = arith.divf %cst_377, %1317 : f32
      linalg.yield %1318 : f32
    } -> tensor<1x768x2x2xf32>
    %249 = linalg.generic {indexing_maps = [#map2, #map2, #map], iterator_types = ["parallel", "parallel", "parallel", "parallel"]} ins(%248, %247 : tensor<1x768x2x2xf32>, tensor<1x768x2x2xf32>) outs(%163 : tensor<1x768x2x2xf32>) {
    ^bb0(%in: f32, %in_518: f32, %out: f32):
      %1315 = arith.mulf %in, %in_518 : f32
      linalg.yield %1315 : f32
    } -> tensor<1x768x2x2xf32>
    %padded_405 = tensor.pad %249 low[0, 0, 1, 1] high[0, 0, 1, 1] {
    ^bb0(%arg1: index, %arg2: index, %arg3: index, %arg4: index):
      tensor.yield %cst_374 : f32
    } : tensor<1x768x2x2xf32> to tensor<1x768x4x4xf32>
    %collapsed_406 = tensor.collapse_shape %cst_296 [[0, 1], [2], [3]] : tensor<768x1x3x3xf32> into tensor<768x3x3xf32>
    %250 = linalg.depthwise_conv_2d_nchw_chw {dilations = dense<1> : vector<2xi64>, strides = dense<1> : vector<2xi64>} ins(%padded_405, %collapsed_406 : tensor<1x768x4x4xf32>, tensor<768x3x3xf32>) outs(%164 : tensor<1x768x2x2xf32>) -> tensor<1x768x2x2xf32>
    cf.assert %3, "training is not supported for now"
    %251 = linalg.generic {indexing_maps = [#map, #map1, #map1, #map1, #map1, #map], iterator_types = ["parallel", "parallel", "parallel", "parallel"]} ins(%250, %cst_319, %cst_318, %cst_318, %cst_319 : tensor<1x768x2x2xf32>, tensor<768xf32>, tensor<768xf32>, tensor<768xf32>, tensor<768xf32>) outs(%250 : tensor<1x768x2x2xf32>) {
    ^bb0(%in: f32, %in_518: f32, %in_519: f32, %in_520: f32, %in_521: f32, %out: f32):
      %1315 = arith.truncf %cst_375 : f64 to f32
      %1316 = arith.addf %in_521, %1315 : f32
      %1317 = math.rsqrt %1316 : f32
      %1318 = arith.subf %in, %in_520 : f32
      %1319 = arith.mulf %1318, %1317 : f32
      %1320 = arith.mulf %1319, %in_518 : f32
      %1321 = arith.addf %1320, %in_519 : f32
      linalg.yield %1321 : f32
    } -> tensor<1x768x2x2xf32>
    %252 = linalg.generic {indexing_maps = [#map2, #map], iterator_types = ["parallel", "parallel", "parallel", "parallel"]} ins(%251 : tensor<1x768x2x2xf32>) outs(%163 : tensor<1x768x2x2xf32>) {
    ^bb0(%in: f32, %out: f32):
      %1315 = arith.negf %in : f32
      %1316 = math.exp %1315 : f32
      %1317 = arith.addf %1316, %cst_377 : f32
      %1318 = arith.divf %cst_377, %1317 : f32
      linalg.yield %1318 : f32
    } -> tensor<1x768x2x2xf32>
    %253 = linalg.generic {indexing_maps = [#map2, #map2, #map], iterator_types = ["parallel", "parallel", "parallel", "parallel"]} ins(%252, %251 : tensor<1x768x2x2xf32>, tensor<1x768x2x2xf32>) outs(%163 : tensor<1x768x2x2xf32>) {
    ^bb0(%in: f32, %in_518: f32, %out: f32):
      %1315 = arith.mulf %in, %in_518 : f32
      linalg.yield %1315 : f32
    } -> tensor<1x768x2x2xf32>
    %254 = linalg.pooling_nchw_sum {dilations = dense<1> : vector<2xi64>, strides = dense<1> : vector<2xi64>} ins(%253, %147 : tensor<1x768x2x2xf32>, tensor<2x2xf32>) outs(%174 : tensor<1x768x1x1xf32>) -> tensor<1x768x1x1xf32>
    %255 = linalg.generic {indexing_maps = [#map, #map], iterator_types = ["parallel", "parallel", "parallel", "parallel"]} ins(%254 : tensor<1x768x1x1xf32>) outs(%173 : tensor<1x768x1x1xf32>) {
    ^bb0(%in: f32, %out: f32):
      %1315 = arith.divf %in, %cst_376 : f32
      linalg.yield %1315 : f32
    } -> tensor<1x768x1x1xf32>
    %256 = linalg.conv_2d_nchw_fchw {dilations = dense<1> : vector<2xi64>, strides = dense<1> : vector<2xi64>} ins(%255, %cst_295 : tensor<1x768x1x1xf32>, tensor<48x768x1x1xf32>) outs(%178 : tensor<1x48x1x1xf32>) -> tensor<1x48x1x1xf32>
    %257 = linalg.generic {indexing_maps = [#map3, #map], iterator_types = ["parallel", "parallel", "parallel", "parallel"]} ins(%256 : tensor<1x48x1x1xf32>) outs(%177 : tensor<1x48x1x1xf32>) {
    ^bb0(%in: f32, %out: f32):
      %1315 = arith.negf %in : f32
      %1316 = math.exp %1315 : f32
      %1317 = arith.addf %1316, %cst_377 : f32
      %1318 = arith.divf %cst_377, %1317 : f32
      linalg.yield %1318 : f32
    } -> tensor<1x48x1x1xf32>
    %258 = linalg.generic {indexing_maps = [#map3, #map3, #map], iterator_types = ["parallel", "parallel", "parallel", "parallel"]} ins(%257, %256 : tensor<1x48x1x1xf32>, tensor<1x48x1x1xf32>) outs(%177 : tensor<1x48x1x1xf32>) {
    ^bb0(%in: f32, %in_518: f32, %out: f32):
      %1315 = arith.mulf %in, %in_518 : f32
      linalg.yield %1315 : f32
    } -> tensor<1x48x1x1xf32>
    %259 = linalg.conv_2d_nchw_fchw {dilations = dense<1> : vector<2xi64>, strides = dense<1> : vector<2xi64>} ins(%258, %cst_294 : tensor<1x48x1x1xf32>, tensor<768x48x1x1xf32>) outs(%182 : tensor<1x768x1x1xf32>) -> tensor<1x768x1x1xf32>
    %260 = linalg.generic {indexing_maps = [#map3, #map], iterator_types = ["parallel", "parallel", "parallel", "parallel"]} ins(%259 : tensor<1x768x1x1xf32>) outs(%173 : tensor<1x768x1x1xf32>) {
    ^bb0(%in: f32, %out: f32):
      %1315 = arith.negf %in : f32
      %1316 = math.exp %1315 : f32
      %1317 = arith.addf %1316, %cst_377 : f32
      %1318 = arith.divf %cst_377, %1317 : f32
      linalg.yield %1318 : f32
    } -> tensor<1x768x1x1xf32>
    %261 = linalg.generic {indexing_maps = [#map3, #map2, #map], iterator_types = ["parallel", "parallel", "parallel", "parallel"]} ins(%260, %253 : tensor<1x768x1x1xf32>, tensor<1x768x2x2xf32>) outs(%163 : tensor<1x768x2x2xf32>) {
    ^bb0(%in: f32, %in_518: f32, %out: f32):
      %1315 = arith.mulf %in, %in_518 : f32
      linalg.yield %1315 : f32
    } -> tensor<1x768x2x2xf32>
    %262 = linalg.conv_2d_nchw_fchw {dilations = dense<1> : vector<2xi64>, strides = dense<1> : vector<2xi64>} ins(%261, %cst_293 : tensor<1x768x2x2xf32>, tensor<192x768x1x1xf32>) outs(%160 : tensor<1x192x2x2xf32>) -> tensor<1x192x2x2xf32>
    cf.assert %3, "training is not supported for now"
    %263 = linalg.generic {indexing_maps = [#map, #map1, #map1, #map1, #map1, #map], iterator_types = ["parallel", "parallel", "parallel", "parallel"]} ins(%262, %cst_322, %cst_321, %cst_321, %cst_322 : tensor<1x192x2x2xf32>, tensor<192xf32>, tensor<192xf32>, tensor<192xf32>, tensor<192xf32>) outs(%262 : tensor<1x192x2x2xf32>) {
    ^bb0(%in: f32, %in_518: f32, %in_519: f32, %in_520: f32, %in_521: f32, %out: f32):
      %1315 = arith.truncf %cst_375 : f64 to f32
      %1316 = arith.addf %in_521, %1315 : f32
      %1317 = math.rsqrt %1316 : f32
      %1318 = arith.subf %in, %in_520 : f32
      %1319 = arith.mulf %1318, %1317 : f32
      %1320 = arith.mulf %1319, %in_518 : f32
      %1321 = arith.addf %1320, %in_519 : f32
      linalg.yield %1321 : f32
    } -> tensor<1x192x2x2xf32>
    %264 = linalg.generic {indexing_maps = [#map2, #map2, #map], iterator_types = ["parallel", "parallel", "parallel", "parallel"]} ins(%263, %245 : tensor<1x192x2x2xf32>, tensor<1x192x2x2xf32>) outs(%159 : tensor<1x192x2x2xf32>) {
    ^bb0(%in: f32, %in_518: f32, %out: f32):
      %1315 = arith.addf %in, %in_518 : f32
      linalg.yield %1315 : f32
    } -> tensor<1x192x2x2xf32>
    %265 = linalg.conv_2d_nchw_fchw {dilations = dense<1> : vector<2xi64>, strides = dense<1> : vector<2xi64>} ins(%264, %cst_292 : tensor<1x192x2x2xf32>, tensor<768x192x1x1xf32>) outs(%164 : tensor<1x768x2x2xf32>) -> tensor<1x768x2x2xf32>
    cf.assert %3, "training is not supported for now"
    %266 = linalg.generic {indexing_maps = [#map, #map1, #map1, #map1, #map1, #map], iterator_types = ["parallel", "parallel", "parallel", "parallel"]} ins(%265, %cst_319, %cst_318, %cst_318, %cst_319 : tensor<1x768x2x2xf32>, tensor<768xf32>, tensor<768xf32>, tensor<768xf32>, tensor<768xf32>) outs(%265 : tensor<1x768x2x2xf32>) {
    ^bb0(%in: f32, %in_518: f32, %in_519: f32, %in_520: f32, %in_521: f32, %out: f32):
      %1315 = arith.truncf %cst_375 : f64 to f32
      %1316 = arith.addf %in_521, %1315 : f32
      %1317 = math.rsqrt %1316 : f32
      %1318 = arith.subf %in, %in_520 : f32
      %1319 = arith.mulf %1318, %1317 : f32
      %1320 = arith.mulf %1319, %in_518 : f32
      %1321 = arith.addf %1320, %in_519 : f32
      linalg.yield %1321 : f32
    } -> tensor<1x768x2x2xf32>
    %267 = linalg.generic {indexing_maps = [#map2, #map], iterator_types = ["parallel", "parallel", "parallel", "parallel"]} ins(%266 : tensor<1x768x2x2xf32>) outs(%163 : tensor<1x768x2x2xf32>) {
    ^bb0(%in: f32, %out: f32):
      %1315 = arith.negf %in : f32
      %1316 = math.exp %1315 : f32
      %1317 = arith.addf %1316, %cst_377 : f32
      %1318 = arith.divf %cst_377, %1317 : f32
      linalg.yield %1318 : f32
    } -> tensor<1x768x2x2xf32>
    %268 = linalg.generic {indexing_maps = [#map2, #map2, #map], iterator_types = ["parallel", "parallel", "parallel", "parallel"]} ins(%267, %266 : tensor<1x768x2x2xf32>, tensor<1x768x2x2xf32>) outs(%163 : tensor<1x768x2x2xf32>) {
    ^bb0(%in: f32, %in_518: f32, %out: f32):
      %1315 = arith.mulf %in, %in_518 : f32
      linalg.yield %1315 : f32
    } -> tensor<1x768x2x2xf32>
    %padded_407 = tensor.pad %268 low[0, 0, 1, 1] high[0, 0, 1, 1] {
    ^bb0(%arg1: index, %arg2: index, %arg3: index, %arg4: index):
      tensor.yield %cst_374 : f32
    } : tensor<1x768x2x2xf32> to tensor<1x768x4x4xf32>
    %collapsed_408 = tensor.collapse_shape %cst_291 [[0, 1], [2], [3]] : tensor<768x1x3x3xf32> into tensor<768x3x3xf32>
    %269 = linalg.depthwise_conv_2d_nchw_chw {dilations = dense<1> : vector<2xi64>, strides = dense<1> : vector<2xi64>} ins(%padded_407, %collapsed_408 : tensor<1x768x4x4xf32>, tensor<768x3x3xf32>) outs(%164 : tensor<1x768x2x2xf32>) -> tensor<1x768x2x2xf32>
    cf.assert %3, "training is not supported for now"
    %270 = linalg.generic {indexing_maps = [#map, #map1, #map1, #map1, #map1, #map], iterator_types = ["parallel", "parallel", "parallel", "parallel"]} ins(%269, %cst_319, %cst_318, %cst_318, %cst_319 : tensor<1x768x2x2xf32>, tensor<768xf32>, tensor<768xf32>, tensor<768xf32>, tensor<768xf32>) outs(%269 : tensor<1x768x2x2xf32>) {
    ^bb0(%in: f32, %in_518: f32, %in_519: f32, %in_520: f32, %in_521: f32, %out: f32):
      %1315 = arith.truncf %cst_375 : f64 to f32
      %1316 = arith.addf %in_521, %1315 : f32
      %1317 = math.rsqrt %1316 : f32
      %1318 = arith.subf %in, %in_520 : f32
      %1319 = arith.mulf %1318, %1317 : f32
      %1320 = arith.mulf %1319, %in_518 : f32
      %1321 = arith.addf %1320, %in_519 : f32
      linalg.yield %1321 : f32
    } -> tensor<1x768x2x2xf32>
    %271 = linalg.generic {indexing_maps = [#map2, #map], iterator_types = ["parallel", "parallel", "parallel", "parallel"]} ins(%270 : tensor<1x768x2x2xf32>) outs(%163 : tensor<1x768x2x2xf32>) {
    ^bb0(%in: f32, %out: f32):
      %1315 = arith.negf %in : f32
      %1316 = math.exp %1315 : f32
      %1317 = arith.addf %1316, %cst_377 : f32
      %1318 = arith.divf %cst_377, %1317 : f32
      linalg.yield %1318 : f32
    } -> tensor<1x768x2x2xf32>
    %272 = linalg.generic {indexing_maps = [#map2, #map2, #map], iterator_types = ["parallel", "parallel", "parallel", "parallel"]} ins(%271, %270 : tensor<1x768x2x2xf32>, tensor<1x768x2x2xf32>) outs(%163 : tensor<1x768x2x2xf32>) {
    ^bb0(%in: f32, %in_518: f32, %out: f32):
      %1315 = arith.mulf %in, %in_518 : f32
      linalg.yield %1315 : f32
    } -> tensor<1x768x2x2xf32>
    %273 = linalg.pooling_nchw_sum {dilations = dense<1> : vector<2xi64>, strides = dense<1> : vector<2xi64>} ins(%272, %147 : tensor<1x768x2x2xf32>, tensor<2x2xf32>) outs(%174 : tensor<1x768x1x1xf32>) -> tensor<1x768x1x1xf32>
    %274 = linalg.generic {indexing_maps = [#map, #map], iterator_types = ["parallel", "parallel", "parallel", "parallel"]} ins(%273 : tensor<1x768x1x1xf32>) outs(%173 : tensor<1x768x1x1xf32>) {
    ^bb0(%in: f32, %out: f32):
      %1315 = arith.divf %in, %cst_376 : f32
      linalg.yield %1315 : f32
    } -> tensor<1x768x1x1xf32>
    %275 = linalg.conv_2d_nchw_fchw {dilations = dense<1> : vector<2xi64>, strides = dense<1> : vector<2xi64>} ins(%274, %cst_290 : tensor<1x768x1x1xf32>, tensor<48x768x1x1xf32>) outs(%178 : tensor<1x48x1x1xf32>) -> tensor<1x48x1x1xf32>
    %276 = linalg.generic {indexing_maps = [#map3, #map], iterator_types = ["parallel", "parallel", "parallel", "parallel"]} ins(%275 : tensor<1x48x1x1xf32>) outs(%177 : tensor<1x48x1x1xf32>) {
    ^bb0(%in: f32, %out: f32):
      %1315 = arith.negf %in : f32
      %1316 = math.exp %1315 : f32
      %1317 = arith.addf %1316, %cst_377 : f32
      %1318 = arith.divf %cst_377, %1317 : f32
      linalg.yield %1318 : f32
    } -> tensor<1x48x1x1xf32>
    %277 = linalg.generic {indexing_maps = [#map3, #map3, #map], iterator_types = ["parallel", "parallel", "parallel", "parallel"]} ins(%276, %275 : tensor<1x48x1x1xf32>, tensor<1x48x1x1xf32>) outs(%177 : tensor<1x48x1x1xf32>) {
    ^bb0(%in: f32, %in_518: f32, %out: f32):
      %1315 = arith.mulf %in, %in_518 : f32
      linalg.yield %1315 : f32
    } -> tensor<1x48x1x1xf32>
    %278 = linalg.conv_2d_nchw_fchw {dilations = dense<1> : vector<2xi64>, strides = dense<1> : vector<2xi64>} ins(%277, %cst_289 : tensor<1x48x1x1xf32>, tensor<768x48x1x1xf32>) outs(%182 : tensor<1x768x1x1xf32>) -> tensor<1x768x1x1xf32>
…
    ^bb0(%in: f32, %in_518: f32, %in_519: f32, %in_520: f32, %in_521: f32, %out: f32):
      %1315 = arith.truncf %cst_375 : f64 to f32
      %1316 = arith.addf %in_521, %1315 : f32
      %1317 = math.rsqrt %1316 : f32
      %1318 = arith.subf %in, %in_520 : f32
      %1319 = arith.mulf %1318, %1317 : f32
      %1320 = arith.mulf %1319, %in_518 : f32
      %1321 = arith.addf %1320, %in_519 : f32
      linalg.yield %1321 : f32
    } -> tensor<1x3840x1x1xf32>
    %1197 = linalg.generic {indexing_maps = [#map3, #map], iterator_types = ["parallel", "parallel", "parallel", "parallel"]} ins(%1196 : tensor<1x3840x1x1xf32>) outs(%1189 : tensor<1x3840x1x1xf32>) {
    ^bb0(%in: f32, %out: f32):
      %1315 = arith.negf %in : f32
      %1316 = math.exp %1315 : f32
      %1317 = arith.addf %1316, %cst_377 : f32
      %1318 = arith.divf %cst_377, %1317 : f32
      linalg.yield %1318 : f32
    } -> tensor<1x3840x1x1xf32>
    %1198 = linalg.generic {indexing_maps = [#map3, #map3, #map], iterator_types = ["parallel", "parallel", "parallel", "parallel"]} ins(%1197, %1196 : tensor<1x3840x1x1xf32>, tensor<1x3840x1x1xf32>) outs(%1189 : tensor<1x3840x1x1xf32>) {
    ^bb0(%in: f32, %in_518: f32, %out: f32):
      %1315 = arith.mulf %in, %in_518 : f32
      linalg.yield %1315 : f32
    } -> tensor<1x3840x1x1xf32>
    %1199 = linalg.pooling_nchw_sum {dilations = dense<1> : vector<2xi64>, strides = dense<1> : vector<2xi64>} ins(%1198, %723 : tensor<1x3840x1x1xf32>, tensor<1x1xf32>) outs(%1190 : tensor<1x3840x1x1xf32>) -> tensor<1x3840x1x1xf32>
    %1200 = tensor.empty() : tensor<1x160x1x1xf32>
    %1201 = linalg.generic {indexing_maps = [#map1, #map], iterator_types = ["parallel", "parallel", "parallel", "parallel"]} ins(%cst_32 : tensor<160xf32>) outs(%1200 : tensor<1x160x1x1xf32>) {
    ^bb0(%in: f32, %out: f32):
      linalg.yield %in : f32
    } -> tensor<1x160x1x1xf32>
    %1202 = linalg.conv_2d_nchw_fchw {dilations = dense<1> : vector<2xi64>, strides = dense<1> : vector<2xi64>} ins(%1199, %cst_31 : tensor<1x3840x1x1xf32>, tensor<160x3840x1x1xf32>) outs(%1201 : tensor<1x160x1x1xf32>) -> tensor<1x160x1x1xf32>
    %1203 = linalg.generic {indexing_maps = [#map3, #map], iterator_types = ["parallel", "parallel", "parallel", "parallel"]} ins(%1202 : tensor<1x160x1x1xf32>) outs(%1200 : tensor<1x160x1x1xf32>) {
    ^bb0(%in: f32, %out: f32):
      %1315 = arith.negf %in : f32
      %1316 = math.exp %1315 : f32
      %1317 = arith.addf %1316, %cst_377 : f32
      %1318 = arith.divf %cst_377, %1317 : f32
      linalg.yield %1318 : f32
    } -> tensor<1x160x1x1xf32>
    %1204 = linalg.generic {indexing_maps = [#map3, #map3, #map], iterator_types = ["parallel", "parallel", "parallel", "parallel"]} ins(%1203, %1202 : tensor<1x160x1x1xf32>, tensor<1x160x1x1xf32>) outs(%1200 : tensor<1x160x1x1xf32>) {
    ^bb0(%in: f32, %in_518: f32, %out: f32):
      %1315 = arith.mulf %in, %in_518 : f32
      linalg.yield %1315 : f32
    } -> tensor<1x160x1x1xf32>
    %1205 = linalg.generic {indexing_maps = [#map1, #map], iterator_types = ["parallel", "parallel", "parallel", "parallel"]} ins(%cst_34 : tensor<3840xf32>) outs(%1189 : tensor<1x3840x1x1xf32>) {
    ^bb0(%in: f32, %out: f32):
      linalg.yield %in : f32
    } -> tensor<1x3840x1x1xf32>
    %1206 = linalg.conv_2d_nchw_fchw {dilations = dense<1> : vector<2xi64>, strides = dense<1> : vector<2xi64>} ins(%1204, %cst_30 : tensor<1x160x1x1xf32>, tensor<3840x160x1x1xf32>) outs(%1205 : tensor<1x3840x1x1xf32>) -> tensor<1x3840x1x1xf32>
    %1207 = linalg.generic {indexing_maps = [#map3, #map], iterator_types = ["parallel", "parallel", "parallel", "parallel"]} ins(%1206 : tensor<1x3840x1x1xf32>) outs(%1189 : tensor<1x3840x1x1xf32>) {
    ^bb0(%in: f32, %out: f32):
      %1315 = arith.negf %in : f32
      %1316 = math.exp %1315 : f32
      %1317 = arith.addf %1316, %cst_377 : f32
      %1318 = arith.divf %cst_377, %1317 : f32
      linalg.yield %1318 : f32
    } -> tensor<1x3840x1x1xf32>
    %1208 = linalg.generic {indexing_maps = [#map3, #map3, #map], iterator_types = ["parallel", "parallel", "parallel", "parallel"]} ins(%1207, %1198 : tensor<1x3840x1x1xf32>, tensor<1x3840x1x1xf32>) outs(%1189 : tensor<1x3840x1x1xf32>) {
    ^bb0(%in: f32, %in_518: f32, %out: f32):
      %1315 = arith.mulf %in, %in_518 : f32
      linalg.yield %1315 : f32
    } -> tensor<1x3840x1x1xf32>
    %1209 = linalg.conv_2d_nchw_fchw {dilations = dense<1> : vector<2xi64>, strides = dense<1> : vector<2xi64>} ins(%1208, %cst_29 : tensor<1x3840x1x1xf32>, tensor<640x3840x1x1xf32>) outs(%1186 : tensor<1x640x1x1xf32>) -> tensor<1x640x1x1xf32>
    cf.assert %3, "training is not supported for now"
    %1210 = linalg.generic {indexing_maps = [#map, #map1, #map1, #map1, #map1, #map], iterator_types = ["parallel", "parallel", "parallel", "parallel"]} ins(%1209, %cst_38, %cst_37, %cst_37, %cst_38 : tensor<1x640x1x1xf32>, tensor<640xf32>, tensor<640xf32>, tensor<640xf32>, tensor<640xf32>) outs(%1209 : tensor<1x640x1x1xf32>) {
    ^bb0(%in: f32, %in_518: f32, %in_519: f32, %in_520: f32, %in_521: f32, %out: f32):
      %1315 = arith.truncf %cst_375 : f64 to f32
      %1316 = arith.addf %in_521, %1315 : f32
      %1317 = math.rsqrt %1316 : f32
      %1318 = arith.subf %in, %in_520 : f32
      %1319 = arith.mulf %1318, %1317 : f32
      %1320 = arith.mulf %1319, %in_518 : f32
      %1321 = arith.addf %1320, %in_519 : f32
      linalg.yield %1321 : f32
    } -> tensor<1x640x1x1xf32>
    %1211 = linalg.generic {indexing_maps = [#map3, #map3, #map], iterator_types = ["parallel", "parallel", "parallel", "parallel"]} ins(%1210, %1188 : tensor<1x640x1x1xf32>, tensor<1x640x1x1xf32>) outs(%1185 : tensor<1x640x1x1xf32>) {
    ^bb0(%in: f32, %in_518: f32, %out: f32):
      %1315 = arith.addf %in, %in_518 : f32
      linalg.yield %1315 : f32
    } -> tensor<1x640x1x1xf32>
    %1212 = linalg.conv_2d_nchw_fchw {dilations = dense<1> : vector<2xi64>, strides = dense<1> : vector<2xi64>} ins(%1211, %cst_28 : tensor<1x640x1x1xf32>, tensor<3840x640x1x1xf32>) outs(%1190 : tensor<1x3840x1x1xf32>) -> tensor<1x3840x1x1xf32>
    cf.assert %3, "training is not supported for now"
    %1213 = linalg.generic {indexing_maps = [#map, #map1, #map1, #map1, #map1, #map], iterator_types = ["parallel", "parallel", "parallel", "parallel"]} ins(%1212, %cst_35, %cst_34, %cst_34, %cst_35 : tensor<1x3840x1x1xf32>, tensor<3840xf32>, tensor<3840xf32>, tensor<3840xf32>, tensor<3840xf32>) outs(%1212 : tensor<1x3840x1x1xf32>) {
    ^bb0(%in: f32, %in_518: f32, %in_519: f32, %in_520: f32, %in_521: f32, %out: f32):
      %1315 = arith.truncf %cst_375 : f64 to f32
      %1316 = arith.addf %in_521, %1315 : f32
      %1317 = math.rsqrt %1316 : f32
      %1318 = arith.subf %in, %in_520 : f32
      %1319 = arith.mulf %1318, %1317 : f32
      %1320 = arith.mulf %1319, %in_518 : f32
      %1321 = arith.addf %1320, %in_519 : f32
      linalg.yield %1321 : f32
    } -> tensor<1x3840x1x1xf32>
    %1214 = linalg.generic {indexing_maps = [#map3, #map], iterator_types = ["parallel", "parallel", "parallel", "parallel"]} ins(%1213 : tensor<1x3840x1x1xf32>) outs(%1189 : tensor<1x3840x1x1xf32>) {
    ^bb0(%in: f32, %out: f32):
      %1315 = arith.negf %in : f32
      %1316 = math.exp %1315 : f32
      %1317 = arith.addf %1316, %cst_377 : f32
      %1318 = arith.divf %cst_377, %1317 : f32
      linalg.yield %1318 : f32
    } -> tensor<1x3840x1x1xf32>
    %1215 = linalg.generic {indexing_maps = [#map3, #map3, #map], iterator_types = ["parallel", "parallel", "parallel", "parallel"]} ins(%1214, %1213 : tensor<1x3840x1x1xf32>, tensor<1x3840x1x1xf32>) outs(%1189 : tensor<1x3840x1x1xf32>) {
    ^bb0(%in: f32, %in_518: f32, %out: f32):
      %1315 = arith.mulf %in, %in_518 : f32
      linalg.yield %1315 : f32
    } -> tensor<1x3840x1x1xf32>
    %padded_507 = tensor.pad %1215 low[0, 0, 1, 1] high[0, 0, 1, 1] {
    ^bb0(%arg1: index, %arg2: index, %arg3: index, %arg4: index):
      tensor.yield %cst_374 : f32
    } : tensor<1x3840x1x1xf32> to tensor<1x3840x3x3xf32>
    %collapsed_508 = tensor.collapse_shape %cst_27 [[0, 1], [2], [3]] : tensor<3840x1x3x3xf32> into tensor<3840x3x3xf32>
    %1216 = linalg.depthwise_conv_2d_nchw_chw {dilations = dense<1> : vector<2xi64>, strides = dense<1> : vector<2xi64>} ins(%padded_507, %collapsed_508 : tensor<1x3840x3x3xf32>, tensor<3840x3x3xf32>) outs(%1190 : tensor<1x3840x1x1xf32>) -> tensor<1x3840x1x1xf32>
    cf.assert %3, "training is not supported for now"
    %1217 = linalg.generic {indexing_maps = [#map, #map1, #map1, #map1, #map1, #map], iterator_types = ["parallel", "parallel", "parallel", "parallel"]} ins(%1216, %cst_35, %cst_34, %cst_34, %cst_35 : tensor<1x3840x1x1xf32>, tensor<3840xf32>, tensor<3840xf32>, tensor<3840xf32>, tensor<3840xf32>) outs(%1216 : tensor<1x3840x1x1xf32>) {
    ^bb0(%in: f32, %in_518: f32, %in_519: f32, %in_520: f32, %in_521: f32, %out: f32):
      %1315 = arith.truncf %cst_375 : f64 to f32
      %1316 = arith.addf %in_521, %1315 : f32
      %1317 = math.rsqrt %1316 : f32
      %1318 = arith.subf %in, %in_520 : f32
      %1319 = arith.mulf %1318, %1317 : f32
      %1320 = arith.mulf %1319, %in_518 : f32
      %1321 = arith.addf %1320, %in_519 : f32
      linalg.yield %1321 : f32
    } -> tensor<1x3840x1x1xf32>
    %1218 = linalg.generic {indexing_maps = [#map3, #map], iterator_types = ["parallel", "parallel", "parallel", "parallel"]} ins(%1217 : tensor<1x3840x1x1xf32>) outs(%1189 : tensor<1x3840x1x1xf32>) {
    ^bb0(%in: f32, %out: f32):
      %1315 = arith.negf %in : f32
      %1316 = math.exp %1315 : f32
      %1317 = arith.addf %1316, %cst_377 : f32
      %1318 = arith.divf %cst_377, %1317 : f32
      linalg.yield %1318 : f32
    } -> tensor<1x3840x1x1xf32>
    %1219 = linalg.generic {indexing_maps = [#map3, #map3, #map], iterator_types = ["parallel", "parallel", "parallel", "parallel"]} ins(%1218, %1217 : tensor<1x3840x1x1xf32>, tensor<1x3840x1x1xf32>) outs(%1189 : tensor<1x3840x1x1xf32>) {
    ^bb0(%in: f32, %in_518: f32, %out: f32):
      %1315 = arith.mulf %in, %in_518 : f32
      linalg.yield %1315 : f32
    } -> tensor<1x3840x1x1xf32>
    %1220 = linalg.pooling_nchw_sum {dilations = dense<1> : vector<2xi64>, strides = dense<1> : vector<2xi64>} ins(%1219, %723 : tensor<1x3840x1x1xf32>, tensor<1x1xf32>) outs(%1190 : tensor<1x3840x1x1xf32>) -> tensor<1x3840x1x1xf32>
    %1221 = linalg.conv_2d_nchw_fchw {dilations = dense<1> : vector<2xi64>, strides = dense<1> : vector<2xi64>} ins(%1220, %cst_26 : tensor<1x3840x1x1xf32>, tensor<160x3840x1x1xf32>) outs(%1201 : tensor<1x160x1x1xf32>) -> tensor<1x160x1x1xf32>
    %1222 = linalg.generic {indexing_maps = [#map3, #map], iterator_types = ["parallel", "parallel", "parallel", "parallel"]} ins(%1221 : tensor<1x160x1x1xf32>) outs(%1200 : tensor<1x160x1x1xf32>) {
    ^bb0(%in: f32, %out: f32):
      %1315 = arith.negf %in : f32
      %1316 = math.exp %1315 : f32
      %1317 = arith.addf %1316, %cst_377 : f32
      %1318 = arith.divf %cst_377, %1317 : f32
      linalg.yield %1318 : f32
    } -> tensor<1x160x1x1xf32>
    %1223 = linalg.generic {indexing_maps = [#map3, #map3, #map], iterator_types = ["parallel", "parallel", "parallel", "parallel"]} ins(%1222, %1221 : tensor<1x160x1x1xf32>, tensor<1x160x1x1xf32>) outs(%1200 : tensor<1x160x1x1xf32>) {
    ^bb0(%in: f32, %in_518: f32, %out: f32):
      %1315 = arith.mulf %in, %in_518 : f32
      linalg.yield %1315 : f32
    } -> tensor<1x160x1x1xf32>
    %1224 = linalg.conv_2d_nchw_fchw {dilations = dense<1> : vector<2xi64>, strides = dense<1> : vector<2xi64>} ins(%1223, %cst_25 : tensor<1x160x1x1xf32>, tensor<3840x160x1x1xf32>) outs(%1205 : tensor<1x3840x1x1xf32>) -> tensor<1x3840x1x1xf32>
    %1225 = linalg.generic {indexing_maps = [#map3, #map], iterator_types = ["parallel", "parallel", "parallel", "parallel"]} ins(%1224 : tensor<1x3840x1x1xf32>) outs(%1189 : tensor<1x3840x1x1xf32>) {
    ^bb0(%in: f32, %out: f32):
      %1315 = arith.negf %in : f32
      %1316 = math.exp %1315 : f32
      %1317 = arith.addf %1316, %cst_377 : f32
      %1318 = arith.divf %cst_377, %1317 : f32
      linalg.yield %1318 : f32
    } -> tensor<1x3840x1x1xf32>
    %1226 = linalg.generic {indexing_maps = [#map3, #map3, #map], iterator_types = ["parallel", "parallel", "parallel", "parallel"]} ins(%1225, %1219 : tensor<1x3840x1x1xf32>, tensor<1x3840x1x1xf32>) outs(%1189 : tensor<1x3840x1x1xf32>) {
    ^bb0(%in: f32, %in_518: f32, %out: f32):
      %1315 = arith.mulf %in, %in_518 : f32
      linalg.yield %1315 : f32
    } -> tensor<1x3840x1x1xf32>
    %1227 = linalg.conv_2d_nchw_fchw {dilations = dense<1> : vector<2xi64>, strides = dense<1> : vector<2xi64>} ins(%1226, %cst_24 : tensor<1x3840x1x1xf32>, tensor<640x3840x1x1xf32>) outs(%1186 : tensor<1x640x1x1xf32>) -> tensor<1x640x1x1xf32>
    cf.assert %3, "training is not supported for now"
    %1228 = linalg.generic {indexing_maps = [#map, #map1, #map1, #map1, #map1, #map], iterator_types = ["parallel", "parallel", "parallel", "parallel"]} ins(%1227, %cst_38, %cst_37, %cst_37, %cst_38 : tensor<1x640x1x1xf32>, tensor<640xf32>, tensor<640xf32>, tensor<640xf32>, tensor<640xf32>) outs(%1227 : tensor<1x640x1x1xf32>) {
    ^bb0(%in: f32, %in_518: f32, %in_519: f32, %in_520: f32, %in_521: f32, %out: f32):
      %1315 = arith.truncf %cst_375 : f64 to f32
      %1316 = arith.addf %in_521, %1315 : f32
      %1317 = math.rsqrt %1316 : f32
      %1318 = arith.subf %in, %in_520 : f32
      %1319 = arith.mulf %1318, %1317 : f32
      %1320 = arith.mulf %1319, %in_518 : f32
      %1321 = arith.addf %1320, %in_519 : f32
      linalg.yield %1321 : f32
    } -> tensor<1x640x1x1xf32>
    %1229 = linalg.generic {indexing_maps = [#map3, #map3, #map], iterator_types = ["parallel", "parallel", "parallel", "parallel"]} ins(%1228, %1211 : tensor<1x640x1x1xf32>, tensor<1x640x1x1xf32>) outs(%1185 : tensor<1x640x1x1xf32>) {
    ^bb0(%in: f32, %in_518: f32, %out: f32):
      %1315 = arith.addf %in, %in_518 : f32
      linalg.yield %1315 : f32
    } -> tensor<1x640x1x1xf32>
    %1230 = linalg.conv_2d_nchw_fchw {dilations = dense<1> : vector<2xi64>, strides = dense<1> : vector<2xi64>} ins(%1229, %cst_23 : tensor<1x640x1x1xf32>, tensor<3840x640x1x1xf32>) outs(%1190 : tensor<1x3840x1x1xf32>) -> tensor<1x3840x1x1xf32>
    cf.assert %3, "training is not supported for now"
    %1231 = linalg.generic {indexing_maps = [#map, #map1, #map1, #map1, #map1, #map], iterator_types = ["parallel", "parallel", "parallel", "parallel"]} ins(%1230, %cst_35, %cst_34, %cst_34, %cst_35 : tensor<1x3840x1x1xf32>, tensor<3840xf32>, tensor<3840xf32>, tensor<3840xf32>, tensor<3840xf32>) outs(%1230 : tensor<1x3840x1x1xf32>) {
    ^bb0(%in: f32, %in_518: f32, %in_519: f32, %in_520: f32, %in_521: f32, %out: f32):
      %1315 = arith.truncf %cst_375 : f64 to f32
      %1316 = arith.addf %in_521, %1315 : f32
      %1317 = math.rsqrt %1316 : f32
      %1318 = arith.subf %in, %in_520 : f32
      %1319 = arith.mulf %1318, %1317 : f32
      %1320 = arith.mulf %1319, %in_518 : f32
      %1321 = arith.addf %1320, %in_519 : f32
      linalg.yield %1321 : f32
    } -> tensor<1x3840x1x1xf32>
    %1232 = linalg.generic {indexing_maps = [#map3, #map], iterator_types = ["parallel", "parallel", "parallel", "parallel"]} ins(%1231 : tensor<1x3840x1x1xf32>) outs(%1189 : tensor<1x3840x1x1xf32>) {
    ^bb0(%in: f32, %out: f32):
      %1315 = arith.negf %in : f32
      %1316 = math.exp %1315 : f32
      %1317 = arith.addf %1316, %cst_377 : f32
      %1318 = arith.divf %cst_377, %1317 : f32
      linalg.yield %1318 : f32
    } -> tensor<1x3840x1x1xf32>
    %1233 = linalg.generic {indexing_maps = [#map3, #map3, #map], iterator_types = ["parallel", "parallel", "parallel", "parallel"]} ins(%1232, %1231 : tensor<1x3840x1x1xf32>, tensor<1x3840x1x1xf32>) outs(%1189 : tensor<1x3840x1x1xf32>) {
    ^bb0(%in: f32, %in_518: f32, %out: f32):
      %1315 = arith.mulf %in, %in_518 : f32
      linalg.yield %1315 : f32
    } -> tensor<1x3840x1x1xf32>
    %padded_509 = tensor.pad %1233 low[0, 0, 1, 1] high[0, 0, 1, 1] {
    ^bb0(%arg1: index, %arg2: index, %arg3: index, %arg4: index):
      tensor.yield %cst_374 : f32
    } : tensor<1x3840x1x1xf32> to tensor<1x3840x3x3xf32>
    %collapsed_510 = tensor.collapse_shape %cst_22 [[0, 1], [2], [3]] : tensor<3840x1x3x3xf32> into tensor<3840x3x3xf32>
    %1234 = linalg.depthwise_conv_2d_nchw_chw {dilations = dense<1> : vector<2xi64>, strides = dense<1> : vector<2xi64>} ins(%padded_509, %collapsed_510 : tensor<1x3840x3x3xf32>, tensor<3840x3x3xf32>) outs(%1190 : tensor<1x3840x1x1xf32>) -> tensor<1x3840x1x1xf32>
    cf.assert %3, "training is not supported for now"
    %1235 = linalg.generic {indexing_maps = [#map, #map1, #map1, #map1, #map1, #map], iterator_types = ["parallel", "parallel", "parallel", "parallel"]} ins(%1234, %cst_35, %cst_34, %cst_34, %cst_35 : tensor<1x3840x1x1xf32>, tensor<3840xf32>, tensor<3840xf32>, tensor<3840xf32>, tensor<3840xf32>) outs(%1234 : tensor<1x3840x1x1xf32>) {
    ^bb0(%in: f32, %in_518: f32, %in_519: f32, %in_520: f32, %in_521: f32, %out: f32):
      %1315 = arith.truncf %cst_375 : f64 to f32
      %1316 = arith.addf %in_521, %1315 : f32
      %1317 = math.rsqrt %1316 : f32
      %1318 = arith.subf %in, %in_520 : f32
      %1319 = arith.mulf %1318, %1317 : f32
      %1320 = arith.mulf %1319, %in_518 : f32
      %1321 = arith.addf %1320, %in_519 : f32
      linalg.yield %1321 : f32
    } -> tensor<1x3840x1x1xf32>
    %1236 = linalg.generic {indexing_maps = [#map3, #map], iterator_types = ["parallel", "parallel", "parallel", "parallel"]} ins(%1235 : tensor<1x3840x1x1xf32>) outs(%1189 : tensor<1x3840x1x1xf32>) {
    ^bb0(%in: f32, %out: f32):
      %1315 = arith.negf %in : f32
      %1316 = math.exp %1315 : f32
      %1317 = arith.addf %1316, %cst_377 : f32
      %1318 = arith.divf %cst_377, %1317 : f32
      linalg.yield %1318 : f32
    } -> tensor<1x3840x1x1xf32>
    %1237 = linalg.generic {indexing_maps = [#map3, #map3, #map], iterator_types = ["parallel", "parallel", "parallel", "parallel"]} ins(%1236, %1235 : tensor<1x3840x1x1xf32>, tensor<1x3840x1x1xf32>) outs(%1189 : tensor<1x3840x1x1xf32>) {
    ^bb0(%in: f32, %in_518: f32, %out: f32):
      %1315 = arith.mulf %in, %in_518 : f32
      linalg.yield %1315 : f32
    } -> tensor<1x3840x1x1xf32>
    %1238 = linalg.pooling_nchw_sum {dilations = dense<1> : vector<2xi64>, strides = dense<1> : vector<2xi64>} ins(%1237, %723 : tensor<1x3840x1x1xf32>, tensor<1x1xf32>) outs(%1190 : tensor<1x3840x1x1xf32>) -> tensor<1x3840x1x1xf32>
    %1239 = linalg.conv_2d_nchw_fchw {dilations = dense<1> : vector<2xi64>, strides = dense<1> : vector<2xi64>} ins(%1238, %cst_21 : tensor<1x3840x1x1xf32>, tensor<160x3840x1x1xf32>) outs(%1201 : tensor<1x160x1x1xf32>) -> tensor<1x160x1x1xf32>
    %1240 = linalg.generic {indexing_maps = [#map3, #map], iterator_types = ["parallel", "parallel", "parallel", "parallel"]} ins(%1239 : tensor<1x160x1x1xf32>) outs(%1200 : tensor<1x160x1x1xf32>) {
    ^bb0(%in: f32, %out: f32):
      %1315 = arith.negf %in : f32
      %1316 = math.exp %1315 : f32
      %1317 = arith.addf %1316, %cst_377 : f32
      %1318 = arith.divf %cst_377, %1317 : f32
      linalg.yield %1318 : f32
    } -> tensor<1x160x1x1xf32>
    %1241 = linalg.generic {indexing_maps = [#map3, #map3, #map], iterator_types = ["parallel", "parallel", "parallel", "parallel"]} ins(%1240, %1239 : tensor<1x160x1x1xf32>, tensor<1x160x1x1xf32>) outs(%1200 : tensor<1x160x1x1xf32>) {
    ^bb0(%in: f32, %in_518: f32, %out: f32):
      %1315 = arith.mulf %in, %in_518 : f32
      linalg.yield %1315 : f32
    } -> tensor<1x160x1x1xf32>
    %1242 = linalg.conv_2d_nchw_fchw {dilations = dense<1> : vector<2xi64>, strides = dense<1> : vector<2xi64>} ins(%1241, %cst_20 : tensor<1x160x1x1xf32>, tensor<3840x160x1x1xf32>) outs(%1205 : tensor<1x3840x1x1xf32>) -> tensor<1x3840x1x1xf32>
    %1243 = linalg.generic {indexing_maps = [#map3, #map], iterator_types = ["parallel", "parallel", "parallel", "parallel"]} ins(%1242 : tensor<1x3840x1x1xf32>) outs(%1189 : tensor<1x3840x1x1xf32>) {
    ^bb0(%in: f32, %out: f32):
      %1315 = arith.negf %in : f32
      %1316 = math.exp %1315 : f32
      %1317 = arith.addf %1316, %cst_377 : f32
      %1318 = arith.divf %cst_377, %1317 : f32
      linalg.yield %1318 : f32
    } -> tensor<1x3840x1x1xf32>
    %1244 = linalg.generic {indexing_maps = [#map3, #map3, #map], iterator_types = ["parallel", "parallel", "parallel", "parallel"]} ins(%1243, %1237 : tensor<1x3840x1x1xf32>, tensor<1x3840x1x1xf32>) outs(%1189 : tensor<1x3840x1x1xf32>) {
    ^bb0(%in: f32, %in_518: f32, %out: f32):
      %1315 = arith.mulf %in, %in_518 : f32
      linalg.yield %1315 : f32
    } -> tensor<1x3840x1x1xf32>
    %1245 = linalg.conv_2d_nchw_fchw {dilations = dense<1> : vector<2xi64>, strides = dense<1> : vector<2xi64>} ins(%1244, %cst_19 : tensor<1x3840x1x1xf32>, tensor<640x3840x1x1xf32>) outs(%1186 : tensor<1x640x1x1xf32>) -> tensor<1x640x1x1xf32>
    cf.assert %3, "training is not supported for now"
    %1246 = linalg.generic {indexing_maps = [#map, #map1, #map1, #map1, #map1, #map], iterator_types = ["parallel", "parallel", "parallel", "parallel"]} ins(%1245, %cst_38, %cst_37, %cst_37, %cst_38 : tensor<1x640x1x1xf32>, tensor<640xf32>, tensor<640xf32>, tensor<640xf32>, tensor<640xf32>) outs(%1245 : tensor<1x640x1x1xf32>) {
    ^bb0(%in: f32, %in_518: f32, %in_519: f32, %in_520: f32, %in_521: f32, %out: f32):
      %1315 = arith.truncf %cst_375 : f64 to f32
      %1316 = arith.addf %in_521, %1315 : f32
      %1317 = math.rsqrt %1316 : f32
      %1318 = arith.subf %in, %in_520 : f32
      %1319 = arith.mulf %1318, %1317 : f32
      %1320 = arith.mulf %1319, %in_518 : f32
      %1321 = arith.addf %1320, %in_519 : f32
      linalg.yield %1321 : f32
    } -> tensor<1x640x1x1xf32>
    %1247 = linalg.generic {indexing_maps = [#map3, #map3, #map], iterator_types = ["parallel", "parallel", "parallel", "parallel"]} ins(%1246, %1229 : tensor<1x640x1x1xf32>, tensor<1x640x1x1xf32>) outs(%1185 : tensor<1x640x1x1xf32>) {
    ^bb0(%in: f32, %in_518: f32, %out: f32):
      %1315 = arith.addf %in, %in_518 : f32
      linalg.yield %1315 : f32
    } -> tensor<1x640x1x1xf32>
    %1248 = linalg.conv_2d_nchw_fchw {dilations = dense<1> : vector<2xi64>, strides = dense<1> : vector<2xi64>} ins(%1247, %cst_18 : tensor<1x640x1x1xf32>, tensor<3840x640x1x1xf32>) outs(%1190 : tensor<1x3840x1x1xf32>) -> tensor<1x3840x1x1xf32>
    cf.assert %3, "training is not supported for now"
    %1249 = linalg.generic {indexing_maps = [#map, #map1, #map1, #map1, #map1, #map], iterator_types = ["parallel", "parallel", "parallel", "parallel"]} ins(%1248, %cst_35, %cst_34, %cst_34, %cst_35 : tensor<1x3840x1x1xf32>, tensor<3840xf32>, tensor<3840xf32>, tensor<3840xf32>, tensor<3840xf32>) outs(%1248 : tensor<1x3840x1x1xf32>) {
    ^bb0(%in: f32, %in_518: f32, %in_519: f32, %in_520: f32, %in_521: f32, %out: f32):
      %1315 = arith.truncf %cst_375 : f64 to f32
      %1316 = arith.addf %in_521, %1315 : f32
      %1317 = math.rsqrt %1316 : f32
      %1318 = arith.subf %in, %in_520 : f32
      %1319 = arith.mulf %1318, %1317 : f32
      %1320 = arith.mulf %1319, %in_518 : f32
      %1321 = arith.addf %1320, %in_519 : f32
      linalg.yield %1321 : f32
    } -> tensor<1x3840x1x1xf32>
    %1250 = linalg.generic {indexing_maps = [#map3, #map], iterator_types = ["parallel", "parallel", "parallel", "parallel"]} ins(%1249 : tensor<1x3840x1x1xf32>) outs(%1189 : tensor<1x3840x1x1xf32>) {
    ^bb0(%in: f32, %out: f32):
      %1315 = arith.negf %in : f32
      %1316 = math.exp %1315 : f32
      %1317 = arith.addf %1316, %cst_377 : f32
      %1318 = arith.divf %cst_377, %1317 : f32
      linalg.yield %1318 : f32
    } -> tensor<1x3840x1x1xf32>
    %1251 = linalg.generic {indexing_maps = [#map3, #map3, #map], iterator_types = ["parallel", "parallel", "parallel", "parallel"]} ins(%1250, %1249 : tensor<1x3840x1x1xf32>, tensor<1x3840x1x1xf32>) outs(%1189 : tensor<1x3840x1x1xf32>) {
    ^bb0(%in: f32, %in_518: f32, %out: f32):
      %1315 = arith.mulf %in, %in_518 : f32
      linalg.yield %1315 : f32
    } -> tensor<1x3840x1x1xf32>
    %padded_511 = tensor.pad %1251 low[0, 0, 1, 1] high[0, 0, 1, 1] {
    ^bb0(%arg1: index, %arg2: index, %arg3: index, %arg4: index):
      tensor.yield %cst_374 : f32
    } : tensor<1x3840x1x1xf32> to tensor<1x3840x3x3xf32>
    %collapsed_512 = tensor.collapse_shape %cst_17 [[0, 1], [2], [3]] : tensor<3840x1x3x3xf32> into tensor<3840x3x3xf32>
    %1252 = linalg.depthwise_conv_2d_nchw_chw {dilations = dense<1> : vector<2xi64>, strides = dense<1> : vector<2xi64>} ins(%padded_511, %collapsed_512 : tensor<1x3840x3x3xf32>, tensor<3840x3x3xf32>) outs(%1190 : tensor<1x3840x1x1xf32>) -> tensor<1x3840x1x1xf32>
    cf.assert %3, "training is not supported for now"
    %1253 = linalg.generic {indexing_maps = [#map, #map1, #map1, #map1, #map1, #map], iterator_types = ["parallel", "parallel", "parallel", "parallel"]} ins(%1252, %cst_35, %cst_34, %cst_34, %cst_35 : tensor<1x3840x1x1xf32>, tensor<3840xf32>, tensor<3840xf32>, tensor<3840xf32>, tensor<3840xf32>) outs(%1252 : tensor<1x3840x1x1xf32>) {
    ^bb0(%in: f32, %in_518: f32, %in_519: f32, %in_520: f32, %in_521: f32, %out: f32):
      %1315 = arith.truncf %cst_375 : f64 to f32
      %1316 = arith.addf %in_521, %1315 : f32
      %1317 = math.rsqrt %1316 : f32
      %1318 = arith.subf %in, %in_520 : f32
      %1319 = arith.mulf %1318, %1317 : f32
      %1320 = arith.mulf %1319, %in_518 : f32
      %1321 = arith.addf %1320, %in_519 : f32
      linalg.yield %1321 : f32
    } -> tensor<1x3840x1x1xf32>
    %1254 = linalg.generic {indexing_maps = [#map3, #map], iterator_types = ["parallel", "parallel", "parallel", "parallel"]} ins(%1253 : tensor<1x3840x1x1xf32>) outs(%1189 : tensor<1x3840x1x1xf32>) {
    ^bb0(%in: f32, %out: f32):
      %1315 = arith.negf %in : f32
      %1316 = math.exp %1315 : f32
      %1317 = arith.addf %1316, %cst_377 : f32
      %1318 = arith.divf %cst_377, %1317 : f32
      linalg.yield %1318 : f32
    } -> tensor<1x3840x1x1xf32>
    %1255 = linalg.generic {indexing_maps = [#map3, #map3, #map], iterator_types = ["parallel", "parallel", "parallel", "parallel"]} ins(%1254, %1253 : tensor<1x3840x1x1xf32>, tensor<1x3840x1x1xf32>) outs(%1189 : tensor<1x3840x1x1xf32>) {
    ^bb0(%in: f32, %in_518: f32, %out: f32):
      %1315 = arith.mulf %in, %in_518 : f32
      linalg.yield %1315 : f32
    } -> tensor<1x3840x1x1xf32>
    %1256 = linalg.pooling_nchw_sum {dilations = dense<1> : vector<2xi64>, strides = dense<1> : vector<2xi64>} ins(%1255, %723 : tensor<1x3840x1x1xf32>, tensor<1x1xf32>) outs(%1190 : tensor<1x3840x1x1xf32>) -> tensor<1x3840x1x1xf32>
    %1257 = linalg.conv_2d_nchw_fchw {dilations = dense<1> : vector<2xi64>, strides = dense<1> : vector<2xi64>} ins(%1256, %cst_16 : tensor<1x3840x1x1xf32>, tensor<160x3840x1x1xf32>) outs(%1201 : tensor<1x160x1x1xf32>) -> tensor<1x160x1x1xf32>
    %1258 = linalg.generic {indexing_maps = [#map3, #map], iterator_types = ["parallel", "parallel", "parallel", "parallel"]} ins(%1257 : tensor<1x160x1x1xf32>) outs(%1200 : tensor<1x160x1x1xf32>) {
    ^bb0(%in: f32, %out: f32):
      %1315 = arith.negf %in : f32
      %1316 = math.exp %1315 : f32
      %1317 = arith.addf %1316, %cst_377 : f32
      %1318 = arith.divf %cst_377, %1317 : f32
      linalg.yield %1318 : f32
    } -> tensor<1x160x1x1xf32>
    %1259 = linalg.generic {indexing_maps = [#map3, #map3, #map], iterator_types = ["parallel", "parallel", "parallel", "parallel"]} ins(%1258, %1257 : tensor<1x160x1x1xf32>, tensor<1x160x1x1xf32>) outs(%1200 : tensor<1x160x1x1xf32>) {
    ^bb0(%in: f32, %in_518: f32, %out: f32):
      %1315 = arith.mulf %in, %in_518 : f32
      linalg.yield %1315 : f32
    } -> tensor<1x160x1x1xf32>
    %1260 = linalg.conv_2d_nchw_fchw {dilations = dense<1> : vector<2xi64>, strides = dense<1> : vector<2xi64>} ins(%1259, %cst_15 : tensor<1x160x1x1xf32>, tensor<3840x160x1x1xf32>) outs(%1205 : tensor<1x3840x1x1xf32>) -> tensor<1x3840x1x1xf32>
    %1261 = linalg.generic {indexing_maps = [#map3, #map], iterator_types = ["parallel", "parallel", "parallel", "parallel"]} ins(%1260 : tensor<1x3840x1x1xf32>) outs(%1189 : tensor<1x3840x1x1xf32>) {
    ^bb0(%in: f32, %out: f32):
      %1315 = arith.negf %in : f32
      %1316 = math.exp %1315 : f32
      %1317 = arith.addf %1316, %cst_377 : f32
      %1318 = arith.divf %cst_377, %1317 : f32
      linalg.yield %1318 : f32
    } -> tensor<1x3840x1x1xf32>
    %1262 = linalg.generic {indexing_maps = [#map3, #map3, #map], iterator_types = ["parallel", "parallel", "parallel", "parallel"]} ins(%1261, %1255 : tensor<1x3840x1x1xf32>, tensor<1x3840x1x1xf32>) outs(%1189 : tensor<1x3840x1x1xf32>) {
    ^bb0(%in: f32, %in_518: f32, %out: f32):
      %1315 = arith.mulf %in, %in_518 : f32
      linalg.yield %1315 : f32
    } -> tensor<1x3840x1x1xf32>
    %1263 = linalg.conv_2d_nchw_fchw {dilations = dense<1> : vector<2xi64>, strides = dense<1> : vector<2xi64>} ins(%1262, %cst_14 : tensor<1x3840x1x1xf32>, tensor<640x3840x1x1xf32>) outs(%1186 : tensor<1x640x1x1xf32>) -> tensor<1x640x1x1xf32>
    cf.assert %3, "training is not supported for now"
    %1264 = linalg.generic {indexing_maps = [#map, #map1, #map1, #map1, #map1, #map], iterator_types = ["parallel", "parallel", "parallel", "parallel"]} ins(%1263, %cst_38, %cst_37, %cst_37, %cst_38 : tensor<1x640x1x1xf32>, tensor<640xf32>, tensor<640xf32>, tensor<640xf32>, tensor<640xf32>) outs(%1263 : tensor<1x640x1x1xf32>) {
    ^bb0(%in: f32, %in_518: f32, %in_519: f32, %in_520: f32, %in_521: f32, %out: f32):
      %1315 = arith.truncf %cst_375 : f64 to f32
      %1316 = arith.addf %in_521, %1315 : f32
      %1317 = math.rsqrt %1316 : f32
      %1318 = arith.subf %in, %in_520 : f32
      %1319 = arith.mulf %1318, %1317 : f32
      %1320 = arith.mulf %1319, %in_518 : f32
      %1321 = arith.addf %1320, %in_519 : f32
      linalg.yield %1321 : f32
    } -> tensor<1x640x1x1xf32>
    %1265 = linalg.generic {indexing_maps = [#map3, #map3, #map], iterator_types = ["parallel", "parallel", "parallel", "parallel"]} ins(%1264, %1247 : tensor<1x640x1x1xf32>, tensor<1x640x1x1xf32>) outs(%1185 : tensor<1x640x1x1xf32>) {
    ^bb0(%in: f32, %in_518: f32, %out: f32):
      %1315 = arith.addf %in, %in_518 : f32
      linalg.yield %1315 : f32
    } -> tensor<1x640x1x1xf32>
    %1266 = linalg.conv_2d_nchw_fchw {dilations = dense<1> : vector<2xi64>, strides = dense<1> : vector<2xi64>} ins(%1265, %cst_13 : tensor<1x640x1x1xf32>, tensor<3840x640x1x1xf32>) outs(%1190 : tensor<1x3840x1x1xf32>) -> tensor<1x3840x1x1xf32>
    cf.assert %3, "training is not supported for now"
    %1267 = linalg.generic {indexing_maps = [#map, #map1, #map1, #map1, #map1, #map], iterator_types = ["parallel", "parallel", "parallel", "parallel"]} ins(%1266, %cst_35, %cst_34, %cst_34, %cst_35 : tensor<1x3840x1x1xf32>, tensor<3840xf32>, tensor<3840xf32>, tensor<3840xf32>, tensor<3840xf32>) outs(%1266 : tensor<1x3840x1x1xf32>) {
    ^bb0(%in: f32, %in_518: f32, %in_519: f32, %in_520: f32, %in_521: f32, %out: f32):
      %1315 = arith.truncf %cst_375 : f64 to f32
      %1316 = arith.addf %in_521, %1315 : f32
      %1317 = math.rsqrt %1316 : f32
      %1318 = arith.subf %in, %in_520 : f32
      %1319 = arith.mulf %1318, %1317 : f32
      %1320 = arith.mulf %1319, %in_518 : f32
      %1321 = arith.addf %1320, %in_519 : f32
      linalg.yield %1321 : f32
    } -> tensor<1x3840x1x1xf32>
    %1268 = linalg.generic {indexing_maps = [#map3, #map], iterator_types = ["parallel", "parallel", "parallel", "parallel"]} ins(%1267 : tensor<1x3840x1x1xf32>) outs(%1189 : tensor<1x3840x1x1xf32>) {
    ^bb0(%in: f32, %out: f32):
      %1315 = arith.negf %in : f32
      %1316 = math.exp %1315 : f32
      %1317 = arith.addf %1316, %cst_377 : f32
      %1318 = arith.divf %cst_377, %1317 : f32
      linalg.yield %1318 : f32
    } -> tensor<1x3840x1x1xf32>
    %1269 = linalg.generic {indexing_maps = [#map3, #map3, #map], iterator_types = ["parallel", "parallel", "parallel", "parallel"]} ins(%1268, %1267 : tensor<1x3840x1x1xf32>, tensor<1x3840x1x1xf32>) outs(%1189 : tensor<1x3840x1x1xf32>) {
    ^bb0(%in: f32, %in_518: f32, %out: f32):
      %1315 = arith.mulf %in, %in_518 : f32
      linalg.yield %1315 : f32
    } -> tensor<1x3840x1x1xf32>
    %padded_513 = tensor.pad %1269 low[0, 0, 1, 1] high[0, 0, 1, 1] {
    ^bb0(%arg1: index, %arg2: index, %arg3: index, %arg4: index):
      tensor.yield %cst_374 : f32
    } : tensor<1x3840x1x1xf32> to tensor<1x3840x3x3xf32>
    %collapsed_514 = tensor.collapse_shape %cst_12 [[0, 1], [2], [3]] : tensor<3840x1x3x3xf32> into tensor<3840x3x3xf32>
    %1270 = linalg.depthwise_conv_2d_nchw_chw {dilations = dense<1> : vector<2xi64>, strides = dense<1> : vector<2xi64>} ins(%padded_513, %collapsed_514 : tensor<1x3840x3x3xf32>, tensor<3840x3x3xf32>) outs(%1190 : tensor<1x3840x1x1xf32>) -> tensor<1x3840x1x1xf32>
    cf.assert %3, "training is not supported for now"
    %1271 = linalg.generic {indexing_maps = [#map, #map1, #map1, #map1, #map1, #map], iterator_types = ["parallel", "parallel", "parallel", "parallel"]} ins(%1270, %cst_35, %cst_34, %cst_34, %cst_35 : tensor<1x3840x1x1xf32>, tensor<3840xf32>, tensor<3840xf32>, tensor<3840xf32>, tensor<3840xf32>) outs(%1270 : tensor<1x3840x1x1xf32>) {
    ^bb0(%in: f32, %in_518: f32, %in_519: f32, %in_520: f32, %in_521: f32, %out: f32):
      %1315 = arith.truncf %cst_375 : f64 to f32
      %1316 = arith.addf %in_521, %1315 : f32
      %1317 = math.rsqrt %1316 : f32
      %1318 = arith.subf %in, %in_520 : f32
      %1319 = arith.mulf %1318, %1317 : f32
      %1320 = arith.mulf %1319, %in_518 : f32
      %1321 = arith.addf %1320, %in_519 : f32
      linalg.yield %1321 : f32
    } -> tensor<1x3840x1x1xf32>
    %1272 = linalg.generic {indexing_maps = [#map3, #map], iterator_types = ["parallel", "parallel", "parallel", "parallel"]} ins(%1271 : tensor<1x3840x1x1xf32>) outs(%1189 : tensor<1x3840x1x1xf32>) {
    ^bb0(%in: f32, %out: f32):
      %1315 = arith.negf %in : f32
      %1316 = math.exp %1315 : f32
      %1317 = arith.addf %1316, %cst_377 : f32
      %1318 = arith.divf %cst_377, %1317 : f32
      linalg.yield %1318 : f32
    } -> tensor<1x3840x1x1xf32>
    %1273 = linalg.generic {indexing_maps = [#map3, #map3, #map], iterator_types = ["parallel", "parallel", "parallel", "parallel"]} ins(%1272, %1271 : tensor<1x3840x1x1xf32>, tensor<1x3840x1x1xf32>) outs(%1189 : tensor<1x3840x1x1xf32>) {
    ^bb0(%in: f32, %in_518: f32, %out: f32):
      %1315 = arith.mulf %in, %in_518 : f32
      linalg.yield %1315 : f32
    } -> tensor<1x3840x1x1xf32>
    %1274 = linalg.pooling_nchw_sum {dilations = dense<1> : vector<2xi64>, strides = dense<1> : vector<2xi64>} ins(%1273, %723 : tensor<1x3840x1x1xf32>, tensor<1x1xf32>) outs(%1190 : tensor<1x3840x1x1xf32>) -> tensor<1x3840x1x1xf32>
    %1275 = linalg.conv_2d_nchw_fchw {dilations = dense<1> : vector<2xi64>, strides = dense<1> : vector<2xi64>} ins(%1274, %cst_11 : tensor<1x3840x1x1xf32>, tensor<160x3840x1x1xf32>) outs(%1201 : tensor<1x160x1x1xf32>) -> tensor<1x160x1x1xf32>
    %1276 = linalg.generic {indexing_maps = [#map3, #map], iterator_types = ["parallel", "parallel", "parallel", "parallel"]} ins(%1275 : tensor<1x160x1x1xf32>) outs(%1200 : tensor<1x160x1x1xf32>) {
    ^bb0(%in: f32, %out: f32):
      %1315 = arith.negf %in : f32
      %1316 = math.exp %1315 : f32
      %1317 = arith.addf %1316, %cst_377 : f32
      %1318 = arith.divf %cst_377, %1317 : f32
      linalg.yield %1318 : f32
    } -> tensor<1x160x1x1xf32>
    %1277 = linalg.generic {indexing_maps = [#map3, #map3, #map], iterator_types = ["parallel", "parallel", "parallel", "parallel"]} ins(%1276, %1275 : tensor<1x160x1x1xf32>, tensor<1x160x1x1xf32>) outs(%1200 : tensor<1x160x1x1xf32>) {
    ^bb0(%in: f32, %in_518: f32, %out: f32):
      %1315 = arith.mulf %in, %in_518 : f32
      linalg.yield %1315 : f32
    } -> tensor<1x160x1x1xf32>
    %1278 = linalg.conv_2d_nchw_fchw {dilations = dense<1> : vector<2xi64>, strides = dense<1> : vector<2xi64>} ins(%1277, %cst_10 : tensor<1x160x1x1xf32>, tensor<3840x160x1x1xf32>) outs(%1205 : tensor<1x3840x1x1xf32>) -> tensor<1x3840x1x1xf32>
    %1279 = linalg.generic {indexing_maps = [#map3, #map], iterator_types = ["parallel", "parallel", "parallel", "parallel"]} ins(%1278 : tensor<1x3840x1x1xf32>) outs(%1189 : tensor<1x3840x1x1xf32>) {
    ^bb0(%in: f32, %out: f32):
      %1315 = arith.negf %in : f32
      %1316 = math.exp %1315 : f32
      %1317 = arith.addf %1316, %cst_377 : f32
      %1318 = arith.divf %cst_377, %1317 : f32
      linalg.yield %1318 : f32
    } -> tensor<1x3840x1x1xf32>
    %1280 = linalg.generic {indexing_maps = [#map3, #map3, #map], iterator_types = ["parallel", "parallel", "parallel", "parallel"]} ins(%1279, %1273 : tensor<1x3840x1x1xf32>, tensor<1x3840x1x1xf32>) outs(%1189 : tensor<1x3840x1x1xf32>) {
    ^bb0(%in: f32, %in_518: f32, %out: f32):
      %1315 = arith.mulf %in, %in_518 : f32
      linalg.yield %1315 : f32
    } -> tensor<1x3840x1x1xf32>
    %1281 = linalg.conv_2d_nchw_fchw {dilations = dense<1> : vector<2xi64>, strides = dense<1> : vector<2xi64>} ins(%1280, %cst_9 : tensor<1x3840x1x1xf32>, tensor<640x3840x1x1xf32>) outs(%1186 : tensor<1x640x1x1xf32>) -> tensor<1x640x1x1xf32>
    cf.assert %3, "training is not supported for now"
    %1282 = linalg.generic {indexing_maps = [#map, #map1, #map1, #map1, #map1, #map], iterator_types = ["parallel", "parallel", "parallel", "parallel"]} ins(%1281, %cst_38, %cst_37, %cst_37, %cst_38 : tensor<1x640x1x1xf32>, tensor<640xf32>, tensor<640xf32>, tensor<640xf32>, tensor<640xf32>) outs(%1281 : tensor<1x640x1x1xf32>) {
    ^bb0(%in: f32, %in_518: f32, %in_519: f32, %in_520: f32, %in_521: f32, %out: f32):
      %1315 = arith.truncf %cst_375 : f64 to f32
      %1316 = arith.addf %in_521, %1315 : f32
      %1317 = math.rsqrt %1316 : f32
      %1318 = arith.subf %in, %in_520 : f32
      %1319 = arith.mulf %1318, %1317 : f32
      %1320 = arith.mulf %1319, %in_518 : f32
      %1321 = arith.addf %1320, %in_519 : f32
      linalg.yield %1321 : f32
    } -> tensor<1x640x1x1xf32>
    %1283 = linalg.generic {indexing_maps = [#map3, #map3, #map], iterator_types = ["parallel", "parallel", "parallel", "parallel"]} ins(%1282, %1265 : tensor<1x640x1x1xf32>, tensor<1x640x1x1xf32>) outs(%1185 : tensor<1x640x1x1xf32>) {
    ^bb0(%in: f32, %in_518: f32, %out: f32):
      %1315 = arith.addf %in, %in_518 : f32
      linalg.yield %1315 : f32
    } -> tensor<1x640x1x1xf32>
    %1284 = linalg.conv_2d_nchw_fchw {dilations = dense<1> : vector<2xi64>, strides = dense<1> : vector<2xi64>} ins(%1283, %cst_8 : tensor<1x640x1x1xf32>, tensor<3840x640x1x1xf32>) outs(%1190 : tensor<1x3840x1x1xf32>) -> tensor<1x3840x1x1xf32>
    cf.assert %3, "training is not supported for now"
    %1285 = linalg.generic {indexing_maps = [#map, #map1, #map1, #map1, #map1, #map], iterator_types = ["parallel", "parallel", "parallel", "parallel"]} ins(%1284, %cst_35, %cst_34, %cst_34, %cst_35 : tensor<1x3840x1x1xf32>, tensor<3840xf32>, tensor<3840xf32>, tensor<3840xf32>, tensor<3840xf32>) outs(%1284 : tensor<1x3840x1x1xf32>) {
    ^bb0(%in: f32, %in_518: f32, %in_519: f32, %in_520: f32, %in_521: f32, %out: f32):
      %1315 = arith.truncf %cst_375 : f64 to f32
      %1316 = arith.addf %in_521, %1315 : f32
      %1317 = math.rsqrt %1316 : f32
      %1318 = arith.subf %in, %in_520 : f32
      %1319 = arith.mulf %1318, %1317 : f32
      %1320 = arith.mulf %1319, %in_518 : f32
      %1321 = arith.addf %1320, %in_519 : f32
      linalg.yield %1321 : f32
    } -> tensor<1x3840x1x1xf32>
    %1286 = linalg.generic {indexing_maps = [#map3, #map], iterator_types = ["parallel", "parallel", "parallel", "parallel"]} ins(%1285 : tensor<1x3840x1x1xf32>) outs(%1189 : tensor<1x3840x1x1xf32>) {
    ^bb0(%in: f32, %out: f32):
      %1315 = arith.negf %in : f32
      %1316 = math.exp %1315 : f32
      %1317 = arith.addf %1316, %cst_377 : f32
      %1318 = arith.divf %cst_377, %1317 : f32
      linalg.yield %1318 : f32
    } -> tensor<1x3840x1x1xf32>
    %1287 = linalg.generic {indexing_maps = [#map3, #map3, #map], iterator_types = ["parallel", "parallel", "parallel", "parallel"]} ins(%1286, %1285 : tensor<1x3840x1x1xf32>, tensor<1x3840x1x1xf32>) outs(%1189 : tensor<1x3840x1x1xf32>) {
    ^bb0(%in: f32, %in_518: f32, %out: f32):
      %1315 = arith.mulf %in, %in_518 : f32
      linalg.yield %1315 : f32
    } -> tensor<1x3840x1x1xf32>
    %padded_515 = tensor.pad %1287 low[0, 0, 1, 1] high[0, 0, 1, 1] {
    ^bb0(%arg1: index, %arg2: index, %arg3: index, %arg4: index):
      tensor.yield %cst_374 : f32
    } : tensor<1x3840x1x1xf32> to tensor<1x3840x3x3xf32>
    %collapsed_516 = tensor.collapse_shape %cst_7 [[0, 1], [2], [3]] : tensor<3840x1x3x3xf32> into tensor<3840x3x3xf32>
    %1288 = linalg.depthwise_conv_2d_nchw_chw {dilations = dense<1> : vector<2xi64>, strides = dense<1> : vector<2xi64>} ins(%padded_515, %collapsed_516 : tensor<1x3840x3x3xf32>, tensor<3840x3x3xf32>) outs(%1190 : tensor<1x3840x1x1xf32>) -> tensor<1x3840x1x1xf32>
    cf.assert %3, "training is not supported for now"
    %1289 = linalg.generic {indexing_maps = [#map, #map1, #map1, #map1, #map1, #map], iterator_types = ["parallel", "parallel", "parallel", "parallel"]} ins(%1288, %cst_35, %cst_34, %cst_34, %cst_35 : tensor<1x3840x1x1xf32>, tensor<3840xf32>, tensor<3840xf32>, tensor<3840xf32>, tensor<3840xf32>) outs(%1288 : tensor<1x3840x1x1xf32>) {
    ^bb0(%in: f32, %in_518: f32, %in_519: f32, %in_520: f32, %in_521: f32, %out: f32):
      %1315 = arith.truncf %cst_375 : f64 to f32
      %1316 = arith.addf %in_521, %1315 : f32
      %1317 = math.rsqrt %1316 : f32
      %1318 = arith.subf %in, %in_520 : f32
      %1319 = arith.mulf %1318, %1317 : f32
      %1320 = arith.mulf %1319, %in_518 : f32
      %1321 = arith.addf %1320, %in_519 : f32
      linalg.yield %1321 : f32
    } -> tensor<1x3840x1x1xf32>
    %1290 = linalg.generic {indexing_maps = [#map3, #map], iterator_types = ["parallel", "parallel", "parallel", "parallel"]} ins(%1289 : tensor<1x3840x1x1xf32>) outs(%1189 : tensor<1x3840x1x1xf32>) {
    ^bb0(%in: f32, %out: f32):
      %1315 = arith.negf %in : f32
      %1316 = math.exp %1315 : f32
      %1317 = arith.addf %1316, %cst_377 : f32
      %1318 = arith.divf %cst_377, %1317 : f32
      linalg.yield %1318 : f32
    } -> tensor<1x3840x1x1xf32>
    %1291 = linalg.generic {indexing_maps = [#map3, #map3, #map], iterator_types = ["parallel", "parallel", "parallel", "parallel"]} ins(%1290, %1289 : tensor<1x3840x1x1xf32>, tensor<1x3840x1x1xf32>) outs(%1189 : tensor<1x3840x1x1xf32>) {
    ^bb0(%in: f32, %in_518: f32, %out: f32):
      %1315 = arith.mulf %in, %in_518 : f32
      linalg.yield %1315 : f32
    } -> tensor<1x3840x1x1xf32>
    %1292 = linalg.pooling_nchw_sum {dilations = dense<1> : vector<2xi64>, strides = dense<1> : vector<2xi64>} ins(%1291, %723 : tensor<1x3840x1x1xf32>, tensor<1x1xf32>) outs(%1190 : tensor<1x3840x1x1xf32>) -> tensor<1x3840x1x1xf32>
    %1293 = linalg.conv_2d_nchw_fchw {dilations = dense<1> : vector<2xi64>, strides = dense<1> : vector<2xi64>} ins(%1292, %cst_6 : tensor<1x3840x1x1xf32>, tensor<160x3840x1x1xf32>) outs(%1201 : tensor<1x160x1x1xf32>) -> tensor<1x160x1x1xf32>
    %1294 = linalg.generic {indexing_maps = [#map3, #map], iterator_types = ["parallel", "parallel", "parallel", "parallel"]} ins(%1293 : tensor<1x160x1x1xf32>) outs(%1200 : tensor<1x160x1x1xf32>) {
    ^bb0(%in: f32, %out: f32):
      %1315 = arith.negf %in : f32
      %1316 = math.exp %1315 : f32
      %1317 = arith.addf %1316, %cst_377 : f32
      %1318 = arith.divf %cst_377, %1317 : f32
      linalg.yield %1318 : f32
    } -> tensor<1x160x1x1xf32>
    %1295 = linalg.generic {indexing_maps = [#map3, #map3, #map], iterator_types = ["parallel", "parallel", "parallel", "parallel"]} ins(%1294, %1293 : tensor<1x160x1x1xf32>, tensor<1x160x1x1xf32>) outs(%1200 : tensor<1x160x1x1xf32>) {
    ^bb0(%in: f32, %in_518: f32, %out: f32):
      %1315 = arith.mulf %in, %in_518 : f32
      linalg.yield %1315 : f32
    } -> tensor<1x160x1x1xf32>
    %1296 = linalg.conv_2d_nchw_fchw {dilations = dense<1> : vector<2xi64>, strides = dense<1> : vector<2xi64>} ins(%1295, %cst_5 : tensor<1x160x1x1xf32>, tensor<3840x160x1x1xf32>) outs(%1205 : tensor<1x3840x1x1xf32>) -> tensor<1x3840x1x1xf32>
    %1297 = linalg.generic {indexing_maps = [#map3, #map], iterator_types = ["parallel", "parallel", "parallel", "parallel"]} ins(%1296 : tensor<1x3840x1x1xf32>) outs(%1189 : tensor<1x3840x1x1xf32>) {
    ^bb0(%in: f32, %out: f32):
      %1315 = arith.negf %in : f32
      %1316 = math.exp %1315 : f32
      %1317 = arith.addf %1316, %cst_377 : f32
      %1318 = arith.divf %cst_377, %1317 : f32
      linalg.yield %1318 : f32
    } -> tensor<1x3840x1x1xf32>
    %1298 = linalg.generic {indexing_maps = [#map3, #map3, #map], iterator_types = ["parallel", "parallel", "parallel", "parallel"]} ins(%1297, %1291 : tensor<1x3840x1x1xf32>, tensor<1x3840x1x1xf32>) outs(%1189 : tensor<1x3840x1x1xf32>) {
    ^bb0(%in: f32, %in_518: f32, %out: f32):
      %1315 = arith.mulf %in, %in_518 : f32
      linalg.yield %1315 : f32
    } -> tensor<1x3840x1x1xf32>
    %1299 = linalg.conv_2d_nchw_fchw {dilations = dense<1> : vector<2xi64>, strides = dense<1> : vector<2xi64>} ins(%1298, %cst_4 : tensor<1x3840x1x1xf32>, tensor<640x3840x1x1xf32>) outs(%1186 : tensor<1x640x1x1xf32>) -> tensor<1x640x1x1xf32>
    cf.assert %3, "training is not supported for now"
    %1300 = linalg.generic {indexing_maps = [#map, #map1, #map1, #map1, #map1, #map], iterator_types = ["parallel", "parallel", "parallel", "parallel"]} ins(%1299, %cst_38, %cst_37, %cst_37, %cst_38 : tensor<1x640x1x1xf32>, tensor<640xf32>, tensor<640xf32>, tensor<640xf32>, tensor<640xf32>) outs(%1299 : tensor<1x640x1x1xf32>) {
    ^bb0(%in: f32, %in_518: f32, %in_519: f32, %in_520: f32, %in_521: f32, %out: f32):
      %1315 = arith.truncf %cst_375 : f64 to f32
      %1316 = arith.addf %in_521, %1315 : f32
      %1317 = math.rsqrt %1316 : f32
      %1318 = arith.subf %in, %in_520 : f32
      %1319 = arith.mulf %1318, %1317 : f32
      %1320 = arith.mulf %1319, %in_518 : f32
      %1321 = arith.addf %1320, %in_519 : f32
      linalg.yield %1321 : f32
    } -> tensor<1x640x1x1xf32>
    %1301 = linalg.generic {indexing_maps = [#map3, #map3, #map], iterator_types = ["parallel", "parallel", "parallel", "parallel"]} ins(%1300, %1283 : tensor<1x640x1x1xf32>, tensor<1x640x1x1xf32>) outs(%1185 : tensor<1x640x1x1xf32>) {
    ^bb0(%in: f32, %in_518: f32, %out: f32):
      %1315 = arith.addf %in, %in_518 : f32
      linalg.yield %1315 : f32
    } -> tensor<1x640x1x1xf32>
    %1302 = tensor.empty() : tensor<1x1280x1x1xf32>
    %1303 = linalg.fill ins(%cst_374 : f32) outs(%1302 : tensor<1x1280x1x1xf32>) -> tensor<1x1280x1x1xf32>
    %1304 = linalg.conv_2d_nchw_fchw {dilations = dense<1> : vector<2xi64>, strides = dense<1> : vector<2xi64>} ins(%1301, %cst_3 : tensor<1x640x1x1xf32>, tensor<1280x640x1x1xf32>) outs(%1303 : tensor<1x1280x1x1xf32>) -> tensor<1x1280x1x1xf32>
    cf.assert %3, "training is not supported for now"
    %1305 = linalg.generic {indexing_maps = [#map, #map1, #map1, #map1, #map1, #map], iterator_types = ["parallel", "parallel", "parallel", "parallel"]} ins(%1304, %cst_2, %cst_1, %cst_1, %cst_2 : tensor<1x1280x1x1xf32>, tensor<1280xf32>, tensor<1280xf32>, tensor<1280xf32>, tensor<1280xf32>) outs(%1304 : tensor<1x1280x1x1xf32>) {
    ^bb0(%in: f32, %in_518: f32, %in_519: f32, %in_520: f32, %in_521: f32, %out: f32):
      %1315 = arith.truncf %cst_375 : f64 to f32
      %1316 = arith.addf %in_521, %1315 : f32
      %1317 = math.rsqrt %1316 : f32
      %1318 = arith.subf %in, %in_520 : f32
      %1319 = arith.mulf %1318, %1317 : f32
      %1320 = arith.mulf %1319, %in_518 : f32
      %1321 = arith.addf %1320, %in_519 : f32
      linalg.yield %1321 : f32
    } -> tensor<1x1280x1x1xf32>
    %1306 = linalg.generic {indexing_maps = [#map3, #map], iterator_types = ["parallel", "parallel", "parallel", "parallel"]} ins(%1305 : tensor<1x1280x1x1xf32>) outs(%1302 : tensor<1x1280x1x1xf32>) {
    ^bb0(%in: f32, %out: f32):
      %1315 = arith.negf %in : f32
      %1316 = math.exp %1315 : f32
      %1317 = arith.addf %1316, %cst_377 : f32
      %1318 = arith.divf %cst_377, %1317 : f32
      linalg.yield %1318 : f32
    } -> tensor<1x1280x1x1xf32>
    %1307 = linalg.generic {indexing_maps = [#map3, #map3, #map], iterator_types = ["parallel", "parallel", "parallel", "parallel"]} ins(%1306, %1305 : tensor<1x1280x1x1xf32>, tensor<1x1280x1x1xf32>) outs(%1302 : tensor<1x1280x1x1xf32>) {
    ^bb0(%in: f32, %in_518: f32, %out: f32):
      %1315 = arith.mulf %in, %in_518 : f32
      linalg.yield %1315 : f32
    } -> tensor<1x1280x1x1xf32>
    %1308 = linalg.pooling_nchw_sum {dilations = dense<1> : vector<2xi64>, strides = dense<1> : vector<2xi64>} ins(%1307, %723 : tensor<1x1280x1x1xf32>, tensor<1x1xf32>) outs(%1303 : tensor<1x1280x1x1xf32>) -> tensor<1x1280x1x1xf32>
    %collapsed_517 = tensor.collapse_shape %1308 [[0], [1, 2, 3]] : tensor<1x1280x1x1xf32> into tensor<1x1280xf32>
    %1309 = tensor.empty() : tensor<1280x1000xf32>
    %1310 = linalg.generic {indexing_maps = [#map4, #map5], iterator_types = ["parallel", "parallel"]} ins(%cst : tensor<1000x1280xf32>) outs(%1309 : tensor<1280x1000xf32>) {
    ^bb0(%in: f32, %out: f32):
      linalg.yield %in : f32
    } -> tensor<1280x1000xf32>
    %1311 = tensor.empty() : tensor<1x1000xf32>
    %1312 = linalg.fill ins(%cst_374 : f32) outs(%1311 : tensor<1x1000xf32>) -> tensor<1x1000xf32>
    %1313 = linalg.matmul ins(%collapsed_517, %1310 : tensor<1x1280xf32>, tensor<1280x1000xf32>) outs(%1312 : tensor<1x1000xf32>) -> tensor<1x1000xf32>
    %1314 = linalg.generic {indexing_maps = [#map6, #map7, #map4], iterator_types = ["parallel", "parallel"]} ins(%1313, %cst_0 : tensor<1x1000xf32>, tensor<1000xf32>) outs(%1311 : tensor<1x1000xf32>) {
    ^bb0(%in: f32, %in_518: f32, %out: f32):
      %1315 = arith.addf %in, %in_518 : f32
      linalg.yield %1315 : f32
    } -> tensor<1x1000xf32>
    return %1314 : tensor<1x1000xf32>
  }
}
