#map = affine_map<(d0, d1, d2, d3) -> (d0, d1, d2, d3)>
#map1 = affine_map<(d0, d1, d2, d3) -> (d1)>
#map2 = affine_map<(d0, d1, d2, d3) -> (0, d1, d2, d3)>
#map3 = affine_map<(d0, d1, d2, d3) -> (0, d1, 0, 0)>
#map4 = affine_map<(d0, d1) -> (d0, d1)>
#map5 = affine_map<(d0, d1) -> (d1, d0)>
#map6 = affine_map<(d0, d1) -> (0, d1)>
#map7 = affine_map<(d0, d1) -> (d1)>
module attributes {torch.debug_module_name = "EfficientNet"} {
    func.func @forward(%arg0: tensor<1x3x32x32xf32>) -> tensor<1x1000xf32> {
    %false = arith.constant false
    %cst = arith.constant dense<-0.010195e+00> : tensor<1000x2560xf32>
    %cst_0 = arith.constant dense<0.000000e+00> : tensor<1000xf32>
    %cst_1 = arith.constant dense<0.000000e+00> : tensor<2560xf32>
    %cst_2 = arith.constant dense<1.000000e+00> : tensor<2560xf32>
    %cst_3 = arith.constant dense<-0.014295e+00> : tensor<2560x640x1x1xf32>
    %cst_4 = arith.constant dense<-0.010705e+00> : tensor<640x3840x1x1xf32>
    %cst_5 = arith.constant dense<0.007513e+00> : tensor<3840x160x1x1xf32>
    %cst_6 = arith.constant dense<0.010701e+00> : tensor<160x3840x1x1xf32>
    %cst_7 = arith.constant dense<0.005213e+00> : tensor<3840x1x3x3xf32>
    %cst_8 = arith.constant dense<0.002732e+00> : tensor<3840x640x1x1xf32>
    %cst_9 = arith.constant dense<-0.009250e+00> : tensor<640x3840x1x1xf32>
    %cst_10 = arith.constant dense<-0.001307e+00> : tensor<3840x160x1x1xf32>
    %cst_11 = arith.constant dense<0.008423e+00> : tensor<160x3840x1x1xf32>
    %cst_12 = arith.constant dense<0.004403e+00> : tensor<3840x1x3x3xf32>
    %cst_13 = arith.constant dense<0.002752e+00> : tensor<3840x640x1x1xf32>
    %cst_14 = arith.constant dense<0.003941e+00> : tensor<640x3840x1x1xf32>
    %cst_15 = arith.constant dense<0.010159e+00> : tensor<3840x160x1x1xf32>
    %cst_16 = arith.constant dense<-0.001324e+00> : tensor<160x3840x1x1xf32>
    %cst_17 = arith.constant dense<-0.004697e+00> : tensor<3840x1x3x3xf32>
    %cst_18 = arith.constant dense<0.000000e+00> : tensor<3840xf32>
    %cst_19 = arith.constant dense<1.000000e+00> : tensor<3840xf32>
    %cst_20 = arith.constant dense<-0.003193e+00> : tensor<3840x640x1x1xf32>
    %cst_21 = arith.constant dense<0.000000e+00> : tensor<640xf32>
    %cst_22 = arith.constant dense<1.000000e+00> : tensor<640xf32>
    %cst_23 = arith.constant dense<0.004810e+00> : tensor<640x2304x1x1xf32>
    %cst_24 = arith.constant dense<0.017008e+00> : tensor<2304x96x1x1xf32>
    %cst_25 = arith.constant dense<0.011711e+00> : tensor<96x2304x1x1xf32>
    %cst_26 = arith.constant dense<-0.006822e+00> : tensor<2304x1x3x3xf32>
    %cst_27 = arith.constant dense<0.006740e+00> : tensor<2304x384x1x1xf32>
    %cst_28 = arith.constant dense<0.018258e+00> : tensor<384x2304x1x1xf32>
    %cst_29 = arith.constant dense<0.002829e+00> : tensor<2304x96x1x1xf32>
    %cst_30 = arith.constant dense<-0.014776e+00> : tensor<96x2304x1x1xf32>
    %cst_31 = arith.constant dense<-0.006927e+00> : tensor<2304x1x5x5xf32>
    %cst_32 = arith.constant dense<0.002574e+00> : tensor<2304x384x1x1xf32>
    %cst_33 = arith.constant dense<-0.007224e+00> : tensor<384x2304x1x1xf32>
    %cst_34 = arith.constant dense<-0.003534e+00> : tensor<2304x96x1x1xf32>
    %cst_35 = arith.constant dense<0.003390e+00> : tensor<96x2304x1x1xf32>
    %cst_36 = arith.constant dense<0.011532e+00> : tensor<2304x1x5x5xf32>
    %cst_37 = arith.constant dense<0.006890e+00> : tensor<2304x384x1x1xf32>
    %cst_38 = arith.constant dense<-0.002679e+00> : tensor<384x2304x1x1xf32>
    %cst_39 = arith.constant dense<-0.010700e+00> : tensor<2304x96x1x1xf32>
    %cst_40 = arith.constant dense<0.014809e+00> : tensor<96x2304x1x1xf32>
    %cst_41 = arith.constant dense<0.008594e+00> : tensor<2304x1x5x5xf32>
    %cst_42 = arith.constant dense<-0.027971e+00> : tensor<2304x384x1x1xf32>
    %cst_43 = arith.constant dense<0.008766e+00> : tensor<384x2304x1x1xf32>
    %cst_44 = arith.constant dense<-0.000881e+00> : tensor<2304x96x1x1xf32>
    %cst_45 = arith.constant dense<-0.001567e+00> : tensor<96x2304x1x1xf32>
    %cst_46 = arith.constant dense<-0.009275e+00> : tensor<2304x1x5x5xf32>
    %cst_47 = arith.constant dense<0.006272e+00> : tensor<2304x384x1x1xf32>
    %cst_48 = arith.constant dense<-0.000864e+00> : tensor<384x2304x1x1xf32>
    %cst_49 = arith.constant dense<-0.011311e+00> : tensor<2304x96x1x1xf32>
    %cst_50 = arith.constant dense<0.006843e+00> : tensor<96x2304x1x1xf32>
    %cst_51 = arith.constant dense<0.002566e+00> : tensor<2304x1x5x5xf32>
    %cst_52 = arith.constant dense<-0.008564e+00> : tensor<2304x384x1x1xf32>
    %cst_53 = arith.constant dense<0.007966e+00> : tensor<384x2304x1x1xf32>
    %cst_54 = arith.constant dense<-0.003214e+00> : tensor<2304x96x1x1xf32>
    %cst_55 = arith.constant dense<-0.014556e+00> : tensor<96x2304x1x1xf32>
    %cst_56 = arith.constant dense<-0.002049e+00> : tensor<2304x1x5x5xf32>
    %cst_57 = arith.constant dense<0.000182e+00> : tensor<2304x384x1x1xf32>
    %cst_58 = arith.constant dense<0.004572e+00> : tensor<384x2304x1x1xf32>
    %cst_59 = arith.constant dense<0.004661e+00> : tensor<2304x96x1x1xf32>
    %cst_60 = arith.constant dense<-0.003216e+00> : tensor<96x2304x1x1xf32>
    %cst_61 = arith.constant dense<0.008567e+00> : tensor<2304x1x5x5xf32>
    %cst_62 = arith.constant dense<0.005452e+00> : tensor<2304x384x1x1xf32>
    %cst_63 = arith.constant dense<0.003931e+00> : tensor<384x2304x1x1xf32>
    %cst_64 = arith.constant dense<0.007492e+00> : tensor<2304x96x1x1xf32>
    %cst_65 = arith.constant dense<0.007035e+00> : tensor<96x2304x1x1xf32>
    %cst_66 = arith.constant dense<-0.000289e+00> : tensor<2304x1x5x5xf32>
    %cst_67 = arith.constant dense<-0.013198e+00> : tensor<2304x384x1x1xf32>
    %cst_68 = arith.constant dense<-0.014456e+00> : tensor<384x2304x1x1xf32>
    %cst_69 = arith.constant dense<-0.009145e+00> : tensor<2304x96x1x1xf32>
    %cst_70 = arith.constant dense<-0.008746e+00> : tensor<96x2304x1x1xf32>
    %cst_71 = arith.constant dense<0.015981e+00> : tensor<2304x1x5x5xf32>
    %cst_72 = arith.constant dense<0.002683e+00> : tensor<2304x384x1x1xf32>
    %cst_73 = arith.constant dense<-0.008613e+00> : tensor<384x2304x1x1xf32>
    %cst_74 = arith.constant dense<-0.020595e+00> : tensor<2304x96x1x1xf32>
    %cst_75 = arith.constant dense<-0.006997e+00> : tensor<96x2304x1x1xf32>
    %cst_76 = arith.constant dense<-0.001268e+00> : tensor<2304x1x5x5xf32>
    %cst_77 = arith.constant dense<-0.011433e+00> : tensor<2304x384x1x1xf32>
    %cst_78 = arith.constant dense<0.012702e+00> : tensor<384x2304x1x1xf32>
    %cst_79 = arith.constant dense<0.015073e+00> : tensor<2304x96x1x1xf32>
    %cst_80 = arith.constant dense<0.005403e+00> : tensor<96x2304x1x1xf32>
    %cst_81 = arith.constant dense<-0.002452e+00> : tensor<2304x1x5x5xf32>
    %cst_82 = arith.constant dense<-0.010483e+00> : tensor<2304x384x1x1xf32>
    %cst_83 = arith.constant dense<-0.016001e+00> : tensor<384x2304x1x1xf32>
    %cst_84 = arith.constant dense<0.004554e+00> : tensor<2304x96x1x1xf32>
    %cst_85 = arith.constant dense<0.000698e+00> : tensor<96x2304x1x1xf32>
    %cst_86 = arith.constant dense<0.000000e+00> : tensor<96xf32>
    %cst_87 = arith.constant dense<0.009024e+00> : tensor<2304x1x5x5xf32>
    %cst_88 = arith.constant dense<0.000000e+00> : tensor<2304xf32>
    %cst_89 = arith.constant dense<1.000000e+00> : tensor<2304xf32>
    %cst_90 = arith.constant dense<-0.022286e+00> : tensor<2304x384x1x1xf32>
    %cst_91 = arith.constant dense<0.000000e+00> : tensor<384xf32>
    %cst_92 = arith.constant dense<1.000000e+00> : tensor<384xf32>
    %cst_93 = arith.constant dense<-0.012511e+00> : tensor<384x1344x1x1xf32>
    %cst_94 = arith.constant dense<-0.000263e+00> : tensor<1344x56x1x1xf32>
    %cst_95 = arith.constant dense<-0.002425e+00> : tensor<56x1344x1x1xf32>
    %cst_96 = arith.constant dense<0.013425e+00> : tensor<1344x1x5x5xf32>
    %cst_97 = arith.constant dense<0.006665e+00> : tensor<1344x224x1x1xf32>
    %cst_98 = arith.constant dense<0.003844e+00> : tensor<224x1344x1x1xf32>
    %cst_99 = arith.constant dense<-0.001056e+00> : tensor<1344x56x1x1xf32>
    %cst_100 = arith.constant dense<-0.008279e+00> : tensor<56x1344x1x1xf32>
    %cst_101 = arith.constant dense<-0.007693e+00> : tensor<1344x1x5x5xf32>
    %cst_102 = arith.constant dense<0.003389e+00> : tensor<1344x224x1x1xf32>
    %cst_103 = arith.constant dense<-0.001459e+00> : tensor<224x1344x1x1xf32>
    %cst_104 = arith.constant dense<-0.004988e+00> : tensor<1344x56x1x1xf32>
    %cst_105 = arith.constant dense<0.000916e+00> : tensor<56x1344x1x1xf32>
    %cst_106 = arith.constant dense<-0.009976e+00> : tensor<1344x1x5x5xf32>
    %cst_107 = arith.constant dense<-0.001740e+00> : tensor<1344x224x1x1xf32>
    %cst_108 = arith.constant dense<-0.003167e+00> : tensor<224x1344x1x1xf32>
    %cst_109 = arith.constant dense<0.007021e+00> : tensor<1344x56x1x1xf32>
    %cst_110 = arith.constant dense<0.015680e+00> : tensor<56x1344x1x1xf32>
    %cst_111 = arith.constant dense<-0.020658e+00> : tensor<1344x1x5x5xf32>
    %cst_112 = arith.constant dense<0.031609e+00> : tensor<1344x224x1x1xf32>
    %cst_113 = arith.constant dense<-0.007615e+00> : tensor<224x1344x1x1xf32>
    %cst_114 = arith.constant dense<-0.009481e+00> : tensor<1344x56x1x1xf32>
    %cst_115 = arith.constant dense<0.003211e+00> : tensor<56x1344x1x1xf32>
    %cst_116 = arith.constant dense<-0.001374e+00> : tensor<1344x1x5x5xf32>
    %cst_117 = arith.constant dense<-0.011616e+00> : tensor<1344x224x1x1xf32>
    %cst_118 = arith.constant dense<0.014171e+00> : tensor<224x1344x1x1xf32>
    %cst_119 = arith.constant dense<0.006337e+00> : tensor<1344x56x1x1xf32>
    %cst_120 = arith.constant dense<0.007241e+00> : tensor<56x1344x1x1xf32>
    %cst_121 = arith.constant dense<-0.022576e+00> : tensor<1344x1x5x5xf32>
    %cst_122 = arith.constant dense<-0.014066e+00> : tensor<1344x224x1x1xf32>
    %cst_123 = arith.constant dense<0.003614e+00> : tensor<224x1344x1x1xf32>
    %cst_124 = arith.constant dense<-0.003168e+00> : tensor<1344x56x1x1xf32>
    %cst_125 = arith.constant dense<0.001089e+00> : tensor<56x1344x1x1xf32>
    %cst_126 = arith.constant dense<-0.008443e+00> : tensor<1344x1x5x5xf32>
    %cst_127 = arith.constant dense<0.010027e+00> : tensor<1344x224x1x1xf32>
    %cst_128 = arith.constant dense<-0.016166e+00> : tensor<224x1344x1x1xf32>
    %cst_129 = arith.constant dense<-0.010308e+00> : tensor<1344x56x1x1xf32>
    %cst_130 = arith.constant dense<0.005088e+00> : tensor<56x1344x1x1xf32>
    %cst_131 = arith.constant dense<0.001175e+00> : tensor<1344x1x5x5xf32>
    %cst_132 = arith.constant dense<-0.008006e+00> : tensor<1344x224x1x1xf32>
    %cst_133 = arith.constant dense<0.009855e+00> : tensor<224x1344x1x1xf32>
    %cst_134 = arith.constant dense<-0.015554e+00> : tensor<1344x56x1x1xf32>
    %cst_135 = arith.constant dense<-0.005092e+00> : tensor<56x1344x1x1xf32>
    %cst_136 = arith.constant dense<-0.007290e+00> : tensor<1344x1x5x5xf32>
    %cst_137 = arith.constant dense<-0.003883e+00> : tensor<1344x224x1x1xf32>
    %cst_138 = arith.constant dense<-0.007833e+00> : tensor<224x1344x1x1xf32>
    %cst_139 = arith.constant dense<-0.009286e+00> : tensor<1344x56x1x1xf32>
    %cst_140 = arith.constant dense<0.003021e+00> : tensor<56x1344x1x1xf32>
    %cst_141 = arith.constant dense<0.000000e+00> : tensor<56xf32>
    %cst_142 = arith.constant dense<-0.012772e+00> : tensor<1344x1x5x5xf32>
    %cst_143 = arith.constant dense<0.000000e+00> : tensor<1344xf32>
    %cst_144 = arith.constant dense<1.000000e+00> : tensor<1344xf32>
    %cst_145 = arith.constant dense<-0.008908e+00> : tensor<1344x224x1x1xf32>
    %cst_146 = arith.constant dense<0.000000e+00> : tensor<224xf32>
    %cst_147 = arith.constant dense<1.000000e+00> : tensor<224xf32>
    %cst_148 = arith.constant dense<-0.004336e+00> : tensor<224x960x1x1xf32>
    %cst_149 = arith.constant dense<-0.000988e+00> : tensor<960x40x1x1xf32>
    %cst_150 = arith.constant dense<0.005481e+00> : tensor<40x960x1x1xf32>
    %cst_151 = arith.constant dense<-0.022833e+00> : tensor<960x1x5x5xf32>
    %cst_152 = arith.constant dense<-0.005503e+00> : tensor<960x160x1x1xf32>
    %cst_153 = arith.constant dense<0.006907e+00> : tensor<160x960x1x1xf32>
    %cst_154 = arith.constant dense<0.011886e+00> : tensor<960x40x1x1xf32>
    %cst_155 = arith.constant dense<0.011079e+00> : tensor<40x960x1x1xf32>
    %cst_156 = arith.constant dense<0.019979e+00> : tensor<960x1x3x3xf32>
    %cst_157 = arith.constant dense<-0.007008e+00> : tensor<960x160x1x1xf32>
    %cst_158 = arith.constant dense<-0.009368e+00> : tensor<160x960x1x1xf32>
    %cst_159 = arith.constant dense<0.008093e+00> : tensor<960x40x1x1xf32>
    %cst_160 = arith.constant dense<0.002312e+00> : tensor<40x960x1x1xf32>
    %cst_161 = arith.constant dense<-0.004980e+00> : tensor<960x1x3x3xf32>
    %cst_162 = arith.constant dense<-0.003746e+00> : tensor<960x160x1x1xf32>
    %cst_163 = arith.constant dense<-0.003774e+00> : tensor<160x960x1x1xf32>
    %cst_164 = arith.constant dense<-0.001594e+00> : tensor<960x40x1x1xf32>
    %cst_165 = arith.constant dense<-0.015999e+00> : tensor<40x960x1x1xf32>
    %cst_166 = arith.constant dense<-0.014386e+00> : tensor<960x1x3x3xf32>
    %cst_167 = arith.constant dense<-0.002006e+00> : tensor<960x160x1x1xf32>
    %cst_168 = arith.constant dense<0.010452e+00> : tensor<160x960x1x1xf32>
    %cst_169 = arith.constant dense<-0.003132e+00> : tensor<960x40x1x1xf32>
    %cst_170 = arith.constant dense<0.000135e+00> : tensor<40x960x1x1xf32>
    %cst_171 = arith.constant dense<-0.006781e+00> : tensor<960x1x3x3xf32>
    %cst_172 = arith.constant dense<-0.005423e+00> : tensor<960x160x1x1xf32>
    %cst_173 = arith.constant dense<0.004696e+00> : tensor<160x960x1x1xf32>
    %cst_174 = arith.constant dense<-0.013435e+00> : tensor<960x40x1x1xf32>
    %cst_175 = arith.constant dense<0.025311e+00> : tensor<40x960x1x1xf32>
    %cst_176 = arith.constant dense<-0.001527e+00> : tensor<960x1x3x3xf32>
    %cst_177 = arith.constant dense<-0.006107e+00> : tensor<960x160x1x1xf32>
    %cst_178 = arith.constant dense<0.002379e+00> : tensor<160x960x1x1xf32>
    %cst_179 = arith.constant dense<-0.001005e+00> : tensor<960x40x1x1xf32>
    %cst_180 = arith.constant dense<0.002148e+00> : tensor<40x960x1x1xf32>
    %cst_181 = arith.constant dense<-0.007145e+00> : tensor<960x1x3x3xf32>
    %cst_182 = arith.constant dense<0.004412e+00> : tensor<960x160x1x1xf32>
    %cst_183 = arith.constant dense<-0.004332e+00> : tensor<160x960x1x1xf32>
    %cst_184 = arith.constant dense<0.016574e+00> : tensor<960x40x1x1xf32>
    %cst_185 = arith.constant dense<-0.008136e+00> : tensor<40x960x1x1xf32>
    %cst_186 = arith.constant dense<0.003303e+00> : tensor<960x1x3x3xf32>
    %cst_187 = arith.constant dense<-0.012334e+00> : tensor<960x160x1x1xf32>
    %cst_188 = arith.constant dense<-0.000810e+00> : tensor<160x960x1x1xf32>
    %cst_189 = arith.constant dense<-0.003277e+00> : tensor<960x40x1x1xf32>
    %cst_190 = arith.constant dense<0.014025e+00> : tensor<40x960x1x1xf32>
    %cst_191 = arith.constant dense<-0.005364e+00> : tensor<960x1x3x3xf32>
    %cst_192 = arith.constant dense<0.000934e+00> : tensor<960x160x1x1xf32>
    %cst_193 = arith.constant dense<0.000352e+00> : tensor<160x960x1x1xf32>
    %cst_194 = arith.constant dense<0.008129e+00> : tensor<960x40x1x1xf32>
    %cst_195 = arith.constant dense<0.008921e+00> : tensor<40x960x1x1xf32>
    %cst_196 = arith.constant dense<0.000000e+00> : tensor<40xf32>
    %cst_197 = arith.constant dense<0.015485e+00> : tensor<960x1x3x3xf32>
    %cst_198 = arith.constant dense<0.000000e+00> : tensor<960xf32>
    %cst_199 = arith.constant dense<1.000000e+00> : tensor<960xf32>
    %cst_200 = arith.constant dense<0.003230e+00> : tensor<960x160x1x1xf32>
    %cst_201 = arith.constant dense<0.000000e+00> : tensor<160xf32>
    %cst_202 = arith.constant dense<1.000000e+00> : tensor<160xf32>
    %cst_203 = arith.constant dense<-0.013573e+00> : tensor<160x480x1x1xf32>
    %cst_204 = arith.constant dense<-0.010238e+00> : tensor<480x20x1x1xf32>
    %cst_205 = arith.constant dense<0.017201e+00> : tensor<20x480x1x1xf32>
    %cst_206 = arith.constant dense<-0.009459e+00> : tensor<480x1x3x3xf32>
    %cst_207 = arith.constant dense<-0.004091e+00> : tensor<480x80x1x1xf32>
    %cst_208 = arith.constant dense<0.004363e+00> : tensor<80x480x1x1xf32>
    %cst_209 = arith.constant dense<-0.001775e+00> : tensor<480x20x1x1xf32>
    %cst_210 = arith.constant dense<0.018405e+00> : tensor<20x480x1x1xf32>
    %cst_211 = arith.constant dense<0.022729e+00> : tensor<480x1x5x5xf32>
    %cst_212 = arith.constant dense<-0.008358e+00> : tensor<480x80x1x1xf32>
    %cst_213 = arith.constant dense<-0.011713e+00> : tensor<80x480x1x1xf32>
    %cst_214 = arith.constant dense<0.010573e+00> : tensor<480x20x1x1xf32>
    %cst_215 = arith.constant dense<0.006309e+00> : tensor<20x480x1x1xf32>
    %cst_216 = arith.constant dense<-0.023731e+00> : tensor<480x1x5x5xf32>
    %cst_217 = arith.constant dense<-0.002336e+00> : tensor<480x80x1x1xf32>
    %cst_218 = arith.constant dense<-0.005492e+00> : tensor<80x480x1x1xf32>
    %cst_219 = arith.constant dense<-0.006834e+00> : tensor<480x20x1x1xf32>
    %cst_220 = arith.constant dense<-0.015010e+00> : tensor<20x480x1x1xf32>
    %cst_221 = arith.constant dense<-0.004940e+00> : tensor<480x1x5x5xf32>
    %cst_222 = arith.constant dense<-0.006417e+00> : tensor<480x80x1x1xf32>
    %cst_223 = arith.constant dense<-0.004572e+00> : tensor<80x480x1x1xf32>
    %cst_224 = arith.constant dense<-0.014159e+00> : tensor<480x20x1x1xf32>
    %cst_225 = arith.constant dense<0.001426e+00> : tensor<20x480x1x1xf32>
    %cst_226 = arith.constant dense<-0.004156e+00> : tensor<480x1x5x5xf32>
    %cst_227 = arith.constant dense<0.007446e+00> : tensor<480x80x1x1xf32>
    %cst_228 = arith.constant dense<-0.012822e+00> : tensor<80x480x1x1xf32>
    %cst_229 = arith.constant dense<-0.001649e+00> : tensor<480x20x1x1xf32>
    %cst_230 = arith.constant dense<-0.005683e+00> : tensor<20x480x1x1xf32>
    %cst_231 = arith.constant dense<-0.002997e+00> : tensor<480x1x5x5xf32>
    %cst_232 = arith.constant dense<0.012919e+00> : tensor<480x80x1x1xf32>
    %cst_233 = arith.constant dense<0.010731e+00> : tensor<80x480x1x1xf32>
    %cst_234 = arith.constant dense<0.011724e+00> : tensor<480x20x1x1xf32>
    %cst_235 = arith.constant dense<0.002750e+00> : tensor<20x480x1x1xf32>
    %cst_236 = arith.constant dense<0.000000e+00> : tensor<20xf32>
    %cst_237 = arith.constant dense<0.002144e+00> : tensor<480x1x5x5xf32>
    %cst_238 = arith.constant dense<0.000000e+00> : tensor<480xf32>
    %cst_239 = arith.constant dense<1.000000e+00> : tensor<480xf32>
    %cst_240 = arith.constant dense<-0.013011e+00> : tensor<480x80x1x1xf32>
    %cst_241 = arith.constant dense<0.000000e+00> : tensor<80xf32>
    %cst_242 = arith.constant dense<1.000000e+00> : tensor<80xf32>
    %cst_243 = arith.constant dense<0.001286e+00> : tensor<80x288x1x1xf32>
    %cst_244 = arith.constant dense<0.000999e+00> : tensor<288x12x1x1xf32>
    %cst_245 = arith.constant dense<-0.004271e+00> : tensor<12x288x1x1xf32>
    %cst_246 = arith.constant dense<0.007987e+00> : tensor<288x1x5x5xf32>
    %cst_247 = arith.constant dense<0.004856e+00> : tensor<288x48x1x1xf32>
    %cst_248 = arith.constant dense<0.022769e+00> : tensor<48x288x1x1xf32>
    %cst_249 = arith.constant dense<0.009981e+00> : tensor<288x12x1x1xf32>
    %cst_250 = arith.constant dense<0.000878e+00> : tensor<12x288x1x1xf32>
    %cst_251 = arith.constant dense<0.019979e+00> : tensor<288x1x3x3xf32>
    %cst_252 = arith.constant dense<-0.001790e+00> : tensor<288x48x1x1xf32>
    %cst_253 = arith.constant dense<-0.003095e+00> : tensor<48x288x1x1xf32>
    %cst_254 = arith.constant dense<0.002978e+00> : tensor<288x12x1x1xf32>
    %cst_255 = arith.constant dense<-0.014005e+00> : tensor<12x288x1x1xf32>
    %cst_256 = arith.constant dense<-0.003900e+00> : tensor<288x1x3x3xf32>
    %cst_257 = arith.constant dense<0.000806e+00> : tensor<288x48x1x1xf32>
    %cst_258 = arith.constant dense<-0.003490e+00> : tensor<48x288x1x1xf32>
    %cst_259 = arith.constant dense<-0.014738e+00> : tensor<288x12x1x1xf32>
    %cst_260 = arith.constant dense<0.012753e+00> : tensor<12x288x1x1xf32>
    %cst_261 = arith.constant dense<-0.007356e+00> : tensor<288x1x3x3xf32>
    %cst_262 = arith.constant dense<-0.002392e+00> : tensor<288x48x1x1xf32>
    %cst_263 = arith.constant dense<0.008405e+00> : tensor<48x288x1x1xf32>
    %cst_264 = arith.constant dense<-0.002450e+00> : tensor<288x12x1x1xf32>
    %cst_265 = arith.constant dense<-0.019404e+00> : tensor<12x288x1x1xf32>
    %cst_266 = arith.constant dense<0.003260e+00> : tensor<288x1x3x3xf32>
    %cst_267 = arith.constant dense<-0.014208e+00> : tensor<288x48x1x1xf32>
    %cst_268 = arith.constant dense<-0.002685e+00> : tensor<48x288x1x1xf32>
    %cst_269 = arith.constant dense<-0.000679e+00> : tensor<288x12x1x1xf32>
    %cst_270 = arith.constant dense<0.011018e+00> : tensor<12x288x1x1xf32>
    %cst_271 = arith.constant dense<-0.012355e+00> : tensor<288x1x3x3xf32>
    %cst_272 = arith.constant dense<-0.016651e+00> : tensor<288x48x1x1xf32>
    %cst_273 = arith.constant dense<-0.006922e+00> : tensor<48x288x1x1xf32>
    %cst_274 = arith.constant dense<-0.012448e+00> : tensor<288x12x1x1xf32>
    %cst_275 = arith.constant dense<-0.005701e+00> : tensor<12x288x1x1xf32>
    %cst_276 = arith.constant dense<0.000000e+00> : tensor<12xf32>
    %cst_277 = arith.constant dense<-0.006889e+00> : tensor<288x1x3x3xf32>
    %cst_278 = arith.constant dense<0.000000e+00> : tensor<288xf32>
    %cst_279 = arith.constant dense<1.000000e+00> : tensor<288xf32>
    %cst_280 = arith.constant dense<0.006752e+00> : tensor<288x48x1x1xf32>
    %cst_281 = arith.constant dense<0.000000e+00> : tensor<48xf32>
    %cst_282 = arith.constant dense<1.000000e+00> : tensor<48xf32>
    %cst_283 = arith.constant dense<-0.005332e+00> : tensor<48x192x1x1xf32>
    %cst_284 = arith.constant dense<0.001422e+00> : tensor<192x8x1x1xf32>
    %cst_285 = arith.constant dense<0.000050e+00> : tensor<8x192x1x1xf32>
    %cst_286 = arith.constant dense<-0.007213e+00> : tensor<192x1x3x3xf32>
    %cst_287 = arith.constant dense<0.000000e+00> : tensor<192xf32>
    %cst_288 = arith.constant dense<1.000000e+00> : tensor<192xf32>
    %cst_289 = arith.constant dense<0.006329e+00> : tensor<192x32x1x1xf32>
    %cst_290 = arith.constant dense<0.023636e+00> : tensor<32x32x1x1xf32>
    %cst_291 = arith.constant dense<-0.023151e+00> : tensor<32x8x1x1xf32>
    %cst_292 = arith.constant dense<0.001709e+00> : tensor<8x32x1x1xf32>
    %cst_293 = arith.constant dense<-0.002981e+00> : tensor<32x1x3x3xf32>
    %cst_294 = arith.constant dense<-0.002406e+00> : tensor<32x32x1x1xf32>
    %cst_295 = arith.constant dense<0.003083e+00> : tensor<32x8x1x1xf32>
    %cst_296 = arith.constant dense<-0.008525e+00> : tensor<8x32x1x1xf32>
    %cst_297 = arith.constant dense<-0.005676e+00> : tensor<32x1x3x3xf32>
    %cst_298 = arith.constant dense<0.010860e+00> : tensor<32x32x1x1xf32>
    %cst_299 = arith.constant dense<-0.000507e+00> : tensor<32x8x1x1xf32>
    %cst_300 = arith.constant dense<-0.007360e+00> : tensor<8x32x1x1xf32>
    %cst_301 = arith.constant dense<0.000000e+00> : tensor<8xf32>
    %cst_302 = arith.constant dense<0.003059e+00> : tensor<32x1x3x3xf32>
    %cst_303 = arith.constant dense<0.000000e+00> : tensor<32xf32>
    %cst_304 = arith.constant dense<1.000000e+00> : tensor<32xf32>
    %cst_305 = arith.constant dense<-0.002629e+00> : tensor<32x64x1x1xf32>
    %cst_306 = arith.constant dense<0.015702e+00> : tensor<64x16x1x1xf32>
    %cst_307 = arith.constant dense<-0.002510e+00> : tensor<16x64x1x1xf32>
    %cst_308 = arith.constant dense<0.000000e+00> : tensor<16xf32>
    %cst_309 = arith.constant dense<-0.004202e+00> : tensor<64x1x3x3xf32>
    %cst_310 = arith.constant dense<0.000000e+00> : tensor<64xf32>
    %cst_311 = arith.constant dense<1.000000e+00> : tensor<64xf32>
    %cst_312 = arith.constant dense<0.003786e+00> : tensor<64x3x3x3xf32>
    %cst_313 = arith.constant 0.000000e+00 : f32
    %cst_314 = arith.constant 1.000000e-03 : f64
    %cst_315 = arith.constant 2.560000e+02 : f32
    %cst_316 = arith.constant 6.400000e+01 : f32
    %cst_317 = arith.constant 1.600000e+01 : f32
    %cst_318 = arith.constant 4.000000e+00 : f32
    %c2 = arith.constant 2 : index
    %c0 = arith.constant 0 : index
    %c1 = arith.constant 1 : index
    %cst_319 = arith.constant 1.000000e+00 : f32
    %padded = tensor.pad %arg0 low[0, 0, 1, 1] high[0, 0, 1, 1] {
    ^bb0(%arg1: index, %arg2: index, %arg3: index, %arg4: index):
      tensor.yield %cst_313 : f32
    } : tensor<1x3x32x32xf32> to tensor<1x3x34x34xf32>
    %0 = tensor.empty() : tensor<1x64x16x16xf32>
    %1 = linalg.fill ins(%cst_313 : f32) outs(%0 : tensor<1x64x16x16xf32>) -> tensor<1x64x16x16xf32>
    %2 = linalg.conv_2d_nchw_fchw {dilations = dense<1> : vector<2xi64>, strides = dense<2> : vector<2xi64>} ins(%padded, %cst_312 : tensor<1x3x34x34xf32>, tensor<64x3x3x3xf32>) outs(%1 : tensor<1x64x16x16xf32>) -> tensor<1x64x16x16xf32>
    %3 = arith.cmpi eq, %false, %false : i1
    cf.assert %3, "training is not supported for now"
    %4 = linalg.generic {indexing_maps = [#map, #map1, #map1, #map1, #map1, #map], iterator_types = ["parallel", "parallel", "parallel", "parallel"]} ins(%2, %cst_311, %cst_310, %cst_310, %cst_311 : tensor<1x64x16x16xf32>, tensor<64xf32>, tensor<64xf32>, tensor<64xf32>, tensor<64xf32>) outs(%2 : tensor<1x64x16x16xf32>) {
    ^bb0(%in: f32, %in_430: f32, %in_431: f32, %in_432: f32, %in_433: f32, %out: f32):
      %1103 = arith.truncf %cst_314 : f64 to f32
      %1104 = arith.addf %in_433, %1103 : f32
      %1105 = math.rsqrt %1104 : f32
      %1106 = arith.subf %in, %in_432 : f32
      %1107 = arith.mulf %1106, %1105 : f32
      %1108 = arith.mulf %1107, %in_430 : f32
      %1109 = arith.addf %1108, %in_431 : f32
      linalg.yield %1109 : f32
    } -> tensor<1x64x16x16xf32>
    %5 = linalg.generic {indexing_maps = [#map2, #map], iterator_types = ["parallel", "parallel", "parallel", "parallel"]} ins(%4 : tensor<1x64x16x16xf32>) outs(%0 : tensor<1x64x16x16xf32>) {
    ^bb0(%in: f32, %out: f32):
      %1103 = arith.negf %in : f32
      %1104 = math.exp %1103 : f32
      %1105 = arith.addf %1104, %cst_319 : f32
      %1106 = arith.divf %cst_319, %1105 : f32
      linalg.yield %1106 : f32
    } -> tensor<1x64x16x16xf32>
    %6 = linalg.generic {indexing_maps = [#map2, #map2, #map], iterator_types = ["parallel", "parallel", "parallel", "parallel"]} ins(%5, %4 : tensor<1x64x16x16xf32>, tensor<1x64x16x16xf32>) outs(%0 : tensor<1x64x16x16xf32>) {
    ^bb0(%in: f32, %in_430: f32, %out: f32):
      %1103 = arith.mulf %in, %in_430 : f32
      linalg.yield %1103 : f32
    } -> tensor<1x64x16x16xf32>
    %padded_320 = tensor.pad %6 low[0, 0, 1, 1] high[0, 0, 1, 1] {
    ^bb0(%arg1: index, %arg2: index, %arg3: index, %arg4: index):
      tensor.yield %cst_313 : f32
    } : tensor<1x64x16x16xf32> to tensor<1x64x18x18xf32>
    %collapsed = tensor.collapse_shape %cst_309 [[0, 1], [2], [3]] : tensor<64x1x3x3xf32> into tensor<64x3x3xf32>
    %7 = linalg.depthwise_conv_2d_nchw_chw {dilations = dense<1> : vector<2xi64>, strides = dense<1> : vector<2xi64>} ins(%padded_320, %collapsed : tensor<1x64x18x18xf32>, tensor<64x3x3xf32>) outs(%1 : tensor<1x64x16x16xf32>) -> tensor<1x64x16x16xf32>
    cf.assert %3, "training is not supported for now"
    %8 = linalg.generic {indexing_maps = [#map, #map1, #map1, #map1, #map1, #map], iterator_types = ["parallel", "parallel", "parallel", "parallel"]} ins(%7, %cst_311, %cst_310, %cst_310, %cst_311 : tensor<1x64x16x16xf32>, tensor<64xf32>, tensor<64xf32>, tensor<64xf32>, tensor<64xf32>) outs(%7 : tensor<1x64x16x16xf32>) {
    ^bb0(%in: f32, %in_430: f32, %in_431: f32, %in_432: f32, %in_433: f32, %out: f32):
      %1103 = arith.truncf %cst_314 : f64 to f32
      %1104 = arith.addf %in_433, %1103 : f32
      %1105 = math.rsqrt %1104 : f32
      %1106 = arith.subf %in, %in_432 : f32
      %1107 = arith.mulf %1106, %1105 : f32
      %1108 = arith.mulf %1107, %in_430 : f32
      %1109 = arith.addf %1108, %in_431 : f32
      linalg.yield %1109 : f32
    } -> tensor<1x64x16x16xf32>
    %9 = linalg.generic {indexing_maps = [#map2, #map], iterator_types = ["parallel", "parallel", "parallel", "parallel"]} ins(%8 : tensor<1x64x16x16xf32>) outs(%0 : tensor<1x64x16x16xf32>) {
    ^bb0(%in: f32, %out: f32):
      %1103 = arith.negf %in : f32
      %1104 = math.exp %1103 : f32
      %1105 = arith.addf %1104, %cst_319 : f32
      %1106 = arith.divf %cst_319, %1105 : f32
      linalg.yield %1106 : f32
    } -> tensor<1x64x16x16xf32>
    %10 = linalg.generic {indexing_maps = [#map2, #map2, #map], iterator_types = ["parallel", "parallel", "parallel", "parallel"]} ins(%9, %8 : tensor<1x64x16x16xf32>, tensor<1x64x16x16xf32>) outs(%0 : tensor<1x64x16x16xf32>) {
    ^bb0(%in: f32, %in_430: f32, %out: f32):
      %1103 = arith.mulf %in, %in_430 : f32
      linalg.yield %1103 : f32
    } -> tensor<1x64x16x16xf32>
    %11 = tensor.empty() : tensor<1x64x1x1xf32>
    %12 = linalg.fill ins(%cst_313 : f32) outs(%11 : tensor<1x64x1x1xf32>) -> tensor<1x64x1x1xf32>
    %13 = tensor.empty() : tensor<16x16xf32>
    %14 = linalg.pooling_nchw_sum {dilations = dense<1> : vector<2xi64>, strides = dense<1> : vector<2xi64>} ins(%10, %13 : tensor<1x64x16x16xf32>, tensor<16x16xf32>) outs(%12 : tensor<1x64x1x1xf32>) -> tensor<1x64x1x1xf32>
    %15 = linalg.generic {indexing_maps = [#map, #map], iterator_types = ["parallel", "parallel", "parallel", "parallel"]} ins(%14 : tensor<1x64x1x1xf32>) outs(%11 : tensor<1x64x1x1xf32>) {
    ^bb0(%in: f32, %out: f32):
      %1103 = arith.divf %in, %cst_315 : f32
      linalg.yield %1103 : f32
    } -> tensor<1x64x1x1xf32>
    %16 = tensor.empty() : tensor<1x16x1x1xf32>
    %17 = linalg.generic {indexing_maps = [#map1, #map], iterator_types = ["parallel", "parallel", "parallel", "parallel"]} ins(%cst_308 : tensor<16xf32>) outs(%16 : tensor<1x16x1x1xf32>) {
    ^bb0(%in: f32, %out: f32):
      linalg.yield %in : f32
    } -> tensor<1x16x1x1xf32>
    %18 = linalg.conv_2d_nchw_fchw {dilations = dense<1> : vector<2xi64>, strides = dense<1> : vector<2xi64>} ins(%15, %cst_307 : tensor<1x64x1x1xf32>, tensor<16x64x1x1xf32>) outs(%17 : tensor<1x16x1x1xf32>) -> tensor<1x16x1x1xf32>
    %19 = linalg.generic {indexing_maps = [#map3, #map], iterator_types = ["parallel", "parallel", "parallel", "parallel"]} ins(%18 : tensor<1x16x1x1xf32>) outs(%16 : tensor<1x16x1x1xf32>) {
    ^bb0(%in: f32, %out: f32):
      %1103 = arith.negf %in : f32
      %1104 = math.exp %1103 : f32
      %1105 = arith.addf %1104, %cst_319 : f32
      %1106 = arith.divf %cst_319, %1105 : f32
      linalg.yield %1106 : f32
    } -> tensor<1x16x1x1xf32>
    %20 = linalg.generic {indexing_maps = [#map3, #map3, #map], iterator_types = ["parallel", "parallel", "parallel", "parallel"]} ins(%19, %18 : tensor<1x16x1x1xf32>, tensor<1x16x1x1xf32>) outs(%16 : tensor<1x16x1x1xf32>) {
    ^bb0(%in: f32, %in_430: f32, %out: f32):
      %1103 = arith.mulf %in, %in_430 : f32
      linalg.yield %1103 : f32
    } -> tensor<1x16x1x1xf32>
    %21 = linalg.generic {indexing_maps = [#map1, #map], iterator_types = ["parallel", "parallel", "parallel", "parallel"]} ins(%cst_310 : tensor<64xf32>) outs(%11 : tensor<1x64x1x1xf32>) {
    ^bb0(%in: f32, %out: f32):
      linalg.yield %in : f32
    } -> tensor<1x64x1x1xf32>
    %22 = linalg.conv_2d_nchw_fchw {dilations = dense<1> : vector<2xi64>, strides = dense<1> : vector<2xi64>} ins(%20, %cst_306 : tensor<1x16x1x1xf32>, tensor<64x16x1x1xf32>) outs(%21 : tensor<1x64x1x1xf32>) -> tensor<1x64x1x1xf32>
    %23 = linalg.generic {indexing_maps = [#map3, #map], iterator_types = ["parallel", "parallel", "parallel", "parallel"]} ins(%22 : tensor<1x64x1x1xf32>) outs(%11 : tensor<1x64x1x1xf32>) {
    ^bb0(%in: f32, %out: f32):
      %1103 = arith.negf %in : f32
      %1104 = math.exp %1103 : f32
      %1105 = arith.addf %1104, %cst_319 : f32
      %1106 = arith.divf %cst_319, %1105 : f32
      linalg.yield %1106 : f32
    } -> tensor<1x64x1x1xf32>
    %24 = linalg.generic {indexing_maps = [#map3, #map2, #map], iterator_types = ["parallel", "parallel", "parallel", "parallel"]} ins(%23, %10 : tensor<1x64x1x1xf32>, tensor<1x64x16x16xf32>) outs(%0 : tensor<1x64x16x16xf32>) {
    ^bb0(%in: f32, %in_430: f32, %out: f32):
      %1103 = arith.mulf %in, %in_430 : f32
      linalg.yield %1103 : f32
    } -> tensor<1x64x16x16xf32>
    %25 = tensor.empty() : tensor<1x32x16x16xf32>
    %26 = linalg.fill ins(%cst_313 : f32) outs(%25 : tensor<1x32x16x16xf32>) -> tensor<1x32x16x16xf32>
    %27 = linalg.conv_2d_nchw_fchw {dilations = dense<1> : vector<2xi64>, strides = dense<1> : vector<2xi64>} ins(%24, %cst_305 : tensor<1x64x16x16xf32>, tensor<32x64x1x1xf32>) outs(%26 : tensor<1x32x16x16xf32>) -> tensor<1x32x16x16xf32>
    cf.assert %3, "training is not supported for now"
    %28 = linalg.generic {indexing_maps = [#map, #map1, #map1, #map1, #map1, #map], iterator_types = ["parallel", "parallel", "parallel", "parallel"]} ins(%27, %cst_304, %cst_303, %cst_303, %cst_304 : tensor<1x32x16x16xf32>, tensor<32xf32>, tensor<32xf32>, tensor<32xf32>, tensor<32xf32>) outs(%27 : tensor<1x32x16x16xf32>) {
    ^bb0(%in: f32, %in_430: f32, %in_431: f32, %in_432: f32, %in_433: f32, %out: f32):
      %1103 = arith.truncf %cst_314 : f64 to f32
      %1104 = arith.addf %in_433, %1103 : f32
      %1105 = math.rsqrt %1104 : f32
      %1106 = arith.subf %in, %in_432 : f32
      %1107 = arith.mulf %1106, %1105 : f32
      %1108 = arith.mulf %1107, %in_430 : f32
      %1109 = arith.addf %1108, %in_431 : f32
      linalg.yield %1109 : f32
    } -> tensor<1x32x16x16xf32>
    %padded_321 = tensor.pad %28 low[0, 0, 1, 1] high[0, 0, 1, 1] {
    ^bb0(%arg1: index, %arg2: index, %arg3: index, %arg4: index):
      tensor.yield %cst_313 : f32
    } : tensor<1x32x16x16xf32> to tensor<1x32x18x18xf32>
    %collapsed_322 = tensor.collapse_shape %cst_302 [[0, 1], [2], [3]] : tensor<32x1x3x3xf32> into tensor<32x3x3xf32>
    %29 = linalg.depthwise_conv_2d_nchw_chw {dilations = dense<1> : vector<2xi64>, strides = dense<1> : vector<2xi64>} ins(%padded_321, %collapsed_322 : tensor<1x32x18x18xf32>, tensor<32x3x3xf32>) outs(%26 : tensor<1x32x16x16xf32>) -> tensor<1x32x16x16xf32>
    cf.assert %3, "training is not supported for now"
    %30 = linalg.generic {indexing_maps = [#map, #map1, #map1, #map1, #map1, #map], iterator_types = ["parallel", "parallel", "parallel", "parallel"]} ins(%29, %cst_304, %cst_303, %cst_303, %cst_304 : tensor<1x32x16x16xf32>, tensor<32xf32>, tensor<32xf32>, tensor<32xf32>, tensor<32xf32>) outs(%29 : tensor<1x32x16x16xf32>) {
    ^bb0(%in: f32, %in_430: f32, %in_431: f32, %in_432: f32, %in_433: f32, %out: f32):
      %1103 = arith.truncf %cst_314 : f64 to f32
      %1104 = arith.addf %in_433, %1103 : f32
      %1105 = math.rsqrt %1104 : f32
      %1106 = arith.subf %in, %in_432 : f32
      %1107 = arith.mulf %1106, %1105 : f32
      %1108 = arith.mulf %1107, %in_430 : f32
      %1109 = arith.addf %1108, %in_431 : f32
      linalg.yield %1109 : f32
    } -> tensor<1x32x16x16xf32>
    %31 = linalg.generic {indexing_maps = [#map2, #map], iterator_types = ["parallel", "parallel", "parallel", "parallel"]} ins(%30 : tensor<1x32x16x16xf32>) outs(%25 : tensor<1x32x16x16xf32>) {
    ^bb0(%in: f32, %out: f32):
      %1103 = arith.negf %in : f32
      %1104 = math.exp %1103 : f32
      %1105 = arith.addf %1104, %cst_319 : f32
      %1106 = arith.divf %cst_319, %1105 : f32
      linalg.yield %1106 : f32
    } -> tensor<1x32x16x16xf32>
    %32 = linalg.generic {indexing_maps = [#map2, #map2, #map], iterator_types = ["parallel", "parallel", "parallel", "parallel"]} ins(%31, %30 : tensor<1x32x16x16xf32>, tensor<1x32x16x16xf32>) outs(%25 : tensor<1x32x16x16xf32>) {
    ^bb0(%in: f32, %in_430: f32, %out: f32):
      %1103 = arith.mulf %in, %in_430 : f32
      linalg.yield %1103 : f32
    } -> tensor<1x32x16x16xf32>
    %33 = tensor.empty() : tensor<1x32x1x1xf32>
    %34 = linalg.fill ins(%cst_313 : f32) outs(%33 : tensor<1x32x1x1xf32>) -> tensor<1x32x1x1xf32>
    %35 = linalg.pooling_nchw_sum {dilations = dense<1> : vector<2xi64>, strides = dense<1> : vector<2xi64>} ins(%32, %13 : tensor<1x32x16x16xf32>, tensor<16x16xf32>) outs(%34 : tensor<1x32x1x1xf32>) -> tensor<1x32x1x1xf32>
    %36 = linalg.generic {indexing_maps = [#map, #map], iterator_types = ["parallel", "parallel", "parallel", "parallel"]} ins(%35 : tensor<1x32x1x1xf32>) outs(%33 : tensor<1x32x1x1xf32>) {
    ^bb0(%in: f32, %out: f32):
      %1103 = arith.divf %in, %cst_315 : f32
      linalg.yield %1103 : f32
    } -> tensor<1x32x1x1xf32>
    %37 = tensor.empty() : tensor<1x8x1x1xf32>
    %38 = linalg.generic {indexing_maps = [#map1, #map], iterator_types = ["parallel", "parallel", "parallel", "parallel"]} ins(%cst_301 : tensor<8xf32>) outs(%37 : tensor<1x8x1x1xf32>) {
    ^bb0(%in: f32, %out: f32):
      linalg.yield %in : f32
    } -> tensor<1x8x1x1xf32>
    %39 = linalg.conv_2d_nchw_fchw {dilations = dense<1> : vector<2xi64>, strides = dense<1> : vector<2xi64>} ins(%36, %cst_300 : tensor<1x32x1x1xf32>, tensor<8x32x1x1xf32>) outs(%38 : tensor<1x8x1x1xf32>) -> tensor<1x8x1x1xf32>
    %40 = linalg.generic {indexing_maps = [#map3, #map], iterator_types = ["parallel", "parallel", "parallel", "parallel"]} ins(%39 : tensor<1x8x1x1xf32>) outs(%37 : tensor<1x8x1x1xf32>) {
    ^bb0(%in: f32, %out: f32):
      %1103 = arith.negf %in : f32
      %1104 = math.exp %1103 : f32
      %1105 = arith.addf %1104, %cst_319 : f32
      %1106 = arith.divf %cst_319, %1105 : f32
      linalg.yield %1106 : f32
    } -> tensor<1x8x1x1xf32>
    %41 = linalg.generic {indexing_maps = [#map3, #map3, #map], iterator_types = ["parallel", "parallel", "parallel", "parallel"]} ins(%40, %39 : tensor<1x8x1x1xf32>, tensor<1x8x1x1xf32>) outs(%37 : tensor<1x8x1x1xf32>) {
    ^bb0(%in: f32, %in_430: f32, %out: f32):
      %1103 = arith.mulf %in, %in_430 : f32
      linalg.yield %1103 : f32
    } -> tensor<1x8x1x1xf32>
    %42 = linalg.generic {indexing_maps = [#map1, #map], iterator_types = ["parallel", "parallel", "parallel", "parallel"]} ins(%cst_303 : tensor<32xf32>) outs(%33 : tensor<1x32x1x1xf32>) {
    ^bb0(%in: f32, %out: f32):
      linalg.yield %in : f32
    } -> tensor<1x32x1x1xf32>
    %43 = linalg.conv_2d_nchw_fchw {dilations = dense<1> : vector<2xi64>, strides = dense<1> : vector<2xi64>} ins(%41, %cst_299 : tensor<1x8x1x1xf32>, tensor<32x8x1x1xf32>) outs(%42 : tensor<1x32x1x1xf32>) -> tensor<1x32x1x1xf32>
    %44 = linalg.generic {indexing_maps = [#map3, #map], iterator_types = ["parallel", "parallel", "parallel", "parallel"]} ins(%43 : tensor<1x32x1x1xf32>) outs(%33 : tensor<1x32x1x1xf32>) {
    ^bb0(%in: f32, %out: f32):
      %1103 = arith.negf %in : f32
      %1104 = math.exp %1103 : f32
      %1105 = arith.addf %1104, %cst_319 : f32
      %1106 = arith.divf %cst_319, %1105 : f32
      linalg.yield %1106 : f32
    } -> tensor<1x32x1x1xf32>
    %45 = linalg.generic {indexing_maps = [#map3, #map2, #map], iterator_types = ["parallel", "parallel", "parallel", "parallel"]} ins(%44, %32 : tensor<1x32x1x1xf32>, tensor<1x32x16x16xf32>) outs(%25 : tensor<1x32x16x16xf32>) {
    ^bb0(%in: f32, %in_430: f32, %out: f32):
      %1103 = arith.mulf %in, %in_430 : f32
      linalg.yield %1103 : f32
    } -> tensor<1x32x16x16xf32>
    %46 = linalg.conv_2d_nchw_fchw {dilations = dense<1> : vector<2xi64>, strides = dense<1> : vector<2xi64>} ins(%45, %cst_298 : tensor<1x32x16x16xf32>, tensor<32x32x1x1xf32>) outs(%26 : tensor<1x32x16x16xf32>) -> tensor<1x32x16x16xf32>
    cf.assert %3, "training is not supported for now"
    %47 = linalg.generic {indexing_maps = [#map, #map1, #map1, #map1, #map1, #map], iterator_types = ["parallel", "parallel", "parallel", "parallel"]} ins(%46, %cst_304, %cst_303, %cst_303, %cst_304 : tensor<1x32x16x16xf32>, tensor<32xf32>, tensor<32xf32>, tensor<32xf32>, tensor<32xf32>) outs(%46 : tensor<1x32x16x16xf32>) {
    ^bb0(%in: f32, %in_430: f32, %in_431: f32, %in_432: f32, %in_433: f32, %out: f32):
      %1103 = arith.truncf %cst_314 : f64 to f32
      %1104 = arith.addf %in_433, %1103 : f32
      %1105 = math.rsqrt %1104 : f32
      %1106 = arith.subf %in, %in_432 : f32
      %1107 = arith.mulf %1106, %1105 : f32
      %1108 = arith.mulf %1107, %in_430 : f32
      %1109 = arith.addf %1108, %in_431 : f32
      linalg.yield %1109 : f32
    } -> tensor<1x32x16x16xf32>
    %48 = linalg.generic {indexing_maps = [#map2, #map2, #map], iterator_types = ["parallel", "parallel", "parallel", "parallel"]} ins(%47, %28 : tensor<1x32x16x16xf32>, tensor<1x32x16x16xf32>) outs(%25 : tensor<1x32x16x16xf32>) {
    ^bb0(%in: f32, %in_430: f32, %out: f32):
      %1103 = arith.addf %in, %in_430 : f32
      linalg.yield %1103 : f32
    } -> tensor<1x32x16x16xf32>
    %padded_323 = tensor.pad %48 low[0, 0, 1, 1] high[0, 0, 1, 1] {
    ^bb0(%arg1: index, %arg2: index, %arg3: index, %arg4: index):
      tensor.yield %cst_313 : f32
    } : tensor<1x32x16x16xf32> to tensor<1x32x18x18xf32>
    %collapsed_324 = tensor.collapse_shape %cst_297 [[0, 1], [2], [3]] : tensor<32x1x3x3xf32> into tensor<32x3x3xf32>
    %49 = linalg.depthwise_conv_2d_nchw_chw {dilations = dense<1> : vector<2xi64>, strides = dense<1> : vector<2xi64>} ins(%padded_323, %collapsed_324 : tensor<1x32x18x18xf32>, tensor<32x3x3xf32>) outs(%26 : tensor<1x32x16x16xf32>) -> tensor<1x32x16x16xf32>
    cf.assert %3, "training is not supported for now"
    %50 = linalg.generic {indexing_maps = [#map, #map1, #map1, #map1, #map1, #map], iterator_types = ["parallel", "parallel", "parallel", "parallel"]} ins(%49, %cst_304, %cst_303, %cst_303, %cst_304 : tensor<1x32x16x16xf32>, tensor<32xf32>, tensor<32xf32>, tensor<32xf32>, tensor<32xf32>) outs(%49 : tensor<1x32x16x16xf32>) {
    ^bb0(%in: f32, %in_430: f32, %in_431: f32, %in_432: f32, %in_433: f32, %out: f32):
      %1103 = arith.truncf %cst_314 : f64 to f32
      %1104 = arith.addf %in_433, %1103 : f32
      %1105 = math.rsqrt %1104 : f32
      %1106 = arith.subf %in, %in_432 : f32
      %1107 = arith.mulf %1106, %1105 : f32
      %1108 = arith.mulf %1107, %in_430 : f32
      %1109 = arith.addf %1108, %in_431 : f32
      linalg.yield %1109 : f32
    } -> tensor<1x32x16x16xf32>
    %51 = linalg.generic {indexing_maps = [#map2, #map], iterator_types = ["parallel", "parallel", "parallel", "parallel"]} ins(%50 : tensor<1x32x16x16xf32>) outs(%25 : tensor<1x32x16x16xf32>) {
    ^bb0(%in: f32, %out: f32):
      %1103 = arith.negf %in : f32
      %1104 = math.exp %1103 : f32
      %1105 = arith.addf %1104, %cst_319 : f32
      %1106 = arith.divf %cst_319, %1105 : f32
      linalg.yield %1106 : f32
    } -> tensor<1x32x16x16xf32>
    %52 = linalg.generic {indexing_maps = [#map2, #map2, #map], iterator_types = ["parallel", "parallel", "parallel", "parallel"]} ins(%51, %50 : tensor<1x32x16x16xf32>, tensor<1x32x16x16xf32>) outs(%25 : tensor<1x32x16x16xf32>) {
    ^bb0(%in: f32, %in_430: f32, %out: f32):
      %1103 = arith.mulf %in, %in_430 : f32
      linalg.yield %1103 : f32
    } -> tensor<1x32x16x16xf32>
    %53 = linalg.pooling_nchw_sum {dilations = dense<1> : vector<2xi64>, strides = dense<1> : vector<2xi64>} ins(%52, %13 : tensor<1x32x16x16xf32>, tensor<16x16xf32>) outs(%34 : tensor<1x32x1x1xf32>) -> tensor<1x32x1x1xf32>
    %54 = linalg.generic {indexing_maps = [#map, #map], iterator_types = ["parallel", "parallel", "parallel", "parallel"]} ins(%53 : tensor<1x32x1x1xf32>) outs(%33 : tensor<1x32x1x1xf32>) {
    ^bb0(%in: f32, %out: f32):
      %1103 = arith.divf %in, %cst_315 : f32
      linalg.yield %1103 : f32
    } -> tensor<1x32x1x1xf32>
    %55 = linalg.conv_2d_nchw_fchw {dilations = dense<1> : vector<2xi64>, strides = dense<1> : vector<2xi64>} ins(%54, %cst_296 : tensor<1x32x1x1xf32>, tensor<8x32x1x1xf32>) outs(%38 : tensor<1x8x1x1xf32>) -> tensor<1x8x1x1xf32>
    %56 = linalg.generic {indexing_maps = [#map3, #map], iterator_types = ["parallel", "parallel", "parallel", "parallel"]} ins(%55 : tensor<1x8x1x1xf32>) outs(%37 : tensor<1x8x1x1xf32>) {
    ^bb0(%in: f32, %out: f32):
      %1103 = arith.negf %in : f32
      %1104 = math.exp %1103 : f32
      %1105 = arith.addf %1104, %cst_319 : f32
      %1106 = arith.divf %cst_319, %1105 : f32
      linalg.yield %1106 : f32
    } -> tensor<1x8x1x1xf32>
    %57 = linalg.generic {indexing_maps = [#map3, #map3, #map], iterator_types = ["parallel", "parallel", "parallel", "parallel"]} ins(%56, %55 : tensor<1x8x1x1xf32>, tensor<1x8x1x1xf32>) outs(%37 : tensor<1x8x1x1xf32>) {
    ^bb0(%in: f32, %in_430: f32, %out: f32):
      %1103 = arith.mulf %in, %in_430 : f32
      linalg.yield %1103 : f32
    } -> tensor<1x8x1x1xf32>
    %58 = linalg.conv_2d_nchw_fchw {dilations = dense<1> : vector<2xi64>, strides = dense<1> : vector<2xi64>} ins(%57, %cst_295 : tensor<1x8x1x1xf32>, tensor<32x8x1x1xf32>) outs(%42 : tensor<1x32x1x1xf32>) -> tensor<1x32x1x1xf32>
    %59 = linalg.generic {indexing_maps = [#map3, #map], iterator_types = ["parallel", "parallel", "parallel", "parallel"]} ins(%58 : tensor<1x32x1x1xf32>) outs(%33 : tensor<1x32x1x1xf32>) {
    ^bb0(%in: f32, %out: f32):
      %1103 = arith.negf %in : f32
      %1104 = math.exp %1103 : f32
      %1105 = arith.addf %1104, %cst_319 : f32
      %1106 = arith.divf %cst_319, %1105 : f32
      linalg.yield %1106 : f32
    } -> tensor<1x32x1x1xf32>
    %60 = linalg.generic {indexing_maps = [#map3, #map2, #map], iterator_types = ["parallel", "parallel", "parallel", "parallel"]} ins(%59, %52 : tensor<1x32x1x1xf32>, tensor<1x32x16x16xf32>) outs(%25 : tensor<1x32x16x16xf32>) {
    ^bb0(%in: f32, %in_430: f32, %out: f32):
      %1103 = arith.mulf %in, %in_430 : f32
      linalg.yield %1103 : f32
    } -> tensor<1x32x16x16xf32>
    %61 = linalg.conv_2d_nchw_fchw {dilations = dense<1> : vector<2xi64>, strides = dense<1> : vector<2xi64>} ins(%60, %cst_294 : tensor<1x32x16x16xf32>, tensor<32x32x1x1xf32>) outs(%26 : tensor<1x32x16x16xf32>) -> tensor<1x32x16x16xf32>
    cf.assert %3, "training is not supported for now"
    %62 = linalg.generic {indexing_maps = [#map, #map1, #map1, #map1, #map1, #map], iterator_types = ["parallel", "parallel", "parallel", "parallel"]} ins(%61, %cst_304, %cst_303, %cst_303, %cst_304 : tensor<1x32x16x16xf32>, tensor<32xf32>, tensor<32xf32>, tensor<32xf32>, tensor<32xf32>) outs(%61 : tensor<1x32x16x16xf32>) {
    ^bb0(%in: f32, %in_430: f32, %in_431: f32, %in_432: f32, %in_433: f32, %out: f32):
      %1103 = arith.truncf %cst_314 : f64 to f32
      %1104 = arith.addf %in_433, %1103 : f32
      %1105 = math.rsqrt %1104 : f32
      %1106 = arith.subf %in, %in_432 : f32
      %1107 = arith.mulf %1106, %1105 : f32
      %1108 = arith.mulf %1107, %in_430 : f32
      %1109 = arith.addf %1108, %in_431 : f32
      linalg.yield %1109 : f32
    } -> tensor<1x32x16x16xf32>
    %63 = linalg.generic {indexing_maps = [#map2, #map2, #map], iterator_types = ["parallel", "parallel", "parallel", "parallel"]} ins(%62, %48 : tensor<1x32x16x16xf32>, tensor<1x32x16x16xf32>) outs(%25 : tensor<1x32x16x16xf32>) {
    ^bb0(%in: f32, %in_430: f32, %out: f32):
      %1103 = arith.addf %in, %in_430 : f32
      linalg.yield %1103 : f32
    } -> tensor<1x32x16x16xf32>
    %padded_325 = tensor.pad %63 low[0, 0, 1, 1] high[0, 0, 1, 1] {
    ^bb0(%arg1: index, %arg2: index, %arg3: index, %arg4: index):
      tensor.yield %cst_313 : f32
    } : tensor<1x32x16x16xf32> to tensor<1x32x18x18xf32>
    %collapsed_326 = tensor.collapse_shape %cst_293 [[0, 1], [2], [3]] : tensor<32x1x3x3xf32> into tensor<32x3x3xf32>
    %64 = linalg.depthwise_conv_2d_nchw_chw {dilations = dense<1> : vector<2xi64>, strides = dense<1> : vector<2xi64>} ins(%padded_325, %collapsed_326 : tensor<1x32x18x18xf32>, tensor<32x3x3xf32>) outs(%26 : tensor<1x32x16x16xf32>) -> tensor<1x32x16x16xf32>
    cf.assert %3, "training is not supported for now"
    %65 = linalg.generic {indexing_maps = [#map, #map1, #map1, #map1, #map1, #map], iterator_types = ["parallel", "parallel", "parallel", "parallel"]} ins(%64, %cst_304, %cst_303, %cst_303, %cst_304 : tensor<1x32x16x16xf32>, tensor<32xf32>, tensor<32xf32>, tensor<32xf32>, tensor<32xf32>) outs(%64 : tensor<1x32x16x16xf32>) {
    ^bb0(%in: f32, %in_430: f32, %in_431: f32, %in_432: f32, %in_433: f32, %out: f32):
      %1103 = arith.truncf %cst_314 : f64 to f32
      %1104 = arith.addf %in_433, %1103 : f32
      %1105 = math.rsqrt %1104 : f32
      %1106 = arith.subf %in, %in_432 : f32
      %1107 = arith.mulf %1106, %1105 : f32
      %1108 = arith.mulf %1107, %in_430 : f32
      %1109 = arith.addf %1108, %in_431 : f32
      linalg.yield %1109 : f32
    } -> tensor<1x32x16x16xf32>
    %66 = linalg.generic {indexing_maps = [#map2, #map], iterator_types = ["parallel", "parallel", "parallel", "parallel"]} ins(%65 : tensor<1x32x16x16xf32>) outs(%25 : tensor<1x32x16x16xf32>) {
    ^bb0(%in: f32, %out: f32):
      %1103 = arith.negf %in : f32
      %1104 = math.exp %1103 : f32
      %1105 = arith.addf %1104, %cst_319 : f32
      %1106 = arith.divf %cst_319, %1105 : f32
      linalg.yield %1106 : f32
    } -> tensor<1x32x16x16xf32>
    %67 = linalg.generic {indexing_maps = [#map2, #map2, #map], iterator_types = ["parallel", "parallel", "parallel", "parallel"]} ins(%66, %65 : tensor<1x32x16x16xf32>, tensor<1x32x16x16xf32>) outs(%25 : tensor<1x32x16x16xf32>) {
    ^bb0(%in: f32, %in_430: f32, %out: f32):
      %1103 = arith.mulf %in, %in_430 : f32
      linalg.yield %1103 : f32
    } -> tensor<1x32x16x16xf32>
    %68 = linalg.pooling_nchw_sum {dilations = dense<1> : vector<2xi64>, strides = dense<1> : vector<2xi64>} ins(%67, %13 : tensor<1x32x16x16xf32>, tensor<16x16xf32>) outs(%34 : tensor<1x32x1x1xf32>) -> tensor<1x32x1x1xf32>
    %69 = linalg.generic {indexing_maps = [#map, #map], iterator_types = ["parallel", "parallel", "parallel", "parallel"]} ins(%68 : tensor<1x32x1x1xf32>) outs(%33 : tensor<1x32x1x1xf32>) {
    ^bb0(%in: f32, %out: f32):
      %1103 = arith.divf %in, %cst_315 : f32
      linalg.yield %1103 : f32
    } -> tensor<1x32x1x1xf32>
    %70 = linalg.conv_2d_nchw_fchw {dilations = dense<1> : vector<2xi64>, strides = dense<1> : vector<2xi64>} ins(%69, %cst_292 : tensor<1x32x1x1xf32>, tensor<8x32x1x1xf32>) outs(%38 : tensor<1x8x1x1xf32>) -> tensor<1x8x1x1xf32>
    %71 = linalg.generic {indexing_maps = [#map3, #map], iterator_types = ["parallel", "parallel", "parallel", "parallel"]} ins(%70 : tensor<1x8x1x1xf32>) outs(%37 : tensor<1x8x1x1xf32>) {
    ^bb0(%in: f32, %out: f32):
      %1103 = arith.negf %in : f32
      %1104 = math.exp %1103 : f32
      %1105 = arith.addf %1104, %cst_319 : f32
      %1106 = arith.divf %cst_319, %1105 : f32
      linalg.yield %1106 : f32
    } -> tensor<1x8x1x1xf32>
    %72 = linalg.generic {indexing_maps = [#map3, #map3, #map], iterator_types = ["parallel", "parallel", "parallel", "parallel"]} ins(%71, %70 : tensor<1x8x1x1xf32>, tensor<1x8x1x1xf32>) outs(%37 : tensor<1x8x1x1xf32>) {
    ^bb0(%in: f32, %in_430: f32, %out: f32):
      %1103 = arith.mulf %in, %in_430 : f32
      linalg.yield %1103 : f32
    } -> tensor<1x8x1x1xf32>
    %73 = linalg.conv_2d_nchw_fchw {dilations = dense<1> : vector<2xi64>, strides = dense<1> : vector<2xi64>} ins(%72, %cst_291 : tensor<1x8x1x1xf32>, tensor<32x8x1x1xf32>) outs(%42 : tensor<1x32x1x1xf32>) -> tensor<1x32x1x1xf32>
    %74 = linalg.generic {indexing_maps = [#map3, #map], iterator_types = ["parallel", "parallel", "parallel", "parallel"]} ins(%73 : tensor<1x32x1x1xf32>) outs(%33 : tensor<1x32x1x1xf32>) {
    ^bb0(%in: f32, %out: f32):
      %1103 = arith.negf %in : f32
      %1104 = math.exp %1103 : f32
      %1105 = arith.addf %1104, %cst_319 : f32
      %1106 = arith.divf %cst_319, %1105 : f32
      linalg.yield %1106 : f32
    } -> tensor<1x32x1x1xf32>
    %75 = linalg.generic {indexing_maps = [#map3, #map2, #map], iterator_types = ["parallel", "parallel", "parallel", "parallel"]} ins(%74, %67 : tensor<1x32x1x1xf32>, tensor<1x32x16x16xf32>) outs(%25 : tensor<1x32x16x16xf32>) {
    ^bb0(%in: f32, %in_430: f32, %out: f32):
      %1103 = arith.mulf %in, %in_430 : f32
      linalg.yield %1103 : f32
    } -> tensor<1x32x16x16xf32>
    %76 = linalg.conv_2d_nchw_fchw {dilations = dense<1> : vector<2xi64>, strides = dense<1> : vector<2xi64>} ins(%75, %cst_290 : tensor<1x32x16x16xf32>, tensor<32x32x1x1xf32>) outs(%26 : tensor<1x32x16x16xf32>) -> tensor<1x32x16x16xf32>
    cf.assert %3, "training is not supported for now"
    %77 = linalg.generic {indexing_maps = [#map, #map1, #map1, #map1, #map1, #map], iterator_types = ["parallel", "parallel", "parallel", "parallel"]} ins(%76, %cst_304, %cst_303, %cst_303, %cst_304 : tensor<1x32x16x16xf32>, tensor<32xf32>, tensor<32xf32>, tensor<32xf32>, tensor<32xf32>) outs(%76 : tensor<1x32x16x16xf32>) {
    ^bb0(%in: f32, %in_430: f32, %in_431: f32, %in_432: f32, %in_433: f32, %out: f32):
      %1103 = arith.truncf %cst_314 : f64 to f32
      %1104 = arith.addf %in_433, %1103 : f32
      %1105 = math.rsqrt %1104 : f32
      %1106 = arith.subf %in, %in_432 : f32
      %1107 = arith.mulf %1106, %1105 : f32
      %1108 = arith.mulf %1107, %in_430 : f32
      %1109 = arith.addf %1108, %in_431 : f32
      linalg.yield %1109 : f32
    } -> tensor<1x32x16x16xf32>
    %78 = linalg.generic {indexing_maps = [#map2, #map2, #map], iterator_types = ["parallel", "parallel", "parallel", "parallel"]} ins(%77, %63 : tensor<1x32x16x16xf32>, tensor<1x32x16x16xf32>) outs(%25 : tensor<1x32x16x16xf32>) {
    ^bb0(%in: f32, %in_430: f32, %out: f32):
      %1103 = arith.addf %in, %in_430 : f32
      linalg.yield %1103 : f32
    } -> tensor<1x32x16x16xf32>
    %79 = tensor.empty() : tensor<1x192x16x16xf32>
    %80 = linalg.fill ins(%cst_313 : f32) outs(%79 : tensor<1x192x16x16xf32>) -> tensor<1x192x16x16xf32>
    %81 = linalg.conv_2d_nchw_fchw {dilations = dense<1> : vector<2xi64>, strides = dense<1> : vector<2xi64>} ins(%78, %cst_289 : tensor<1x32x16x16xf32>, tensor<192x32x1x1xf32>) outs(%80 : tensor<1x192x16x16xf32>) -> tensor<1x192x16x16xf32>
    cf.assert %3, "training is not supported for now"
    %82 = linalg.generic {indexing_maps = [#map, #map1, #map1, #map1, #map1, #map], iterator_types = ["parallel", "parallel", "parallel", "parallel"]} ins(%81, %cst_288, %cst_287, %cst_287, %cst_288 : tensor<1x192x16x16xf32>, tensor<192xf32>, tensor<192xf32>, tensor<192xf32>, tensor<192xf32>) outs(%81 : tensor<1x192x16x16xf32>) {
    ^bb0(%in: f32, %in_430: f32, %in_431: f32, %in_432: f32, %in_433: f32, %out: f32):
      %1103 = arith.truncf %cst_314 : f64 to f32
      %1104 = arith.addf %in_433, %1103 : f32
      %1105 = math.rsqrt %1104 : f32
      %1106 = arith.subf %in, %in_432 : f32
      %1107 = arith.mulf %1106, %1105 : f32
      %1108 = arith.mulf %1107, %in_430 : f32
      %1109 = arith.addf %1108, %in_431 : f32
      linalg.yield %1109 : f32
    } -> tensor<1x192x16x16xf32>
    %83 = linalg.generic {indexing_maps = [#map2, #map], iterator_types = ["parallel", "parallel", "parallel", "parallel"]} ins(%82 : tensor<1x192x16x16xf32>) outs(%79 : tensor<1x192x16x16xf32>) {
    ^bb0(%in: f32, %out: f32):
      %1103 = arith.negf %in : f32
      %1104 = math.exp %1103 : f32
      %1105 = arith.addf %1104, %cst_319 : f32
      %1106 = arith.divf %cst_319, %1105 : f32
      linalg.yield %1106 : f32
    } -> tensor<1x192x16x16xf32>
    %84 = linalg.generic {indexing_maps = [#map2, #map2, #map], iterator_types = ["parallel", "parallel", "parallel", "parallel"]} ins(%83, %82 : tensor<1x192x16x16xf32>, tensor<1x192x16x16xf32>) outs(%79 : tensor<1x192x16x16xf32>) {
    ^bb0(%in: f32, %in_430: f32, %out: f32):
      %1103 = arith.mulf %in, %in_430 : f32
      linalg.yield %1103 : f32
    } -> tensor<1x192x16x16xf32>
    %padded_327 = tensor.pad %84 low[0, 0, 1, 1] high[0, 0, 1, 1] {
    ^bb0(%arg1: index, %arg2: index, %arg3: index, %arg4: index):
      tensor.yield %cst_313 : f32
    } : tensor<1x192x16x16xf32> to tensor<1x192x18x18xf32>
    %85 = tensor.empty() : tensor<1x192x8x8xf32>
    %86 = linalg.fill ins(%cst_313 : f32) outs(%85 : tensor<1x192x8x8xf32>) -> tensor<1x192x8x8xf32>
    %collapsed_328 = tensor.collapse_shape %cst_286 [[0, 1], [2], [3]] : tensor<192x1x3x3xf32> into tensor<192x3x3xf32>
    %87 = linalg.depthwise_conv_2d_nchw_chw {dilations = dense<1> : vector<2xi64>, strides = dense<2> : vector<2xi64>} ins(%padded_327, %collapsed_328 : tensor<1x192x18x18xf32>, tensor<192x3x3xf32>) outs(%86 : tensor<1x192x8x8xf32>) -> tensor<1x192x8x8xf32>
    cf.assert %3, "training is not supported for now"
    %88 = linalg.generic {indexing_maps = [#map, #map1, #map1, #map1, #map1, #map], iterator_types = ["parallel", "parallel", "parallel", "parallel"]} ins(%87, %cst_288, %cst_287, %cst_287, %cst_288 : tensor<1x192x8x8xf32>, tensor<192xf32>, tensor<192xf32>, tensor<192xf32>, tensor<192xf32>) outs(%87 : tensor<1x192x8x8xf32>) {
    ^bb0(%in: f32, %in_430: f32, %in_431: f32, %in_432: f32, %in_433: f32, %out: f32):
      %1103 = arith.truncf %cst_314 : f64 to f32
      %1104 = arith.addf %in_433, %1103 : f32
      %1105 = math.rsqrt %1104 : f32
      %1106 = arith.subf %in, %in_432 : f32
      %1107 = arith.mulf %1106, %1105 : f32
      %1108 = arith.mulf %1107, %in_430 : f32
      %1109 = arith.addf %1108, %in_431 : f32
      linalg.yield %1109 : f32
    } -> tensor<1x192x8x8xf32>
    %89 = linalg.generic {indexing_maps = [#map2, #map], iterator_types = ["parallel", "parallel", "parallel", "parallel"]} ins(%88 : tensor<1x192x8x8xf32>) outs(%85 : tensor<1x192x8x8xf32>) {
    ^bb0(%in: f32, %out: f32):
      %1103 = arith.negf %in : f32
      %1104 = math.exp %1103 : f32
      %1105 = arith.addf %1104, %cst_319 : f32
      %1106 = arith.divf %cst_319, %1105 : f32
      linalg.yield %1106 : f32
    } -> tensor<1x192x8x8xf32>
    %90 = linalg.generic {indexing_maps = [#map2, #map2, #map], iterator_types = ["parallel", "parallel", "parallel", "parallel"]} ins(%89, %88 : tensor<1x192x8x8xf32>, tensor<1x192x8x8xf32>) outs(%85 : tensor<1x192x8x8xf32>) {
    ^bb0(%in: f32, %in_430: f32, %out: f32):
      %1103 = arith.mulf %in, %in_430 : f32
      linalg.yield %1103 : f32
    } -> tensor<1x192x8x8xf32>
    %91 = tensor.empty() : tensor<1x192x1x1xf32>
    %92 = linalg.fill ins(%cst_313 : f32) outs(%91 : tensor<1x192x1x1xf32>) -> tensor<1x192x1x1xf32>
    %93 = tensor.empty() : tensor<8x8xf32>
    %94 = linalg.pooling_nchw_sum {dilations = dense<1> : vector<2xi64>, strides = dense<1> : vector<2xi64>} ins(%90, %93 : tensor<1x192x8x8xf32>, tensor<8x8xf32>) outs(%92 : tensor<1x192x1x1xf32>) -> tensor<1x192x1x1xf32>
    %95 = linalg.generic {indexing_maps = [#map, #map], iterator_types = ["parallel", "parallel", "parallel", "parallel"]} ins(%94 : tensor<1x192x1x1xf32>) outs(%91 : tensor<1x192x1x1xf32>) {
    ^bb0(%in: f32, %out: f32):
      %1103 = arith.divf %in, %cst_316 : f32
      linalg.yield %1103 : f32
    } -> tensor<1x192x1x1xf32>
    %96 = linalg.conv_2d_nchw_fchw {dilations = dense<1> : vector<2xi64>, strides = dense<1> : vector<2xi64>} ins(%95, %cst_285 : tensor<1x192x1x1xf32>, tensor<8x192x1x1xf32>) outs(%38 : tensor<1x8x1x1xf32>) -> tensor<1x8x1x1xf32>
    %97 = linalg.generic {indexing_maps = [#map3, #map], iterator_types = ["parallel", "parallel", "parallel", "parallel"]} ins(%96 : tensor<1x8x1x1xf32>) outs(%37 : tensor<1x8x1x1xf32>) {
    ^bb0(%in: f32, %out: f32):
      %1103 = arith.negf %in : f32
      %1104 = math.exp %1103 : f32
      %1105 = arith.addf %1104, %cst_319 : f32
      %1106 = arith.divf %cst_319, %1105 : f32
      linalg.yield %1106 : f32
    } -> tensor<1x8x1x1xf32>
    %98 = linalg.generic {indexing_maps = [#map3, #map3, #map], iterator_types = ["parallel", "parallel", "parallel", "parallel"]} ins(%97, %96 : tensor<1x8x1x1xf32>, tensor<1x8x1x1xf32>) outs(%37 : tensor<1x8x1x1xf32>) {
    ^bb0(%in: f32, %in_430: f32, %out: f32):
      %1103 = arith.mulf %in, %in_430 : f32
      linalg.yield %1103 : f32
    } -> tensor<1x8x1x1xf32>
    %99 = linalg.generic {indexing_maps = [#map1, #map], iterator_types = ["parallel", "parallel", "parallel", "parallel"]} ins(%cst_287 : tensor<192xf32>) outs(%91 : tensor<1x192x1x1xf32>) {
    ^bb0(%in: f32, %out: f32):
      linalg.yield %in : f32
    } -> tensor<1x192x1x1xf32>
    %100 = linalg.conv_2d_nchw_fchw {dilations = dense<1> : vector<2xi64>, strides = dense<1> : vector<2xi64>} ins(%98, %cst_284 : tensor<1x8x1x1xf32>, tensor<192x8x1x1xf32>) outs(%99 : tensor<1x192x1x1xf32>) -> tensor<1x192x1x1xf32>
    %101 = linalg.generic {indexing_maps = [#map3, #map], iterator_types = ["parallel", "parallel", "parallel", "parallel"]} ins(%100 : tensor<1x192x1x1xf32>) outs(%91 : tensor<1x192x1x1xf32>) {
    ^bb0(%in: f32, %out: f32):
      %1103 = arith.negf %in : f32
      %1104 = math.exp %1103 : f32
      %1105 = arith.addf %1104, %cst_319 : f32
      %1106 = arith.divf %cst_319, %1105 : f32
      linalg.yield %1106 : f32
    } -> tensor<1x192x1x1xf32>
    %102 = linalg.generic {indexing_maps = [#map3, #map2, #map], iterator_types = ["parallel", "parallel", "parallel", "parallel"]} ins(%101, %90 : tensor<1x192x1x1xf32>, tensor<1x192x8x8xf32>) outs(%85 : tensor<1x192x8x8xf32>) {
    ^bb0(%in: f32, %in_430: f32, %out: f32):
      %1103 = arith.mulf %in, %in_430 : f32
      linalg.yield %1103 : f32
    } -> tensor<1x192x8x8xf32>
    %103 = tensor.empty() : tensor<1x48x8x8xf32>
    %104 = linalg.fill ins(%cst_313 : f32) outs(%103 : tensor<1x48x8x8xf32>) -> tensor<1x48x8x8xf32>
    %105 = linalg.conv_2d_nchw_fchw {dilations = dense<1> : vector<2xi64>, strides = dense<1> : vector<2xi64>} ins(%102, %cst_283 : tensor<1x192x8x8xf32>, tensor<48x192x1x1xf32>) outs(%104 : tensor<1x48x8x8xf32>) -> tensor<1x48x8x8xf32>
    cf.assert %3, "training is not supported for now"
    %106 = linalg.generic {indexing_maps = [#map, #map1, #map1, #map1, #map1, #map], iterator_types = ["parallel", "parallel", "parallel", "parallel"]} ins(%105, %cst_282, %cst_281, %cst_281, %cst_282 : tensor<1x48x8x8xf32>, tensor<48xf32>, tensor<48xf32>, tensor<48xf32>, tensor<48xf32>) outs(%105 : tensor<1x48x8x8xf32>) {
    ^bb0(%in: f32, %in_430: f32, %in_431: f32, %in_432: f32, %in_433: f32, %out: f32):
      %1103 = arith.truncf %cst_314 : f64 to f32
      %1104 = arith.addf %in_433, %1103 : f32
      %1105 = math.rsqrt %1104 : f32
      %1106 = arith.subf %in, %in_432 : f32
      %1107 = arith.mulf %1106, %1105 : f32
      %1108 = arith.mulf %1107, %in_430 : f32
      %1109 = arith.addf %1108, %in_431 : f32
      linalg.yield %1109 : f32
    } -> tensor<1x48x8x8xf32>
    %107 = tensor.empty() : tensor<1x288x8x8xf32>
    %108 = linalg.fill ins(%cst_313 : f32) outs(%107 : tensor<1x288x8x8xf32>) -> tensor<1x288x8x8xf32>
    %109 = linalg.conv_2d_nchw_fchw {dilations = dense<1> : vector<2xi64>, strides = dense<1> : vector<2xi64>} ins(%106, %cst_280 : tensor<1x48x8x8xf32>, tensor<288x48x1x1xf32>) outs(%108 : tensor<1x288x8x8xf32>) -> tensor<1x288x8x8xf32>
    cf.assert %3, "training is not supported for now"
    %110 = linalg.generic {indexing_maps = [#map, #map1, #map1, #map1, #map1, #map], iterator_types = ["parallel", "parallel", "parallel", "parallel"]} ins(%109, %cst_279, %cst_278, %cst_278, %cst_279 : tensor<1x288x8x8xf32>, tensor<288xf32>, tensor<288xf32>, tensor<288xf32>, tensor<288xf32>) outs(%109 : tensor<1x288x8x8xf32>) {
    ^bb0(%in: f32, %in_430: f32, %in_431: f32, %in_432: f32, %in_433: f32, %out: f32):
      %1103 = arith.truncf %cst_314 : f64 to f32
      %1104 = arith.addf %in_433, %1103 : f32
      %1105 = math.rsqrt %1104 : f32
      %1106 = arith.subf %in, %in_432 : f32
      %1107 = arith.mulf %1106, %1105 : f32
      %1108 = arith.mulf %1107, %in_430 : f32
      %1109 = arith.addf %1108, %in_431 : f32
      linalg.yield %1109 : f32
    } -> tensor<1x288x8x8xf32>
    %111 = linalg.generic {indexing_maps = [#map2, #map], iterator_types = ["parallel", "parallel", "parallel", "parallel"]} ins(%110 : tensor<1x288x8x8xf32>) outs(%107 : tensor<1x288x8x8xf32>) {
    ^bb0(%in: f32, %out: f32):
      %1103 = arith.negf %in : f32
      %1104 = math.exp %1103 : f32
      %1105 = arith.addf %1104, %cst_319 : f32
      %1106 = arith.divf %cst_319, %1105 : f32
      linalg.yield %1106 : f32
    } -> tensor<1x288x8x8xf32>
    %112 = linalg.generic {indexing_maps = [#map2, #map2, #map], iterator_types = ["parallel", "parallel", "parallel", "parallel"]} ins(%111, %110 : tensor<1x288x8x8xf32>, tensor<1x288x8x8xf32>) outs(%107 : tensor<1x288x8x8xf32>) {
    ^bb0(%in: f32, %in_430: f32, %out: f32):
      %1103 = arith.mulf %in, %in_430 : f32
      linalg.yield %1103 : f32
    } -> tensor<1x288x8x8xf32>
    %padded_329 = tensor.pad %112 low[0, 0, 1, 1] high[0, 0, 1, 1] {
    ^bb0(%arg1: index, %arg2: index, %arg3: index, %arg4: index):
      tensor.yield %cst_313 : f32
    } : tensor<1x288x8x8xf32> to tensor<1x288x10x10xf32>
    %collapsed_330 = tensor.collapse_shape %cst_277 [[0, 1], [2], [3]] : tensor<288x1x3x3xf32> into tensor<288x3x3xf32>
    %113 = linalg.depthwise_conv_2d_nchw_chw {dilations = dense<1> : vector<2xi64>, strides = dense<1> : vector<2xi64>} ins(%padded_329, %collapsed_330 : tensor<1x288x10x10xf32>, tensor<288x3x3xf32>) outs(%108 : tensor<1x288x8x8xf32>) -> tensor<1x288x8x8xf32>
    cf.assert %3, "training is not supported for now"
    %114 = linalg.generic {indexing_maps = [#map, #map1, #map1, #map1, #map1, #map], iterator_types = ["parallel", "parallel", "parallel", "parallel"]} ins(%113, %cst_279, %cst_278, %cst_278, %cst_279 : tensor<1x288x8x8xf32>, tensor<288xf32>, tensor<288xf32>, tensor<288xf32>, tensor<288xf32>) outs(%113 : tensor<1x288x8x8xf32>) {
    ^bb0(%in: f32, %in_430: f32, %in_431: f32, %in_432: f32, %in_433: f32, %out: f32):
      %1103 = arith.truncf %cst_314 : f64 to f32
      %1104 = arith.addf %in_433, %1103 : f32
      %1105 = math.rsqrt %1104 : f32
      %1106 = arith.subf %in, %in_432 : f32
      %1107 = arith.mulf %1106, %1105 : f32
      %1108 = arith.mulf %1107, %in_430 : f32
      %1109 = arith.addf %1108, %in_431 : f32
      linalg.yield %1109 : f32
    } -> tensor<1x288x8x8xf32>
    %115 = linalg.generic {indexing_maps = [#map2, #map], iterator_types = ["parallel", "parallel", "parallel", "parallel"]} ins(%114 : tensor<1x288x8x8xf32>) outs(%107 : tensor<1x288x8x8xf32>) {
    ^bb0(%in: f32, %out: f32):
      %1103 = arith.negf %in : f32
      %1104 = math.exp %1103 : f32
      %1105 = arith.addf %1104, %cst_319 : f32
      %1106 = arith.divf %cst_319, %1105 : f32
      linalg.yield %1106 : f32
    } -> tensor<1x288x8x8xf32>
    %116 = linalg.generic {indexing_maps = [#map2, #map2, #map], iterator_types = ["parallel", "parallel", "parallel", "parallel"]} ins(%115, %114 : tensor<1x288x8x8xf32>, tensor<1x288x8x8xf32>) outs(%107 : tensor<1x288x8x8xf32>) {
    ^bb0(%in: f32, %in_430: f32, %out: f32):
      %1103 = arith.mulf %in, %in_430 : f32
      linalg.yield %1103 : f32
    } -> tensor<1x288x8x8xf32>
    %117 = tensor.empty() : tensor<1x288x1x1xf32>
    %118 = linalg.fill ins(%cst_313 : f32) outs(%117 : tensor<1x288x1x1xf32>) -> tensor<1x288x1x1xf32>
    %119 = linalg.pooling_nchw_sum {dilations = dense<1> : vector<2xi64>, strides = dense<1> : vector<2xi64>} ins(%116, %93 : tensor<1x288x8x8xf32>, tensor<8x8xf32>) outs(%118 : tensor<1x288x1x1xf32>) -> tensor<1x288x1x1xf32>
    %120 = linalg.generic {indexing_maps = [#map, #map], iterator_types = ["parallel", "parallel", "parallel", "parallel"]} ins(%119 : tensor<1x288x1x1xf32>) outs(%117 : tensor<1x288x1x1xf32>) {
    ^bb0(%in: f32, %out: f32):
      %1103 = arith.divf %in, %cst_316 : f32
      linalg.yield %1103 : f32
    } -> tensor<1x288x1x1xf32>
    %121 = tensor.empty() : tensor<1x12x1x1xf32>
    %122 = linalg.generic {indexing_maps = [#map1, #map], iterator_types = ["parallel", "parallel", "parallel", "parallel"]} ins(%cst_276 : tensor<12xf32>) outs(%121 : tensor<1x12x1x1xf32>) {
    ^bb0(%in: f32, %out: f32):
      linalg.yield %in : f32
    } -> tensor<1x12x1x1xf32>
    %123 = linalg.conv_2d_nchw_fchw {dilations = dense<1> : vector<2xi64>, strides = dense<1> : vector<2xi64>} ins(%120, %cst_275 : tensor<1x288x1x1xf32>, tensor<12x288x1x1xf32>) outs(%122 : tensor<1x12x1x1xf32>) -> tensor<1x12x1x1xf32>
    %124 = linalg.generic {indexing_maps = [#map3, #map], iterator_types = ["parallel", "parallel", "parallel", "parallel"]} ins(%123 : tensor<1x12x1x1xf32>) outs(%121 : tensor<1x12x1x1xf32>) {
    ^bb0(%in: f32, %out: f32):
      %1103 = arith.negf %in : f32
      %1104 = math.exp %1103 : f32
      %1105 = arith.addf %1104, %cst_319 : f32
      %1106 = arith.divf %cst_319, %1105 : f32
      linalg.yield %1106 : f32
    } -> tensor<1x12x1x1xf32>
    %125 = linalg.generic {indexing_maps = [#map3, #map3, #map], iterator_types = ["parallel", "parallel", "parallel", "parallel"]} ins(%124, %123 : tensor<1x12x1x1xf32>, tensor<1x12x1x1xf32>) outs(%121 : tensor<1x12x1x1xf32>) {
    ^bb0(%in: f32, %in_430: f32, %out: f32):
      %1103 = arith.mulf %in, %in_430 : f32
      linalg.yield %1103 : f32
    } -> tensor<1x12x1x1xf32>
    %126 = linalg.generic {indexing_maps = [#map1, #map], iterator_types = ["parallel", "parallel", "parallel", "parallel"]} ins(%cst_278 : tensor<288xf32>) outs(%117 : tensor<1x288x1x1xf32>) {
    ^bb0(%in: f32, %out: f32):
      linalg.yield %in : f32
    } -> tensor<1x288x1x1xf32>
    %127 = linalg.conv_2d_nchw_fchw {dilations = dense<1> : vector<2xi64>, strides = dense<1> : vector<2xi64>} ins(%125, %cst_274 : tensor<1x12x1x1xf32>, tensor<288x12x1x1xf32>) outs(%126 : tensor<1x288x1x1xf32>) -> tensor<1x288x1x1xf32>
    %128 = linalg.generic {indexing_maps = [#map3, #map], iterator_types = ["parallel", "parallel", "parallel", "parallel"]} ins(%127 : tensor<1x288x1x1xf32>) outs(%117 : tensor<1x288x1x1xf32>) {
    ^bb0(%in: f32, %out: f32):
      %1103 = arith.negf %in : f32
      %1104 = math.exp %1103 : f32
      %1105 = arith.addf %1104, %cst_319 : f32
      %1106 = arith.divf %cst_319, %1105 : f32
      linalg.yield %1106 : f32
    } -> tensor<1x288x1x1xf32>
    %129 = linalg.generic {indexing_maps = [#map3, #map2, #map], iterator_types = ["parallel", "parallel", "parallel", "parallel"]} ins(%128, %116 : tensor<1x288x1x1xf32>, tensor<1x288x8x8xf32>) outs(%107 : tensor<1x288x8x8xf32>) {
    ^bb0(%in: f32, %in_430: f32, %out: f32):
      %1103 = arith.mulf %in, %in_430 : f32
      linalg.yield %1103 : f32
    } -> tensor<1x288x8x8xf32>
    %130 = linalg.conv_2d_nchw_fchw {dilations = dense<1> : vector<2xi64>, strides = dense<1> : vector<2xi64>} ins(%129, %cst_273 : tensor<1x288x8x8xf32>, tensor<48x288x1x1xf32>) outs(%104 : tensor<1x48x8x8xf32>) -> tensor<1x48x8x8xf32>
    cf.assert %3, "training is not supported for now"
    %131 = linalg.generic {indexing_maps = [#map, #map1, #map1, #map1, #map1, #map], iterator_types = ["parallel", "parallel", "parallel", "parallel"]} ins(%130, %cst_282, %cst_281, %cst_281, %cst_282 : tensor<1x48x8x8xf32>, tensor<48xf32>, tensor<48xf32>, tensor<48xf32>, tensor<48xf32>) outs(%130 : tensor<1x48x8x8xf32>) {
    ^bb0(%in: f32, %in_430: f32, %in_431: f32, %in_432: f32, %in_433: f32, %out: f32):
      %1103 = arith.truncf %cst_314 : f64 to f32
      %1104 = arith.addf %in_433, %1103 : f32
      %1105 = math.rsqrt %1104 : f32
      %1106 = arith.subf %in, %in_432 : f32
      %1107 = arith.mulf %1106, %1105 : f32
      %1108 = arith.mulf %1107, %in_430 : f32
      %1109 = arith.addf %1108, %in_431 : f32
      linalg.yield %1109 : f32
    } -> tensor<1x48x8x8xf32>
    %132 = linalg.generic {indexing_maps = [#map2, #map2, #map], iterator_types = ["parallel", "parallel", "parallel", "parallel"]} ins(%131, %106 : tensor<1x48x8x8xf32>, tensor<1x48x8x8xf32>) outs(%103 : tensor<1x48x8x8xf32>) {
    ^bb0(%in: f32, %in_430: f32, %out: f32):
      %1103 = arith.addf %in, %in_430 : f32
      linalg.yield %1103 : f32
    } -> tensor<1x48x8x8xf32>
    %133 = linalg.conv_2d_nchw_fchw {dilations = dense<1> : vector<2xi64>, strides = dense<1> : vector<2xi64>} ins(%132, %cst_272 : tensor<1x48x8x8xf32>, tensor<288x48x1x1xf32>) outs(%108 : tensor<1x288x8x8xf32>) -> tensor<1x288x8x8xf32>
    cf.assert %3, "training is not supported for now"
    %134 = linalg.generic {indexing_maps = [#map, #map1, #map1, #map1, #map1, #map], iterator_types = ["parallel", "parallel", "parallel", "parallel"]} ins(%133, %cst_279, %cst_278, %cst_278, %cst_279 : tensor<1x288x8x8xf32>, tensor<288xf32>, tensor<288xf32>, tensor<288xf32>, tensor<288xf32>) outs(%133 : tensor<1x288x8x8xf32>) {
    ^bb0(%in: f32, %in_430: f32, %in_431: f32, %in_432: f32, %in_433: f32, %out: f32):
      %1103 = arith.truncf %cst_314 : f64 to f32
      %1104 = arith.addf %in_433, %1103 : f32
      %1105 = math.rsqrt %1104 : f32
      %1106 = arith.subf %in, %in_432 : f32
      %1107 = arith.mulf %1106, %1105 : f32
      %1108 = arith.mulf %1107, %in_430 : f32
      %1109 = arith.addf %1108, %in_431 : f32
      linalg.yield %1109 : f32
    } -> tensor<1x288x8x8xf32>
    %135 = linalg.generic {indexing_maps = [#map2, #map], iterator_types = ["parallel", "parallel", "parallel", "parallel"]} ins(%134 : tensor<1x288x8x8xf32>) outs(%107 : tensor<1x288x8x8xf32>) {
    ^bb0(%in: f32, %out: f32):
      %1103 = arith.negf %in : f32
      %1104 = math.exp %1103 : f32
      %1105 = arith.addf %1104, %cst_319 : f32
      %1106 = arith.divf %cst_319, %1105 : f32
      linalg.yield %1106 : f32
    } -> tensor<1x288x8x8xf32>
    %136 = linalg.generic {indexing_maps = [#map2, #map2, #map], iterator_types = ["parallel", "parallel", "parallel", "parallel"]} ins(%135, %134 : tensor<1x288x8x8xf32>, tensor<1x288x8x8xf32>) outs(%107 : tensor<1x288x8x8xf32>) {
    ^bb0(%in: f32, %in_430: f32, %out: f32):
      %1103 = arith.mulf %in, %in_430 : f32
      linalg.yield %1103 : f32
    } -> tensor<1x288x8x8xf32>
    %padded_331 = tensor.pad %136 low[0, 0, 1, 1] high[0, 0, 1, 1] {
    ^bb0(%arg1: index, %arg2: index, %arg3: index, %arg4: index):
      tensor.yield %cst_313 : f32
    } : tensor<1x288x8x8xf32> to tensor<1x288x10x10xf32>
    %collapsed_332 = tensor.collapse_shape %cst_271 [[0, 1], [2], [3]] : tensor<288x1x3x3xf32> into tensor<288x3x3xf32>
    %137 = linalg.depthwise_conv_2d_nchw_chw {dilations = dense<1> : vector<2xi64>, strides = dense<1> : vector<2xi64>} ins(%padded_331, %collapsed_332 : tensor<1x288x10x10xf32>, tensor<288x3x3xf32>) outs(%108 : tensor<1x288x8x8xf32>) -> tensor<1x288x8x8xf32>
    cf.assert %3, "training is not supported for now"
    %138 = linalg.generic {indexing_maps = [#map, #map1, #map1, #map1, #map1, #map], iterator_types = ["parallel", "parallel", "parallel", "parallel"]} ins(%137, %cst_279, %cst_278, %cst_278, %cst_279 : tensor<1x288x8x8xf32>, tensor<288xf32>, tensor<288xf32>, tensor<288xf32>, tensor<288xf32>) outs(%137 : tensor<1x288x8x8xf32>) {
    ^bb0(%in: f32, %in_430: f32, %in_431: f32, %in_432: f32, %in_433: f32, %out: f32):
      %1103 = arith.truncf %cst_314 : f64 to f32
      %1104 = arith.addf %in_433, %1103 : f32
      %1105 = math.rsqrt %1104 : f32
      %1106 = arith.subf %in, %in_432 : f32
      %1107 = arith.mulf %1106, %1105 : f32
      %1108 = arith.mulf %1107, %in_430 : f32
      %1109 = arith.addf %1108, %in_431 : f32
      linalg.yield %1109 : f32
    } -> tensor<1x288x8x8xf32>
    %139 = linalg.generic {indexing_maps = [#map2, #map], iterator_types = ["parallel", "parallel", "parallel", "parallel"]} ins(%138 : tensor<1x288x8x8xf32>) outs(%107 : tensor<1x288x8x8xf32>) {
    ^bb0(%in: f32, %out: f32):
      %1103 = arith.negf %in : f32
      %1104 = math.exp %1103 : f32
      %1105 = arith.addf %1104, %cst_319 : f32
      %1106 = arith.divf %cst_319, %1105 : f32
      linalg.yield %1106 : f32
    } -> tensor<1x288x8x8xf32>
    %140 = linalg.generic {indexing_maps = [#map2, #map2, #map], iterator_types = ["parallel", "parallel", "parallel", "parallel"]} ins(%139, %138 : tensor<1x288x8x8xf32>, tensor<1x288x8x8xf32>) outs(%107 : tensor<1x288x8x8xf32>) {
    ^bb0(%in: f32, %in_430: f32, %out: f32):
      %1103 = arith.mulf %in, %in_430 : f32
      linalg.yield %1103 : f32
    } -> tensor<1x288x8x8xf32>
    %141 = linalg.pooling_nchw_sum {dilations = dense<1> : vector<2xi64>, strides = dense<1> : vector<2xi64>} ins(%140, %93 : tensor<1x288x8x8xf32>, tensor<8x8xf32>) outs(%118 : tensor<1x288x1x1xf32>) -> tensor<1x288x1x1xf32>
    %142 = linalg.generic {indexing_maps = [#map, #map], iterator_types = ["parallel", "parallel", "parallel", "parallel"]} ins(%141 : tensor<1x288x1x1xf32>) outs(%117 : tensor<1x288x1x1xf32>) {
    ^bb0(%in: f32, %out: f32):
      %1103 = arith.divf %in, %cst_316 : f32
      linalg.yield %1103 : f32
    } -> tensor<1x288x1x1xf32>
    %143 = linalg.conv_2d_nchw_fchw {dilations = dense<1> : vector<2xi64>, strides = dense<1> : vector<2xi64>} ins(%142, %cst_270 : tensor<1x288x1x1xf32>, tensor<12x288x1x1xf32>) outs(%122 : tensor<1x12x1x1xf32>) -> tensor<1x12x1x1xf32>
    %144 = linalg.generic {indexing_maps = [#map3, #map], iterator_types = ["parallel", "parallel", "parallel", "parallel"]} ins(%143 : tensor<1x12x1x1xf32>) outs(%121 : tensor<1x12x1x1xf32>) {
    ^bb0(%in: f32, %out: f32):
      %1103 = arith.negf %in : f32
      %1104 = math.exp %1103 : f32
      %1105 = arith.addf %1104, %cst_319 : f32
      %1106 = arith.divf %cst_319, %1105 : f32
      linalg.yield %1106 : f32
    } -> tensor<1x12x1x1xf32>
    %145 = linalg.generic {indexing_maps = [#map3, #map3, #map], iterator_types = ["parallel", "parallel", "parallel", "parallel"]} ins(%144, %143 : tensor<1x12x1x1xf32>, tensor<1x12x1x1xf32>) outs(%121 : tensor<1x12x1x1xf32>) {
    ^bb0(%in: f32, %in_430: f32, %out: f32):
      %1103 = arith.mulf %in, %in_430 : f32
      linalg.yield %1103 : f32
    } -> tensor<1x12x1x1xf32>
    %146 = linalg.conv_2d_nchw_fchw {dilations = dense<1> : vector<2xi64>, strides = dense<1> : vector<2xi64>} ins(%145, %cst_269 : tensor<1x12x1x1xf32>, tensor<288x12x1x1xf32>) outs(%126 : tensor<1x288x1x1xf32>) -> tensor<1x288x1x1xf32>
    %147 = linalg.generic {indexing_maps = [#map3, #map], iterator_types = ["parallel", "parallel", "parallel", "parallel"]} ins(%146 : tensor<1x288x1x1xf32>) outs(%117 : tensor<1x288x1x1xf32>) {
    ^bb0(%in: f32, %out: f32):
      %1103 = arith.negf %in : f32
      %1104 = math.exp %1103 : f32
      %1105 = arith.addf %1104, %cst_319 : f32
      %1106 = arith.divf %cst_319, %1105 : f32
      linalg.yield %1106 : f32
    } -> tensor<1x288x1x1xf32>
    %148 = linalg.generic {indexing_maps = [#map3, #map2, #map], iterator_types = ["parallel", "parallel", "parallel", "parallel"]} ins(%147, %140 : tensor<1x288x1x1xf32>, tensor<1x288x8x8xf32>) outs(%107 : tensor<1x288x8x8xf32>) {
    ^bb0(%in: f32, %in_430: f32, %out: f32):
      %1103 = arith.mulf %in, %in_430 : f32
      linalg.yield %1103 : f32
    } -> tensor<1x288x8x8xf32>
    %149 = linalg.conv_2d_nchw_fchw {dilations = dense<1> : vector<2xi64>, strides = dense<1> : vector<2xi64>} ins(%148, %cst_268 : tensor<1x288x8x8xf32>, tensor<48x288x1x1xf32>) outs(%104 : tensor<1x48x8x8xf32>) -> tensor<1x48x8x8xf32>
    cf.assert %3, "training is not supported for now"
    %150 = linalg.generic {indexing_maps = [#map, #map1, #map1, #map1, #map1, #map], iterator_types = ["parallel", "parallel", "parallel", "parallel"]} ins(%149, %cst_282, %cst_281, %cst_281, %cst_282 : tensor<1x48x8x8xf32>, tensor<48xf32>, tensor<48xf32>, tensor<48xf32>, tensor<48xf32>) outs(%149 : tensor<1x48x8x8xf32>) {
    ^bb0(%in: f32, %in_430: f32, %in_431: f32, %in_432: f32, %in_433: f32, %out: f32):
      %1103 = arith.truncf %cst_314 : f64 to f32
      %1104 = arith.addf %in_433, %1103 : f32
      %1105 = math.rsqrt %1104 : f32
      %1106 = arith.subf %in, %in_432 : f32
      %1107 = arith.mulf %1106, %1105 : f32
      %1108 = arith.mulf %1107, %in_430 : f32
      %1109 = arith.addf %1108, %in_431 : f32
      linalg.yield %1109 : f32
    } -> tensor<1x48x8x8xf32>
    %151 = linalg.generic {indexing_maps = [#map2, #map2, #map], iterator_types = ["parallel", "parallel", "parallel", "parallel"]} ins(%150, %132 : tensor<1x48x8x8xf32>, tensor<1x48x8x8xf32>) outs(%103 : tensor<1x48x8x8xf32>) {
    ^bb0(%in: f32, %in_430: f32, %out: f32):
      %1103 = arith.addf %in, %in_430 : f32
      linalg.yield %1103 : f32
    } -> tensor<1x48x8x8xf32>
    %152 = linalg.conv_2d_nchw_fchw {dilations = dense<1> : vector<2xi64>, strides = dense<1> : vector<2xi64>} ins(%151, %cst_267 : tensor<1x48x8x8xf32>, tensor<288x48x1x1xf32>) outs(%108 : tensor<1x288x8x8xf32>) -> tensor<1x288x8x8xf32>
    cf.assert %3, "training is not supported for now"
    %153 = linalg.generic {indexing_maps = [#map, #map1, #map1, #map1, #map1, #map], iterator_types = ["parallel", "parallel", "parallel", "parallel"]} ins(%152, %cst_279, %cst_278, %cst_278, %cst_279 : tensor<1x288x8x8xf32>, tensor<288xf32>, tensor<288xf32>, tensor<288xf32>, tensor<288xf32>) outs(%152 : tensor<1x288x8x8xf32>) {
    ^bb0(%in: f32, %in_430: f32, %in_431: f32, %in_432: f32, %in_433: f32, %out: f32):
      %1103 = arith.truncf %cst_314 : f64 to f32
      %1104 = arith.addf %in_433, %1103 : f32
      %1105 = math.rsqrt %1104 : f32
      %1106 = arith.subf %in, %in_432 : f32
      %1107 = arith.mulf %1106, %1105 : f32
      %1108 = arith.mulf %1107, %in_430 : f32
      %1109 = arith.addf %1108, %in_431 : f32
      linalg.yield %1109 : f32
    } -> tensor<1x288x8x8xf32>
    %154 = linalg.generic {indexing_maps = [#map2, #map], iterator_types = ["parallel", "parallel", "parallel", "parallel"]} ins(%153 : tensor<1x288x8x8xf32>) outs(%107 : tensor<1x288x8x8xf32>) {
    ^bb0(%in: f32, %out: f32):
      %1103 = arith.negf %in : f32
      %1104 = math.exp %1103 : f32
      %1105 = arith.addf %1104, %cst_319 : f32
      %1106 = arith.divf %cst_319, %1105 : f32
      linalg.yield %1106 : f32
    } -> tensor<1x288x8x8xf32>
    %155 = linalg.generic {indexing_maps = [#map2, #map2, #map], iterator_types = ["parallel", "parallel", "parallel", "parallel"]} ins(%154, %153 : tensor<1x288x8x8xf32>, tensor<1x288x8x8xf32>) outs(%107 : tensor<1x288x8x8xf32>) {
    ^bb0(%in: f32, %in_430: f32, %out: f32):
      %1103 = arith.mulf %in, %in_430 : f32
      linalg.yield %1103 : f32
    } -> tensor<1x288x8x8xf32>
    %padded_333 = tensor.pad %155 low[0, 0, 1, 1] high[0, 0, 1, 1] {
    ^bb0(%arg1: index, %arg2: index, %arg3: index, %arg4: index):
      tensor.yield %cst_313 : f32
    } : tensor<1x288x8x8xf32> to tensor<1x288x10x10xf32>
    %collapsed_334 = tensor.collapse_shape %cst_266 [[0, 1], [2], [3]] : tensor<288x1x3x3xf32> into tensor<288x3x3xf32>
    %156 = linalg.depthwise_conv_2d_nchw_chw {dilations = dense<1> : vector<2xi64>, strides = dense<1> : vector<2xi64>} ins(%padded_333, %collapsed_334 : tensor<1x288x10x10xf32>, tensor<288x3x3xf32>) outs(%108 : tensor<1x288x8x8xf32>) -> tensor<1x288x8x8xf32>
    cf.assert %3, "training is not supported for now"
    %157 = linalg.generic {indexing_maps = [#map, #map1, #map1, #map1, #map1, #map], iterator_types = ["parallel", "parallel", "parallel", "parallel"]} ins(%156, %cst_279, %cst_278, %cst_278, %cst_279 : tensor<1x288x8x8xf32>, tensor<288xf32>, tensor<288xf32>, tensor<288xf32>, tensor<288xf32>) outs(%156 : tensor<1x288x8x8xf32>) {
    ^bb0(%in: f32, %in_430: f32, %in_431: f32, %in_432: f32, %in_433: f32, %out: f32):
      %1103 = arith.truncf %cst_314 : f64 to f32
      %1104 = arith.addf %in_433, %1103 : f32
      %1105 = math.rsqrt %1104 : f32
      %1106 = arith.subf %in, %in_432 : f32
      %1107 = arith.mulf %1106, %1105 : f32
      %1108 = arith.mulf %1107, %in_430 : f32
      %1109 = arith.addf %1108, %in_431 : f32
      linalg.yield %1109 : f32
    } -> tensor<1x288x8x8xf32>
    %158 = linalg.generic {indexing_maps = [#map2, #map], iterator_types = ["parallel", "parallel", "parallel", "parallel"]} ins(%157 : tensor<1x288x8x8xf32>) outs(%107 : tensor<1x288x8x8xf32>) {
    ^bb0(%in: f32, %out: f32):
      %1103 = arith.negf %in : f32
      %1104 = math.exp %1103 : f32
      %1105 = arith.addf %1104, %cst_319 : f32
      %1106 = arith.divf %cst_319, %1105 : f32
      linalg.yield %1106 : f32
    } -> tensor<1x288x8x8xf32>
    %159 = linalg.generic {indexing_maps = [#map2, #map2, #map], iterator_types = ["parallel", "parallel", "parallel", "parallel"]} ins(%158, %157 : tensor<1x288x8x8xf32>, tensor<1x288x8x8xf32>) outs(%107 : tensor<1x288x8x8xf32>) {
    ^bb0(%in: f32, %in_430: f32, %out: f32):
      %1103 = arith.mulf %in, %in_430 : f32
      linalg.yield %1103 : f32
    } -> tensor<1x288x8x8xf32>
    %160 = linalg.pooling_nchw_sum {dilations = dense<1> : vector<2xi64>, strides = dense<1> : vector<2xi64>} ins(%159, %93 : tensor<1x288x8x8xf32>, tensor<8x8xf32>) outs(%118 : tensor<1x288x1x1xf32>) -> tensor<1x288x1x1xf32>
    %161 = linalg.generic {indexing_maps = [#map, #map], iterator_types = ["parallel", "parallel", "parallel", "parallel"]} ins(%160 : tensor<1x288x1x1xf32>) outs(%117 : tensor<1x288x1x1xf32>) {
    ^bb0(%in: f32, %out: f32):
      %1103 = arith.divf %in, %cst_316 : f32
      linalg.yield %1103 : f32
    } -> tensor<1x288x1x1xf32>
    %162 = linalg.conv_2d_nchw_fchw {dilations = dense<1> : vector<2xi64>, strides = dense<1> : vector<2xi64>} ins(%161, %cst_265 : tensor<1x288x1x1xf32>, tensor<12x288x1x1xf32>) outs(%122 : tensor<1x12x1x1xf32>) -> tensor<1x12x1x1xf32>
    %163 = linalg.generic {indexing_maps = [#map3, #map], iterator_types = ["parallel", "parallel", "parallel", "parallel"]} ins(%162 : tensor<1x12x1x1xf32>) outs(%121 : tensor<1x12x1x1xf32>) {
    ^bb0(%in: f32, %out: f32):
      %1103 = arith.negf %in : f32
      %1104 = math.exp %1103 : f32
      %1105 = arith.addf %1104, %cst_319 : f32
      %1106 = arith.divf %cst_319, %1105 : f32
      linalg.yield %1106 : f32
    } -> tensor<1x12x1x1xf32>
    %164 = linalg.generic {indexing_maps = [#map3, #map3, #map], iterator_types = ["parallel", "parallel", "parallel", "parallel"]} ins(%163, %162 : tensor<1x12x1x1xf32>, tensor<1x12x1x1xf32>) outs(%121 : tensor<1x12x1x1xf32>) {
    ^bb0(%in: f32, %in_430: f32, %out: f32):
      %1103 = arith.mulf %in, %in_430 : f32
      linalg.yield %1103 : f32
    } -> tensor<1x12x1x1xf32>
    %165 = linalg.conv_2d_nchw_fchw {dilations = dense<1> : vector<2xi64>, strides = dense<1> : vector<2xi64>} ins(%164, %cst_264 : tensor<1x12x1x1xf32>, tensor<288x12x1x1xf32>) outs(%126 : tensor<1x288x1x1xf32>) -> tensor<1x288x1x1xf32>
    %166 = linalg.generic {indexing_maps = [#map3, #map], iterator_types = ["parallel", "parallel", "parallel", "parallel"]} ins(%165 : tensor<1x288x1x1xf32>) outs(%117 : tensor<1x288x1x1xf32>) {
    ^bb0(%in: f32, %out: f32):
      %1103 = arith.negf %in : f32
      %1104 = math.exp %1103 : f32
      %1105 = arith.addf %1104, %cst_319 : f32
      %1106 = arith.divf %cst_319, %1105 : f32
      linalg.yield %1106 : f32
    } -> tensor<1x288x1x1xf32>
    %167 = linalg.generic {indexing_maps = [#map3, #map2, #map], iterator_types = ["parallel", "parallel", "parallel", "parallel"]} ins(%166, %159 : tensor<1x288x1x1xf32>, tensor<1x288x8x8xf32>) outs(%107 : tensor<1x288x8x8xf32>) {
    ^bb0(%in: f32, %in_430: f32, %out: f32):
      %1103 = arith.mulf %in, %in_430 : f32
      linalg.yield %1103 : f32
    } -> tensor<1x288x8x8xf32>
    %168 = linalg.conv_2d_nchw_fchw {dilations = dense<1> : vector<2xi64>, strides = dense<1> : vector<2xi64>} ins(%167, %cst_263 : tensor<1x288x8x8xf32>, tensor<48x288x1x1xf32>) outs(%104 : tensor<1x48x8x8xf32>) -> tensor<1x48x8x8xf32>
    cf.assert %3, "training is not supported for now"
    %169 = linalg.generic {indexing_maps = [#map, #map1, #map1, #map1, #map1, #map], iterator_types = ["parallel", "parallel", "parallel", "parallel"]} ins(%168, %cst_282, %cst_281, %cst_281, %cst_282 : tensor<1x48x8x8xf32>, tensor<48xf32>, tensor<48xf32>, tensor<48xf32>, tensor<48xf32>) outs(%168 : tensor<1x48x8x8xf32>) {
    ^bb0(%in: f32, %in_430: f32, %in_431: f32, %in_432: f32, %in_433: f32, %out: f32):
      %1103 = arith.truncf %cst_314 : f64 to f32
      %1104 = arith.addf %in_433, %1103 : f32
      %1105 = math.rsqrt %1104 : f32
      %1106 = arith.subf %in, %in_432 : f32
      %1107 = arith.mulf %1106, %1105 : f32
      %1108 = arith.mulf %1107, %in_430 : f32
      %1109 = arith.addf %1108, %in_431 : f32
      linalg.yield %1109 : f32
    } -> tensor<1x48x8x8xf32>
    %170 = linalg.generic {indexing_maps = [#map2, #map2, #map], iterator_types = ["parallel", "parallel", "parallel", "parallel"]} ins(%169, %151 : tensor<1x48x8x8xf32>, tensor<1x48x8x8xf32>) outs(%103 : tensor<1x48x8x8xf32>) {
    ^bb0(%in: f32, %in_430: f32, %out: f32):
      %1103 = arith.addf %in, %in_430 : f32
      linalg.yield %1103 : f32
    } -> tensor<1x48x8x8xf32>
    %171 = linalg.conv_2d_nchw_fchw {dilations = dense<1> : vector<2xi64>, strides = dense<1> : vector<2xi64>} ins(%170, %cst_262 : tensor<1x48x8x8xf32>, tensor<288x48x1x1xf32>) outs(%108 : tensor<1x288x8x8xf32>) -> tensor<1x288x8x8xf32>
    cf.assert %3, "training is not supported for now"
    %172 = linalg.generic {indexing_maps = [#map, #map1, #map1, #map1, #map1, #map], iterator_types = ["parallel", "parallel", "parallel", "parallel"]} ins(%171, %cst_279, %cst_278, %cst_278, %cst_279 : tensor<1x288x8x8xf32>, tensor<288xf32>, tensor<288xf32>, tensor<288xf32>, tensor<288xf32>) outs(%171 : tensor<1x288x8x8xf32>) {
    ^bb0(%in: f32, %in_430: f32, %in_431: f32, %in_432: f32, %in_433: f32, %out: f32):
      %1103 = arith.truncf %cst_314 : f64 to f32
      %1104 = arith.addf %in_433, %1103 : f32
      %1105 = math.rsqrt %1104 : f32
      %1106 = arith.subf %in, %in_432 : f32
      %1107 = arith.mulf %1106, %1105 : f32
      %1108 = arith.mulf %1107, %in_430 : f32
      %1109 = arith.addf %1108, %in_431 : f32
      linalg.yield %1109 : f32
    } -> tensor<1x288x8x8xf32>
    %173 = linalg.generic {indexing_maps = [#map2, #map], iterator_types = ["parallel", "parallel", "parallel", "parallel"]} ins(%172 : tensor<1x288x8x8xf32>) outs(%107 : tensor<1x288x8x8xf32>) {
    ^bb0(%in: f32, %out: f32):
      %1103 = arith.negf %in : f32
      %1104 = math.exp %1103 : f32
      %1105 = arith.addf %1104, %cst_319 : f32
      %1106 = arith.divf %cst_319, %1105 : f32
      linalg.yield %1106 : f32
    } -> tensor<1x288x8x8xf32>
    %174 = linalg.generic {indexing_maps = [#map2, #map2, #map], iterator_types = ["parallel", "parallel", "parallel", "parallel"]} ins(%173, %172 : tensor<1x288x8x8xf32>, tensor<1x288x8x8xf32>) outs(%107 : tensor<1x288x8x8xf32>) {
    ^bb0(%in: f32, %in_430: f32, %out: f32):
      %1103 = arith.mulf %in, %in_430 : f32
      linalg.yield %1103 : f32
    } -> tensor<1x288x8x8xf32>
    %padded_335 = tensor.pad %174 low[0, 0, 1, 1] high[0, 0, 1, 1] {
    ^bb0(%arg1: index, %arg2: index, %arg3: index, %arg4: index):
      tensor.yield %cst_313 : f32
    } : tensor<1x288x8x8xf32> to tensor<1x288x10x10xf32>
    %collapsed_336 = tensor.collapse_shape %cst_261 [[0, 1], [2], [3]] : tensor<288x1x3x3xf32> into tensor<288x3x3xf32>
    %175 = linalg.depthwise_conv_2d_nchw_chw {dilations = dense<1> : vector<2xi64>, strides = dense<1> : vector<2xi64>} ins(%padded_335, %collapsed_336 : tensor<1x288x10x10xf32>, tensor<288x3x3xf32>) outs(%108 : tensor<1x288x8x8xf32>) -> tensor<1x288x8x8xf32>
    cf.assert %3, "training is not supported for now"
    %176 = linalg.generic {indexing_maps = [#map, #map1, #map1, #map1, #map1, #map], iterator_types = ["parallel", "parallel", "parallel", "parallel"]} ins(%175, %cst_279, %cst_278, %cst_278, %cst_279 : tensor<1x288x8x8xf32>, tensor<288xf32>, tensor<288xf32>, tensor<288xf32>, tensor<288xf32>) outs(%175 : tensor<1x288x8x8xf32>) {
    ^bb0(%in: f32, %in_430: f32, %in_431: f32, %in_432: f32, %in_433: f32, %out: f32):
      %1103 = arith.truncf %cst_314 : f64 to f32
      %1104 = arith.addf %in_433, %1103 : f32
      %1105 = math.rsqrt %1104 : f32
      %1106 = arith.subf %in, %in_432 : f32
      %1107 = arith.mulf %1106, %1105 : f32
      %1108 = arith.mulf %1107, %in_430 : f32
      %1109 = arith.addf %1108, %in_431 : f32
      linalg.yield %1109 : f32
    } -> tensor<1x288x8x8xf32>
    %177 = linalg.generic {indexing_maps = [#map2, #map], iterator_types = ["parallel", "parallel", "parallel", "parallel"]} ins(%176 : tensor<1x288x8x8xf32>) outs(%107 : tensor<1x288x8x8xf32>) {
    ^bb0(%in: f32, %out: f32):
      %1103 = arith.negf %in : f32
      %1104 = math.exp %1103 : f32
      %1105 = arith.addf %1104, %cst_319 : f32
      %1106 = arith.divf %cst_319, %1105 : f32
      linalg.yield %1106 : f32
    } -> tensor<1x288x8x8xf32>
    %178 = linalg.generic {indexing_maps = [#map2, #map2, #map], iterator_types = ["parallel", "parallel", "parallel", "parallel"]} ins(%177, %176 : tensor<1x288x8x8xf32>, tensor<1x288x8x8xf32>) outs(%107 : tensor<1x288x8x8xf32>) {
    ^bb0(%in: f32, %in_430: f32, %out: f32):
      %1103 = arith.mulf %in, %in_430 : f32
      linalg.yield %1103 : f32
    } -> tensor<1x288x8x8xf32>
    %179 = linalg.pooling_nchw_sum {dilations = dense<1> : vector<2xi64>, strides = dense<1> : vector<2xi64>} ins(%178, %93 : tensor<1x288x8x8xf32>, tensor<8x8xf32>) outs(%118 : tensor<1x288x1x1xf32>) -> tensor<1x288x1x1xf32>
    %180 = linalg.generic {indexing_maps = [#map, #map], iterator_types = ["parallel", "parallel", "parallel", "parallel"]} ins(%179 : tensor<1x288x1x1xf32>) outs(%117 : tensor<1x288x1x1xf32>) {
    ^bb0(%in: f32, %out: f32):
      %1103 = arith.divf %in, %cst_316 : f32
      linalg.yield %1103 : f32
    } -> tensor<1x288x1x1xf32>
    %181 = linalg.conv_2d_nchw_fchw {dilations = dense<1> : vector<2xi64>, strides = dense<1> : vector<2xi64>} ins(%180, %cst_260 : tensor<1x288x1x1xf32>, tensor<12x288x1x1xf32>) outs(%122 : tensor<1x12x1x1xf32>) -> tensor<1x12x1x1xf32>
    %182 = linalg.generic {indexing_maps = [#map3, #map], iterator_types = ["parallel", "parallel", "parallel", "parallel"]} ins(%181 : tensor<1x12x1x1xf32>) outs(%121 : tensor<1x12x1x1xf32>) {
    ^bb0(%in: f32, %out: f32):
      %1103 = arith.negf %in : f32
      %1104 = math.exp %1103 : f32
      %1105 = arith.addf %1104, %cst_319 : f32
      %1106 = arith.divf %cst_319, %1105 : f32
      linalg.yield %1106 : f32
    } -> tensor<1x12x1x1xf32>
    %183 = linalg.generic {indexing_maps = [#map3, #map3, #map], iterator_types = ["parallel", "parallel", "parallel", "parallel"]} ins(%182, %181 : tensor<1x12x1x1xf32>, tensor<1x12x1x1xf32>) outs(%121 : tensor<1x12x1x1xf32>) {
    ^bb0(%in: f32, %in_430: f32, %out: f32):
      %1103 = arith.mulf %in, %in_430 : f32
      linalg.yield %1103 : f32
    } -> tensor<1x12x1x1xf32>
    %184 = linalg.conv_2d_nchw_fchw {dilations = dense<1> : vector<2xi64>, strides = dense<1> : vector<2xi64>} ins(%183, %cst_259 : tensor<1x12x1x1xf32>, tensor<288x12x1x1xf32>) outs(%126 : tensor<1x288x1x1xf32>) -> tensor<1x288x1x1xf32>
    %185 = linalg.generic {indexing_maps = [#map3, #map], iterator_types = ["parallel", "parallel", "parallel", "parallel"]} ins(%184 : tensor<1x288x1x1xf32>) outs(%117 : tensor<1x288x1x1xf32>) {
    ^bb0(%in: f32, %out: f32):
      %1103 = arith.negf %in : f32
      %1104 = math.exp %1103 : f32
      %1105 = arith.addf %1104, %cst_319 : f32
      %1106 = arith.divf %cst_319, %1105 : f32
      linalg.yield %1106 : f32
    } -> tensor<1x288x1x1xf32>
    %186 = linalg.generic {indexing_maps = [#map3, #map2, #map], iterator_types = ["parallel", "parallel", "parallel", "parallel"]} ins(%185, %178 : tensor<1x288x1x1xf32>, tensor<1x288x8x8xf32>) outs(%107 : tensor<1x288x8x8xf32>) {
    ^bb0(%in: f32, %in_430: f32, %out: f32):
      %1103 = arith.mulf %in, %in_430 : f32
      linalg.yield %1103 : f32
    } -> tensor<1x288x8x8xf32>
    %187 = linalg.conv_2d_nchw_fchw {dilations = dense<1> : vector<2xi64>, strides = dense<1> : vector<2xi64>} ins(%186, %cst_258 : tensor<1x288x8x8xf32>, tensor<48x288x1x1xf32>) outs(%104 : tensor<1x48x8x8xf32>) -> tensor<1x48x8x8xf32>
    cf.assert %3, "training is not supported for now"
    %188 = linalg.generic {indexing_maps = [#map, #map1, #map1, #map1, #map1, #map], iterator_types = ["parallel", "parallel", "parallel", "parallel"]} ins(%187, %cst_282, %cst_281, %cst_281, %cst_282 : tensor<1x48x8x8xf32>, tensor<48xf32>, tensor<48xf32>, tensor<48xf32>, tensor<48xf32>) outs(%187 : tensor<1x48x8x8xf32>) {
    ^bb0(%in: f32, %in_430: f32, %in_431: f32, %in_432: f32, %in_433: f32, %out: f32):
      %1103 = arith.truncf %cst_314 : f64 to f32
      %1104 = arith.addf %in_433, %1103 : f32
      %1105 = math.rsqrt %1104 : f32
      %1106 = arith.subf %in, %in_432 : f32
      %1107 = arith.mulf %1106, %1105 : f32
      %1108 = arith.mulf %1107, %in_430 : f32
      %1109 = arith.addf %1108, %in_431 : f32
      linalg.yield %1109 : f32
    } -> tensor<1x48x8x8xf32>
    %189 = linalg.generic {indexing_maps = [#map2, #map2, #map], iterator_types = ["parallel", "parallel", "parallel", "parallel"]} ins(%188, %170 : tensor<1x48x8x8xf32>, tensor<1x48x8x8xf32>) outs(%103 : tensor<1x48x8x8xf32>) {
    ^bb0(%in: f32, %in_430: f32, %out: f32):
      %1103 = arith.addf %in, %in_430 : f32
      linalg.yield %1103 : f32
    } -> tensor<1x48x8x8xf32>
    %190 = linalg.conv_2d_nchw_fchw {dilations = dense<1> : vector<2xi64>, strides = dense<1> : vector<2xi64>} ins(%189, %cst_257 : tensor<1x48x8x8xf32>, tensor<288x48x1x1xf32>) outs(%108 : tensor<1x288x8x8xf32>) -> tensor<1x288x8x8xf32>
    cf.assert %3, "training is not supported for now"
    %191 = linalg.generic {indexing_maps = [#map, #map1, #map1, #map1, #map1, #map], iterator_types = ["parallel", "parallel", "parallel", "parallel"]} ins(%190, %cst_279, %cst_278, %cst_278, %cst_279 : tensor<1x288x8x8xf32>, tensor<288xf32>, tensor<288xf32>, tensor<288xf32>, tensor<288xf32>) outs(%190 : tensor<1x288x8x8xf32>) {
    ^bb0(%in: f32, %in_430: f32, %in_431: f32, %in_432: f32, %in_433: f32, %out: f32):
      %1103 = arith.truncf %cst_314 : f64 to f32
      %1104 = arith.addf %in_433, %1103 : f32
      %1105 = math.rsqrt %1104 : f32
      %1106 = arith.subf %in, %in_432 : f32
      %1107 = arith.mulf %1106, %1105 : f32
      %1108 = arith.mulf %1107, %in_430 : f32
      %1109 = arith.addf %1108, %in_431 : f32
      linalg.yield %1109 : f32
    } -> tensor<1x288x8x8xf32>
    %192 = linalg.generic {indexing_maps = [#map2, #map], iterator_types = ["parallel", "parallel", "parallel", "parallel"]} ins(%191 : tensor<1x288x8x8xf32>) outs(%107 : tensor<1x288x8x8xf32>) {
    ^bb0(%in: f32, %out: f32):
      %1103 = arith.negf %in : f32
      %1104 = math.exp %1103 : f32
      %1105 = arith.addf %1104, %cst_319 : f32
      %1106 = arith.divf %cst_319, %1105 : f32
      linalg.yield %1106 : f32
    } -> tensor<1x288x8x8xf32>
    %193 = linalg.generic {indexing_maps = [#map2, #map2, #map], iterator_types = ["parallel", "parallel", "parallel", "parallel"]} ins(%192, %191 : tensor<1x288x8x8xf32>, tensor<1x288x8x8xf32>) outs(%107 : tensor<1x288x8x8xf32>) {
    ^bb0(%in: f32, %in_430: f32, %out: f32):
      %1103 = arith.mulf %in, %in_430 : f32
      linalg.yield %1103 : f32
    } -> tensor<1x288x8x8xf32>
    %padded_337 = tensor.pad %193 low[0, 0, 1, 1] high[0, 0, 1, 1] {
    ^bb0(%arg1: index, %arg2: index, %arg3: index, %arg4: index):
      tensor.yield %cst_313 : f32
    } : tensor<1x288x8x8xf32> to tensor<1x288x10x10xf32>
    %collapsed_338 = tensor.collapse_shape %cst_256 [[0, 1], [2], [3]] : tensor<288x1x3x3xf32> into tensor<288x3x3xf32>
    %194 = linalg.depthwise_conv_2d_nchw_chw {dilations = dense<1> : vector<2xi64>, strides = dense<1> : vector<2xi64>} ins(%padded_337, %collapsed_338 : tensor<1x288x10x10xf32>, tensor<288x3x3xf32>) outs(%108 : tensor<1x288x8x8xf32>) -> tensor<1x288x8x8xf32>
    cf.assert %3, "training is not supported for now"
    %195 = linalg.generic {indexing_maps = [#map, #map1, #map1, #map1, #map1, #map], iterator_types = ["parallel", "parallel", "parallel", "parallel"]} ins(%194, %cst_279, %cst_278, %cst_278, %cst_279 : tensor<1x288x8x8xf32>, tensor<288xf32>, tensor<288xf32>, tensor<288xf32>, tensor<288xf32>) outs(%194 : tensor<1x288x8x8xf32>) {
    ^bb0(%in: f32, %in_430: f32, %in_431: f32, %in_432: f32, %in_433: f32, %out: f32):
      %1103 = arith.truncf %cst_314 : f64 to f32
      %1104 = arith.addf %in_433, %1103 : f32
      %1105 = math.rsqrt %1104 : f32
      %1106 = arith.subf %in, %in_432 : f32
      %1107 = arith.mulf %1106, %1105 : f32
      %1108 = arith.mulf %1107, %in_430 : f32
      %1109 = arith.addf %1108, %in_431 : f32
      linalg.yield %1109 : f32
    } -> tensor<1x288x8x8xf32>
    %196 = linalg.generic {indexing_maps = [#map2, #map], iterator_types = ["parallel", "parallel", "parallel", "parallel"]} ins(%195 : tensor<1x288x8x8xf32>) outs(%107 : tensor<1x288x8x8xf32>) {
    ^bb0(%in: f32, %out: f32):
      %1103 = arith.negf %in : f32
      %1104 = math.exp %1103 : f32
      %1105 = arith.addf %1104, %cst_319 : f32
      %1106 = arith.divf %cst_319, %1105 : f32
      linalg.yield %1106 : f32
    } -> tensor<1x288x8x8xf32>
    %197 = linalg.generic {indexing_maps = [#map2, #map2, #map], iterator_types = ["parallel", "parallel", "parallel", "parallel"]} ins(%196, %195 : tensor<1x288x8x8xf32>, tensor<1x288x8x8xf32>) outs(%107 : tensor<1x288x8x8xf32>) {
    ^bb0(%in: f32, %in_430: f32, %out: f32):
      %1103 = arith.mulf %in, %in_430 : f32
      linalg.yield %1103 : f32
    } -> tensor<1x288x8x8xf32>
    %198 = linalg.pooling_nchw_sum {dilations = dense<1> : vector<2xi64>, strides = dense<1> : vector<2xi64>} ins(%197, %93 : tensor<1x288x8x8xf32>, tensor<8x8xf32>) outs(%118 : tensor<1x288x1x1xf32>) -> tensor<1x288x1x1xf32>
    %199 = linalg.generic {indexing_maps = [#map, #map], iterator_types = ["parallel", "parallel", "parallel", "parallel"]} ins(%198 : tensor<1x288x1x1xf32>) outs(%117 : tensor<1x288x1x1xf32>) {
    ^bb0(%in: f32, %out: f32):
      %1103 = arith.divf %in, %cst_316 : f32
      linalg.yield %1103 : f32
    } -> tensor<1x288x1x1xf32>
    %200 = linalg.conv_2d_nchw_fchw {dilations = dense<1> : vector<2xi64>, strides = dense<1> : vector<2xi64>} ins(%199, %cst_255 : tensor<1x288x1x1xf32>, tensor<12x288x1x1xf32>) outs(%122 : tensor<1x12x1x1xf32>) -> tensor<1x12x1x1xf32>
    %201 = linalg.generic {indexing_maps = [#map3, #map], iterator_types = ["parallel", "parallel", "parallel", "parallel"]} ins(%200 : tensor<1x12x1x1xf32>) outs(%121 : tensor<1x12x1x1xf32>) {
    ^bb0(%in: f32, %out: f32):
      %1103 = arith.negf %in : f32
      %1104 = math.exp %1103 : f32
      %1105 = arith.addf %1104, %cst_319 : f32
      %1106 = arith.divf %cst_319, %1105 : f32
      linalg.yield %1106 : f32
    } -> tensor<1x12x1x1xf32>
    %202 = linalg.generic {indexing_maps = [#map3, #map3, #map], iterator_types = ["parallel", "parallel", "parallel", "parallel"]} ins(%201, %200 : tensor<1x12x1x1xf32>, tensor<1x12x1x1xf32>) outs(%121 : tensor<1x12x1x1xf32>) {
    ^bb0(%in: f32, %in_430: f32, %out: f32):
      %1103 = arith.mulf %in, %in_430 : f32
      linalg.yield %1103 : f32
    } -> tensor<1x12x1x1xf32>
    %203 = linalg.conv_2d_nchw_fchw {dilations = dense<1> : vector<2xi64>, strides = dense<1> : vector<2xi64>} ins(%202, %cst_254 : tensor<1x12x1x1xf32>, tensor<288x12x1x1xf32>) outs(%126 : tensor<1x288x1x1xf32>) -> tensor<1x288x1x1xf32>
    %204 = linalg.generic {indexing_maps = [#map3, #map], iterator_types = ["parallel", "parallel", "parallel", "parallel"]} ins(%203 : tensor<1x288x1x1xf32>) outs(%117 : tensor<1x288x1x1xf32>) {
    ^bb0(%in: f32, %out: f32):
      %1103 = arith.negf %in : f32
      %1104 = math.exp %1103 : f32
      %1105 = arith.addf %1104, %cst_319 : f32
      %1106 = arith.divf %cst_319, %1105 : f32
      linalg.yield %1106 : f32
    } -> tensor<1x288x1x1xf32>
    %205 = linalg.generic {indexing_maps = [#map3, #map2, #map], iterator_types = ["parallel", "parallel", "parallel", "parallel"]} ins(%204, %197 : tensor<1x288x1x1xf32>, tensor<1x288x8x8xf32>) outs(%107 : tensor<1x288x8x8xf32>) {
    ^bb0(%in: f32, %in_430: f32, %out: f32):
      %1103 = arith.mulf %in, %in_430 : f32
      linalg.yield %1103 : f32
    } -> tensor<1x288x8x8xf32>
    %206 = linalg.conv_2d_nchw_fchw {dilations = dense<1> : vector<2xi64>, strides = dense<1> : vector<2xi64>} ins(%205, %cst_253 : tensor<1x288x8x8xf32>, tensor<48x288x1x1xf32>) outs(%104 : tensor<1x48x8x8xf32>) -> tensor<1x48x8x8xf32>
    cf.assert %3, "training is not supported for now"
    %207 = linalg.generic {indexing_maps = [#map, #map1, #map1, #map1, #map1, #map], iterator_types = ["parallel", "parallel", "parallel", "parallel"]} ins(%206, %cst_282, %cst_281, %cst_281, %cst_282 : tensor<1x48x8x8xf32>, tensor<48xf32>, tensor<48xf32>, tensor<48xf32>, tensor<48xf32>) outs(%206 : tensor<1x48x8x8xf32>) {
    ^bb0(%in: f32, %in_430: f32, %in_431: f32, %in_432: f32, %in_433: f32, %out: f32):
      %1103 = arith.truncf %cst_314 : f64 to f32
      %1104 = arith.addf %in_433, %1103 : f32
      %1105 = math.rsqrt %1104 : f32
      %1106 = arith.subf %in, %in_432 : f32
      %1107 = arith.mulf %1106, %1105 : f32
      %1108 = arith.mulf %1107, %in_430 : f32
      %1109 = arith.addf %1108, %in_431 : f32
      linalg.yield %1109 : f32
    } -> tensor<1x48x8x8xf32>
    %208 = linalg.generic {indexing_maps = [#map2, #map2, #map], iterator_types = ["parallel", "parallel", "parallel", "parallel"]} ins(%207, %189 : tensor<1x48x8x8xf32>, tensor<1x48x8x8xf32>) outs(%103 : tensor<1x48x8x8xf32>) {
    ^bb0(%in: f32, %in_430: f32, %out: f32):
      %1103 = arith.addf %in, %in_430 : f32
      linalg.yield %1103 : f32
    } -> tensor<1x48x8x8xf32>
    %209 = linalg.conv_2d_nchw_fchw {dilations = dense<1> : vector<2xi64>, strides = dense<1> : vector<2xi64>} ins(%208, %cst_252 : tensor<1x48x8x8xf32>, tensor<288x48x1x1xf32>) outs(%108 : tensor<1x288x8x8xf32>) -> tensor<1x288x8x8xf32>
    cf.assert %3, "training is not supported for now"
    %210 = linalg.generic {indexing_maps = [#map, #map1, #map1, #map1, #map1, #map], iterator_types = ["parallel", "parallel", "parallel", "parallel"]} ins(%209, %cst_279, %cst_278, %cst_278, %cst_279 : tensor<1x288x8x8xf32>, tensor<288xf32>, tensor<288xf32>, tensor<288xf32>, tensor<288xf32>) outs(%209 : tensor<1x288x8x8xf32>) {
    ^bb0(%in: f32, %in_430: f32, %in_431: f32, %in_432: f32, %in_433: f32, %out: f32):
      %1103 = arith.truncf %cst_314 : f64 to f32
      %1104 = arith.addf %in_433, %1103 : f32
      %1105 = math.rsqrt %1104 : f32
      %1106 = arith.subf %in, %in_432 : f32
      %1107 = arith.mulf %1106, %1105 : f32
      %1108 = arith.mulf %1107, %in_430 : f32
      %1109 = arith.addf %1108, %in_431 : f32
      linalg.yield %1109 : f32
    } -> tensor<1x288x8x8xf32>
    %211 = linalg.generic {indexing_maps = [#map2, #map], iterator_types = ["parallel", "parallel", "parallel", "parallel"]} ins(%210 : tensor<1x288x8x8xf32>) outs(%107 : tensor<1x288x8x8xf32>) {
    ^bb0(%in: f32, %out: f32):
      %1103 = arith.negf %in : f32
      %1104 = math.exp %1103 : f32
      %1105 = arith.addf %1104, %cst_319 : f32
      %1106 = arith.divf %cst_319, %1105 : f32
      linalg.yield %1106 : f32
    } -> tensor<1x288x8x8xf32>
    %212 = linalg.generic {indexing_maps = [#map2, #map2, #map], iterator_types = ["parallel", "parallel", "parallel", "parallel"]} ins(%211, %210 : tensor<1x288x8x8xf32>, tensor<1x288x8x8xf32>) outs(%107 : tensor<1x288x8x8xf32>) {
    ^bb0(%in: f32, %in_430: f32, %out: f32):
      %1103 = arith.mulf %in, %in_430 : f32
      linalg.yield %1103 : f32
    } -> tensor<1x288x8x8xf32>
    %padded_339 = tensor.pad %212 low[0, 0, 1, 1] high[0, 0, 1, 1] {
    ^bb0(%arg1: index, %arg2: index, %arg3: index, %arg4: index):
      tensor.yield %cst_313 : f32
    } : tensor<1x288x8x8xf32> to tensor<1x288x10x10xf32>
    %collapsed_340 = tensor.collapse_shape %cst_251 [[0, 1], [2], [3]] : tensor<288x1x3x3xf32> into tensor<288x3x3xf32>
    %213 = linalg.depthwise_conv_2d_nchw_chw {dilations = dense<1> : vector<2xi64>, strides = dense<1> : vector<2xi64>} ins(%padded_339, %collapsed_340 : tensor<1x288x10x10xf32>, tensor<288x3x3xf32>) outs(%108 : tensor<1x288x8x8xf32>) -> tensor<1x288x8x8xf32>
    cf.assert %3, "training is not supported for now"
    %214 = linalg.generic {indexing_maps = [#map, #map1, #map1, #map1, #map1, #map], iterator_types = ["parallel", "parallel", "parallel", "parallel"]} ins(%213, %cst_279, %cst_278, %cst_278, %cst_279 : tensor<1x288x8x8xf32>, tensor<288xf32>, tensor<288xf32>, tensor<288xf32>, tensor<288xf32>) outs(%213 : tensor<1x288x8x8xf32>) {
    ^bb0(%in: f32, %in_430: f32, %in_431: f32, %in_432: f32, %in_433: f32, %out: f32):
      %1103 = arith.truncf %cst_314 : f64 to f32
      %1104 = arith.addf %in_433, %1103 : f32
      %1105 = math.rsqrt %1104 : f32
      %1106 = arith.subf %in, %in_432 : f32
      %1107 = arith.mulf %1106, %1105 : f32
      %1108 = arith.mulf %1107, %in_430 : f32
      %1109 = arith.addf %1108, %in_431 : f32
      linalg.yield %1109 : f32
    } -> tensor<1x288x8x8xf32>
    %215 = linalg.generic {indexing_maps = [#map2, #map], iterator_types = ["parallel", "parallel", "parallel", "parallel"]} ins(%214 : tensor<1x288x8x8xf32>) outs(%107 : tensor<1x288x8x8xf32>) {
    ^bb0(%in: f32, %out: f32):
      %1103 = arith.negf %in : f32
      %1104 = math.exp %1103 : f32
      %1105 = arith.addf %1104, %cst_319 : f32
      %1106 = arith.divf %cst_319, %1105 : f32
      linalg.yield %1106 : f32
    } -> tensor<1x288x8x8xf32>
    %216 = linalg.generic {indexing_maps = [#map2, #map2, #map], iterator_types = ["parallel", "parallel", "parallel", "parallel"]} ins(%215, %214 : tensor<1x288x8x8xf32>, tensor<1x288x8x8xf32>) outs(%107 : tensor<1x288x8x8xf32>) {
    ^bb0(%in: f32, %in_430: f32, %out: f32):
      %1103 = arith.mulf %in, %in_430 : f32
      linalg.yield %1103 : f32
    } -> tensor<1x288x8x8xf32>
    %217 = linalg.pooling_nchw_sum {dilations = dense<1> : vector<2xi64>, strides = dense<1> : vector<2xi64>} ins(%216, %93 : tensor<1x288x8x8xf32>, tensor<8x8xf32>) outs(%118 : tensor<1x288x1x1xf32>) -> tensor<1x288x1x1xf32>
    %218 = linalg.generic {indexing_maps = [#map, #map], iterator_types = ["parallel", "parallel", "parallel", "parallel"]} ins(%217 : tensor<1x288x1x1xf32>) outs(%117 : tensor<1x288x1x1xf32>) {
    ^bb0(%in: f32, %out: f32):
      %1103 = arith.divf %in, %cst_316 : f32
      linalg.yield %1103 : f32
    } -> tensor<1x288x1x1xf32>
    %219 = linalg.conv_2d_nchw_fchw {dilations = dense<1> : vector<2xi64>, strides = dense<1> : vector<2xi64>} ins(%218, %cst_250 : tensor<1x288x1x1xf32>, tensor<12x288x1x1xf32>) outs(%122 : tensor<1x12x1x1xf32>) -> tensor<1x12x1x1xf32>
    %220 = linalg.generic {indexing_maps = [#map3, #map], iterator_types = ["parallel", "parallel", "parallel", "parallel"]} ins(%219 : tensor<1x12x1x1xf32>) outs(%121 : tensor<1x12x1x1xf32>) {
    ^bb0(%in: f32, %out: f32):
      %1103 = arith.negf %in : f32
      %1104 = math.exp %1103 : f32
      %1105 = arith.addf %1104, %cst_319 : f32
      %1106 = arith.divf %cst_319, %1105 : f32
      linalg.yield %1106 : f32
    } -> tensor<1x12x1x1xf32>
    %221 = linalg.generic {indexing_maps = [#map3, #map3, #map], iterator_types = ["parallel", "parallel", "parallel", "parallel"]} ins(%220, %219 : tensor<1x12x1x1xf32>, tensor<1x12x1x1xf32>) outs(%121 : tensor<1x12x1x1xf32>) {
    ^bb0(%in: f32, %in_430: f32, %out: f32):
      %1103 = arith.mulf %in, %in_430 : f32
      linalg.yield %1103 : f32
    } -> tensor<1x12x1x1xf32>
    %222 = linalg.conv_2d_nchw_fchw {dilations = dense<1> : vector<2xi64>, strides = dense<1> : vector<2xi64>} ins(%221, %cst_249 : tensor<1x12x1x1xf32>, tensor<288x12x1x1xf32>) outs(%126 : tensor<1x288x1x1xf32>) -> tensor<1x288x1x1xf32>
    %223 = linalg.generic {indexing_maps = [#map3, #map], iterator_types = ["parallel", "parallel", "parallel", "parallel"]} ins(%222 : tensor<1x288x1x1xf32>) outs(%117 : tensor<1x288x1x1xf32>) {
    ^bb0(%in: f32, %out: f32):
      %1103 = arith.negf %in : f32
      %1104 = math.exp %1103 : f32
      %1105 = arith.addf %1104, %cst_319 : f32
      %1106 = arith.divf %cst_319, %1105 : f32
      linalg.yield %1106 : f32
    } -> tensor<1x288x1x1xf32>
    %224 = linalg.generic {indexing_maps = [#map3, #map2, #map], iterator_types = ["parallel", "parallel", "parallel", "parallel"]} ins(%223, %216 : tensor<1x288x1x1xf32>, tensor<1x288x8x8xf32>) outs(%107 : tensor<1x288x8x8xf32>) {
    ^bb0(%in: f32, %in_430: f32, %out: f32):
      %1103 = arith.mulf %in, %in_430 : f32
      linalg.yield %1103 : f32
    } -> tensor<1x288x8x8xf32>
    %225 = linalg.conv_2d_nchw_fchw {dilations = dense<1> : vector<2xi64>, strides = dense<1> : vector<2xi64>} ins(%224, %cst_248 : tensor<1x288x8x8xf32>, tensor<48x288x1x1xf32>) outs(%104 : tensor<1x48x8x8xf32>) -> tensor<1x48x8x8xf32>
    cf.assert %3, "training is not supported for now"
    %226 = linalg.generic {indexing_maps = [#map, #map1, #map1, #map1, #map1, #map], iterator_types = ["parallel", "parallel", "parallel", "parallel"]} ins(%225, %cst_282, %cst_281, %cst_281, %cst_282 : tensor<1x48x8x8xf32>, tensor<48xf32>, tensor<48xf32>, tensor<48xf32>, tensor<48xf32>) outs(%225 : tensor<1x48x8x8xf32>) {
    ^bb0(%in: f32, %in_430: f32, %in_431: f32, %in_432: f32, %in_433: f32, %out: f32):
      %1103 = arith.truncf %cst_314 : f64 to f32
      %1104 = arith.addf %in_433, %1103 : f32
      %1105 = math.rsqrt %1104 : f32
      %1106 = arith.subf %in, %in_432 : f32
      %1107 = arith.mulf %1106, %1105 : f32
      %1108 = arith.mulf %1107, %in_430 : f32
      %1109 = arith.addf %1108, %in_431 : f32
      linalg.yield %1109 : f32
    } -> tensor<1x48x8x8xf32>
    %227 = linalg.generic {indexing_maps = [#map2, #map2, #map], iterator_types = ["parallel", "parallel", "parallel", "parallel"]} ins(%226, %208 : tensor<1x48x8x8xf32>, tensor<1x48x8x8xf32>) outs(%103 : tensor<1x48x8x8xf32>) {
    ^bb0(%in: f32, %in_430: f32, %out: f32):
      %1103 = arith.addf %in, %in_430 : f32
      linalg.yield %1103 : f32
    } -> tensor<1x48x8x8xf32>
    %228 = linalg.conv_2d_nchw_fchw {dilations = dense<1> : vector<2xi64>, strides = dense<1> : vector<2xi64>} ins(%227, %cst_247 : tensor<1x48x8x8xf32>, tensor<288x48x1x1xf32>) outs(%108 : tensor<1x288x8x8xf32>) -> tensor<1x288x8x8xf32>
    cf.assert %3, "training is not supported for now"
    %229 = linalg.generic {indexing_maps = [#map, #map1, #map1, #map1, #map1, #map], iterator_types = ["parallel", "parallel", "parallel", "parallel"]} ins(%228, %cst_279, %cst_278, %cst_278, %cst_279 : tensor<1x288x8x8xf32>, tensor<288xf32>, tensor<288xf32>, tensor<288xf32>, tensor<288xf32>) outs(%228 : tensor<1x288x8x8xf32>) {
    ^bb0(%in: f32, %in_430: f32, %in_431: f32, %in_432: f32, %in_433: f32, %out: f32):
      %1103 = arith.truncf %cst_314 : f64 to f32
      %1104 = arith.addf %in_433, %1103 : f32
      %1105 = math.rsqrt %1104 : f32
      %1106 = arith.subf %in, %in_432 : f32
      %1107 = arith.mulf %1106, %1105 : f32
      %1108 = arith.mulf %1107, %in_430 : f32
      %1109 = arith.addf %1108, %in_431 : f32
      linalg.yield %1109 : f32
    } -> tensor<1x288x8x8xf32>
    %230 = linalg.generic {indexing_maps = [#map2, #map], iterator_types = ["parallel", "parallel", "parallel", "parallel"]} ins(%229 : tensor<1x288x8x8xf32>) outs(%107 : tensor<1x288x8x8xf32>) {
    ^bb0(%in: f32, %out: f32):
      %1103 = arith.negf %in : f32
      %1104 = math.exp %1103 : f32
      %1105 = arith.addf %1104, %cst_319 : f32
      %1106 = arith.divf %cst_319, %1105 : f32
      linalg.yield %1106 : f32
    } -> tensor<1x288x8x8xf32>
    %231 = linalg.generic {indexing_maps = [#map2, #map2, #map], iterator_types = ["parallel", "parallel", "parallel", "parallel"]} ins(%230, %229 : tensor<1x288x8x8xf32>, tensor<1x288x8x8xf32>) outs(%107 : tensor<1x288x8x8xf32>) {
    ^bb0(%in: f32, %in_430: f32, %out: f32):
      %1103 = arith.mulf %in, %in_430 : f32
      linalg.yield %1103 : f32
    } -> tensor<1x288x8x8xf32>
    %padded_341 = tensor.pad %231 low[0, 0, 2, 2] high[0, 0, 2, 2] {
    ^bb0(%arg1: index, %arg2: index, %arg3: index, %arg4: index):
      tensor.yield %cst_313 : f32
    } : tensor<1x288x8x8xf32> to tensor<1x288x12x12xf32>
    %232 = tensor.empty() : tensor<1x288x4x4xf32>
    %233 = linalg.fill ins(%cst_313 : f32) outs(%232 : tensor<1x288x4x4xf32>) -> tensor<1x288x4x4xf32>
    %collapsed_342 = tensor.collapse_shape %cst_246 [[0, 1], [2], [3]] : tensor<288x1x5x5xf32> into tensor<288x5x5xf32>
    %234 = linalg.depthwise_conv_2d_nchw_chw {dilations = dense<1> : vector<2xi64>, strides = dense<2> : vector<2xi64>} ins(%padded_341, %collapsed_342 : tensor<1x288x12x12xf32>, tensor<288x5x5xf32>) outs(%233 : tensor<1x288x4x4xf32>) -> tensor<1x288x4x4xf32>
    cf.assert %3, "training is not supported for now"
    %235 = linalg.generic {indexing_maps = [#map, #map1, #map1, #map1, #map1, #map], iterator_types = ["parallel", "parallel", "parallel", "parallel"]} ins(%234, %cst_279, %cst_278, %cst_278, %cst_279 : tensor<1x288x4x4xf32>, tensor<288xf32>, tensor<288xf32>, tensor<288xf32>, tensor<288xf32>) outs(%234 : tensor<1x288x4x4xf32>) {
    ^bb0(%in: f32, %in_430: f32, %in_431: f32, %in_432: f32, %in_433: f32, %out: f32):
      %1103 = arith.truncf %cst_314 : f64 to f32
      %1104 = arith.addf %in_433, %1103 : f32
      %1105 = math.rsqrt %1104 : f32
      %1106 = arith.subf %in, %in_432 : f32
      %1107 = arith.mulf %1106, %1105 : f32
      %1108 = arith.mulf %1107, %in_430 : f32
      %1109 = arith.addf %1108, %in_431 : f32
      linalg.yield %1109 : f32
    } -> tensor<1x288x4x4xf32>
    %236 = linalg.generic {indexing_maps = [#map2, #map], iterator_types = ["parallel", "parallel", "parallel", "parallel"]} ins(%235 : tensor<1x288x4x4xf32>) outs(%232 : tensor<1x288x4x4xf32>) {
    ^bb0(%in: f32, %out: f32):
      %1103 = arith.negf %in : f32
      %1104 = math.exp %1103 : f32
      %1105 = arith.addf %1104, %cst_319 : f32
      %1106 = arith.divf %cst_319, %1105 : f32
      linalg.yield %1106 : f32
    } -> tensor<1x288x4x4xf32>
    %237 = linalg.generic {indexing_maps = [#map2, #map2, #map], iterator_types = ["parallel", "parallel", "parallel", "parallel"]} ins(%236, %235 : tensor<1x288x4x4xf32>, tensor<1x288x4x4xf32>) outs(%232 : tensor<1x288x4x4xf32>) {
    ^bb0(%in: f32, %in_430: f32, %out: f32):
      %1103 = arith.mulf %in, %in_430 : f32
      linalg.yield %1103 : f32
    } -> tensor<1x288x4x4xf32>
    %238 = tensor.empty() : tensor<4x4xf32>
    %239 = linalg.pooling_nchw_sum {dilations = dense<1> : vector<2xi64>, strides = dense<1> : vector<2xi64>} ins(%237, %238 : tensor<1x288x4x4xf32>, tensor<4x4xf32>) outs(%118 : tensor<1x288x1x1xf32>) -> tensor<1x288x1x1xf32>
    %240 = linalg.generic {indexing_maps = [#map, #map], iterator_types = ["parallel", "parallel", "parallel", "parallel"]} ins(%239 : tensor<1x288x1x1xf32>) outs(%117 : tensor<1x288x1x1xf32>) {
    ^bb0(%in: f32, %out: f32):
      %1103 = arith.divf %in, %cst_317 : f32
      linalg.yield %1103 : f32
    } -> tensor<1x288x1x1xf32>
    %241 = linalg.conv_2d_nchw_fchw {dilations = dense<1> : vector<2xi64>, strides = dense<1> : vector<2xi64>} ins(%240, %cst_245 : tensor<1x288x1x1xf32>, tensor<12x288x1x1xf32>) outs(%122 : tensor<1x12x1x1xf32>) -> tensor<1x12x1x1xf32>
    %242 = linalg.generic {indexing_maps = [#map3, #map], iterator_types = ["parallel", "parallel", "parallel", "parallel"]} ins(%241 : tensor<1x12x1x1xf32>) outs(%121 : tensor<1x12x1x1xf32>) {
    ^bb0(%in: f32, %out: f32):
      %1103 = arith.negf %in : f32
      %1104 = math.exp %1103 : f32
      %1105 = arith.addf %1104, %cst_319 : f32
      %1106 = arith.divf %cst_319, %1105 : f32
      linalg.yield %1106 : f32
    } -> tensor<1x12x1x1xf32>
    %243 = linalg.generic {indexing_maps = [#map3, #map3, #map], iterator_types = ["parallel", "parallel", "parallel", "parallel"]} ins(%242, %241 : tensor<1x12x1x1xf32>, tensor<1x12x1x1xf32>) outs(%121 : tensor<1x12x1x1xf32>) {
    ^bb0(%in: f32, %in_430: f32, %out: f32):
      %1103 = arith.mulf %in, %in_430 : f32
      linalg.yield %1103 : f32
    } -> tensor<1x12x1x1xf32>
    %244 = linalg.conv_2d_nchw_fchw {dilations = dense<1> : vector<2xi64>, strides = dense<1> : vector<2xi64>} ins(%243, %cst_244 : tensor<1x12x1x1xf32>, tensor<288x12x1x1xf32>) outs(%126 : tensor<1x288x1x1xf32>) -> tensor<1x288x1x1xf32>
    %245 = linalg.generic {indexing_maps = [#map3, #map], iterator_types = ["parallel", "parallel", "parallel", "parallel"]} ins(%244 : tensor<1x288x1x1xf32>) outs(%117 : tensor<1x288x1x1xf32>) {
    ^bb0(%in: f32, %out: f32):
      %1103 = arith.negf %in : f32
      %1104 = math.exp %1103 : f32
      %1105 = arith.addf %1104, %cst_319 : f32
      %1106 = arith.divf %cst_319, %1105 : f32
      linalg.yield %1106 : f32
    } -> tensor<1x288x1x1xf32>
    %246 = linalg.generic {indexing_maps = [#map3, #map2, #map], iterator_types = ["parallel", "parallel", "parallel", "parallel"]} ins(%245, %237 : tensor<1x288x1x1xf32>, tensor<1x288x4x4xf32>) outs(%232 : tensor<1x288x4x4xf32>) {
    ^bb0(%in: f32, %in_430: f32, %out: f32):
      %1103 = arith.mulf %in, %in_430 : f32
      linalg.yield %1103 : f32
    } -> tensor<1x288x4x4xf32>
    %247 = tensor.empty() : tensor<1x80x4x4xf32>
    %248 = linalg.fill ins(%cst_313 : f32) outs(%247 : tensor<1x80x4x4xf32>) -> tensor<1x80x4x4xf32>
    %249 = linalg.conv_2d_nchw_fchw {dilations = dense<1> : vector<2xi64>, strides = dense<1> : vector<2xi64>} ins(%246, %cst_243 : tensor<1x288x4x4xf32>, tensor<80x288x1x1xf32>) outs(%248 : tensor<1x80x4x4xf32>) -> tensor<1x80x4x4xf32>
    cf.assert %3, "training is not supported for now"
    %250 = linalg.generic {indexing_maps = [#map, #map1, #map1, #map1, #map1, #map], iterator_types = ["parallel", "parallel", "parallel", "parallel"]} ins(%249, %cst_242, %cst_241, %cst_241, %cst_242 : tensor<1x80x4x4xf32>, tensor<80xf32>, tensor<80xf32>, tensor<80xf32>, tensor<80xf32>) outs(%249 : tensor<1x80x4x4xf32>) {
    ^bb0(%in: f32, %in_430: f32, %in_431: f32, %in_432: f32, %in_433: f32, %out: f32):
      %1103 = arith.truncf %cst_314 : f64 to f32
      %1104 = arith.addf %in_433, %1103 : f32
      %1105 = math.rsqrt %1104 : f32
      %1106 = arith.subf %in, %in_432 : f32
      %1107 = arith.mulf %1106, %1105 : f32
      %1108 = arith.mulf %1107, %in_430 : f32
      %1109 = arith.addf %1108, %in_431 : f32
      linalg.yield %1109 : f32
    } -> tensor<1x80x4x4xf32>
    %251 = tensor.empty() : tensor<1x480x4x4xf32>
    %252 = linalg.fill ins(%cst_313 : f32) outs(%251 : tensor<1x480x4x4xf32>) -> tensor<1x480x4x4xf32>
    %253 = linalg.conv_2d_nchw_fchw {dilations = dense<1> : vector<2xi64>, strides = dense<1> : vector<2xi64>} ins(%250, %cst_240 : tensor<1x80x4x4xf32>, tensor<480x80x1x1xf32>) outs(%252 : tensor<1x480x4x4xf32>) -> tensor<1x480x4x4xf32>
    cf.assert %3, "training is not supported for now"
    %254 = linalg.generic {indexing_maps = [#map, #map1, #map1, #map1, #map1, #map], iterator_types = ["parallel", "parallel", "parallel", "parallel"]} ins(%253, %cst_239, %cst_238, %cst_238, %cst_239 : tensor<1x480x4x4xf32>, tensor<480xf32>, tensor<480xf32>, tensor<480xf32>, tensor<480xf32>) outs(%253 : tensor<1x480x4x4xf32>) {
    ^bb0(%in: f32, %in_430: f32, %in_431: f32, %in_432: f32, %in_433: f32, %out: f32):
      %1103 = arith.truncf %cst_314 : f64 to f32
      %1104 = arith.addf %in_433, %1103 : f32
      %1105 = math.rsqrt %1104 : f32
      %1106 = arith.subf %in, %in_432 : f32
      %1107 = arith.mulf %1106, %1105 : f32
      %1108 = arith.mulf %1107, %in_430 : f32
      %1109 = arith.addf %1108, %in_431 : f32
      linalg.yield %1109 : f32
    } -> tensor<1x480x4x4xf32>
    %255 = linalg.generic {indexing_maps = [#map2, #map], iterator_types = ["parallel", "parallel", "parallel", "parallel"]} ins(%254 : tensor<1x480x4x4xf32>) outs(%251 : tensor<1x480x4x4xf32>) {
    ^bb0(%in: f32, %out: f32):
      %1103 = arith.negf %in : f32
      %1104 = math.exp %1103 : f32
      %1105 = arith.addf %1104, %cst_319 : f32
      %1106 = arith.divf %cst_319, %1105 : f32
      linalg.yield %1106 : f32
    } -> tensor<1x480x4x4xf32>
    %256 = linalg.generic {indexing_maps = [#map2, #map2, #map], iterator_types = ["parallel", "parallel", "parallel", "parallel"]} ins(%255, %254 : tensor<1x480x4x4xf32>, tensor<1x480x4x4xf32>) outs(%251 : tensor<1x480x4x4xf32>) {
    ^bb0(%in: f32, %in_430: f32, %out: f32):
      %1103 = arith.mulf %in, %in_430 : f32
      linalg.yield %1103 : f32
    } -> tensor<1x480x4x4xf32>
    %padded_343 = tensor.pad %256 low[0, 0, 2, 2] high[0, 0, 2, 2] {
    ^bb0(%arg1: index, %arg2: index, %arg3: index, %arg4: index):
      tensor.yield %cst_313 : f32
    } : tensor<1x480x4x4xf32> to tensor<1x480x8x8xf32>
    %collapsed_344 = tensor.collapse_shape %cst_237 [[0, 1], [2], [3]] : tensor<480x1x5x5xf32> into tensor<480x5x5xf32>
    %257 = linalg.depthwise_conv_2d_nchw_chw {dilations = dense<1> : vector<2xi64>, strides = dense<1> : vector<2xi64>} ins(%padded_343, %collapsed_344 : tensor<1x480x8x8xf32>, tensor<480x5x5xf32>) outs(%252 : tensor<1x480x4x4xf32>) -> tensor<1x480x4x4xf32>
    cf.assert %3, "training is not supported for now"
    %258 = linalg.generic {indexing_maps = [#map, #map1, #map1, #map1, #map1, #map], iterator_types = ["parallel", "parallel", "parallel", "parallel"]} ins(%257, %cst_239, %cst_238, %cst_238, %cst_239 : tensor<1x480x4x4xf32>, tensor<480xf32>, tensor<480xf32>, tensor<480xf32>, tensor<480xf32>) outs(%257 : tensor<1x480x4x4xf32>) {
    ^bb0(%in: f32, %in_430: f32, %in_431: f32, %in_432: f32, %in_433: f32, %out: f32):
      %1103 = arith.truncf %cst_314 : f64 to f32
      %1104 = arith.addf %in_433, %1103 : f32
      %1105 = math.rsqrt %1104 : f32
      %1106 = arith.subf %in, %in_432 : f32
      %1107 = arith.mulf %1106, %1105 : f32
      %1108 = arith.mulf %1107, %in_430 : f32
      %1109 = arith.addf %1108, %in_431 : f32
      linalg.yield %1109 : f32
    } -> tensor<1x480x4x4xf32>
    %259 = linalg.generic {indexing_maps = [#map2, #map], iterator_types = ["parallel", "parallel", "parallel", "parallel"]} ins(%258 : tensor<1x480x4x4xf32>) outs(%251 : tensor<1x480x4x4xf32>) {
    ^bb0(%in: f32, %out: f32):
      %1103 = arith.negf %in : f32
      %1104 = math.exp %1103 : f32
      %1105 = arith.addf %1104, %cst_319 : f32
      %1106 = arith.divf %cst_319, %1105 : f32
      linalg.yield %1106 : f32
    } -> tensor<1x480x4x4xf32>
    %260 = linalg.generic {indexing_maps = [#map2, #map2, #map], iterator_types = ["parallel", "parallel", "parallel", "parallel"]} ins(%259, %258 : tensor<1x480x4x4xf32>, tensor<1x480x4x4xf32>) outs(%251 : tensor<1x480x4x4xf32>) {
    ^bb0(%in: f32, %in_430: f32, %out: f32):
      %1103 = arith.mulf %in, %in_430 : f32
      linalg.yield %1103 : f32
    } -> tensor<1x480x4x4xf32>
    %261 = tensor.empty() : tensor<1x480x1x1xf32>
    %262 = linalg.fill ins(%cst_313 : f32) outs(%261 : tensor<1x480x1x1xf32>) -> tensor<1x480x1x1xf32>
    %263 = linalg.pooling_nchw_sum {dilations = dense<1> : vector<2xi64>, strides = dense<1> : vector<2xi64>} ins(%260, %238 : tensor<1x480x4x4xf32>, tensor<4x4xf32>) outs(%262 : tensor<1x480x1x1xf32>) -> tensor<1x480x1x1xf32>
    %264 = linalg.generic {indexing_maps = [#map, #map], iterator_types = ["parallel", "parallel", "parallel", "parallel"]} ins(%263 : tensor<1x480x1x1xf32>) outs(%261 : tensor<1x480x1x1xf32>) {
    ^bb0(%in: f32, %out: f32):
      %1103 = arith.divf %in, %cst_317 : f32
      linalg.yield %1103 : f32
    } -> tensor<1x480x1x1xf32>
    %265 = tensor.empty() : tensor<1x20x1x1xf32>
    %266 = linalg.generic {indexing_maps = [#map1, #map], iterator_types = ["parallel", "parallel", "parallel", "parallel"]} ins(%cst_236 : tensor<20xf32>) outs(%265 : tensor<1x20x1x1xf32>) {
    ^bb0(%in: f32, %out: f32):
      linalg.yield %in : f32
    } -> tensor<1x20x1x1xf32>
    %267 = linalg.conv_2d_nchw_fchw {dilations = dense<1> : vector<2xi64>, strides = dense<1> : vector<2xi64>} ins(%264, %cst_235 : tensor<1x480x1x1xf32>, tensor<20x480x1x1xf32>) outs(%266 : tensor<1x20x1x1xf32>) -> tensor<1x20x1x1xf32>
    %268 = linalg.generic {indexing_maps = [#map3, #map], iterator_types = ["parallel", "parallel", "parallel", "parallel"]} ins(%267 : tensor<1x20x1x1xf32>) outs(%265 : tensor<1x20x1x1xf32>) {
    ^bb0(%in: f32, %out: f32):
      %1103 = arith.negf %in : f32
      %1104 = math.exp %1103 : f32
      %1105 = arith.addf %1104, %cst_319 : f32
      %1106 = arith.divf %cst_319, %1105 : f32
      linalg.yield %1106 : f32
    } -> tensor<1x20x1x1xf32>
    %269 = linalg.generic {indexing_maps = [#map3, #map3, #map], iterator_types = ["parallel", "parallel", "parallel", "parallel"]} ins(%268, %267 : tensor<1x20x1x1xf32>, tensor<1x20x1x1xf32>) outs(%265 : tensor<1x20x1x1xf32>) {
    ^bb0(%in: f32, %in_430: f32, %out: f32):
      %1103 = arith.mulf %in, %in_430 : f32
      linalg.yield %1103 : f32
    } -> tensor<1x20x1x1xf32>
    %270 = linalg.generic {indexing_maps = [#map1, #map], iterator_types = ["parallel", "parallel", "parallel", "parallel"]} ins(%cst_238 : tensor<480xf32>) outs(%261 : tensor<1x480x1x1xf32>) {
    ^bb0(%in: f32, %out: f32):
      linalg.yield %in : f32
    } -> tensor<1x480x1x1xf32>
    %271 = linalg.conv_2d_nchw_fchw {dilations = dense<1> : vector<2xi64>, strides = dense<1> : vector<2xi64>} ins(%269, %cst_234 : tensor<1x20x1x1xf32>, tensor<480x20x1x1xf32>) outs(%270 : tensor<1x480x1x1xf32>) -> tensor<1x480x1x1xf32>
    %272 = linalg.generic {indexing_maps = [#map3, #map], iterator_types = ["parallel", "parallel", "parallel", "parallel"]} ins(%271 : tensor<1x480x1x1xf32>) outs(%261 : tensor<1x480x1x1xf32>) {
    ^bb0(%in: f32, %out: f32):
      %1103 = arith.negf %in : f32
      %1104 = math.exp %1103 : f32
      %1105 = arith.addf %1104, %cst_319 : f32
      %1106 = arith.divf %cst_319, %1105 : f32
      linalg.yield %1106 : f32
    } -> tensor<1x480x1x1xf32>
    %273 = linalg.generic {indexing_maps = [#map3, #map2, #map], iterator_types = ["parallel", "parallel", "parallel", "parallel"]} ins(%272, %260 : tensor<1x480x1x1xf32>, tensor<1x480x4x4xf32>) outs(%251 : tensor<1x480x4x4xf32>) {
    ^bb0(%in: f32, %in_430: f32, %out: f32):
      %1103 = arith.mulf %in, %in_430 : f32
      linalg.yield %1103 : f32
    } -> tensor<1x480x4x4xf32>
    %274 = linalg.conv_2d_nchw_fchw {dilations = dense<1> : vector<2xi64>, strides = dense<1> : vector<2xi64>} ins(%273, %cst_233 : tensor<1x480x4x4xf32>, tensor<80x480x1x1xf32>) outs(%248 : tensor<1x80x4x4xf32>) -> tensor<1x80x4x4xf32>
    cf.assert %3, "training is not supported for now"
    %275 = linalg.generic {indexing_maps = [#map, #map1, #map1, #map1, #map1, #map], iterator_types = ["parallel", "parallel", "parallel", "parallel"]} ins(%274, %cst_242, %cst_241, %cst_241, %cst_242 : tensor<1x80x4x4xf32>, tensor<80xf32>, tensor<80xf32>, tensor<80xf32>, tensor<80xf32>) outs(%274 : tensor<1x80x4x4xf32>) {
    ^bb0(%in: f32, %in_430: f32, %in_431: f32, %in_432: f32, %in_433: f32, %out: f32):
      %1103 = arith.truncf %cst_314 : f64 to f32
      %1104 = arith.addf %in_433, %1103 : f32
      %1105 = math.rsqrt %1104 : f32
      %1106 = arith.subf %in, %in_432 : f32
      %1107 = arith.mulf %1106, %1105 : f32
      %1108 = arith.mulf %1107, %in_430 : f32
      %1109 = arith.addf %1108, %in_431 : f32
      linalg.yield %1109 : f32
    } -> tensor<1x80x4x4xf32>
    %276 = linalg.generic {indexing_maps = [#map2, #map2, #map], iterator_types = ["parallel", "parallel", "parallel", "parallel"]} ins(%275, %250 : tensor<1x80x4x4xf32>, tensor<1x80x4x4xf32>) outs(%247 : tensor<1x80x4x4xf32>) {
    ^bb0(%in: f32, %in_430: f32, %out: f32):
      %1103 = arith.addf %in, %in_430 : f32
      linalg.yield %1103 : f32
    } -> tensor<1x80x4x4xf32>
    %277 = linalg.conv_2d_nchw_fchw {dilations = dense<1> : vector<2xi64>, strides = dense<1> : vector<2xi64>} ins(%276, %cst_232 : tensor<1x80x4x4xf32>, tensor<480x80x1x1xf32>) outs(%252 : tensor<1x480x4x4xf32>) -> tensor<1x480x4x4xf32>
    cf.assert %3, "training is not supported for now"
    %278 = linalg.generic {indexing_maps = [#map, #map1, #map1, #map1, #map1, #map], iterator_types = ["parallel", "parallel", "parallel", "parallel"]} ins(%277, %cst_239, %cst_238, %cst_238, %cst_239 : tensor<1x480x4x4xf32>, tensor<480xf32>, tensor<480xf32>, tensor<480xf32>, tensor<480xf32>) outs(%277 : tensor<1x480x4x4xf32>) {
    ^bb0(%in: f32, %in_430: f32, %in_431: f32, %in_432: f32, %in_433: f32, %out: f32):
      %1103 = arith.truncf %cst_314 : f64 to f32
      %1104 = arith.addf %in_433, %1103 : f32
      %1105 = math.rsqrt %1104 : f32
      %1106 = arith.subf %in, %in_432 : f32
      %1107 = arith.mulf %1106, %1105 : f32
      %1108 = arith.mulf %1107, %in_430 : f32
      %1109 = arith.addf %1108, %in_431 : f32
      linalg.yield %1109 : f32
    } -> tensor<1x480x4x4xf32>
    %279 = linalg.generic {indexing_maps = [#map2, #map], iterator_types = ["parallel", "parallel", "parallel", "parallel"]} ins(%278 : tensor<1x480x4x4xf32>) outs(%251 : tensor<1x480x4x4xf32>) {
    ^bb0(%in: f32, %out: f32):
      %1103 = arith.negf %in : f32
      %1104 = math.exp %1103 : f32
      %1105 = arith.addf %1104, %cst_319 : f32
      %1106 = arith.divf %cst_319, %1105 : f32
      linalg.yield %1106 : f32
    } -> tensor<1x480x4x4xf32>
    %280 = linalg.generic {indexing_maps = [#map2, #map2, #map], iterator_types = ["parallel", "parallel", "parallel", "parallel"]} ins(%279, %278 : tensor<1x480x4x4xf32>, tensor<1x480x4x4xf32>) outs(%251 : tensor<1x480x4x4xf32>) {
    ^bb0(%in: f32, %in_430: f32, %out: f32):
      %1103 = arith.mulf %in, %in_430 : f32
      linalg.yield %1103 : f32
    } -> tensor<1x480x4x4xf32>
    %padded_345 = tensor.pad %280 low[0, 0, 2, 2] high[0, 0, 2, 2] {
    ^bb0(%arg1: index, %arg2: index, %arg3: index, %arg4: index):
      tensor.yield %cst_313 : f32
    } : tensor<1x480x4x4xf32> to tensor<1x480x8x8xf32>
    %collapsed_346 = tensor.collapse_shape %cst_231 [[0, 1], [2], [3]] : tensor<480x1x5x5xf32> into tensor<480x5x5xf32>
    %281 = linalg.depthwise_conv_2d_nchw_chw {dilations = dense<1> : vector<2xi64>, strides = dense<1> : vector<2xi64>} ins(%padded_345, %collapsed_346 : tensor<1x480x8x8xf32>, tensor<480x5x5xf32>) outs(%252 : tensor<1x480x4x4xf32>) -> tensor<1x480x4x4xf32>
    cf.assert %3, "training is not supported for now"
    %282 = linalg.generic {indexing_maps = [#map, #map1, #map1, #map1, #map1, #map], iterator_types = ["parallel", "parallel", "parallel", "parallel"]} ins(%281, %cst_239, %cst_238, %cst_238, %cst_239 : tensor<1x480x4x4xf32>, tensor<480xf32>, tensor<480xf32>, tensor<480xf32>, tensor<480xf32>) outs(%281 : tensor<1x480x4x4xf32>) {
    ^bb0(%in: f32, %in_430: f32, %in_431: f32, %in_432: f32, %in_433: f32, %out: f32):
      %1103 = arith.truncf %cst_314 : f64 to f32
      %1104 = arith.addf %in_433, %1103 : f32
      %1105 = math.rsqrt %1104 : f32
      %1106 = arith.subf %in, %in_432 : f32
      %1107 = arith.mulf %1106, %1105 : f32
      %1108 = arith.mulf %1107, %in_430 : f32
      %1109 = arith.addf %1108, %in_431 : f32
      linalg.yield %1109 : f32
    } -> tensor<1x480x4x4xf32>
    %283 = linalg.generic {indexing_maps = [#map2, #map], iterator_types = ["parallel", "parallel", "parallel", "parallel"]} ins(%282 : tensor<1x480x4x4xf32>) outs(%251 : tensor<1x480x4x4xf32>) {
    ^bb0(%in: f32, %out: f32):
      %1103 = arith.negf %in : f32
      %1104 = math.exp %1103 : f32
      %1105 = arith.addf %1104, %cst_319 : f32
      %1106 = arith.divf %cst_319, %1105 : f32
      linalg.yield %1106 : f32
    } -> tensor<1x480x4x4xf32>
    %284 = linalg.generic {indexing_maps = [#map2, #map2, #map], iterator_types = ["parallel", "parallel", "parallel", "parallel"]} ins(%283, %282 : tensor<1x480x4x4xf32>, tensor<1x480x4x4xf32>) outs(%251 : tensor<1x480x4x4xf32>) {
    ^bb0(%in: f32, %in_430: f32, %out: f32):
      %1103 = arith.mulf %in, %in_430 : f32
      linalg.yield %1103 : f32
    } -> tensor<1x480x4x4xf32>
    %285 = linalg.pooling_nchw_sum {dilations = dense<1> : vector<2xi64>, strides = dense<1> : vector<2xi64>} ins(%284, %238 : tensor<1x480x4x4xf32>, tensor<4x4xf32>) outs(%262 : tensor<1x480x1x1xf32>) -> tensor<1x480x1x1xf32>
    %286 = linalg.generic {indexing_maps = [#map, #map], iterator_types = ["parallel", "parallel", "parallel", "parallel"]} ins(%285 : tensor<1x480x1x1xf32>) outs(%261 : tensor<1x480x1x1xf32>) {
    ^bb0(%in: f32, %out: f32):
      %1103 = arith.divf %in, %cst_317 : f32
      linalg.yield %1103 : f32
    } -> tensor<1x480x1x1xf32>
    %287 = linalg.conv_2d_nchw_fchw {dilations = dense<1> : vector<2xi64>, strides = dense<1> : vector<2xi64>} ins(%286, %cst_230 : tensor<1x480x1x1xf32>, tensor<20x480x1x1xf32>) outs(%266 : tensor<1x20x1x1xf32>) -> tensor<1x20x1x1xf32>
    %288 = linalg.generic {indexing_maps = [#map3, #map], iterator_types = ["parallel", "parallel", "parallel", "parallel"]} ins(%287 : tensor<1x20x1x1xf32>) outs(%265 : tensor<1x20x1x1xf32>) {
    ^bb0(%in: f32, %out: f32):
      %1103 = arith.negf %in : f32
      %1104 = math.exp %1103 : f32
      %1105 = arith.addf %1104, %cst_319 : f32
      %1106 = arith.divf %cst_319, %1105 : f32
      linalg.yield %1106 : f32
    } -> tensor<1x20x1x1xf32>
    %289 = linalg.generic {indexing_maps = [#map3, #map3, #map], iterator_types = ["parallel", "parallel", "parallel", "parallel"]} ins(%288, %287 : tensor<1x20x1x1xf32>, tensor<1x20x1x1xf32>) outs(%265 : tensor<1x20x1x1xf32>) {
    ^bb0(%in: f32, %in_430: f32, %out: f32):
      %1103 = arith.mulf %in, %in_430 : f32
      linalg.yield %1103 : f32
    } -> tensor<1x20x1x1xf32>
    %290 = linalg.conv_2d_nchw_fchw {dilations = dense<1> : vector<2xi64>, strides = dense<1> : vector<2xi64>} ins(%289, %cst_229 : tensor<1x20x1x1xf32>, tensor<480x20x1x1xf32>) outs(%270 : tensor<1x480x1x1xf32>) -> tensor<1x480x1x1xf32>
    %291 = linalg.generic {indexing_maps = [#map3, #map], iterator_types = ["parallel", "parallel", "parallel", "parallel"]} ins(%290 : tensor<1x480x1x1xf32>) outs(%261 : tensor<1x480x1x1xf32>) {
    ^bb0(%in: f32, %out: f32):
      %1103 = arith.negf %in : f32
      %1104 = math.exp %1103 : f32
      %1105 = arith.addf %1104, %cst_319 : f32
      %1106 = arith.divf %cst_319, %1105 : f32
      linalg.yield %1106 : f32
    } -> tensor<1x480x1x1xf32>
    %292 = linalg.generic {indexing_maps = [#map3, #map2, #map], iterator_types = ["parallel", "parallel", "parallel", "parallel"]} ins(%291, %284 : tensor<1x480x1x1xf32>, tensor<1x480x4x4xf32>) outs(%251 : tensor<1x480x4x4xf32>) {
    ^bb0(%in: f32, %in_430: f32, %out: f32):
      %1103 = arith.mulf %in, %in_430 : f32
      linalg.yield %1103 : f32
    } -> tensor<1x480x4x4xf32>
    %293 = linalg.conv_2d_nchw_fchw {dilations = dense<1> : vector<2xi64>, strides = dense<1> : vector<2xi64>} ins(%292, %cst_228 : tensor<1x480x4x4xf32>, tensor<80x480x1x1xf32>) outs(%248 : tensor<1x80x4x4xf32>) -> tensor<1x80x4x4xf32>
    cf.assert %3, "training is not supported for now"
    %294 = linalg.generic {indexing_maps = [#map, #map1, #map1, #map1, #map1, #map], iterator_types = ["parallel", "parallel", "parallel", "parallel"]} ins(%293, %cst_242, %cst_241, %cst_241, %cst_242 : tensor<1x80x4x4xf32>, tensor<80xf32>, tensor<80xf32>, tensor<80xf32>, tensor<80xf32>) outs(%293 : tensor<1x80x4x4xf32>) {
    ^bb0(%in: f32, %in_430: f32, %in_431: f32, %in_432: f32, %in_433: f32, %out: f32):
      %1103 = arith.truncf %cst_314 : f64 to f32
      %1104 = arith.addf %in_433, %1103 : f32
      %1105 = math.rsqrt %1104 : f32
      %1106 = arith.subf %in, %in_432 : f32
      %1107 = arith.mulf %1106, %1105 : f32
      %1108 = arith.mulf %1107, %in_430 : f32
      %1109 = arith.addf %1108, %in_431 : f32
      linalg.yield %1109 : f32
    } -> tensor<1x80x4x4xf32>
    %295 = linalg.generic {indexing_maps = [#map2, #map2, #map], iterator_types = ["parallel", "parallel", "parallel", "parallel"]} ins(%294, %276 : tensor<1x80x4x4xf32>, tensor<1x80x4x4xf32>) outs(%247 : tensor<1x80x4x4xf32>) {
    ^bb0(%in: f32, %in_430: f32, %out: f32):
      %1103 = arith.addf %in, %in_430 : f32
      linalg.yield %1103 : f32
    } -> tensor<1x80x4x4xf32>
    %296 = linalg.conv_2d_nchw_fchw {dilations = dense<1> : vector<2xi64>, strides = dense<1> : vector<2xi64>} ins(%295, %cst_227 : tensor<1x80x4x4xf32>, tensor<480x80x1x1xf32>) outs(%252 : tensor<1x480x4x4xf32>) -> tensor<1x480x4x4xf32>
    cf.assert %3, "training is not supported for now"
    %297 = linalg.generic {indexing_maps = [#map, #map1, #map1, #map1, #map1, #map], iterator_types = ["parallel", "parallel", "parallel", "parallel"]} ins(%296, %cst_239, %cst_238, %cst_238, %cst_239 : tensor<1x480x4x4xf32>, tensor<480xf32>, tensor<480xf32>, tensor<480xf32>, tensor<480xf32>) outs(%296 : tensor<1x480x4x4xf32>) {
    ^bb0(%in: f32, %in_430: f32, %in_431: f32, %in_432: f32, %in_433: f32, %out: f32):
      %1103 = arith.truncf %cst_314 : f64 to f32
      %1104 = arith.addf %in_433, %1103 : f32
      %1105 = math.rsqrt %1104 : f32
      %1106 = arith.subf %in, %in_432 : f32
      %1107 = arith.mulf %1106, %1105 : f32
      %1108 = arith.mulf %1107, %in_430 : f32
      %1109 = arith.addf %1108, %in_431 : f32
      linalg.yield %1109 : f32
    } -> tensor<1x480x4x4xf32>
    %298 = linalg.generic {indexing_maps = [#map2, #map], iterator_types = ["parallel", "parallel", "parallel", "parallel"]} ins(%297 : tensor<1x480x4x4xf32>) outs(%251 : tensor<1x480x4x4xf32>) {
    ^bb0(%in: f32, %out: f32):
      %1103 = arith.negf %in : f32
      %1104 = math.exp %1103 : f32
      %1105 = arith.addf %1104, %cst_319 : f32
      %1106 = arith.divf %cst_319, %1105 : f32
      linalg.yield %1106 : f32
    } -> tensor<1x480x4x4xf32>
    %299 = linalg.generic {indexing_maps = [#map2, #map2, #map], iterator_types = ["parallel", "parallel", "parallel", "parallel"]} ins(%298, %297 : tensor<1x480x4x4xf32>, tensor<1x480x4x4xf32>) outs(%251 : tensor<1x480x4x4xf32>) {
    ^bb0(%in: f32, %in_430: f32, %out: f32):
      %1103 = arith.mulf %in, %in_430 : f32
      linalg.yield %1103 : f32
    } -> tensor<1x480x4x4xf32>
    %padded_347 = tensor.pad %299 low[0, 0, 2, 2] high[0, 0, 2, 2] {
    ^bb0(%arg1: index, %arg2: index, %arg3: index, %arg4: index):
      tensor.yield %cst_313 : f32
    } : tensor<1x480x4x4xf32> to tensor<1x480x8x8xf32>
    %collapsed_348 = tensor.collapse_shape %cst_226 [[0, 1], [2], [3]] : tensor<480x1x5x5xf32> into tensor<480x5x5xf32>
    %300 = linalg.depthwise_conv_2d_nchw_chw {dilations = dense<1> : vector<2xi64>, strides = dense<1> : vector<2xi64>} ins(%padded_347, %collapsed_348 : tensor<1x480x8x8xf32>, tensor<480x5x5xf32>) outs(%252 : tensor<1x480x4x4xf32>) -> tensor<1x480x4x4xf32>
    cf.assert %3, "training is not supported for now"
    %301 = linalg.generic {indexing_maps = [#map, #map1, #map1, #map1, #map1, #map], iterator_types = ["parallel", "parallel", "parallel", "parallel"]} ins(%300, %cst_239, %cst_238, %cst_238, %cst_239 : tensor<1x480x4x4xf32>, tensor<480xf32>, tensor<480xf32>, tensor<480xf32>, tensor<480xf32>) outs(%300 : tensor<1x480x4x4xf32>) {
    ^bb0(%in: f32, %in_430: f32, %in_431: f32, %in_432: f32, %in_433: f32, %out: f32):
      %1103 = arith.truncf %cst_314 : f64 to f32
      %1104 = arith.addf %in_433, %1103 : f32
      %1105 = math.rsqrt %1104 : f32
      %1106 = arith.subf %in, %in_432 : f32
      %1107 = arith.mulf %1106, %1105 : f32
      %1108 = arith.mulf %1107, %in_430 : f32
      %1109 = arith.addf %1108, %in_431 : f32
      linalg.yield %1109 : f32
    } -> tensor<1x480x4x4xf32>
    %302 = linalg.generic {indexing_maps = [#map2, #map], iterator_types = ["parallel", "parallel", "parallel", "parallel"]} ins(%301 : tensor<1x480x4x4xf32>) outs(%251 : tensor<1x480x4x4xf32>) {
    ^bb0(%in: f32, %out: f32):
      %1103 = arith.negf %in : f32
      %1104 = math.exp %1103 : f32
      %1105 = arith.addf %1104, %cst_319 : f32
      %1106 = arith.divf %cst_319, %1105 : f32
      linalg.yield %1106 : f32
    } -> tensor<1x480x4x4xf32>
    %303 = linalg.generic {indexing_maps = [#map2, #map2, #map], iterator_types = ["parallel", "parallel", "parallel", "parallel"]} ins(%302, %301 : tensor<1x480x4x4xf32>, tensor<1x480x4x4xf32>) outs(%251 : tensor<1x480x4x4xf32>) {
    ^bb0(%in: f32, %in_430: f32, %out: f32):
      %1103 = arith.mulf %in, %in_430 : f32
      linalg.yield %1103 : f32
    } -> tensor<1x480x4x4xf32>
    %304 = linalg.pooling_nchw_sum {dilations = dense<1> : vector<2xi64>, strides = dense<1> : vector<2xi64>} ins(%303, %238 : tensor<1x480x4x4xf32>, tensor<4x4xf32>) outs(%262 : tensor<1x480x1x1xf32>) -> tensor<1x480x1x1xf32>
    %305 = linalg.generic {indexing_maps = [#map, #map], iterator_types = ["parallel", "parallel", "parallel", "parallel"]} ins(%304 : tensor<1x480x1x1xf32>) outs(%261 : tensor<1x480x1x1xf32>) {
    ^bb0(%in: f32, %out: f32):
      %1103 = arith.divf %in, %cst_317 : f32
      linalg.yield %1103 : f32
    } -> tensor<1x480x1x1xf32>
    %306 = linalg.conv_2d_nchw_fchw {dilations = dense<1> : vector<2xi64>, strides = dense<1> : vector<2xi64>} ins(%305, %cst_225 : tensor<1x480x1x1xf32>, tensor<20x480x1x1xf32>) outs(%266 : tensor<1x20x1x1xf32>) -> tensor<1x20x1x1xf32>
    %307 = linalg.generic {indexing_maps = [#map3, #map], iterator_types = ["parallel", "parallel", "parallel", "parallel"]} ins(%306 : tensor<1x20x1x1xf32>) outs(%265 : tensor<1x20x1x1xf32>) {
    ^bb0(%in: f32, %out: f32):
      %1103 = arith.negf %in : f32
      %1104 = math.exp %1103 : f32
      %1105 = arith.addf %1104, %cst_319 : f32
      %1106 = arith.divf %cst_319, %1105 : f32
      linalg.yield %1106 : f32
    } -> tensor<1x20x1x1xf32>
    %308 = linalg.generic {indexing_maps = [#map3, #map3, #map], iterator_types = ["parallel", "parallel", "parallel", "parallel"]} ins(%307, %306 : tensor<1x20x1x1xf32>, tensor<1x20x1x1xf32>) outs(%265 : tensor<1x20x1x1xf32>) {
    ^bb0(%in: f32, %in_430: f32, %out: f32):
      %1103 = arith.mulf %in, %in_430 : f32
      linalg.yield %1103 : f32
    } -> tensor<1x20x1x1xf32>
    %309 = linalg.conv_2d_nchw_fchw {dilations = dense<1> : vector<2xi64>, strides = dense<1> : vector<2xi64>} ins(%308, %cst_224 : tensor<1x20x1x1xf32>, tensor<480x20x1x1xf32>) outs(%270 : tensor<1x480x1x1xf32>) -> tensor<1x480x1x1xf32>
    %310 = linalg.generic {indexing_maps = [#map3, #map], iterator_types = ["parallel", "parallel", "parallel", "parallel"]} ins(%309 : tensor<1x480x1x1xf32>) outs(%261 : tensor<1x480x1x1xf32>) {
    ^bb0(%in: f32, %out: f32):
      %1103 = arith.negf %in : f32
      %1104 = math.exp %1103 : f32
      %1105 = arith.addf %1104, %cst_319 : f32
      %1106 = arith.divf %cst_319, %1105 : f32
      linalg.yield %1106 : f32
    } -> tensor<1x480x1x1xf32>
    %311 = linalg.generic {indexing_maps = [#map3, #map2, #map], iterator_types = ["parallel", "parallel", "parallel", "parallel"]} ins(%310, %303 : tensor<1x480x1x1xf32>, tensor<1x480x4x4xf32>) outs(%251 : tensor<1x480x4x4xf32>) {
    ^bb0(%in: f32, %in_430: f32, %out: f32):
      %1103 = arith.mulf %in, %in_430 : f32
      linalg.yield %1103 : f32
    } -> tensor<1x480x4x4xf32>
    %312 = linalg.conv_2d_nchw_fchw {dilations = dense<1> : vector<2xi64>, strides = dense<1> : vector<2xi64>} ins(%311, %cst_223 : tensor<1x480x4x4xf32>, tensor<80x480x1x1xf32>) outs(%248 : tensor<1x80x4x4xf32>) -> tensor<1x80x4x4xf32>
    cf.assert %3, "training is not supported for now"
    %313 = linalg.generic {indexing_maps = [#map, #map1, #map1, #map1, #map1, #map], iterator_types = ["parallel", "parallel", "parallel", "parallel"]} ins(%312, %cst_242, %cst_241, %cst_241, %cst_242 : tensor<1x80x4x4xf32>, tensor<80xf32>, tensor<80xf32>, tensor<80xf32>, tensor<80xf32>) outs(%312 : tensor<1x80x4x4xf32>) {
    ^bb0(%in: f32, %in_430: f32, %in_431: f32, %in_432: f32, %in_433: f32, %out: f32):
      %1103 = arith.truncf %cst_314 : f64 to f32
      %1104 = arith.addf %in_433, %1103 : f32
      %1105 = math.rsqrt %1104 : f32
      %1106 = arith.subf %in, %in_432 : f32
      %1107 = arith.mulf %1106, %1105 : f32
      %1108 = arith.mulf %1107, %in_430 : f32
      %1109 = arith.addf %1108, %in_431 : f32
      linalg.yield %1109 : f32
    } -> tensor<1x80x4x4xf32>
    %314 = linalg.generic {indexing_maps = [#map2, #map2, #map], iterator_types = ["parallel", "parallel", "parallel", "parallel"]} ins(%313, %295 : tensor<1x80x4x4xf32>, tensor<1x80x4x4xf32>) outs(%247 : tensor<1x80x4x4xf32>) {
    ^bb0(%in: f32, %in_430: f32, %out: f32):
      %1103 = arith.addf %in, %in_430 : f32
      linalg.yield %1103 : f32
    } -> tensor<1x80x4x4xf32>
    %315 = linalg.conv_2d_nchw_fchw {dilations = dense<1> : vector<2xi64>, strides = dense<1> : vector<2xi64>} ins(%314, %cst_222 : tensor<1x80x4x4xf32>, tensor<480x80x1x1xf32>) outs(%252 : tensor<1x480x4x4xf32>) -> tensor<1x480x4x4xf32>
    cf.assert %3, "training is not supported for now"
    %316 = linalg.generic {indexing_maps = [#map, #map1, #map1, #map1, #map1, #map], iterator_types = ["parallel", "parallel", "parallel", "parallel"]} ins(%315, %cst_239, %cst_238, %cst_238, %cst_239 : tensor<1x480x4x4xf32>, tensor<480xf32>, tensor<480xf32>, tensor<480xf32>, tensor<480xf32>) outs(%315 : tensor<1x480x4x4xf32>) {
    ^bb0(%in: f32, %in_430: f32, %in_431: f32, %in_432: f32, %in_433: f32, %out: f32):
      %1103 = arith.truncf %cst_314 : f64 to f32
      %1104 = arith.addf %in_433, %1103 : f32
      %1105 = math.rsqrt %1104 : f32
      %1106 = arith.subf %in, %in_432 : f32
      %1107 = arith.mulf %1106, %1105 : f32
      %1108 = arith.mulf %1107, %in_430 : f32
      %1109 = arith.addf %1108, %in_431 : f32
      linalg.yield %1109 : f32
    } -> tensor<1x480x4x4xf32>
    %317 = linalg.generic {indexing_maps = [#map2, #map], iterator_types = ["parallel", "parallel", "parallel", "parallel"]} ins(%316 : tensor<1x480x4x4xf32>) outs(%251 : tensor<1x480x4x4xf32>) {
    ^bb0(%in: f32, %out: f32):
      %1103 = arith.negf %in : f32
      %1104 = math.exp %1103 : f32
      %1105 = arith.addf %1104, %cst_319 : f32
      %1106 = arith.divf %cst_319, %1105 : f32
      linalg.yield %1106 : f32
    } -> tensor<1x480x4x4xf32>
    %318 = linalg.generic {indexing_maps = [#map2, #map2, #map], iterator_types = ["parallel", "parallel", "parallel", "parallel"]} ins(%317, %316 : tensor<1x480x4x4xf32>, tensor<1x480x4x4xf32>) outs(%251 : tensor<1x480x4x4xf32>) {
    ^bb0(%in: f32, %in_430: f32, %out: f32):
      %1103 = arith.mulf %in, %in_430 : f32
      linalg.yield %1103 : f32
    } -> tensor<1x480x4x4xf32>
    %padded_349 = tensor.pad %318 low[0, 0, 2, 2] high[0, 0, 2, 2] {
    ^bb0(%arg1: index, %arg2: index, %arg3: index, %arg4: index):
…
    %981 = linalg.generic {indexing_maps = [#map, #map1, #map1, #map1, #map1, #map], iterator_types = ["parallel", "parallel", "parallel", "parallel"]} ins(%980, %cst_89, %cst_88, %cst_88, %cst_89 : tensor<1x2304x1x1xf32>, tensor<2304xf32>, tensor<2304xf32>, tensor<2304xf32>, tensor<2304xf32>) outs(%980 : tensor<1x2304x1x1xf32>) {
    ^bb0(%in: f32, %in_430: f32, %in_431: f32, %in_432: f32, %in_433: f32, %out: f32):
      %1103 = arith.truncf %cst_314 : f64 to f32
      %1104 = arith.addf %in_433, %1103 : f32
      %1105 = math.rsqrt %1104 : f32
      %1106 = arith.subf %in, %in_432 : f32
      %1107 = arith.mulf %1106, %1105 : f32
      %1108 = arith.mulf %1107, %in_430 : f32
      %1109 = arith.addf %1108, %in_431 : f32
      linalg.yield %1109 : f32
    } -> tensor<1x2304x1x1xf32>
    %982 = linalg.generic {indexing_maps = [#map3, #map], iterator_types = ["parallel", "parallel", "parallel", "parallel"]} ins(%981 : tensor<1x2304x1x1xf32>) outs(%791 : tensor<1x2304x1x1xf32>) {
    ^bb0(%in: f32, %out: f32):
      %1103 = arith.negf %in : f32
      %1104 = math.exp %1103 : f32
      %1105 = arith.addf %1104, %cst_319 : f32
      %1106 = arith.divf %cst_319, %1105 : f32
      linalg.yield %1106 : f32
    } -> tensor<1x2304x1x1xf32>
    %983 = linalg.generic {indexing_maps = [#map3, #map3, #map], iterator_types = ["parallel", "parallel", "parallel", "parallel"]} ins(%982, %981 : tensor<1x2304x1x1xf32>, tensor<1x2304x1x1xf32>) outs(%791 : tensor<1x2304x1x1xf32>) {
    ^bb0(%in: f32, %in_430: f32, %out: f32):
      %1103 = arith.mulf %in, %in_430 : f32
      linalg.yield %1103 : f32
    } -> tensor<1x2304x1x1xf32>
    %984 = linalg.pooling_nchw_sum {dilations = dense<1> : vector<2xi64>, strides = dense<1> : vector<2xi64>} ins(%983, %779 : tensor<1x2304x1x1xf32>, tensor<1x1xf32>) outs(%792 : tensor<1x2304x1x1xf32>) -> tensor<1x2304x1x1xf32>
    %985 = linalg.conv_2d_nchw_fchw {dilations = dense<1> : vector<2xi64>, strides = dense<1> : vector<2xi64>} ins(%984, %cst_35 : tensor<1x2304x1x1xf32>, tensor<96x2304x1x1xf32>) outs(%803 : tensor<1x96x1x1xf32>) -> tensor<1x96x1x1xf32>
    %986 = linalg.generic {indexing_maps = [#map3, #map], iterator_types = ["parallel", "parallel", "parallel", "parallel"]} ins(%985 : tensor<1x96x1x1xf32>) outs(%802 : tensor<1x96x1x1xf32>) {
    ^bb0(%in: f32, %out: f32):
      %1103 = arith.negf %in : f32
      %1104 = math.exp %1103 : f32
      %1105 = arith.addf %1104, %cst_319 : f32
      %1106 = arith.divf %cst_319, %1105 : f32
      linalg.yield %1106 : f32
    } -> tensor<1x96x1x1xf32>
    %987 = linalg.generic {indexing_maps = [#map3, #map3, #map], iterator_types = ["parallel", "parallel", "parallel", "parallel"]} ins(%986, %985 : tensor<1x96x1x1xf32>, tensor<1x96x1x1xf32>) outs(%802 : tensor<1x96x1x1xf32>) {
    ^bb0(%in: f32, %in_430: f32, %out: f32):
      %1103 = arith.mulf %in, %in_430 : f32
      linalg.yield %1103 : f32
    } -> tensor<1x96x1x1xf32>
    %988 = linalg.conv_2d_nchw_fchw {dilations = dense<1> : vector<2xi64>, strides = dense<1> : vector<2xi64>} ins(%987, %cst_34 : tensor<1x96x1x1xf32>, tensor<2304x96x1x1xf32>) outs(%807 : tensor<1x2304x1x1xf32>) -> tensor<1x2304x1x1xf32>
    %989 = linalg.generic {indexing_maps = [#map3, #map], iterator_types = ["parallel", "parallel", "parallel", "parallel"]} ins(%988 : tensor<1x2304x1x1xf32>) outs(%791 : tensor<1x2304x1x1xf32>) {
    ^bb0(%in: f32, %out: f32):
      %1103 = arith.negf %in : f32
      %1104 = math.exp %1103 : f32
      %1105 = arith.addf %1104, %cst_319 : f32
      %1106 = arith.divf %cst_319, %1105 : f32
      linalg.yield %1106 : f32
    } -> tensor<1x2304x1x1xf32>
    %990 = linalg.generic {indexing_maps = [#map3, #map3, #map], iterator_types = ["parallel", "parallel", "parallel", "parallel"]} ins(%989, %983 : tensor<1x2304x1x1xf32>, tensor<1x2304x1x1xf32>) outs(%791 : tensor<1x2304x1x1xf32>) {
    ^bb0(%in: f32, %in_430: f32, %out: f32):
      %1103 = arith.mulf %in, %in_430 : f32
      linalg.yield %1103 : f32
    } -> tensor<1x2304x1x1xf32>
    %991 = linalg.conv_2d_nchw_fchw {dilations = dense<1> : vector<2xi64>, strides = dense<1> : vector<2xi64>} ins(%990, %cst_33 : tensor<1x2304x1x1xf32>, tensor<384x2304x1x1xf32>) outs(%788 : tensor<1x384x1x1xf32>) -> tensor<1x384x1x1xf32>
    cf.assert %3, "training is not supported for now"
    %992 = linalg.generic {indexing_maps = [#map, #map1, #map1, #map1, #map1, #map], iterator_types = ["parallel", "parallel", "parallel", "parallel"]} ins(%991, %cst_92, %cst_91, %cst_91, %cst_92 : tensor<1x384x1x1xf32>, tensor<384xf32>, tensor<384xf32>, tensor<384xf32>, tensor<384xf32>) outs(%991 : tensor<1x384x1x1xf32>) {
    ^bb0(%in: f32, %in_430: f32, %in_431: f32, %in_432: f32, %in_433: f32, %out: f32):
      %1103 = arith.truncf %cst_314 : f64 to f32
      %1104 = arith.addf %in_433, %1103 : f32
      %1105 = math.rsqrt %1104 : f32
      %1106 = arith.subf %in, %in_432 : f32
      %1107 = arith.mulf %1106, %1105 : f32
      %1108 = arith.mulf %1107, %in_430 : f32
      %1109 = arith.addf %1108, %in_431 : f32
      linalg.yield %1109 : f32
    } -> tensor<1x384x1x1xf32>
    %993 = linalg.generic {indexing_maps = [#map3, #map3, #map], iterator_types = ["parallel", "parallel", "parallel", "parallel"]} ins(%992, %975 : tensor<1x384x1x1xf32>, tensor<1x384x1x1xf32>) outs(%787 : tensor<1x384x1x1xf32>) {
    ^bb0(%in: f32, %in_430: f32, %out: f32):
      %1103 = arith.addf %in, %in_430 : f32
      linalg.yield %1103 : f32
    } -> tensor<1x384x1x1xf32>
    %994 = linalg.conv_2d_nchw_fchw {dilations = dense<1> : vector<2xi64>, strides = dense<1> : vector<2xi64>} ins(%993, %cst_32 : tensor<1x384x1x1xf32>, tensor<2304x384x1x1xf32>) outs(%792 : tensor<1x2304x1x1xf32>) -> tensor<1x2304x1x1xf32>
    cf.assert %3, "training is not supported for now"
    %995 = linalg.generic {indexing_maps = [#map, #map1, #map1, #map1, #map1, #map], iterator_types = ["parallel", "parallel", "parallel", "parallel"]} ins(%994, %cst_89, %cst_88, %cst_88, %cst_89 : tensor<1x2304x1x1xf32>, tensor<2304xf32>, tensor<2304xf32>, tensor<2304xf32>, tensor<2304xf32>) outs(%994 : tensor<1x2304x1x1xf32>) {
    ^bb0(%in: f32, %in_430: f32, %in_431: f32, %in_432: f32, %in_433: f32, %out: f32):
      %1103 = arith.truncf %cst_314 : f64 to f32
      %1104 = arith.addf %in_433, %1103 : f32
      %1105 = math.rsqrt %1104 : f32
      %1106 = arith.subf %in, %in_432 : f32
      %1107 = arith.mulf %1106, %1105 : f32
      %1108 = arith.mulf %1107, %in_430 : f32
      %1109 = arith.addf %1108, %in_431 : f32
      linalg.yield %1109 : f32
    } -> tensor<1x2304x1x1xf32>
    %996 = linalg.generic {indexing_maps = [#map3, #map], iterator_types = ["parallel", "parallel", "parallel", "parallel"]} ins(%995 : tensor<1x2304x1x1xf32>) outs(%791 : tensor<1x2304x1x1xf32>) {
    ^bb0(%in: f32, %out: f32):
      %1103 = arith.negf %in : f32
      %1104 = math.exp %1103 : f32
      %1105 = arith.addf %1104, %cst_319 : f32
      %1106 = arith.divf %cst_319, %1105 : f32
      linalg.yield %1106 : f32
    } -> tensor<1x2304x1x1xf32>
    %997 = linalg.generic {indexing_maps = [#map3, #map3, #map], iterator_types = ["parallel", "parallel", "parallel", "parallel"]} ins(%996, %995 : tensor<1x2304x1x1xf32>, tensor<1x2304x1x1xf32>) outs(%791 : tensor<1x2304x1x1xf32>) {
    ^bb0(%in: f32, %in_430: f32, %out: f32):
      %1103 = arith.mulf %in, %in_430 : f32
      linalg.yield %1103 : f32
    } -> tensor<1x2304x1x1xf32>
    %padded_419 = tensor.pad %997 low[0, 0, 2, 2] high[0, 0, 2, 2] {
    ^bb0(%arg1: index, %arg2: index, %arg3: index, %arg4: index):
      tensor.yield %cst_313 : f32
    } : tensor<1x2304x1x1xf32> to tensor<1x2304x5x5xf32>
    %collapsed_420 = tensor.collapse_shape %cst_31 [[0, 1], [2], [3]] : tensor<2304x1x5x5xf32> into tensor<2304x5x5xf32>
    %998 = linalg.depthwise_conv_2d_nchw_chw {dilations = dense<1> : vector<2xi64>, strides = dense<1> : vector<2xi64>} ins(%padded_419, %collapsed_420 : tensor<1x2304x5x5xf32>, tensor<2304x5x5xf32>) outs(%792 : tensor<1x2304x1x1xf32>) -> tensor<1x2304x1x1xf32>
    cf.assert %3, "training is not supported for now"
    %999 = linalg.generic {indexing_maps = [#map, #map1, #map1, #map1, #map1, #map], iterator_types = ["parallel", "parallel", "parallel", "parallel"]} ins(%998, %cst_89, %cst_88, %cst_88, %cst_89 : tensor<1x2304x1x1xf32>, tensor<2304xf32>, tensor<2304xf32>, tensor<2304xf32>, tensor<2304xf32>) outs(%998 : tensor<1x2304x1x1xf32>) {
    ^bb0(%in: f32, %in_430: f32, %in_431: f32, %in_432: f32, %in_433: f32, %out: f32):
      %1103 = arith.truncf %cst_314 : f64 to f32
      %1104 = arith.addf %in_433, %1103 : f32
      %1105 = math.rsqrt %1104 : f32
      %1106 = arith.subf %in, %in_432 : f32
      %1107 = arith.mulf %1106, %1105 : f32
      %1108 = arith.mulf %1107, %in_430 : f32
      %1109 = arith.addf %1108, %in_431 : f32
      linalg.yield %1109 : f32
    } -> tensor<1x2304x1x1xf32>
    %1000 = linalg.generic {indexing_maps = [#map3, #map], iterator_types = ["parallel", "parallel", "parallel", "parallel"]} ins(%999 : tensor<1x2304x1x1xf32>) outs(%791 : tensor<1x2304x1x1xf32>) {
    ^bb0(%in: f32, %out: f32):
      %1103 = arith.negf %in : f32
      %1104 = math.exp %1103 : f32
      %1105 = arith.addf %1104, %cst_319 : f32
      %1106 = arith.divf %cst_319, %1105 : f32
      linalg.yield %1106 : f32
    } -> tensor<1x2304x1x1xf32>
    %1001 = linalg.generic {indexing_maps = [#map3, #map3, #map], iterator_types = ["parallel", "parallel", "parallel", "parallel"]} ins(%1000, %999 : tensor<1x2304x1x1xf32>, tensor<1x2304x1x1xf32>) outs(%791 : tensor<1x2304x1x1xf32>) {
    ^bb0(%in: f32, %in_430: f32, %out: f32):
      %1103 = arith.mulf %in, %in_430 : f32
      linalg.yield %1103 : f32
    } -> tensor<1x2304x1x1xf32>
    %1002 = linalg.pooling_nchw_sum {dilations = dense<1> : vector<2xi64>, strides = dense<1> : vector<2xi64>} ins(%1001, %779 : tensor<1x2304x1x1xf32>, tensor<1x1xf32>) outs(%792 : tensor<1x2304x1x1xf32>) -> tensor<1x2304x1x1xf32>
    %1003 = linalg.conv_2d_nchw_fchw {dilations = dense<1> : vector<2xi64>, strides = dense<1> : vector<2xi64>} ins(%1002, %cst_30 : tensor<1x2304x1x1xf32>, tensor<96x2304x1x1xf32>) outs(%803 : tensor<1x96x1x1xf32>) -> tensor<1x96x1x1xf32>
    %1004 = linalg.generic {indexing_maps = [#map3, #map], iterator_types = ["parallel", "parallel", "parallel", "parallel"]} ins(%1003 : tensor<1x96x1x1xf32>) outs(%802 : tensor<1x96x1x1xf32>) {
    ^bb0(%in: f32, %out: f32):
      %1103 = arith.negf %in : f32
      %1104 = math.exp %1103 : f32
      %1105 = arith.addf %1104, %cst_319 : f32
      %1106 = arith.divf %cst_319, %1105 : f32
      linalg.yield %1106 : f32
    } -> tensor<1x96x1x1xf32>
    %1005 = linalg.generic {indexing_maps = [#map3, #map3, #map], iterator_types = ["parallel", "parallel", "parallel", "parallel"]} ins(%1004, %1003 : tensor<1x96x1x1xf32>, tensor<1x96x1x1xf32>) outs(%802 : tensor<1x96x1x1xf32>) {
    ^bb0(%in: f32, %in_430: f32, %out: f32):
      %1103 = arith.mulf %in, %in_430 : f32
      linalg.yield %1103 : f32
    } -> tensor<1x96x1x1xf32>
    %1006 = linalg.conv_2d_nchw_fchw {dilations = dense<1> : vector<2xi64>, strides = dense<1> : vector<2xi64>} ins(%1005, %cst_29 : tensor<1x96x1x1xf32>, tensor<2304x96x1x1xf32>) outs(%807 : tensor<1x2304x1x1xf32>) -> tensor<1x2304x1x1xf32>
    %1007 = linalg.generic {indexing_maps = [#map3, #map], iterator_types = ["parallel", "parallel", "parallel", "parallel"]} ins(%1006 : tensor<1x2304x1x1xf32>) outs(%791 : tensor<1x2304x1x1xf32>) {
    ^bb0(%in: f32, %out: f32):
      %1103 = arith.negf %in : f32
      %1104 = math.exp %1103 : f32
      %1105 = arith.addf %1104, %cst_319 : f32
      %1106 = arith.divf %cst_319, %1105 : f32
      linalg.yield %1106 : f32
    } -> tensor<1x2304x1x1xf32>
    %1008 = linalg.generic {indexing_maps = [#map3, #map3, #map], iterator_types = ["parallel", "parallel", "parallel", "parallel"]} ins(%1007, %1001 : tensor<1x2304x1x1xf32>, tensor<1x2304x1x1xf32>) outs(%791 : tensor<1x2304x1x1xf32>) {
    ^bb0(%in: f32, %in_430: f32, %out: f32):
      %1103 = arith.mulf %in, %in_430 : f32
      linalg.yield %1103 : f32
    } -> tensor<1x2304x1x1xf32>
    %1009 = linalg.conv_2d_nchw_fchw {dilations = dense<1> : vector<2xi64>, strides = dense<1> : vector<2xi64>} ins(%1008, %cst_28 : tensor<1x2304x1x1xf32>, tensor<384x2304x1x1xf32>) outs(%788 : tensor<1x384x1x1xf32>) -> tensor<1x384x1x1xf32>
    cf.assert %3, "training is not supported for now"
    %1010 = linalg.generic {indexing_maps = [#map, #map1, #map1, #map1, #map1, #map], iterator_types = ["parallel", "parallel", "parallel", "parallel"]} ins(%1009, %cst_92, %cst_91, %cst_91, %cst_92 : tensor<1x384x1x1xf32>, tensor<384xf32>, tensor<384xf32>, tensor<384xf32>, tensor<384xf32>) outs(%1009 : tensor<1x384x1x1xf32>) {
    ^bb0(%in: f32, %in_430: f32, %in_431: f32, %in_432: f32, %in_433: f32, %out: f32):
      %1103 = arith.truncf %cst_314 : f64 to f32
      %1104 = arith.addf %in_433, %1103 : f32
      %1105 = math.rsqrt %1104 : f32
      %1106 = arith.subf %in, %in_432 : f32
      %1107 = arith.mulf %1106, %1105 : f32
      %1108 = arith.mulf %1107, %in_430 : f32
      %1109 = arith.addf %1108, %in_431 : f32
      linalg.yield %1109 : f32
    } -> tensor<1x384x1x1xf32>
    %1011 = linalg.generic {indexing_maps = [#map3, #map3, #map], iterator_types = ["parallel", "parallel", "parallel", "parallel"]} ins(%1010, %993 : tensor<1x384x1x1xf32>, tensor<1x384x1x1xf32>) outs(%787 : tensor<1x384x1x1xf32>) {
    ^bb0(%in: f32, %in_430: f32, %out: f32):
      %1103 = arith.addf %in, %in_430 : f32
      linalg.yield %1103 : f32
    } -> tensor<1x384x1x1xf32>
    %1012 = linalg.conv_2d_nchw_fchw {dilations = dense<1> : vector<2xi64>, strides = dense<1> : vector<2xi64>} ins(%1011, %cst_27 : tensor<1x384x1x1xf32>, tensor<2304x384x1x1xf32>) outs(%792 : tensor<1x2304x1x1xf32>) -> tensor<1x2304x1x1xf32>
    cf.assert %3, "training is not supported for now"
    %1013 = linalg.generic {indexing_maps = [#map, #map1, #map1, #map1, #map1, #map], iterator_types = ["parallel", "parallel", "parallel", "parallel"]} ins(%1012, %cst_89, %cst_88, %cst_88, %cst_89 : tensor<1x2304x1x1xf32>, tensor<2304xf32>, tensor<2304xf32>, tensor<2304xf32>, tensor<2304xf32>) outs(%1012 : tensor<1x2304x1x1xf32>) {
    ^bb0(%in: f32, %in_430: f32, %in_431: f32, %in_432: f32, %in_433: f32, %out: f32):
      %1103 = arith.truncf %cst_314 : f64 to f32
      %1104 = arith.addf %in_433, %1103 : f32
      %1105 = math.rsqrt %1104 : f32
      %1106 = arith.subf %in, %in_432 : f32
      %1107 = arith.mulf %1106, %1105 : f32
      %1108 = arith.mulf %1107, %in_430 : f32
      %1109 = arith.addf %1108, %in_431 : f32
      linalg.yield %1109 : f32
    } -> tensor<1x2304x1x1xf32>
    %1014 = linalg.generic {indexing_maps = [#map3, #map], iterator_types = ["parallel", "parallel", "parallel", "parallel"]} ins(%1013 : tensor<1x2304x1x1xf32>) outs(%791 : tensor<1x2304x1x1xf32>) {
    ^bb0(%in: f32, %out: f32):
      %1103 = arith.negf %in : f32
      %1104 = math.exp %1103 : f32
      %1105 = arith.addf %1104, %cst_319 : f32
      %1106 = arith.divf %cst_319, %1105 : f32
      linalg.yield %1106 : f32
    } -> tensor<1x2304x1x1xf32>
    %1015 = linalg.generic {indexing_maps = [#map3, #map3, #map], iterator_types = ["parallel", "parallel", "parallel", "parallel"]} ins(%1014, %1013 : tensor<1x2304x1x1xf32>, tensor<1x2304x1x1xf32>) outs(%791 : tensor<1x2304x1x1xf32>) {
    ^bb0(%in: f32, %in_430: f32, %out: f32):
      %1103 = arith.mulf %in, %in_430 : f32
      linalg.yield %1103 : f32
    } -> tensor<1x2304x1x1xf32>
    %padded_421 = tensor.pad %1015 low[0, 0, 1, 1] high[0, 0, 1, 1] {
    ^bb0(%arg1: index, %arg2: index, %arg3: index, %arg4: index):
      tensor.yield %cst_313 : f32
    } : tensor<1x2304x1x1xf32> to tensor<1x2304x3x3xf32>
    %collapsed_422 = tensor.collapse_shape %cst_26 [[0, 1], [2], [3]] : tensor<2304x1x3x3xf32> into tensor<2304x3x3xf32>
    %1016 = linalg.depthwise_conv_2d_nchw_chw {dilations = dense<1> : vector<2xi64>, strides = dense<1> : vector<2xi64>} ins(%padded_421, %collapsed_422 : tensor<1x2304x3x3xf32>, tensor<2304x3x3xf32>) outs(%792 : tensor<1x2304x1x1xf32>) -> tensor<1x2304x1x1xf32>
    cf.assert %3, "training is not supported for now"
    %1017 = linalg.generic {indexing_maps = [#map, #map1, #map1, #map1, #map1, #map], iterator_types = ["parallel", "parallel", "parallel", "parallel"]} ins(%1016, %cst_89, %cst_88, %cst_88, %cst_89 : tensor<1x2304x1x1xf32>, tensor<2304xf32>, tensor<2304xf32>, tensor<2304xf32>, tensor<2304xf32>) outs(%1016 : tensor<1x2304x1x1xf32>) {
    ^bb0(%in: f32, %in_430: f32, %in_431: f32, %in_432: f32, %in_433: f32, %out: f32):
      %1103 = arith.truncf %cst_314 : f64 to f32
      %1104 = arith.addf %in_433, %1103 : f32
      %1105 = math.rsqrt %1104 : f32
      %1106 = arith.subf %in, %in_432 : f32
      %1107 = arith.mulf %1106, %1105 : f32
      %1108 = arith.mulf %1107, %in_430 : f32
      %1109 = arith.addf %1108, %in_431 : f32
      linalg.yield %1109 : f32
    } -> tensor<1x2304x1x1xf32>
    %1018 = linalg.generic {indexing_maps = [#map3, #map], iterator_types = ["parallel", "parallel", "parallel", "parallel"]} ins(%1017 : tensor<1x2304x1x1xf32>) outs(%791 : tensor<1x2304x1x1xf32>) {
    ^bb0(%in: f32, %out: f32):
      %1103 = arith.negf %in : f32
      %1104 = math.exp %1103 : f32
      %1105 = arith.addf %1104, %cst_319 : f32
      %1106 = arith.divf %cst_319, %1105 : f32
      linalg.yield %1106 : f32
    } -> tensor<1x2304x1x1xf32>
    %1019 = linalg.generic {indexing_maps = [#map3, #map3, #map], iterator_types = ["parallel", "parallel", "parallel", "parallel"]} ins(%1018, %1017 : tensor<1x2304x1x1xf32>, tensor<1x2304x1x1xf32>) outs(%791 : tensor<1x2304x1x1xf32>) {
    ^bb0(%in: f32, %in_430: f32, %out: f32):
      %1103 = arith.mulf %in, %in_430 : f32
      linalg.yield %1103 : f32
    } -> tensor<1x2304x1x1xf32>
    %1020 = linalg.pooling_nchw_sum {dilations = dense<1> : vector<2xi64>, strides = dense<1> : vector<2xi64>} ins(%1019, %779 : tensor<1x2304x1x1xf32>, tensor<1x1xf32>) outs(%792 : tensor<1x2304x1x1xf32>) -> tensor<1x2304x1x1xf32>
    %1021 = linalg.conv_2d_nchw_fchw {dilations = dense<1> : vector<2xi64>, strides = dense<1> : vector<2xi64>} ins(%1020, %cst_25 : tensor<1x2304x1x1xf32>, tensor<96x2304x1x1xf32>) outs(%803 : tensor<1x96x1x1xf32>) -> tensor<1x96x1x1xf32>
    %1022 = linalg.generic {indexing_maps = [#map3, #map], iterator_types = ["parallel", "parallel", "parallel", "parallel"]} ins(%1021 : tensor<1x96x1x1xf32>) outs(%802 : tensor<1x96x1x1xf32>) {
    ^bb0(%in: f32, %out: f32):
      %1103 = arith.negf %in : f32
      %1104 = math.exp %1103 : f32
      %1105 = arith.addf %1104, %cst_319 : f32
      %1106 = arith.divf %cst_319, %1105 : f32
      linalg.yield %1106 : f32
    } -> tensor<1x96x1x1xf32>
    %1023 = linalg.generic {indexing_maps = [#map3, #map3, #map], iterator_types = ["parallel", "parallel", "parallel", "parallel"]} ins(%1022, %1021 : tensor<1x96x1x1xf32>, tensor<1x96x1x1xf32>) outs(%802 : tensor<1x96x1x1xf32>) {
    ^bb0(%in: f32, %in_430: f32, %out: f32):
      %1103 = arith.mulf %in, %in_430 : f32
      linalg.yield %1103 : f32
    } -> tensor<1x96x1x1xf32>
    %1024 = linalg.conv_2d_nchw_fchw {dilations = dense<1> : vector<2xi64>, strides = dense<1> : vector<2xi64>} ins(%1023, %cst_24 : tensor<1x96x1x1xf32>, tensor<2304x96x1x1xf32>) outs(%807 : tensor<1x2304x1x1xf32>) -> tensor<1x2304x1x1xf32>
    %1025 = linalg.generic {indexing_maps = [#map3, #map], iterator_types = ["parallel", "parallel", "parallel", "parallel"]} ins(%1024 : tensor<1x2304x1x1xf32>) outs(%791 : tensor<1x2304x1x1xf32>) {
    ^bb0(%in: f32, %out: f32):
      %1103 = arith.negf %in : f32
      %1104 = math.exp %1103 : f32
      %1105 = arith.addf %1104, %cst_319 : f32
      %1106 = arith.divf %cst_319, %1105 : f32
      linalg.yield %1106 : f32
    } -> tensor<1x2304x1x1xf32>
    %1026 = linalg.generic {indexing_maps = [#map3, #map3, #map], iterator_types = ["parallel", "parallel", "parallel", "parallel"]} ins(%1025, %1019 : tensor<1x2304x1x1xf32>, tensor<1x2304x1x1xf32>) outs(%791 : tensor<1x2304x1x1xf32>) {
    ^bb0(%in: f32, %in_430: f32, %out: f32):
      %1103 = arith.mulf %in, %in_430 : f32
      linalg.yield %1103 : f32
    } -> tensor<1x2304x1x1xf32>
    %1027 = tensor.empty() : tensor<1x640x1x1xf32>
    %1028 = linalg.fill ins(%cst_313 : f32) outs(%1027 : tensor<1x640x1x1xf32>) -> tensor<1x640x1x1xf32>
    %1029 = linalg.conv_2d_nchw_fchw {dilations = dense<1> : vector<2xi64>, strides = dense<1> : vector<2xi64>} ins(%1026, %cst_23 : tensor<1x2304x1x1xf32>, tensor<640x2304x1x1xf32>) outs(%1028 : tensor<1x640x1x1xf32>) -> tensor<1x640x1x1xf32>
    cf.assert %3, "training is not supported for now"
    %1030 = linalg.generic {indexing_maps = [#map, #map1, #map1, #map1, #map1, #map], iterator_types = ["parallel", "parallel", "parallel", "parallel"]} ins(%1029, %cst_22, %cst_21, %cst_21, %cst_22 : tensor<1x640x1x1xf32>, tensor<640xf32>, tensor<640xf32>, tensor<640xf32>, tensor<640xf32>) outs(%1029 : tensor<1x640x1x1xf32>) {
    ^bb0(%in: f32, %in_430: f32, %in_431: f32, %in_432: f32, %in_433: f32, %out: f32):
      %1103 = arith.truncf %cst_314 : f64 to f32
      %1104 = arith.addf %in_433, %1103 : f32
      %1105 = math.rsqrt %1104 : f32
      %1106 = arith.subf %in, %in_432 : f32
      %1107 = arith.mulf %1106, %1105 : f32
      %1108 = arith.mulf %1107, %in_430 : f32
      %1109 = arith.addf %1108, %in_431 : f32
      linalg.yield %1109 : f32
    } -> tensor<1x640x1x1xf32>
    %1031 = tensor.empty() : tensor<1x3840x1x1xf32>
    %1032 = linalg.fill ins(%cst_313 : f32) outs(%1031 : tensor<1x3840x1x1xf32>) -> tensor<1x3840x1x1xf32>
    %1033 = linalg.conv_2d_nchw_fchw {dilations = dense<1> : vector<2xi64>, strides = dense<1> : vector<2xi64>} ins(%1030, %cst_20 : tensor<1x640x1x1xf32>, tensor<3840x640x1x1xf32>) outs(%1032 : tensor<1x3840x1x1xf32>) -> tensor<1x3840x1x1xf32>
    cf.assert %3, "training is not supported for now"
    %1034 = linalg.generic {indexing_maps = [#map, #map1, #map1, #map1, #map1, #map], iterator_types = ["parallel", "parallel", "parallel", "parallel"]} ins(%1033, %cst_19, %cst_18, %cst_18, %cst_19 : tensor<1x3840x1x1xf32>, tensor<3840xf32>, tensor<3840xf32>, tensor<3840xf32>, tensor<3840xf32>) outs(%1033 : tensor<1x3840x1x1xf32>) {
    ^bb0(%in: f32, %in_430: f32, %in_431: f32, %in_432: f32, %in_433: f32, %out: f32):
      %1103 = arith.truncf %cst_314 : f64 to f32
      %1104 = arith.addf %in_433, %1103 : f32
      %1105 = math.rsqrt %1104 : f32
      %1106 = arith.subf %in, %in_432 : f32
      %1107 = arith.mulf %1106, %1105 : f32
      %1108 = arith.mulf %1107, %in_430 : f32
      %1109 = arith.addf %1108, %in_431 : f32
      linalg.yield %1109 : f32
    } -> tensor<1x3840x1x1xf32>
    %1035 = linalg.generic {indexing_maps = [#map3, #map], iterator_types = ["parallel", "parallel", "parallel", "parallel"]} ins(%1034 : tensor<1x3840x1x1xf32>) outs(%1031 : tensor<1x3840x1x1xf32>) {
    ^bb0(%in: f32, %out: f32):
      %1103 = arith.negf %in : f32
      %1104 = math.exp %1103 : f32
      %1105 = arith.addf %1104, %cst_319 : f32
      %1106 = arith.divf %cst_319, %1105 : f32
      linalg.yield %1106 : f32
    } -> tensor<1x3840x1x1xf32>
    %1036 = linalg.generic {indexing_maps = [#map3, #map3, #map], iterator_types = ["parallel", "parallel", "parallel", "parallel"]} ins(%1035, %1034 : tensor<1x3840x1x1xf32>, tensor<1x3840x1x1xf32>) outs(%1031 : tensor<1x3840x1x1xf32>) {
    ^bb0(%in: f32, %in_430: f32, %out: f32):
      %1103 = arith.mulf %in, %in_430 : f32
      linalg.yield %1103 : f32
    } -> tensor<1x3840x1x1xf32>
    %padded_423 = tensor.pad %1036 low[0, 0, 1, 1] high[0, 0, 1, 1] {
    ^bb0(%arg1: index, %arg2: index, %arg3: index, %arg4: index):
      tensor.yield %cst_313 : f32
    } : tensor<1x3840x1x1xf32> to tensor<1x3840x3x3xf32>
    %collapsed_424 = tensor.collapse_shape %cst_17 [[0, 1], [2], [3]] : tensor<3840x1x3x3xf32> into tensor<3840x3x3xf32>
    %1037 = linalg.depthwise_conv_2d_nchw_chw {dilations = dense<1> : vector<2xi64>, strides = dense<1> : vector<2xi64>} ins(%padded_423, %collapsed_424 : tensor<1x3840x3x3xf32>, tensor<3840x3x3xf32>) outs(%1032 : tensor<1x3840x1x1xf32>) -> tensor<1x3840x1x1xf32>
    cf.assert %3, "training is not supported for now"
    %1038 = linalg.generic {indexing_maps = [#map, #map1, #map1, #map1, #map1, #map], iterator_types = ["parallel", "parallel", "parallel", "parallel"]} ins(%1037, %cst_19, %cst_18, %cst_18, %cst_19 : tensor<1x3840x1x1xf32>, tensor<3840xf32>, tensor<3840xf32>, tensor<3840xf32>, tensor<3840xf32>) outs(%1037 : tensor<1x3840x1x1xf32>) {
    ^bb0(%in: f32, %in_430: f32, %in_431: f32, %in_432: f32, %in_433: f32, %out: f32):
      %1103 = arith.truncf %cst_314 : f64 to f32
      %1104 = arith.addf %in_433, %1103 : f32
      %1105 = math.rsqrt %1104 : f32
      %1106 = arith.subf %in, %in_432 : f32
      %1107 = arith.mulf %1106, %1105 : f32
      %1108 = arith.mulf %1107, %in_430 : f32
      %1109 = arith.addf %1108, %in_431 : f32
      linalg.yield %1109 : f32
    } -> tensor<1x3840x1x1xf32>
    %1039 = linalg.generic {indexing_maps = [#map3, #map], iterator_types = ["parallel", "parallel", "parallel", "parallel"]} ins(%1038 : tensor<1x3840x1x1xf32>) outs(%1031 : tensor<1x3840x1x1xf32>) {
    ^bb0(%in: f32, %out: f32):
      %1103 = arith.negf %in : f32
      %1104 = math.exp %1103 : f32
      %1105 = arith.addf %1104, %cst_319 : f32
      %1106 = arith.divf %cst_319, %1105 : f32
      linalg.yield %1106 : f32
    } -> tensor<1x3840x1x1xf32>
    %1040 = linalg.generic {indexing_maps = [#map3, #map3, #map], iterator_types = ["parallel", "parallel", "parallel", "parallel"]} ins(%1039, %1038 : tensor<1x3840x1x1xf32>, tensor<1x3840x1x1xf32>) outs(%1031 : tensor<1x3840x1x1xf32>) {
    ^bb0(%in: f32, %in_430: f32, %out: f32):
      %1103 = arith.mulf %in, %in_430 : f32
      linalg.yield %1103 : f32
    } -> tensor<1x3840x1x1xf32>
    %1041 = linalg.pooling_nchw_sum {dilations = dense<1> : vector<2xi64>, strides = dense<1> : vector<2xi64>} ins(%1040, %779 : tensor<1x3840x1x1xf32>, tensor<1x1xf32>) outs(%1032 : tensor<1x3840x1x1xf32>) -> tensor<1x3840x1x1xf32>
    %1042 = tensor.empty() : tensor<1x160x1x1xf32>
    %1043 = linalg.generic {indexing_maps = [#map1, #map], iterator_types = ["parallel", "parallel", "parallel", "parallel"]} ins(%cst_201 : tensor<160xf32>) outs(%1042 : tensor<1x160x1x1xf32>) {
    ^bb0(%in: f32, %out: f32):
      linalg.yield %in : f32
    } -> tensor<1x160x1x1xf32>
    %1044 = linalg.conv_2d_nchw_fchw {dilations = dense<1> : vector<2xi64>, strides = dense<1> : vector<2xi64>} ins(%1041, %cst_16 : tensor<1x3840x1x1xf32>, tensor<160x3840x1x1xf32>) outs(%1043 : tensor<1x160x1x1xf32>) -> tensor<1x160x1x1xf32>
    %1045 = linalg.generic {indexing_maps = [#map3, #map], iterator_types = ["parallel", "parallel", "parallel", "parallel"]} ins(%1044 : tensor<1x160x1x1xf32>) outs(%1042 : tensor<1x160x1x1xf32>) {
    ^bb0(%in: f32, %out: f32):
      %1103 = arith.negf %in : f32
      %1104 = math.exp %1103 : f32
      %1105 = arith.addf %1104, %cst_319 : f32
      %1106 = arith.divf %cst_319, %1105 : f32
      linalg.yield %1106 : f32
    } -> tensor<1x160x1x1xf32>
    %1046 = linalg.generic {indexing_maps = [#map3, #map3, #map], iterator_types = ["parallel", "parallel", "parallel", "parallel"]} ins(%1045, %1044 : tensor<1x160x1x1xf32>, tensor<1x160x1x1xf32>) outs(%1042 : tensor<1x160x1x1xf32>) {
    ^bb0(%in: f32, %in_430: f32, %out: f32):
      %1103 = arith.mulf %in, %in_430 : f32
      linalg.yield %1103 : f32
    } -> tensor<1x160x1x1xf32>
    %1047 = linalg.generic {indexing_maps = [#map1, #map], iterator_types = ["parallel", "parallel", "parallel", "parallel"]} ins(%cst_18 : tensor<3840xf32>) outs(%1031 : tensor<1x3840x1x1xf32>) {
    ^bb0(%in: f32, %out: f32):
      linalg.yield %in : f32
    } -> tensor<1x3840x1x1xf32>
    %1048 = linalg.conv_2d_nchw_fchw {dilations = dense<1> : vector<2xi64>, strides = dense<1> : vector<2xi64>} ins(%1046, %cst_15 : tensor<1x160x1x1xf32>, tensor<3840x160x1x1xf32>) outs(%1047 : tensor<1x3840x1x1xf32>) -> tensor<1x3840x1x1xf32>
    %1049 = linalg.generic {indexing_maps = [#map3, #map], iterator_types = ["parallel", "parallel", "parallel", "parallel"]} ins(%1048 : tensor<1x3840x1x1xf32>) outs(%1031 : tensor<1x3840x1x1xf32>) {
    ^bb0(%in: f32, %out: f32):
      %1103 = arith.negf %in : f32
      %1104 = math.exp %1103 : f32
      %1105 = arith.addf %1104, %cst_319 : f32
      %1106 = arith.divf %cst_319, %1105 : f32
      linalg.yield %1106 : f32
    } -> tensor<1x3840x1x1xf32>
    %1050 = linalg.generic {indexing_maps = [#map3, #map3, #map], iterator_types = ["parallel", "parallel", "parallel", "parallel"]} ins(%1049, %1040 : tensor<1x3840x1x1xf32>, tensor<1x3840x1x1xf32>) outs(%1031 : tensor<1x3840x1x1xf32>) {
    ^bb0(%in: f32, %in_430: f32, %out: f32):
      %1103 = arith.mulf %in, %in_430 : f32
      linalg.yield %1103 : f32
    } -> tensor<1x3840x1x1xf32>
    %1051 = linalg.conv_2d_nchw_fchw {dilations = dense<1> : vector<2xi64>, strides = dense<1> : vector<2xi64>} ins(%1050, %cst_14 : tensor<1x3840x1x1xf32>, tensor<640x3840x1x1xf32>) outs(%1028 : tensor<1x640x1x1xf32>) -> tensor<1x640x1x1xf32>
    cf.assert %3, "training is not supported for now"
    %1052 = linalg.generic {indexing_maps = [#map, #map1, #map1, #map1, #map1, #map], iterator_types = ["parallel", "parallel", "parallel", "parallel"]} ins(%1051, %cst_22, %cst_21, %cst_21, %cst_22 : tensor<1x640x1x1xf32>, tensor<640xf32>, tensor<640xf32>, tensor<640xf32>, tensor<640xf32>) outs(%1051 : tensor<1x640x1x1xf32>) {
    ^bb0(%in: f32, %in_430: f32, %in_431: f32, %in_432: f32, %in_433: f32, %out: f32):
      %1103 = arith.truncf %cst_314 : f64 to f32
      %1104 = arith.addf %in_433, %1103 : f32
      %1105 = math.rsqrt %1104 : f32
      %1106 = arith.subf %in, %in_432 : f32
      %1107 = arith.mulf %1106, %1105 : f32
      %1108 = arith.mulf %1107, %in_430 : f32
      %1109 = arith.addf %1108, %in_431 : f32
      linalg.yield %1109 : f32
    } -> tensor<1x640x1x1xf32>
    %1053 = linalg.generic {indexing_maps = [#map3, #map3, #map], iterator_types = ["parallel", "parallel", "parallel", "parallel"]} ins(%1052, %1030 : tensor<1x640x1x1xf32>, tensor<1x640x1x1xf32>) outs(%1027 : tensor<1x640x1x1xf32>) {
    ^bb0(%in: f32, %in_430: f32, %out: f32):
      %1103 = arith.addf %in, %in_430 : f32
      linalg.yield %1103 : f32
    } -> tensor<1x640x1x1xf32>
    %1054 = linalg.conv_2d_nchw_fchw {dilations = dense<1> : vector<2xi64>, strides = dense<1> : vector<2xi64>} ins(%1053, %cst_13 : tensor<1x640x1x1xf32>, tensor<3840x640x1x1xf32>) outs(%1032 : tensor<1x3840x1x1xf32>) -> tensor<1x3840x1x1xf32>
    cf.assert %3, "training is not supported for now"
    %1055 = linalg.generic {indexing_maps = [#map, #map1, #map1, #map1, #map1, #map], iterator_types = ["parallel", "parallel", "parallel", "parallel"]} ins(%1054, %cst_19, %cst_18, %cst_18, %cst_19 : tensor<1x3840x1x1xf32>, tensor<3840xf32>, tensor<3840xf32>, tensor<3840xf32>, tensor<3840xf32>) outs(%1054 : tensor<1x3840x1x1xf32>) {
    ^bb0(%in: f32, %in_430: f32, %in_431: f32, %in_432: f32, %in_433: f32, %out: f32):
      %1103 = arith.truncf %cst_314 : f64 to f32
      %1104 = arith.addf %in_433, %1103 : f32
      %1105 = math.rsqrt %1104 : f32
      %1106 = arith.subf %in, %in_432 : f32
      %1107 = arith.mulf %1106, %1105 : f32
      %1108 = arith.mulf %1107, %in_430 : f32
      %1109 = arith.addf %1108, %in_431 : f32
      linalg.yield %1109 : f32
    } -> tensor<1x3840x1x1xf32>
    %1056 = linalg.generic {indexing_maps = [#map3, #map], iterator_types = ["parallel", "parallel", "parallel", "parallel"]} ins(%1055 : tensor<1x3840x1x1xf32>) outs(%1031 : tensor<1x3840x1x1xf32>) {
    ^bb0(%in: f32, %out: f32):
      %1103 = arith.negf %in : f32
      %1104 = math.exp %1103 : f32
      %1105 = arith.addf %1104, %cst_319 : f32
      %1106 = arith.divf %cst_319, %1105 : f32
      linalg.yield %1106 : f32
    } -> tensor<1x3840x1x1xf32>
    %1057 = linalg.generic {indexing_maps = [#map3, #map3, #map], iterator_types = ["parallel", "parallel", "parallel", "parallel"]} ins(%1056, %1055 : tensor<1x3840x1x1xf32>, tensor<1x3840x1x1xf32>) outs(%1031 : tensor<1x3840x1x1xf32>) {
    ^bb0(%in: f32, %in_430: f32, %out: f32):
      %1103 = arith.mulf %in, %in_430 : f32
      linalg.yield %1103 : f32
    } -> tensor<1x3840x1x1xf32>
    %padded_425 = tensor.pad %1057 low[0, 0, 1, 1] high[0, 0, 1, 1] {
    ^bb0(%arg1: index, %arg2: index, %arg3: index, %arg4: index):
      tensor.yield %cst_313 : f32
    } : tensor<1x3840x1x1xf32> to tensor<1x3840x3x3xf32>
    %collapsed_426 = tensor.collapse_shape %cst_12 [[0, 1], [2], [3]] : tensor<3840x1x3x3xf32> into tensor<3840x3x3xf32>
    %1058 = linalg.depthwise_conv_2d_nchw_chw {dilations = dense<1> : vector<2xi64>, strides = dense<1> : vector<2xi64>} ins(%padded_425, %collapsed_426 : tensor<1x3840x3x3xf32>, tensor<3840x3x3xf32>) outs(%1032 : tensor<1x3840x1x1xf32>) -> tensor<1x3840x1x1xf32>
    cf.assert %3, "training is not supported for now"
    %1059 = linalg.generic {indexing_maps = [#map, #map1, #map1, #map1, #map1, #map], iterator_types = ["parallel", "parallel", "parallel", "parallel"]} ins(%1058, %cst_19, %cst_18, %cst_18, %cst_19 : tensor<1x3840x1x1xf32>, tensor<3840xf32>, tensor<3840xf32>, tensor<3840xf32>, tensor<3840xf32>) outs(%1058 : tensor<1x3840x1x1xf32>) {
    ^bb0(%in: f32, %in_430: f32, %in_431: f32, %in_432: f32, %in_433: f32, %out: f32):
      %1103 = arith.truncf %cst_314 : f64 to f32
      %1104 = arith.addf %in_433, %1103 : f32
      %1105 = math.rsqrt %1104 : f32
      %1106 = arith.subf %in, %in_432 : f32
      %1107 = arith.mulf %1106, %1105 : f32
      %1108 = arith.mulf %1107, %in_430 : f32
      %1109 = arith.addf %1108, %in_431 : f32
      linalg.yield %1109 : f32
    } -> tensor<1x3840x1x1xf32>
    %1060 = linalg.generic {indexing_maps = [#map3, #map], iterator_types = ["parallel", "parallel", "parallel", "parallel"]} ins(%1059 : tensor<1x3840x1x1xf32>) outs(%1031 : tensor<1x3840x1x1xf32>) {
    ^bb0(%in: f32, %out: f32):
      %1103 = arith.negf %in : f32
      %1104 = math.exp %1103 : f32
      %1105 = arith.addf %1104, %cst_319 : f32
      %1106 = arith.divf %cst_319, %1105 : f32
      linalg.yield %1106 : f32
    } -> tensor<1x3840x1x1xf32>
    %1061 = linalg.generic {indexing_maps = [#map3, #map3, #map], iterator_types = ["parallel", "parallel", "parallel", "parallel"]} ins(%1060, %1059 : tensor<1x3840x1x1xf32>, tensor<1x3840x1x1xf32>) outs(%1031 : tensor<1x3840x1x1xf32>) {
    ^bb0(%in: f32, %in_430: f32, %out: f32):
      %1103 = arith.mulf %in, %in_430 : f32
      linalg.yield %1103 : f32
    } -> tensor<1x3840x1x1xf32>
    %1062 = linalg.pooling_nchw_sum {dilations = dense<1> : vector<2xi64>, strides = dense<1> : vector<2xi64>} ins(%1061, %779 : tensor<1x3840x1x1xf32>, tensor<1x1xf32>) outs(%1032 : tensor<1x3840x1x1xf32>) -> tensor<1x3840x1x1xf32>
    %1063 = linalg.conv_2d_nchw_fchw {dilations = dense<1> : vector<2xi64>, strides = dense<1> : vector<2xi64>} ins(%1062, %cst_11 : tensor<1x3840x1x1xf32>, tensor<160x3840x1x1xf32>) outs(%1043 : tensor<1x160x1x1xf32>) -> tensor<1x160x1x1xf32>
    %1064 = linalg.generic {indexing_maps = [#map3, #map], iterator_types = ["parallel", "parallel", "parallel", "parallel"]} ins(%1063 : tensor<1x160x1x1xf32>) outs(%1042 : tensor<1x160x1x1xf32>) {
    ^bb0(%in: f32, %out: f32):
      %1103 = arith.negf %in : f32
      %1104 = math.exp %1103 : f32
      %1105 = arith.addf %1104, %cst_319 : f32
      %1106 = arith.divf %cst_319, %1105 : f32
      linalg.yield %1106 : f32
    } -> tensor<1x160x1x1xf32>
    %1065 = linalg.generic {indexing_maps = [#map3, #map3, #map], iterator_types = ["parallel", "parallel", "parallel", "parallel"]} ins(%1064, %1063 : tensor<1x160x1x1xf32>, tensor<1x160x1x1xf32>) outs(%1042 : tensor<1x160x1x1xf32>) {
    ^bb0(%in: f32, %in_430: f32, %out: f32):
      %1103 = arith.mulf %in, %in_430 : f32
      linalg.yield %1103 : f32
    } -> tensor<1x160x1x1xf32>
    %1066 = linalg.conv_2d_nchw_fchw {dilations = dense<1> : vector<2xi64>, strides = dense<1> : vector<2xi64>} ins(%1065, %cst_10 : tensor<1x160x1x1xf32>, tensor<3840x160x1x1xf32>) outs(%1047 : tensor<1x3840x1x1xf32>) -> tensor<1x3840x1x1xf32>
    %1067 = linalg.generic {indexing_maps = [#map3, #map], iterator_types = ["parallel", "parallel", "parallel", "parallel"]} ins(%1066 : tensor<1x3840x1x1xf32>) outs(%1031 : tensor<1x3840x1x1xf32>) {
    ^bb0(%in: f32, %out: f32):
      %1103 = arith.negf %in : f32
      %1104 = math.exp %1103 : f32
      %1105 = arith.addf %1104, %cst_319 : f32
      %1106 = arith.divf %cst_319, %1105 : f32
      linalg.yield %1106 : f32
    } -> tensor<1x3840x1x1xf32>
    %1068 = linalg.generic {indexing_maps = [#map3, #map3, #map], iterator_types = ["parallel", "parallel", "parallel", "parallel"]} ins(%1067, %1061 : tensor<1x3840x1x1xf32>, tensor<1x3840x1x1xf32>) outs(%1031 : tensor<1x3840x1x1xf32>) {
    ^bb0(%in: f32, %in_430: f32, %out: f32):
      %1103 = arith.mulf %in, %in_430 : f32
      linalg.yield %1103 : f32
    } -> tensor<1x3840x1x1xf32>
    %1069 = linalg.conv_2d_nchw_fchw {dilations = dense<1> : vector<2xi64>, strides = dense<1> : vector<2xi64>} ins(%1068, %cst_9 : tensor<1x3840x1x1xf32>, tensor<640x3840x1x1xf32>) outs(%1028 : tensor<1x640x1x1xf32>) -> tensor<1x640x1x1xf32>
    cf.assert %3, "training is not supported for now"
    %1070 = linalg.generic {indexing_maps = [#map, #map1, #map1, #map1, #map1, #map], iterator_types = ["parallel", "parallel", "parallel", "parallel"]} ins(%1069, %cst_22, %cst_21, %cst_21, %cst_22 : tensor<1x640x1x1xf32>, tensor<640xf32>, tensor<640xf32>, tensor<640xf32>, tensor<640xf32>) outs(%1069 : tensor<1x640x1x1xf32>) {
    ^bb0(%in: f32, %in_430: f32, %in_431: f32, %in_432: f32, %in_433: f32, %out: f32):
      %1103 = arith.truncf %cst_314 : f64 to f32
      %1104 = arith.addf %in_433, %1103 : f32
      %1105 = math.rsqrt %1104 : f32
      %1106 = arith.subf %in, %in_432 : f32
      %1107 = arith.mulf %1106, %1105 : f32
      %1108 = arith.mulf %1107, %in_430 : f32
      %1109 = arith.addf %1108, %in_431 : f32
      linalg.yield %1109 : f32
    } -> tensor<1x640x1x1xf32>
    %1071 = linalg.generic {indexing_maps = [#map3, #map3, #map], iterator_types = ["parallel", "parallel", "parallel", "parallel"]} ins(%1070, %1053 : tensor<1x640x1x1xf32>, tensor<1x640x1x1xf32>) outs(%1027 : tensor<1x640x1x1xf32>) {
    ^bb0(%in: f32, %in_430: f32, %out: f32):
      %1103 = arith.addf %in, %in_430 : f32
      linalg.yield %1103 : f32
    } -> tensor<1x640x1x1xf32>
    %1072 = linalg.conv_2d_nchw_fchw {dilations = dense<1> : vector<2xi64>, strides = dense<1> : vector<2xi64>} ins(%1071, %cst_8 : tensor<1x640x1x1xf32>, tensor<3840x640x1x1xf32>) outs(%1032 : tensor<1x3840x1x1xf32>) -> tensor<1x3840x1x1xf32>
    cf.assert %3, "training is not supported for now"
    %1073 = linalg.generic {indexing_maps = [#map, #map1, #map1, #map1, #map1, #map], iterator_types = ["parallel", "parallel", "parallel", "parallel"]} ins(%1072, %cst_19, %cst_18, %cst_18, %cst_19 : tensor<1x3840x1x1xf32>, tensor<3840xf32>, tensor<3840xf32>, tensor<3840xf32>, tensor<3840xf32>) outs(%1072 : tensor<1x3840x1x1xf32>) {
    ^bb0(%in: f32, %in_430: f32, %in_431: f32, %in_432: f32, %in_433: f32, %out: f32):
      %1103 = arith.truncf %cst_314 : f64 to f32
      %1104 = arith.addf %in_433, %1103 : f32
      %1105 = math.rsqrt %1104 : f32
      %1106 = arith.subf %in, %in_432 : f32
      %1107 = arith.mulf %1106, %1105 : f32
      %1108 = arith.mulf %1107, %in_430 : f32
      %1109 = arith.addf %1108, %in_431 : f32
      linalg.yield %1109 : f32
    } -> tensor<1x3840x1x1xf32>
    %1074 = linalg.generic {indexing_maps = [#map3, #map], iterator_types = ["parallel", "parallel", "parallel", "parallel"]} ins(%1073 : tensor<1x3840x1x1xf32>) outs(%1031 : tensor<1x3840x1x1xf32>) {
    ^bb0(%in: f32, %out: f32):
      %1103 = arith.negf %in : f32
      %1104 = math.exp %1103 : f32
      %1105 = arith.addf %1104, %cst_319 : f32
      %1106 = arith.divf %cst_319, %1105 : f32
      linalg.yield %1106 : f32
    } -> tensor<1x3840x1x1xf32>
    %1075 = linalg.generic {indexing_maps = [#map3, #map3, #map], iterator_types = ["parallel", "parallel", "parallel", "parallel"]} ins(%1074, %1073 : tensor<1x3840x1x1xf32>, tensor<1x3840x1x1xf32>) outs(%1031 : tensor<1x3840x1x1xf32>) {
    ^bb0(%in: f32, %in_430: f32, %out: f32):
      %1103 = arith.mulf %in, %in_430 : f32
      linalg.yield %1103 : f32
    } -> tensor<1x3840x1x1xf32>
    %padded_427 = tensor.pad %1075 low[0, 0, 1, 1] high[0, 0, 1, 1] {
    ^bb0(%arg1: index, %arg2: index, %arg3: index, %arg4: index):
      tensor.yield %cst_313 : f32
    } : tensor<1x3840x1x1xf32> to tensor<1x3840x3x3xf32>
    %collapsed_428 = tensor.collapse_shape %cst_7 [[0, 1], [2], [3]] : tensor<3840x1x3x3xf32> into tensor<3840x3x3xf32>
    %1076 = linalg.depthwise_conv_2d_nchw_chw {dilations = dense<1> : vector<2xi64>, strides = dense<1> : vector<2xi64>} ins(%padded_427, %collapsed_428 : tensor<1x3840x3x3xf32>, tensor<3840x3x3xf32>) outs(%1032 : tensor<1x3840x1x1xf32>) -> tensor<1x3840x1x1xf32>
    cf.assert %3, "training is not supported for now"
    %1077 = linalg.generic {indexing_maps = [#map, #map1, #map1, #map1, #map1, #map], iterator_types = ["parallel", "parallel", "parallel", "parallel"]} ins(%1076, %cst_19, %cst_18, %cst_18, %cst_19 : tensor<1x3840x1x1xf32>, tensor<3840xf32>, tensor<3840xf32>, tensor<3840xf32>, tensor<3840xf32>) outs(%1076 : tensor<1x3840x1x1xf32>) {
    ^bb0(%in: f32, %in_430: f32, %in_431: f32, %in_432: f32, %in_433: f32, %out: f32):
      %1103 = arith.truncf %cst_314 : f64 to f32
      %1104 = arith.addf %in_433, %1103 : f32
      %1105 = math.rsqrt %1104 : f32
      %1106 = arith.subf %in, %in_432 : f32
      %1107 = arith.mulf %1106, %1105 : f32
      %1108 = arith.mulf %1107, %in_430 : f32
      %1109 = arith.addf %1108, %in_431 : f32
      linalg.yield %1109 : f32
    } -> tensor<1x3840x1x1xf32>
    %1078 = linalg.generic {indexing_maps = [#map3, #map], iterator_types = ["parallel", "parallel", "parallel", "parallel"]} ins(%1077 : tensor<1x3840x1x1xf32>) outs(%1031 : tensor<1x3840x1x1xf32>) {
    ^bb0(%in: f32, %out: f32):
      %1103 = arith.negf %in : f32
      %1104 = math.exp %1103 : f32
      %1105 = arith.addf %1104, %cst_319 : f32
      %1106 = arith.divf %cst_319, %1105 : f32
      linalg.yield %1106 : f32
    } -> tensor<1x3840x1x1xf32>
    %1079 = linalg.generic {indexing_maps = [#map3, #map3, #map], iterator_types = ["parallel", "parallel", "parallel", "parallel"]} ins(%1078, %1077 : tensor<1x3840x1x1xf32>, tensor<1x3840x1x1xf32>) outs(%1031 : tensor<1x3840x1x1xf32>) {
    ^bb0(%in: f32, %in_430: f32, %out: f32):
      %1103 = arith.mulf %in, %in_430 : f32
      linalg.yield %1103 : f32
    } -> tensor<1x3840x1x1xf32>
    %1080 = linalg.pooling_nchw_sum {dilations = dense<1> : vector<2xi64>, strides = dense<1> : vector<2xi64>} ins(%1079, %779 : tensor<1x3840x1x1xf32>, tensor<1x1xf32>) outs(%1032 : tensor<1x3840x1x1xf32>) -> tensor<1x3840x1x1xf32>
    %1081 = linalg.conv_2d_nchw_fchw {dilations = dense<1> : vector<2xi64>, strides = dense<1> : vector<2xi64>} ins(%1080, %cst_6 : tensor<1x3840x1x1xf32>, tensor<160x3840x1x1xf32>) outs(%1043 : tensor<1x160x1x1xf32>) -> tensor<1x160x1x1xf32>
    %1082 = linalg.generic {indexing_maps = [#map3, #map], iterator_types = ["parallel", "parallel", "parallel", "parallel"]} ins(%1081 : tensor<1x160x1x1xf32>) outs(%1042 : tensor<1x160x1x1xf32>) {
    ^bb0(%in: f32, %out: f32):
      %1103 = arith.negf %in : f32
      %1104 = math.exp %1103 : f32
      %1105 = arith.addf %1104, %cst_319 : f32
      %1106 = arith.divf %cst_319, %1105 : f32
      linalg.yield %1106 : f32
    } -> tensor<1x160x1x1xf32>
    %1083 = linalg.generic {indexing_maps = [#map3, #map3, #map], iterator_types = ["parallel", "parallel", "parallel", "parallel"]} ins(%1082, %1081 : tensor<1x160x1x1xf32>, tensor<1x160x1x1xf32>) outs(%1042 : tensor<1x160x1x1xf32>) {
    ^bb0(%in: f32, %in_430: f32, %out: f32):
      %1103 = arith.mulf %in, %in_430 : f32
      linalg.yield %1103 : f32
    } -> tensor<1x160x1x1xf32>
    %1084 = linalg.conv_2d_nchw_fchw {dilations = dense<1> : vector<2xi64>, strides = dense<1> : vector<2xi64>} ins(%1083, %cst_5 : tensor<1x160x1x1xf32>, tensor<3840x160x1x1xf32>) outs(%1047 : tensor<1x3840x1x1xf32>) -> tensor<1x3840x1x1xf32>
    %1085 = linalg.generic {indexing_maps = [#map3, #map], iterator_types = ["parallel", "parallel", "parallel", "parallel"]} ins(%1084 : tensor<1x3840x1x1xf32>) outs(%1031 : tensor<1x3840x1x1xf32>) {
    ^bb0(%in: f32, %out: f32):
      %1103 = arith.negf %in : f32
      %1104 = math.exp %1103 : f32
      %1105 = arith.addf %1104, %cst_319 : f32
      %1106 = arith.divf %cst_319, %1105 : f32
      linalg.yield %1106 : f32
    } -> tensor<1x3840x1x1xf32>
    %1086 = linalg.generic {indexing_maps = [#map3, #map3, #map], iterator_types = ["parallel", "parallel", "parallel", "parallel"]} ins(%1085, %1079 : tensor<1x3840x1x1xf32>, tensor<1x3840x1x1xf32>) outs(%1031 : tensor<1x3840x1x1xf32>) {
    ^bb0(%in: f32, %in_430: f32, %out: f32):
      %1103 = arith.mulf %in, %in_430 : f32
      linalg.yield %1103 : f32
    } -> tensor<1x3840x1x1xf32>
    %1087 = linalg.conv_2d_nchw_fchw {dilations = dense<1> : vector<2xi64>, strides = dense<1> : vector<2xi64>} ins(%1086, %cst_4 : tensor<1x3840x1x1xf32>, tensor<640x3840x1x1xf32>) outs(%1028 : tensor<1x640x1x1xf32>) -> tensor<1x640x1x1xf32>
    cf.assert %3, "training is not supported for now"
    %1088 = linalg.generic {indexing_maps = [#map, #map1, #map1, #map1, #map1, #map], iterator_types = ["parallel", "parallel", "parallel", "parallel"]} ins(%1087, %cst_22, %cst_21, %cst_21, %cst_22 : tensor<1x640x1x1xf32>, tensor<640xf32>, tensor<640xf32>, tensor<640xf32>, tensor<640xf32>) outs(%1087 : tensor<1x640x1x1xf32>) {
    ^bb0(%in: f32, %in_430: f32, %in_431: f32, %in_432: f32, %in_433: f32, %out: f32):
      %1103 = arith.truncf %cst_314 : f64 to f32
      %1104 = arith.addf %in_433, %1103 : f32
      %1105 = math.rsqrt %1104 : f32
      %1106 = arith.subf %in, %in_432 : f32
      %1107 = arith.mulf %1106, %1105 : f32
      %1108 = arith.mulf %1107, %in_430 : f32
      %1109 = arith.addf %1108, %in_431 : f32
      linalg.yield %1109 : f32
    } -> tensor<1x640x1x1xf32>
    %1089 = linalg.generic {indexing_maps = [#map3, #map3, #map], iterator_types = ["parallel", "parallel", "parallel", "parallel"]} ins(%1088, %1071 : tensor<1x640x1x1xf32>, tensor<1x640x1x1xf32>) outs(%1027 : tensor<1x640x1x1xf32>) {
    ^bb0(%in: f32, %in_430: f32, %out: f32):
      %1103 = arith.addf %in, %in_430 : f32
      linalg.yield %1103 : f32
    } -> tensor<1x640x1x1xf32>
    %1090 = tensor.empty() : tensor<1x2560x1x1xf32>
    %1091 = linalg.fill ins(%cst_313 : f32) outs(%1090 : tensor<1x2560x1x1xf32>) -> tensor<1x2560x1x1xf32>
    %1092 = linalg.conv_2d_nchw_fchw {dilations = dense<1> : vector<2xi64>, strides = dense<1> : vector<2xi64>} ins(%1089, %cst_3 : tensor<1x640x1x1xf32>, tensor<2560x640x1x1xf32>) outs(%1091 : tensor<1x2560x1x1xf32>) -> tensor<1x2560x1x1xf32>
    cf.assert %3, "training is not supported for now"
    %1093 = linalg.generic {indexing_maps = [#map, #map1, #map1, #map1, #map1, #map], iterator_types = ["parallel", "parallel", "parallel", "parallel"]} ins(%1092, %cst_2, %cst_1, %cst_1, %cst_2 : tensor<1x2560x1x1xf32>, tensor<2560xf32>, tensor<2560xf32>, tensor<2560xf32>, tensor<2560xf32>) outs(%1092 : tensor<1x2560x1x1xf32>) {
    ^bb0(%in: f32, %in_430: f32, %in_431: f32, %in_432: f32, %in_433: f32, %out: f32):
      %1103 = arith.truncf %cst_314 : f64 to f32
      %1104 = arith.addf %in_433, %1103 : f32
      %1105 = math.rsqrt %1104 : f32
      %1106 = arith.subf %in, %in_432 : f32
      %1107 = arith.mulf %1106, %1105 : f32
      %1108 = arith.mulf %1107, %in_430 : f32
      %1109 = arith.addf %1108, %in_431 : f32
      linalg.yield %1109 : f32
    } -> tensor<1x2560x1x1xf32>
    %1094 = linalg.generic {indexing_maps = [#map3, #map], iterator_types = ["parallel", "parallel", "parallel", "parallel"]} ins(%1093 : tensor<1x2560x1x1xf32>) outs(%1090 : tensor<1x2560x1x1xf32>) {
    ^bb0(%in: f32, %out: f32):
      %1103 = arith.negf %in : f32
      %1104 = math.exp %1103 : f32
      %1105 = arith.addf %1104, %cst_319 : f32
      %1106 = arith.divf %cst_319, %1105 : f32
      linalg.yield %1106 : f32
    } -> tensor<1x2560x1x1xf32>
    %1095 = linalg.generic {indexing_maps = [#map3, #map3, #map], iterator_types = ["parallel", "parallel", "parallel", "parallel"]} ins(%1094, %1093 : tensor<1x2560x1x1xf32>, tensor<1x2560x1x1xf32>) outs(%1090 : tensor<1x2560x1x1xf32>) {
    ^bb0(%in: f32, %in_430: f32, %out: f32):
      %1103 = arith.mulf %in, %in_430 : f32
      linalg.yield %1103 : f32
    } -> tensor<1x2560x1x1xf32>
    %1096 = linalg.pooling_nchw_sum {dilations = dense<1> : vector<2xi64>, strides = dense<1> : vector<2xi64>} ins(%1095, %779 : tensor<1x2560x1x1xf32>, tensor<1x1xf32>) outs(%1091 : tensor<1x2560x1x1xf32>) -> tensor<1x2560x1x1xf32>
    %collapsed_429 = tensor.collapse_shape %1096 [[0], [1, 2, 3]] : tensor<1x2560x1x1xf32> into tensor<1x2560xf32>
    %1097 = tensor.empty() : tensor<2560x1000xf32>
    %1098 = linalg.generic {indexing_maps = [#map4, #map5], iterator_types = ["parallel", "parallel"]} ins(%cst : tensor<1000x2560xf32>) outs(%1097 : tensor<2560x1000xf32>) {
    ^bb0(%in: f32, %out: f32):
      linalg.yield %in : f32
    } -> tensor<2560x1000xf32>
    %1099 = tensor.empty() : tensor<1x1000xf32>
    %1100 = linalg.fill ins(%cst_313 : f32) outs(%1099 : tensor<1x1000xf32>) -> tensor<1x1000xf32>
    %1101 = linalg.matmul ins(%collapsed_429, %1098 : tensor<1x2560xf32>, tensor<2560x1000xf32>) outs(%1100 : tensor<1x1000xf32>) -> tensor<1x1000xf32>
    %1102 = linalg.generic {indexing_maps = [#map6, #map7, #map4], iterator_types = ["parallel", "parallel"]} ins(%1101, %cst_0 : tensor<1x1000xf32>, tensor<1000xf32>) outs(%1099 : tensor<1x1000xf32>) {
    ^bb0(%in: f32, %in_430: f32, %out: f32):
      %1103 = arith.addf %in, %in_430 : f32
      linalg.yield %1103 : f32
    } -> tensor<1x1000xf32>
    return %1102 : tensor<1x1000xf32>
  }
}
